Results/gm_k562/gm_k562_raw_d/gm_k562_raw_d_R2_model.pt (torch_old, 463772 bytes, 109 tensors)

weight_ih_l0 f4 [128, 1]
0.07283388 -0.094616205 0.08678795 0.0035401713 0.052367847 0.07294293 -0.031193055 -0.086979814
0.03167521 -0.09101402 0.090770535 0.016162664 -0.06182569 0.011835668 0.03160063 -0.042619888
0.051300954 0.012100947 -0.076361656 0.042061917 0.040953975 0.041783907 -0.0067896643 -0.07919296
-0.009694251 -0.017736953 -0.102016106 -0.042865038 0.043397807 0.092782125 -0.05480525 -0.016747076
-0.038103443 -0.031021286 -0.038610917 -0.10497931 -0.010420469 0.08186681 -0.04962385 -0.070206635
-0.07579406 -0.06187781 0.0889833 -0.06807344 -0.08114456 0.024040584 -0.052328978 -0.014359277
-0.08217358 -0.043382782 0.075844884 -0.09230015 -0.0755427 0.043185726 0.023026764 -0.0020546229
0.09213463 0.020139523 -0.012982 -0.07089268 0.06729922 -0.0048735314 -0.049337838 -0.02428385
-0.029526338 -0.03687777 0.09584136 0.08057123 -0.07437692 -0.054390628 0.0153005235 -0.056351174
-0.029716019 -0.05687428 -0.033744544 0.013271164 0.075601116 0.050613042 0.04679076 -0.07601912
0.027032346 -0.026224416 0.05736552 0.07284037 0.018377056 0.05865309 -0.08800231 -0.06430313
-0.09272135 -0.086665444 -0.053931616 -0.002301295 -0.05704272 0.030606639 -0.018359821 0.033610836
0.07549218 0.05066863 0.048851456 -0.047418687 -0.08056251 -0.09693859 -0.09056744 -0.020337336
0.07825434 0.09967451 0.08768704 0.08366354 -0.018165436 -0.026983468 -0.016310474 -0.0013258317
-0.094334625 -0.053600125 -0.050535165 -0.013093957 0.022556305 -0.10120793 -0.061860975 0.03005168
-0.07857447 0.05467849 -0.07139929 -0.04546578 -0.032153573 0.082403526 0.044376556 -0.0072173793
00000000: ee29 953d 24c6 c1bd e1bd b13d 3802 683b
00000010: ab7f 563d 1a63 953d 9488 ffbc 7922 b2bd
00000020: ddbd 013d 8f65 babd e7e5 b93d 9067 843c
00000030: ef3c 7dbd 64ea 413c aa6f 013d 3192 2ebd
00000040: f320 523d 0d43 463c 8063 9cbd 1e49 2c3d
00000050: 5bbf 273d 9a25 2b3d d57b debb eb2f a2bd
00000060: a3d4 1ebc 164d 91bc d2ed d0bd 4093 2fbd
00000070: e6c1 313d 8e04 be3d 787b 60bd 2a31 89bc
00000080: 5b12 1cbd 5a20 febc 7b26 1ebd 64ff d6bd
00000090: 9dba 2abc c9a9 a73d 6142 4bbd 7fc8 8fbd
000000a0: eb39 9bbd 9673 7dbd e03c b63d 166a 8bbd
000000b0: 1e2f a6bd c2f0 c43c e956 56bd 2c43 6bbc
000000c0: 9f4a a8bd 25b2 31bd 9054 9b3d dc07 bdbd
000000d0: 22b6 9abd 84e3 303d a0a2 bc3c daa6 06bb
000000e0: 15b1 bc3d a4fb a43c 74b2 54bc 2e30 91bd
000000f0: 2cd4 893d 25b2 9fbb 7916 4abd edee c6bc
00000100: 38e1 f1bc 250d 17bd 7a48 c43d 8702 a53d
00000110: ed52 98bd b5c8 5ebd 0caf 7a3c 7dd0 66bd
00000120: 026f f3bc 01f5 68bd b837 0abd 4c6f 593c
00000130: c2d4 9a3d 9f4f 4f3d aba7 3f3d eaaf 9bbd
00000140: f072 dd3c 96d4 d6bc 1cf8 6a3d 552d 953d
00000150: 7b8b 963c 393e 703d 8e3a b4bd 5cb1 83bd
00000160: b1e4 bdbd a77d b1bd 66e7 5cbd 53d1 16bb
00000170: a1a5 69bd c6ba fa3c 5667 96bc 84ab 093d
00000180: a59b 9a3d e989 4f3d 7718 483d 193a 42bd
00000190: f5fd a4bd bd87 c6bd 6c7b b9bd 7c9a a6bc
000001a0: d043 a03d 2622 cc3d 4395 b33d ca57 ab3d
000001b0: aecf 94bc 6f0c ddbc 8b9d 85bc 88c7 adba
000001c0: 8332 c1bd ce8b 5bbd f6fd 4ebd 0988 56bc
000001d0: 00c8 b83c 1a46 cfbd ef61 7dbd f12e f63c
000001e0: a7eb a0bd 8df6 5f3d ca39 92bd 533a 3abd
000001f0: 77b3 03bd 2ec3 a83d 31c4 353d c47f ecbb

weight_hh_l0 f4 [128, 32]
0.036507465 -0.055068526 0.04189166 -0.03419765 0.082608595 0.031019116 -0.08189306 0.0027580108
0.014777247 0.081197605 0.06445963 -0.07104282 -0.070207134 0.06062121 -0.016276684 -0.07247115
0.06052693 -0.06063573 -0.018060466 0.010112556 -0.069744095 0.08706067 0.096007496 0.08217862
-0.026292676 0.027969422 0.0020789152 0.044524834 0.041619383 0.08932139 0.0739177 0.04954984
0.08298113 0.07851815 0.034456488 -0.011638258 0.09592927 0.013670874 -0.01065691 -0.085218504
-0.024883311 -0.08725684 -0.09360315 -0.0375454 -0.004095453 0.032819193 0.022203954 -0.0036729935
-0.0374343 -0.09453332 -0.07436852 0.0825795 0.003637301 0.020582542 -0.015589852 0.032024566
-0.07465957 -0.054804686 -0.08219756 -0.011255845 0.020667259 0.017328305 -0.052342083 -0.012097248
0.042684462 0.044202708 -0.018442372 0.047243178 -0.0765591 -0.01022008 0.023026219 0.002378143
-0.055181514 0.049250193 0.0024127895 0.032427326 -0.014716393 -0.010334182 -0.012216138 0.027869614
-0.05761971 0.07561913 0.06716086 0.05840816 -0.067502886 0.08849119 0.011647082 0.0626774
0.092403464 0.01014007 0.016571954 0.023602089 0.08598652 -0.031020334 -0.024601825 0.05377951
-0.013691801 0.030801164 0.069010735 -0.098307595 -0.025012508 0.03679059 -0.022470176 -0.033463165
-0.066135086 0.026491955 -0.025130318 -0.02637982 0.054073207 0.018078582 -0.04305312 -0.0058610705
0.0606269 -0.006274028 -0.023367858 -0.085206375 -0.04316183 -0.08630941 0.06713508 0.063247435
0.08364568 0.015871413 -0.029125165 0.082396306 0.04681847 -0.07787721 -0.03513743 0.000624805
-0.06409626 0.010303547 0.030676937 -0.019259669 -0.038445212 0.018529 -0.08682424 0.021762982
0.06220902 -0.01063144 0.014625994 0.07509655 0.009372071 -0.083134055 -0.060792726 0.04517606
-0.029048475 0.020889873 0.09390159 -0.0346827 0.008424939 -0.033552114 0.09954547 -0.022379274
0.015735758 0.05344981 0.09532427 0.08999388 -0.0010736004 0.018460779 -0.001981769 -0.09206583
-0.07626511 -0.026789438 0.011724709 0.016796358 0.023505364 0.008303578 -0.019756537 0.0008709012
-0.07704009 -0.04697611 -0.012954375 0.05024345 0.03328424 0.071213044 0.031251438 0.001996953
0.04937737 0.049633063 0.0705005 -0.037927397 -0.044170074 0.08180469 0.02915168 0.023531973
-0.071453445 -0.094415314 0.084143505 0.047595255 -0.065338574 -0.07478556 -0.03659017 0.057393115
0.04019713 0.0710037 -0.07569358 0.08395267 0.084649965 -0.0019113394 -0.094087 -0.05197399
0.08650556 0.04955561 0.094543025 -0.09049167 -0.0014924578 0.05002882 -0.0058822636 -0.05041344
-0.009491482 0.05263602 -0.013856919 0.0704659 0.057821073 -0.10121036 -0.021462588 -0.08029966
-0.09764752 0.06921066 -0.050360467 0.045362696 0.09218796 -0.01716878 0.016121611 -0.029719112
0.09637086 -0.0075733555 0.053750414 0.04096514 -0.06701801 -0.020950869 -0.00912355 0.058496956
0.03109156 0.08109307 0.00243476 0.010937725 -0.047869146 0.016782416 0.08200662 -0.02493708
-0.09147445 -0.034710214 0.057474904 -0.06513351 0.008849556 0.08161761 0.008222285 -0.0961278
0.05335475 0.03311895 -0.09854186 -0.00052013807 0.012725452 0.0096527105 -0.08485612 0.077225275
00000000: da88 153d 898f 61bd 9796 2b3d d612 0cbd
00000010: b22e a93d cd1b fe3c 8cb7 a7bd bebf 343b
00000020: 441c 723c ee4a a63d 6903 843d e67e 91bd
00000030: c2c8 8fbd f24d 783d ae56 85bc c16b 94bd
00000040: 16eb 773d 2c5d 78bd 8bf3 93bc 22af 253c
00000050: fed5 8ebd dd4c b23d 949f c43d 444d a83d
00000060: bd63 d7bc 2120 e53c 693e 083b ac5f 363d
00000070: 1679 2a3d 22ee b63d 2a62 973d c6f4 4a3d
00000080: 03f2 a93d 20ce a03d 3f22 0d3d 64ae 3ebc
00000090: 9176 c43d cdfb 5f3c 529a 2ebc 0a87 aebd
000000a0: 16d8 cbbc b7b3 b2bd 02b3 bfbd 35c9 19bd
000000b0: 2633 86bb 6b6d 063d 11e5 b53c 9bb6 70bb
000000c0: b554 19bd af9a c1bd 864e 98bd 711f a93d
000000d0: c95f 6e3b b89c a83c 946c 7fbc 312c 033d
000000e0: 1ee7 98bd e17a 60bd 3257 a8bd 706a 38bc
000000f0: 624e a93c 17f4 8d3c a764 56bd 8933 46bc
00000100: e7d5 2e3d e60d 353d 7514 97bc 1082 413d
00000110: 04cb 9cbd 1f72 27bc 7ba1 bc3c 9eda 1b3b
00000120: 0306 62bd 92ba 493d e41f 1e3b 84d2 043d
00000130: 071d 71bc b350 29bc 3226 48bc d14e e43c
00000140: a502 6cbd 34de 9a3d a28b 893d 653d 6f3d
00000150: f43e 8abd de3a b53d 67d3 3e3c 025d 803d
00000160: 073e bd3d 8922 263c e8c1 873c 2b59 c13c
00000170: b319 b03d 5b1e febc c489 c9bc e747 5c3d
00000180: 9353 60bc b952 fc3c 8055 8d3d 7e55 c9bd
00000190: 08e7 ccbc bbb1 163d 6013 b8bc ac10 09bd
000001a0: d571 87bd a805 d93c 19de cdbc 7e1a d8bc
000001b0: de7b 5d3d 8919 943c 7858 30bd 390e c0bb
000001c0: ea53 783d 5d96 cdbb f36d bfbc ae80 aebd
000001d0: 76ca 30bd fdc2 b0bd 1e7e 893d df87 813d
000001e0: 6d4e ab3d c404 823c e697 eebc 65bf a83d
000001f0: b9c4 3f3d 167e 9fbd 44ec 0fbd f4c9 233a
00000200: e644 83bd 35d0 283c 334e fb3c 74c6 9dbc
00000210: ba78 1dbd 21ca 973c e8d0 b1bd 4848 b23c
00000220: e3ce 7e3d 7e2f 2ebc dda1 6f3c 38cc 993d
00000230: 518d 193c 3042 aabd cb01 79bd 880a 393d
00000240: 11f7 edbc 3d21 ab3c 7a4f c03d 720f 0ebd
00000250: c108 0a3c f16d 09bd 7fde cb3d bd54 b7bc
00000260: 47e8 803c 30ee 5a3d 5f39 c33d b64e b83d
00000270: 0db8 8cba 0f3b 973c 91e0 01bb 038d bcbd
00000280: e230 9cbd 8675 dbbc fe18 403c 8498 893c
00000290: 528e c03c bb0b 083c 76d8 a1bc 314d 643a
000002a0: 32c7 9dbd 066a 40bd 963e 54bc 13cc 4d3d
000002b0: 0e55 083d 25d8 913d 8201 003d 50df 023b
000002c0: ed3f 4a3d 0a4c 4b3d 9162 903d c259 1bbd
000002d0: aeeb 34bd 3889 a73d 81cf ee3c 20c6 c03c
000002e0: 2f56 92bd d15c c1bd 6e53 ac3d 3ef3 423d
000002f0: 3bd0 85bd 2c29 99bd 93df 15bd 0b15 6b3d
00000300: bfa5 243d 636a 913d 3c05 9bbd 61ef ab3d
00000310: f65c ad3d e885 faba afb0 c0bd aee2 54bd
00000320: d429 b13d d3fa 4a3d c69f c13d b253 b9bd
00000330: 939e c3ba 05eb 4c3d 01c0 c0bb 537e 4ebd
00000340: 2982 1bbc de98 573d 2108 63bc 6d50 903d
00000350: cad5 6c3d 6147 cfbd 4fd2 afbc 2674 a4bd
00000360: 6cfb c7bd 52be 8d3d c746 4ebd 3cce 393d
00000370: 0bcd bc3d 8ba5 8cbc 7811 843c 7f75 f3bc
00000380: 165e c53d e929 f8bb 6529 5c3d 10cb 273d
00000390: bd40 89bd 28a1 abbc f17a 15bc 819a 6f3d
000003a0: bab3 fe3c 2014 a63d 7f90 1f3b 2534 333c
000003b0: 7012 44bd 477b 893c 16f3 a73d d948 ccbc
000003c0: f556 bbbd 4c2c 0ebd ce6a 6b3d b864 85bd
000003d0: bafd 103c 2227 a73d c3b6 063c a7de c4bd
000003e0: 838a 5a3d bca7 073d 51d0 c9bd e059 08ba
000003f0: 6a7e 503c 6726 1e3c 0cc9 adbd 4928 9e3d

bias_ih_l0 f4 [128]
-0.05217772 -0.002199162 0.01673512 0.08505082 0.0440213 0.049912967 -0.038234007 -0.06409605
0.030040082 0.09425866 0.07771421 0.0006774277 0.06080272 0.051687635 -0.0059832656 -0.081542686
-0.0057818354 0.08557228 0.0077537335 -0.06820623 0.023425693 0.011276668 0.01396757 0.046378467
-0.009790509 0.056970492 -0.0024877347 -0.08886188 0.031979475 -0.08003557 0.013077909 -0.070056334
0.037699793 0.09245744 -0.07123012 0.048511326 -0.03669739 -0.06153881 -0.03570702 -0.08919895
0.0017736903 -0.06584179 0.07410474 0.057412446 0.09717379 0.09094094 -0.03647058 0.08752947
-0.015853716 0.018348338 0.0132502755 -0.05050953 -0.0080067655 -0.07657972 -0.07005169 -0.09431989
-0.07312087 -0.027272353 0.08963406 0.035523236 0.0062274584 -0.013700875 0.0811466 0.08847732
0.086114995 0.08585653 0.04574204 -0.050291024 -0.056080237 -0.070935145 -0.04781944 -0.016892228
0.030954525 -0.008292766 -0.09477995 0.06770389 -0.050768904 0.07737865 -0.02197441 0.04142264
-0.0670653 0.013929768 -0.07050737 0.04357057 0.037196003 0.042721767 -0.013885954 0.07905884
0.041262124 0.0692977 0.0016525529 -0.09645805 -0.020852642 -0.06992639 0.066982955 0.021419046
-0.012830483 -0.034881018 -0.004471645 0.070441425 0.06403696 -0.044261757 0.008686815 -0.076342426
-0.060463663 0.09393516 -0.03834104 -0.025726033 0.08492432 -0.011148076 -0.009797687 0.037800696
0.052895702 -0.0430251 -0.017091334 0.05780627 -0.030317314 0.016428534 -0.07660505 -0.07883858
-0.025904361 0.07215615 -0.049576472 -0.013493526 -0.09787354 -0.07610853 0.021979984 -0.08923563
00000000: 4eb8 55bd d11f 10bb 1718 893c 202f ae3d
00000010: ae4f 343d 8a71 4c3d 439b 1cbd ca44 83bd
00000020: 9e16 f63c af0a c13d a128 9f3d 6795 313a
00000030: 460c 793d 6ab6 533d 450f c4bb daff a6bd
00000040: 8d75 bdbb 8540 af3d 0813 fe3b b5af 8bbd
00000050: 3de7 bf3c c6c1 383c 3cd8 643c 59f7 3d3d
00000060: 5f68 20bc e459 693d 4309 23bb 38fd b5bd
00000070: e9fc 023d b0e9 a3bd ba44 563c b279 8fbd
00000080: 196b 1a3d 545a bd3d 19e1 91bd d0b3 463d
00000090: 0150 16bd 1f10 7cbd 8641 12bd f0ad b6bd
000000a0: 2c7b e83a 0fd8 86bd 3ac4 973d 5029 6b3d
000000b0: 0d03 c73d 3e3f ba3d 2d62 15bd a742 b33d
000000c0: a7df 81bc 414f 963c af17 593c 15e3 4ebd
000000d0: cf2e 03bc d4d5 9cbd 4377 8fbd c92a c1bd
000000e0: 65c0 95bd 456a dfbc 1092 b73d d080 113d
000000f0: b50f cc3b a379 60bc 3030 a63d 9933 b53d
00000100: 0f5d b03d 8cd5 af3d 015c 3b3d f6fd 4dbd
00000110: 64b4 65bd 7246 91bd 51de 43bd 9261 8abc
00000120: 5894 fd3c 62de 07bc fe1b c2bd 56a8 8a3d
00000130: 0ef3 4fbd b378 9e3d ae03 b4bc c9aa 293d
00000140: 8859 89bd af39 643c 2b66 90bd 0e77 323d
00000150: d65a 183d 05fd 2e3d ea81 63bc 9ae9 a13d
00000160: 7902 293d f4eb 8d3d 799a d83a cc8b c5bd
00000170: 29d3 aabc 9135 8fbd 5c2e 893d ff76 af3c
00000180: f236 52bc 66df 0ebd e186 92bb 9843 903d
00000190: cf25 833d d14b 35bd 2553 0e3c 6b59 9cbd
000001a0: bfa8 77bd 1461 c03d 7f0b 1dbd 67bf d2bc
000001b0: cdec ad3d 6ba6 36bc 7a86 20bc e7d4 1a3d
000001c0: 2aa9 583d 163b 30bd 2003 8cbc 44c6 6c3d
000001d0: 045c f8bc 2295 863c 1ce3 9cbd 1f76 a1bd
000001e0: 6235 d4bc 9bc6 933d b310 4bbd f313 5dbc
000001f0: ec71 c8bd cade 9bbd 5e0f b43c 2cc1 b6bd

bias_hh_l0 f4 [128]
0.04986729 -0.014880784 0.074625455 -0.0984988 0.062672466 0.0089144325 0.06434198 0.06902907
0.060836587 -0.038008075 -0.03135103 0.103868 -0.04104919 -0.09791115 -0.07965364 0.033899553
0.07335989 0.08502431 0.064114645 -0.02440135 0.043189067 -0.08983592 0.0628707 0.0154735865
0.018835645 -0.028658288 -0.06581903 0.0026146572 0.029245986 -0.05554387 0.066405125 -0.028218448
0.027156075 -0.064286105 0.043872707 -0.0020460524 -0.049229518 -0.014271934 0.0025217598 -0.00941173
-0.06859074 0.09219075 0.084695235 0.09009659 0.07044077 0.03661116 0.096442506 0.023048645
0.016102606 0.06691018 0.047692336 -0.06451921 0.069355346 -0.044349194 -0.05088356 0.035301294
-0.038841117 0.09317543 0.028013939 0.09454316 -0.035057586 -0.030805966 -0.056768425 -0.056621622
-0.086850576 0.029374257 0.037969664 0.052421894 0.0009412988 -0.025298685 -0.07574394 -0.046535958
-0.0404347 -0.016860934 -0.095284775 0.00084977434 0.06952273 0.05535514 -0.046318587 -0.024652353
0.038758814 0.034335267 -0.038455393 -0.048016865 0.07131518 0.0139037445 0.086391576 0.066638745
0.085427865 0.09382171 0.00062276336 0.028921051 -0.019851277 -0.05302271 -0.09727165 0.07229504
-0.08332748 -0.05599794 0.077275105 -0.06567556 -0.09395086 -0.051609 0.014885174 -0.038712613
-0.06621732 -0.045997895 0.0008200914 -0.001039542 0.060104966 -0.10103708 -0.03489923 0.030992521
-0.043003164 -0.055298317 -0.0717437 0.08216072 -0.065781124 -0.040989835 -0.026713472 0.09088843
0.0072477697 -0.08793956 -0.041661117 0.07454278 -0.049914084 0.06402793 0.081452064 0.06794307
00000000: a541 4c3d 88ce 73bc 3bd5 983d bdb9 c9bd
00000010: 6c5a 803d d70d 123c bac5 833d 1d5f 8d3d
00000020: c92f 793d 5bae 1bbd f069 00bd bfb8 d43d
00000030: 3223 28bd a485 c8bd 7321 a3bd 42da 0a3d
00000040: b63d 963d 3a21 ae3d 8a4e 833d 57e5 c7bc
00000050: 05e7 303d e5fb b7bd 5bc2 803d ed84 7d3c
00000060: 364d 9a3c c9c4 eabc 21cc 86bd ab5a 2b3b
00000070: 4795 ef3c f881 63bd 69ff 873d 602a e7bc
00000080: 6b76 de3c 6fa8 83bd deb3 333d 1017 06bb
00000090: e4a4 49bd d4d4 69bc 1c44 253b a833 1abc
000000a0: 4d79 8cbd 81ce bc3d b274 ad3d 9084 b83d
000000b0: 4043 903d 95f5 153d a683 c53d 83d0 bc3c
000000c0: 9de9 833c 3408 893d 0a59 433d a622 84bd
000000d0: 2d0a 8e3d 80a7 35bd 486b 50bd 1798 103d
000000e0: dd17 1fbd c3d2 be3d 7d7d e53c d89f c13d
000000f0: 8b98 0fbd cb5c fcbc 0286 68bd 13ec 67bd
00000100: b7de b1bd 48a2 f03c 1486 1b3d 57b8 563d
00000110: 7ec1 763a 303f cfbc a41f 9bbd 7d9c 3ebd
00000120: db9e 25bd f11f 8abc aa24 c3bd 64c3 5e3a
00000130: ef61 8e3d 12bc 623d 8fb8 3dbd bbf3 c9bc
00000140: 90c1 1e3d 23a3 0c3d 6783 1dbd 55ad 44bd
00000150: b10d 923d 88cc 633c 11ee b03d e579 883d
00000160: cef4 ae3d 9925 c03d f140 233a d7eb ec3c
00000170: 259f a2bc 572e 59bd 5c36 c7bd 6c0f 943d
00000180: 99a7 aabd 195e 65bd 6942 9e3d e880 86bd
00000190: 4f69 c0bd f563 53bd f2e0 733c 1e91 1ebd
000001a0: f29c 87bd 4a68 3cbd 67fb 563a 3e41 88ba
000001b0: a030 763d 87ec cebd 7ff2 0ebd 07e4 fd3c
000001c0: 1624 30bd 7d80 62bd 5cee 92bd e143 a83d
000001d0: 41b8 86bd f5e4 27bd 36d6 dabc b723 ba3d
000001e0: b37e ed3b a819 b4bd d9a4 2abd e3a9 983d
000001f0: b672 4cbd 1321 833d 57d0 a63d bc25 8b3d

weight_ih_l0_reverse f4 [128, 1]
-0.055577714 -0.0773586 0.06433803 -0.045945384 0.09111626 -0.02551483 -0.040519733 -0.012177478
0.06817584 -0.02677342 0.08460042 -0.034674544 -0.09137708 0.08872213 0.068331674 -0.07671347
-0.07076455 0.043164834 0.035824634 -0.044796184 0.04923432 0.093741715 0.03369944 0.05666426
0.04537206 0.093029946 0.009407352 0.015275195 0.00714291 -0.018526228 0.041300558 -0.07114746
0.03952242 0.005686256 -0.10712338 -0.06583142 -0.060158703 0.060286436 -0.014896869 -0.0622552
-0.058533546 -0.072296284 0.0963681 -0.09038656 0.023338087 0.09594781 -0.033330295 0.08606402
-0.05032138 0.020076172 -0.0023906052 0.09688496 -0.0063680997 -0.04248088 0.08094881 0.062259786
0.085154474 -0.053854514 -0.04499363 -0.07155385 -0.039329085 -0.05729397 0.026163118 0.09090226
0.07048375 0.08852294 0.088107385 -0.07336553 -0.016981618 -0.09160129 0.074896224 -0.075239964
-0.005603825 -0.07914576 0.08553276 0.026901782 -0.09346405 -0.077457376 0.023723863 -0.08468103
-0.040157188 -0.0939116 0.058130022 -0.026002482 0.0049052374 -0.034274936 -0.0814177 0.09688924
-0.085760385 -0.089017406 0.0882657 0.011610114 0.019148842 0.007833215 -0.040223215 -0.08301318
-0.0858878 -0.0644484 0.063582145 0.08802887 0.053909287 0.011164345 0.005065105 0.023661394
-0.00648511 0.019693656 0.02581898 -0.032128282 0.0069898386 -0.021959584 -0.05415587 0.04268986
0.057341073 -0.08099124 0.009153741 -0.06979899 0.039291635 0.0849529 -0.03192201 -0.007656444
-0.05507875 -0.018584529 -0.0121303145 0.0336665 0.05586284 -0.03173949 -0.01930775 -0.011732199
00000000: 75a5 63bd 306e 9ebd a8c3 833d 3a31 3cbd
00000010: 299b ba3d 7a04 d1bc 05f8 25bd 0b84 47bc
00000020: c69f 8b3d ee53 dbbc fc42 ad3d e506 0ebd
00000030: e823 bbbd f3b3 b53d 7af1 8b3d f41b 9dbd
00000040: 01ed 90bd 9ccd 303d dabc 123d 347c 37bd
00000050: eda9 493d a8fb bf3d 6d08 0a3d c818 683d
00000060: 0ed8 393d 7c86 be3d 4b21 1a3c d044 7a3c
00000070: 120f ea3b 51c4 97bc c62a 293d c2b5 91bd
00000080: 43e2 213d c653 ba3b 8163 dbbd a0d2 86bd
00000090: f968 76bd e9ee 763d ff11 74bc 4fff 7ebd
000000a0: dfc0 6fbd 1310 94bd a35c c53d 971c b9bd
000000b0: 842f bf3c 4980 c43d 5985 08bd 5542 b03d
000000c0: cb1d 4ebd c976 a43c b3ab 1cbb 9f6b c63d
000000d0: 7eab d0bb 6e00 2ebd 7dc8 a53d 1e04 7f3d
000000e0: 7865 ae3d 8d96 5cbd 3e4b 38bd d38a 92bd
000000f0: 8917 21bd 15ad 6abd 0954 d63c f72a ba3d
00000100: c959 903d 844b b53d a571 b43d ab40 96bd
00000110: 091d 8bbc 7599 bbbd 3163 993d 6917 9abd
00000120: 4ba0 b7bb 2c17 a2bd cd2b af3d 2061 dc3c
00000130: 146a bfbd f9a1 9ebd 8c58 c23c 3f6d adbd
00000140: dd7b 24bd ba54 c0bd bf19 6e3d 2803 d5bc
00000150: 1dbc a03b e063 0cbd 53be a6bd de6d c63d
00000160: 24a3 afbd c24e b6bd a6c4 b43d 5938 3e3c
00000170: 08de 9c3c e356 003c 19c1 24bd d002 aabd
00000180: f1e5 afbd 86fd 83bd 5b37 823d 7b48 b43d
00000190: fccf 5c3d a8ea 363c 2ef9 a53b 8ad5 c13c
000001a0: 0c81 d4bb 9754 a13c 5382 d33c f298 03bd
000001b0: 040b e53b 96e4 b3bc 8cd2 5dbd 90db 2e3d
000001c0: 79de 6a3d bcde a5bd 93f9 153c c6f2 8ebd
000001d0: 44f0 203d c9fb ad3d a7c0 02bd e8e2 fabb
000001e0: 419a 61bd 953e 98bc 3abe 46bc e2e5 093d
000001f0: 6fd0 643d 4401 02bd 492b 9ebc 6938 40bc

weight_hh_l0_reverse f4 [128, 32]
-0.069418356 -0.072092295 -0.042981558 0.071675405 -0.047638472 -0.033751138 -0.035969507 0.047643427
0.036584184 0.047963575 -0.07406625 0.08149378 0.08891213 0.024132324 -0.073964015 -0.08518566
0.09662532 -0.002989067 -0.0018665148 0.01023508 -0.08845643 0.040365186 -0.020955032 -0.07896878
0.016869402 -0.08400869 -0.09004131 0.04680798 -7.1573915e-05 -0.08912249 0.05297371 0.03712695
-0.06140695 0.05416297 0.0039751646 0.06828349 -0.056252636 -0.079197824 0.0416332 -0.029036352
-0.07602885 -0.091679424 -0.007512436 0.09818007 0.097184375 0.015179069 -0.032784328 0.060620815
0.055028908 -0.031044725 0.046711028 0.09299494 0.07110393 -0.010705431 -0.033361707 0.07504129
-0.06828784 0.015901396 -0.01917728 0.058244616 -0.09088344 0.034474127 -0.042238407 -0.0484325
-0.014096153 0.07496467 -0.05292937 -0.022973252 -0.091967344 0.07991272 0.0005125277 -0.037003487
-0.06618772 -0.068382435 -0.09756207 0.027620886 0.05800735 -0.09387127 0.06711378 -0.008108297
0.011928874 0.080348015 -0.062352706 0.059947316 -0.052659195 -0.04973932 0.06665403 -0.092667714
0.08413095 -0.038236003 0.081910476 0.07307507 0.012902847 0.03690635 -0.09383821 0.033032015
-0.019226052 -0.02940629 -0.046022967 -0.024031943 -0.028172066 0.017037012 -0.04546092 0.070571996
0.01594551 0.077011526 -0.073812954 0.05511185 0.030916631 0.091692835 -0.01237563 -0.029952867
-0.08132168 0.076592915 -0.050001923 -0.0058054226 -0.00027320662 -0.09169682 0.032603793 -0.06347018
-0.049138587 -0.080758765 0.06973902 -0.008470313 -0.06905506 0.045941774 -0.028924005 0.0106125325
0.05550125 0.025959479 0.07748197 0.054444276 -0.05884776 0.035065357 0.051295314 -0.0091098575
-0.09313157 0.02355183 -0.09384113 0.02629191 -0.064596154 0.030574733 0.055224318 -0.011965692
0.0005940434 -0.050780457 -0.07842746 -0.06756038 0.016147243 0.013163046 -0.033918314 0.098424464
0.04043489 0.013536548 -0.08391667 -0.08382519 0.05010774 -0.07440902 -0.04992067 0.023228386
0.057427015 -0.09308781 0.060001213 0.07676704 0.0048039034 0.00838697 -0.029314846 -0.047263663
-0.05572384 -0.064226985 -0.050065003 0.09070267 -0.09230784 0.06635623 -0.032355875 -0.041880045
0.08144196 0.04197936 -0.026861168 -0.06562917 -0.061474428 0.020372864 -0.061163798 -0.02132507
-0.06018047 0.08544314 0.035738964 -0.09131488 0.016550163 -0.095332906 -0.026597906 0.012984467
-0.03698217 -0.054953713 -0.0073330733 -0.045900475 -0.010614841 0.098661445 0.03007073 0.057186186
-0.09218137 -0.03235388 -0.04960429 -0.0060035707 -0.039721623 0.06640438 0.060860097 0.010289009
0.07190308 -0.02498308 -0.0018435295 -0.027678575 -0.062027197 -0.09185877 -0.060519252 0.019334273
-0.017877867 0.03187374 0.011462907 0.043264966 -0.036274027 -0.09255321 0.034527063 -0.0051866
0.083951585 0.09029941 -0.030618234 0.010365763 -0.09402531 0.04933638 0.042043105 0.061885685
-0.012532607 0.077216715 0.027455041 0.061538953 -0.004833606 -0.09721434 -0.091933735 -0.02002054
0.07650235 -0.05304939 -0.040982187 0.054462817 0.06491491 -0.06206008 0.024771111 0.092699386
0.05258114 0.07841604 0.04650805 0.036179487 0.021320207 0.09744136 0.06841142 -0.038261946
00000000: 362b 8ebd 20a5 93bd 6e0d 30bd 8eca 923d
00000010: 8f20 43bd a23e 0abd c354 13bd c125 433d
00000020: 4cd9 153d 7475 443d 0cb0 97bd 36e6 a63d
00000030: 9017 b63d 27b1 c53c 727a 97bd d275 aebd
00000040: 7fe3 c53d 39e4 43bb d8a5 f4ba 09b1 273c
00000050: a528 b5bd f755 253d e3a9 abbc 62ba a1bd
00000060: b331 8a3c c00c acbd 9467 b8bd b9b9 3f3d
00000070: f419 96b8 da85 b6bd f6fa 583d 6e12 183d
00000080: db85 7bbd fed9 5d3d 1942 823b 37d8 8b3d
00000090: 2a69 66bd 7832 a2bd 9387 2a3d a5dd edbc
000000a0: 04b5 9bbd 6cc2 bbbd e12a f6bb a212 c93d
000000b0: 9a08 c73d a1b1 783c dc48 06bd 884d 783d
000000c0: fe65 613d 8251 febc 1054 3f3d 2274 be3d
000000d0: f09e 913d d565 2fbc 49a6 08bd 3faf 993d
000000e0: 7fda 8bbd a543 823c ac19 9dbc e891 6e3d
000000f0: 1921 babd be34 0d3d 2e02 2dbd 2861 46bd
00000100: 8df3 66bc 1487 993d 78cc 58bd 6732 bcbc
00000110: 6059 bcbd 48a9 a33d 275b 063a f890 17bd
00000120: 6d8d 87bd 170c 8cbd 9fce c7bd 3245 e23c
00000130: 1d99 6d3d 953f c0bd f372 893d aad8 04bc
00000140: 5371 433c 808d a43d 8d65 7fbd 518b 753d
00000150: 2bb1 57bd 75bb 4bbd e881 883d 92c8 bdbd
00000160: d94c ac3d 5b9d 1cbd aec0 a73d 62a8 953d
00000170: 7666 533c 1d2b 173d 3f2e c0bd 944c 073d
00000180: f47f 9dbc 76e5 f0bc 9482 3cbd a3de c4bc
00000190: 1bc9 e6bc 3491 8b3c 3b35 3abd 0d88 903d
000001a0: 28a0 823c 38b8 9d3d 3f2b 97bd f7bc 613d
000001b0: e044 fd3c 74c9 bb3d 28c3 4abc b75f f5bc
000001c0: fb8b a6bd bfdc 9c3d d1ce 4cbd 6a3b bebb
000001d0: 2c3d 8fb9 8bcb bbbd 8e8b 053d a7fc 81bd
000001e0: 8b45 49bd da64 a5bd 55d3 8e3d 11c7 0abc
000001f0: bd6c 8dbd 712d 3c3d 09f2 ecbc 30e0 2d3c
00000200: 4755 633d f9a8 d43c deae 9e3d f600 5f3d
00000210: 590a 71bd b1a0 0f3d 091b 523d 8341 15bc
00000220: c4bb bebd c4ef c03c c72f c0bd 2262 d73c
00000230: fd4a 84bd dd77 fa3c e532 623d c00b 44bc
00000240: 94b9 1b3a 2bff 4fbd 939e a0bd 195d 8abd
00000250: 3947 843c d1a9 573c eeed 0abd c492 c93d
00000260: 0e9f 253d 66c8 5d3c 81dc abbd 8bac abbd
00000270: c63d 4d3d c263 98bd 9e79 4cbd 7549 be3c
00000280: 9738 6b3d d2a4 bebd d5c3 753d 0a38 9d3d
00000290: 106a 9d3b 8069 093c b025 f0bc 8b97 41bd
000002a0: ae3e 64bd 7089 83bd f610 4dbd 52c2 b93d
000002b0: e50b bdbd c6e5 873d 9887 04bd 698a 2bbd
000002c0: 0bcb a63d 8df2 2b3d f40b dcbc 9668 86bd
000002d0: 9ccc 7bbd fee4 a63c e486 7abd eab1 aebc
000002e0: cc7f 76bd d0fc ae3d 0563 123d 4c03 bbbd
000002f0: 3594 873c e63d c3bd dae3 d9bc cdbc 543c
00000300: 9e7a 17bd 2517 61bd 474a f0bb 2302 3cbd
00000310: dfe9 2dbc 030f ca3d e456 f63c 103c 6a3d
00000320: 96c9 bcbd 8185 04bd de2d 4bbd 9ab9 c4bb
00000330: 24b3 22bd 05ff 873d 7048 793d 3b93 283c
00000340: ec41 933d 51a9 ccbc 96a2 f1ba 2ebe e2bc
00000350: 3b10 7ebd 7320 bcbd 09e3 77bd e962 9e3c
00000360: 9b74 92bc 0a8e 023d ebce 3b3c 9b36 313d
00000370: 1394 14bd 8a8c bdbd 406c 0d3d 5bf4 a9bb
00000380: cfee ab3d e6ee b83d 17d3 fabc 29d5 293c
00000390: 5790 c0bd f214 4a3d 6435 2c3d d87b 7d3d
000003a0: 9055 4dbc cc23 9e3d 65e9 e03c 4510 7c3d
000003b0: 3a63 9ebb 5018 c7bd c147 bcbd 1e02 a4bc
000003c0: 44ad 9c3d 514a 59bd f0dc 27bd 6714 5f3d
000003d0: 1cf2 843d b632 7ebd c9ec ca3c 2dd9 bd3d
000003e0: 525f 573d 9798 a03d 3a7f 3e3d f130 143d
000003f0: b7a7 ae3c 568f c73d 491b 8c3d 8fb8 1cbd

bias_ih_l0_reverse f4 [128]
-0.011851506 0.03734492 0.0049755913 0.085069984 -0.03320337 -0.034813482 -0.075766005 0.08643417
-0.06483962 -0.02363635 0.091880254 -0.05626562 -0.07296165 -0.011039516 -0.06756886 0.074336186
0.0042341724 -0.067388296 -0.080587804 -0.008156933 -0.018226868 0.0764695 -0.008331525 0.020092951
-0.09001088 -0.017625406 -0.03279995 0.08525572 -0.057187278 -0.09647964 -0.0036521463 0.077360764
-0.014948066 0.027899224 0.08274266 -0.06583152 0.053059354 0.022582231 0.027404213 0.08700879
0.07389779 -0.027602086 0.068289004 -0.018893544 -0.0779452 -0.09153182 0.03280896 -0.0698177
-0.04197659 -0.0039534667 0.029544875 0.068483815 -0.05323521 0.036500674 0.035393413 -0.10498265
0.08017687 -0.0005818634 0.046779297 -0.031531207 -0.064529285 -0.043534655 -0.022562217 0.055005047
-0.014519186 -0.056094225 0.07190153 -0.006120015 -0.047160152 -0.09502879 0.09665593 0.057995245
0.0328355 -0.052754678 0.01121131 -0.061370254 0.013897083 -0.04863773 -0.009281495 -0.074505836
0.01042501 -0.08465276 -0.0931155 -0.066429526 -0.09174576 -0.0044895364 0.061590604 0.029628806
0.01763773 0.024846101 0.07543132 -0.027540958 0.034278445 -0.036905486 -0.049503367 0.0051734406
0.091216944 0.08914004 -0.012290136 -0.053154275 -0.06495904 0.060000874 0.05577997 -0.05809402
-0.07275642 0.07500212 0.08945041 0.082706235 0.075601436 -0.05852034 -0.041267663 0.07220483
0.07052538 -0.08694228 0.09595682 0.039270997 -0.0062054265 0.08366063 0.091489166 0.052106712
-0.009114399 0.03764954 0.07463199 0.090514176 0.06082683 -0.076160245 -0.005274968 0.05955837
00000000: d22c 42bc fdf6 183d 490a a33b 2c39 ae3d
00000010: 4200 08bd 9598 0ebd 352b 9bbd 6604 b13d
00000020: a2ca 84bd 05a1 c1bc b72b bc3d c776 66bd
00000030: eb6c 95bd 16df 34bc 8b61 8abd 923d 983d
00000040: d0be 8a3b e002 8abd 380b a5bd a8a4 05bc
00000050: 8350 95bc 0b9c 9c3d f380 08bc f999 a43c
00000060: a057 b8bd 2863 90bc 3e59 06bd 8d9a ae3d
00000070: 353d 6abd 1e97 c5bd d958 6fbb 526f 9e3d
00000080: bce8 74bc ea8c e43c fc74 a93d add2 86bd
00000090: c454 593d 5ffe b83c cd7e e03c aa31 b23d
000000a0: b957 973d c51d e2bc 1bdb 8b3d a2c6 9abc
000000b0: bca1 9fbd 0975 bbbd b062 063d 95fc 8ebd
000000c0: a5ef 2bbd 158c 81bb 1808 f23c 3e41 8c3d
000000d0: 2a0d 5abd bb81 153d aff8 103d 2501 d7bd
000000e0: c533 a43d 3188 18ba a69b 3f3d de26 01bd
000000f0: ee27 84bd 6551 32bd 66d4 b8bc f94c 613d
00000100: e1e1 6dbc 0fc3 65bd 1c41 933d 688a c8bb
00000110: 012b 41bd 749e c2bd 8bf3 c53d 6c8c 6d3d
00000120: 847e 063d 4a15 58bd a4af 373c 605f 7bbd
00000130: 97b0 633c 5b38 47bd 6911 18bc 8496 98bd
00000140: a9cd 2a3c 6d5e adbd 57b3 bebd 340c 88bd
00000150: 33e5 bbbd f61c 93bb 6e46 7c3d 1cb8 f23c
00000160: 007d 903c 0d8a cb3c bc7b 9a3d 939d e1bc
00000170: 8e67 0c3d 352a 17bd 0bc4 4abd f785 a93b
00000180: f3cf ba3d 0e8f b63d 915c 49bc 4cb8 59bd
00000190: 3f09 85bd 7ac3 753d 8a79 643d fff3 6dbd
000001a0: 5101 95bd b69a 993d c731 b73d e361 a93d
000001b0: edd4 9a3d 06b3 6fbd 4808 29bd 20e0 933d
000001c0: 9c6f 903d cb0e b2bd 0285 c43d a0da 203d
000001d0: e456 cbbb 4456 ab3d ac5e bb3d d96d 553d
000001e0: 8f54 15bc 6736 1a3d a8d8 983d 7f5f b93d
000001f0: 8e25 793d e7f9 9bbd a4d9 acbb 7af3 733d

bias_hh_l0_reverse f4 [128]
-0.004790849 -0.099414416 -0.008444227 -0.03605333 -0.036760934 -0.0785488 -0.09308675 -0.03419253
-0.016493889 -0.01544217 0.062253684 -0.095295854 -0.0730329 0.0866373 0.08039803 0.056400236
-0.07566328 0.08028632 0.07921074 0.04169494 -0.05852563 -0.0029785703 -0.050934147 -0.084831595
-0.065882675 0.09853179 -0.003387661 -0.041425355 -0.08793803 -0.009341707 -0.07604715 0.045942888
0.05137669 0.07048295 0.040565062 0.07235637 0.017152557 -0.034728434 -0.09998729 -0.048829734
0.055043362 0.096976645 -0.023035198 -0.017933754 0.021600347 -0.007628964 0.0091990065 0.079450555
0.022884768 0.09098659 0.036929138 -0.026770325 -0.030346356 0.035974637 -0.08425876 -0.014213572
0.05336284 0.0095953215 -0.10145655 0.022724425 -0.038642105 -0.06705498 0.09657488 0.09488206
0.044399567 0.010037406 -0.07718788 0.04177628 -0.06890759 -0.073199436 -0.08755164 -0.04090633
-0.047166143 8.563361e-05 0.07744992 0.083202645 0.026697263 -0.08466652 0.06825693 -0.055442806
0.08816833 -0.0063014287 -0.08551578 -0.06147463 -0.045053247 -0.08794476 0.033046406 -0.043450348
-0.031794824 0.047876325 0.030964985 -0.031902473 -0.039061848 -0.02347963 -0.08286063 0.02350474
-0.040516734 -0.022580529 0.09034971 -0.014144352 0.013860012 0.030087529 -0.06078199 -0.085590035
-0.07261045 0.024415448 0.09507605 -0.03145017 0.0220376 -0.09002253 0.063992694 -0.047171414
0.044556074 0.0819282 0.05976264 0.09718057 0.08199557 0.019220168 -0.013885447 0.035338733
0.026949402 0.044691324 -0.03762329 -0.0015931571 0.086468495 -0.07436701 -0.06322623 -0.0054515246
00000000: 8efc 9cbb c999 cbbd a859 0abc a8ac 13bd
00000010: a292 16bd 31de a0bd 44a4 bebd 770d 0cbd
00000020: 311e 87bc 2801 7dbc b8fd 7e3d 792a c3bd
00000030: 4692 95bd e66e b13d b9a7 a43d ef03 673d
00000040: 5af5 9abd 276d a43d 3e39 a23d 50c8 2a3d
00000050: 92b8 6fbd 1e34 43bb 53a0 50bd 30bc adbd
00000060: 7fed 86bd 09cb c93d 8503 5ebb a2ad 29bd
00000070: db18 b4bd f60d 19bc 9cbe 9bbd 9c2e 3c3d
00000080: 5d70 523d 5d59 903d 8d27 263d 942f 943d
00000090: 8583 8c3c 673f 0ebd 23c6 ccbd b001 48bd
000000a0: 2675 613d b19b c63d 50b4 bcbc cfe9 92bc
000000b0: 36f3 b03c 63fc f9bb 6eb7 163c f9b6 a23d
000000c0: d678 bb3c 2d57 ba3d 0243 173d 714d dbbc
000000d0: ec98 f8bc 245a 133d db8f acbd 0be0 68bc
000000e0: fe92 5a3d b235 1d3c 74c8 cfbd 9328 ba3c
000000f0: 2f47 1ebd 1f54 89bd 0dc9 c53d 8751 c23d
00000100: 52dc 353d ef73 243c ae14 9ebd 9b1d 2b3d
00000110: 6c1f 8dbd 96e9 95bd 464e b3bd 658d 27bd
00000120: 4931 41bd 3296 b338 109e 9e3d 2666 aa3d
00000130: 38b4 da3c a465 adbd 4aca 8b3d ff17 63bd
00000140: 9991 b43d 377c cebb e622 afbd d2cc 7bbd
00000150: c189 38bd 621c b4bd ab5b 073d fef8 31bd
00000160: 4a3b 02bd f719 443d 48aa fd3c 2bac 02bd
00000170: 51ff 1fbd 5a58 c0bc d5b2 a9bd 038d c03c
00000180: e0f4 25bd cdfa b8bc 4509 b93d b6bd 67bc
00000190: 1b15 633c 1f7a f63c 89f6 78bd d449 afbd
000001a0: cab4 94bd e802 c83c 3bb7 c23d e5d1 00bd
000001b0: 3288 b43c bb5d b8bd 9a0e 833d d036 41bd
000001c0: 6e80 363d f9c9 a73d acc9 743d 9b06 c73d
000001d0: 4bed a73d 9d73 9d3c c97f 63bc 59bf 103d
000001e0: fec4 dc3c 400e 373d e11a 1abd 7bd1 d0ba
000001f0: 6516 b13d bb4d 98bd c17c 81bd b4a2 b2bb

bin_context_vector f4 [64, 1]
0.070741326 -0.08935606 0.0007352742 0.028320791 -0.0792038 -0.034193546 0.06398797 -0.019252993
0.021877797 0.018598814 -0.069680244 -0.00839162 0.051114067 0.027008718 0.062334828 -0.002357666
-0.0030196595 0.07566257 -0.07063011 0.034616556 -0.066992044 -0.022054449 0.08599021 -0.10008168
-0.024858767 -0.09126694 0.056961678 -0.012361081 -0.045735557 -0.0049957205 -0.012777207 -0.06324564
-0.07031657 0.088465564 0.081121 -0.09449423 -0.06728374 -0.061713543 -0.025629086 0.083725184
0.078749575 -0.05593401 0.095625676 0.0031251998 0.00045086056 -0.06697239 -0.023097252 0.1010104
-0.06768968 -0.008322389 -0.09193636 0.100955755 0.04155802 0.021693964 -0.023361089 -0.050154906
-0.03131765 0.016765742 -0.032735094 0.076183386 0.09005822 -0.037358977 -0.06946779 -0.003171855
00000000: d4e0 903d 4f00 b7bd 6bbf 403a 0101 e83c
00000010: 9a35 a2bd 880e 0cbd 200c 833d 74b8 9dbc
00000020: 1139 b33c 8a5c 983c 84b4 8ebd 017d 09bc
00000030: fc5c 513d 6341 dd3c ce52 7f3d 1283 1abb
00000040: 7be5 45bb faf4 9a3d 85a6 90bd 17ca 0d3d
00000050: 2033 89bd 88ab b4bc a31b b03d a0f7 ccbd
00000060: 9da4 cbbc 29ea babd a650 693d 2286 4abc
00000070: 3555 3bbd 24b3 a3bb 7e57 51bc ee86 81bd
00000080: 2202 90bd 6f2d b53d c422 a63d 3186 c1bd
00000090: 0fcc 89bd 57c7 7cbd 17f4 d1bc 1c78 ab3d
000000a0: 7547 a13d 0f1b 65bd 65d7 c33d 27d0 4c3b
000000b0: 7b61 ec39 d228 89bd 7336 bdbc 8ade ce3d
000000c0: e3a0 8abd a15a 08bc 2149 bcbd e4c1 ce3d
000000d0: be38 2a3d 8ab7 b13c c15f bfbc 3b6f 4dbd
000000e0: f046 00bd 4f58 893c 3c15 06bd 0906 9c3d
000000f0: 7270 b83d ba05 19bd 2145 8ebd e5de 4fbb

weight_ih_l0 f4 [128, 1]
-0.054800216 -0.0766956 0.04727341 -0.0882659 0.055260964 0.069898635 0.03868144 0.045920357
0.030001337 -0.069877476 0.045995645 -0.062240098 0.0441587 0.069662526 0.040685188 0.0060691806
-0.059157804 -0.08266992 -0.04882087 -0.09344696 -0.02973833 0.016602905 -0.07176668 -0.07356623
0.02975482 0.017777704 0.044585865 0.055792917 -0.100177504 0.063572206 0.030520918 -0.08684446
0.07983473 -0.046186272 -0.035752572 -0.06387781 -0.08033387 0.051853858 0.0637123 -0.09173539
0.07884732 0.08894725 0.030536229 -0.065578885 0.043174036 0.044298943 -0.044665836 -0.08796501
0.060811136 0.06703989 -0.05201248 -0.011778047 0.000761532 -0.07525423 -0.06731309 -0.054935683
-0.080180354 0.07019938 0.058842372 0.0344779 0.04998407 -0.032392226 0.025372034 -0.0015554401
0.06703076 0.06986779 -0.044380065 -0.038686898 -0.07171019 0.09204739 -0.081589736 0.066112086
-0.06607147 0.035654154 -0.009018457 0.019509688 -0.006341759 0.061632838 -0.048286397 0.015238772
0.016165767 -0.019801214 0.08197088 0.005767006 -0.0063557634 0.077184066 0.015159664 0.0070359353
-0.024823898 0.064756095 -0.035405755 0.04269148 0.09158605 -0.011646011 0.09770941 0.053105194
-0.060290817 -0.07517801 0.09654036 0.0136594875 0.08073922 0.0059631593 -0.08451665 0.0059075016
-0.07822729 0.08873555 0.039678335 0.021928955 -0.031739756 0.051687527 -0.065452054 0.07452656
-0.06913858 0.015379392 -0.04979366 -0.0453484 0.013881525 0.001846627 0.0010295532 0.01495448
-0.0680722 0.08502433 -0.030999655 -0.04843292 0.072334826 -0.057290737 0.065780535 -0.032805927
00000000: 3176 60bd 9512 9dbd c3a1 413d c1c4 b4bd
00000010: 5259 623d 0427 8f3d 6e70 1e3d fc16 3c3d
00000020: 5dc5 f53c ec1b 8fbd ee65 3c3d 79ef 7ebd
00000030: c1df 343d 3aab 8e3d 83a5 263d fadf c63b
00000040: 744f 72bd d94e a9bd 65f8 47bd 1f61 bfbd
00000050: cc9d f3bc d102 883c 69fa 92bd e4a9 96bd
00000060: 61c0 f33c 8ca2 913c ab9f 363d 1d87 643d
00000070: dd29 cdbd 2532 823d 0107 fa3c 82db b1bd
00000080: 6480 a33d d12d 3dbd 4a71 12bd 5fd2 82bd
00000090: 1686 a4bd b664 543d 987b 823d c4df bbbd
000000a0: b47a a13d fa29 b63d 1d27 fa3c 394e 86bd
000000b0: 42d7 303d cf72 353d 86f3 36bd 0027 b4bd
000000c0: 1915 793d 364c 893d 0a0b 55bd b6f8 40bc
000000d0: 8ca1 473a e41e 9abd 72db 89bd 3d04 61bd
000000e0: 9935 a4bd b1c4 8f3d b304 713d b338 0d3d
000000f0: 19bc 4c3d b6ad 04bd 03d9 cf3c e9df cbba
00000100: 6c47 893d d816 8f3d dfc7 35bd 2776 1ebd
00000110: cbdc 92bd 5883 bc3d 8518 a7bd c665 873d
00000120: 7b50 87bd 170a 123d 26c2 13bc c8d2 9f3c
00000130: 88ce cfbb b772 7c3d f5c7 45bd 0bac 793c
00000140: 126e 843c 2836 a2bc 59e0 a73d 27f9 bc3b
00000150: 0244 d0bb ae12 9e3d 3d60 783c b48d e63b
00000160: 7d5b cbbc d89e 843d a005 11bd 43dd 2e3d
00000170: 7891 bb3d e9ce 3ebc df1b c83d d584 593d
00000180: 81f3 76bd eef6 99bd f4b6 c53d 0bcc 5f3c
00000190: 9b5a a53d 9b66 c33b 1117 adbd b793 c13b
000001a0: a135 a0bd fcba b53d c085 223d 5aa4 b33c
000001b0: 8c01 02bd 4db6 533d ba0b 86bd 62a1 983d
000001c0: 8798 8dbd d8f9 7b3c 70f4 4bbd 3ebf 39bd
000001d0: 566f 633c 850a f23a 13f2 863a a303 753c
000001e0: 7069 8bbd 3c21 ae3d fdf2 fdbc 9961 46bd
000001f0: 4824 943d b1a9 6abd f2b7 863d 825f 06bd

weight_hh_l0 f4 [128, 32]
-0.043462027 -0.013362703 0.050229955 -0.0108728595 0.012810151 -0.07392787 -0.089016676 -0.0056702006
0.07500175 -0.07764412 -0.019099712 -0.006345414 -0.0088230595 0.09061196 -0.060923345 -0.07287797
0.031048331 -0.017348882 -0.014034137 0.024090262 0.018806046 0.0074030687 -0.03739383 0.03735435
-0.073647484 -0.055112407 0.037408456 0.020009276 0.0033793107 0.049002685 -0.046992525 -0.06425123
-0.009498105 0.022434192 -0.086609975 0.0573143 0.043634765 0.083711185 -0.03327854 -0.074174695
0.040797826 -0.07993402 -0.080703765 0.059398144 0.09094736 0.06380186 0.08972371 0.08595099
0.06573756 -0.018972721 -0.08497188 -0.062746726 -0.012419208 -0.058976214 -0.04243646 -0.07196022
-0.08727105 -0.06573877 0.06885204 -0.0071591367 -0.0749871 0.09160619 -0.09911576 -0.037439447
0.00475778 -0.06577841 0.090340674 -0.015041821 -0.080119 -0.09270394 -0.05792332 -0.02393737
0.095401615 -0.062173676 -0.092341326 -0.08326133 -0.036351714 -0.053151365 -0.033638887 -0.041637827
-0.016317818 0.080521286 0.0006243524 -0.087823115 -0.08212958 0.036271065 0.00095608464 0.07498633
0.051103093 -0.024361668 0.023237275 0.024095919 0.07413179 -0.019744014 -0.06043109 -0.022246027
0.03449148 0.026120298 -0.07195083 7.9233396e-05 0.08722554 -0.07386752 -0.080444336 0.01984562
0.015369023 0.014690755 -0.026017195 -0.0109498985 -0.05413133 -0.083748065 -0.08232303 -0.038309995
-0.07546097 0.068192765 -0.06694635 -0.0022362245 0.09168793 -0.058454867 -0.054304257 -0.09245419
0.06920021 -0.050575282 0.053300418 -0.08351863 -0.09906788 0.07190777 -0.05045523 0.09690647
0.04126611 0.06740925 0.070350476 0.054209616 0.019715197 -0.07904981 0.0745575 0.0623185
-0.07548956 -0.034311656 -0.02797971 0.040627852 0.081398405 -0.021762174 -0.06305446 0.07805317
0.04517979 0.08916321 0.097006 -0.09304126 0.037515983 -0.07082908 0.08827963 0.0012592579
0.0003789343 -0.0560951 -0.04245972 0.05915207 -0.022133447 0.010797697 0.033152156 -0.09576657
-0.06601066 -0.09227432 -0.073362894 0.08301851 0.06274496 0.046122268 -0.09191775 -0.058412977
0.09040272 0.020142216 0.02560956 -0.0019195915 0.036099173 -0.03524685 -0.017045476 -0.015910788
0.05753767 0.065889396 0.027227135 -0.06742338 -0.018028826 -0.055450153 0.020093013 -0.035291217
-0.05221576 -0.037334204 0.095576815 -0.06305869 0.041411225 0.009001939 0.09783655 -0.08096645
-0.07119815 0.06710325 -0.04663597 0.024455724 -0.013346294 -0.010600778 -0.06267362 -0.03960363
-0.026055884 -0.068916425 -0.065087706 -0.09105917 -0.024688736 0.042311218 -0.093636185 0.06548816
0.08850658 -0.07359733 -0.025917437 -0.07327257 0.017314317 0.09394567 -0.01224991 0.03992769
0.09720662 0.026732868 -0.097311504 0.04853004 -0.037000943 0.04862103 -0.06269407 0.012015367
-0.0111456765 -0.061044518 0.048155423 0.051376957 0.053622626 -0.07514894 -0.045347698 -0.048796702
0.092404336 0.033889644 -0.005604316 -0.037359938 -0.009194208 0.039244138 -0.081051625 -0.011636095
-0.05254175 0.051107492 0.06638386 0.04835303 0.023223061 -0.100791276 -0.08012943 0.08110483
-0.029590014 0.035789736 -0.079330355 -0.08009786 0.021970319 -0.04551785 0.012065785 0.072276354
00000000: 3d05 32bd 3def 5abc edbd 4d3d 1424 32bc
00000010: abe1 513c 7f67 97bd 604e b6bd 17cd b9bb
00000020: 849a 993d e103 9fbd 0077 9cbc 31ed cfbb
00000030: 988e 10bc c392 b93d c28a 79bd 0c41 95bd
00000040: 1259 fe3c 3e1f 8ebc 70ef 65bc f158 c53c
00000050: 230f 9a3c 7195 f23b 462a 19bd e000 193d
00000060: 7ed4 96bd 8cbd 61bd 9c39 193d 7eea a33c
00000070: 6d77 5d3b 0ab7 483d 3c7b 40bd 2696 83bd
00000080: f19d 1bbc e9c7 b73c 9260 b1bd 66c2 6a3d
00000090: 5eba 323d c570 ab3d 144f 08bd e7e8 97bd
000000a0: 9f1b 273d 73b4 a3bd 0448 a5bd 784b 733d
000000b0: 9c42 ba3d 8daa 823d 11c1 b73d 1307 b03d
000000c0: 6aa1 863d ae6c 9bbc bd05 aebd 5b81 80bd
000000d0: ef79 4bbc 0b91 71bd dad1 2dbd e15f 93bd
000000e0: 2abb b2bd 0ca2 86bd 4c02 8d3d 3197 eabb
000000f0: d692 99bd 079c bb3d 34fd cabd 1b5a 19bd
00000100: 27e7 9b3b d5b6 86bd 8804 b93d f871 76bc
00000110: 6e15 a4bd 90db bdbd 0141 6dbd 4e18 c4bc
00000120: ec61 c33d d3a9 7ebd 731d bdbd eb84 aabd
00000130: 89e5 14bd 3fb5 59bd eec8 09bd 6d8c 2abd
00000140: f2ac 85bc 58e8 a43d 95ab 233a 9bdc b3bd
00000150: 8e33 a8bd f890 143d c1a1 7a3a 6f92 993d
00000160: 7a51 513d 1f92 c7bc 195c be3c ce64 c53c
00000170: 68d2 973d 33be a1bc 9786 77bd 4d3d b6bc
00000180: f046 0d3d 3cfa d53c f55a 93bd 1b2a a638
00000190: 4ea3 b23d db47 97bd 00c0 a4bd 4893 a23c
000001a0: 5bce 7b3c 7eb1 703c 0322 d5bc 3467 33bc
000001b0: d0b8 5dbd 1b84 abbd fa98 a8bd f1ea 1cbd
000001c0: 488b 9abd a6a8 8b3d 2b1b 89bd 9f8d 12bb
000001d0: e2c6 bb3d 5f6e 6fbd 246e 5ebd 9f58 bdbd
000001e0: d7b8 8d3d 0728 4fbd 8a51 5a3d d10b abbd
000001f0: 1ae4 cabd 6244 933d 25aa 4ebd e676 c63d
00000200: a706 293d dc0d 8a3d e913 903d e70a 5e3d
00000210: c481 a13c dee4 a1bd 9ab1 983d af41 7f3d
00000220: 459a 9abd 618a 0cbd b435 e5bc 6469 263d
00000230: 35b4 a63d 9646 b2bc b222 81bd 57da 9f3d
00000240: 720e 393d 339b b63d 15ab c63d 6b8c bebd
00000250: 5caa 193d d60e 91bd f3cb b43d af0d a53a
00000260: b3ab c639 fac3 65bd 3eea 2dbd 7149 723d
00000270: 3451 b5bc d3e8 303c 8eca 073d 4321 c4bd
00000280: 9930 87bd 52fa bcbd 493f 96bd 9c05 aa3d
00000290: 6e80 803d b4ea 3c3d 603f bcbd 7242 6fbd
000002a0: 1025 b93d 4a01 a53c 24cb d13c cd9a fbba
000002b0: badc 133d 005f 10bd f4a2 8bbc 5757 82bc
000002c0: 9fac 6b3d 05f1 863d 710b df3c 4515 8abd
000002d0: 30b1 93bc b31f 63bd 1a9a a43c 868d 10bd
000002e0: 31e0 55bd c0eb 18bd c7bd c33d ea24 81bd
000002f0: d19e 293d de7c 133c 875e c83d bdd1 a5bd
00000300: 56d0 91bd 6e6d 893d 5c05 3fbd 5f57 c83c
00000310: 6aaa 5abc e3ae 2dbc 075b 80bd 6a37 22bd
00000320: 2673 d5bc 0e24 8dbd b44c 85bd 3b7d babd
00000330: 0840 cabc 874e 2d3d 54c4 bfbd a81e 863d
00000340: f042 b53d 32ba 96bd ce50 d4bc ee0f 96bd
00000350: c1d6 8d3c 9666 c03d d9b3 48bc 388b 233d
00000360: 4414 c73d e3fe da3c 414b c7bd 6fc7 463d
00000370: 4d8e 17bd d826 473d c065 80bd 1adc 443c
00000380: 5b9c 36bc d109 7abd 9f3e 453d a570 523d
00000390: 66a3 5b3d b0e7 99bd 82be 39bd 0ddf 47bd
000003a0: 7c3e bd3d decf 0a3d 69a4 b7bb bc06 19bd
000003b0: 4ea3 16bc 76be 203d 65fe a5bd 52a5 3ebc
000003c0: 0536 57bd 1756 513d 43f4 873d d40d 463d
000003d0: 4a3e be3c a86b cebd e61a a4bd 4a1a a63d
000003e0: c266 f2bc 4298 123d f477 a2bd 590a a4bd
000003f0: 19fb b33c ed70 3abd 92af 453c a005 943d

bias_ih_l0 f4 [128]
0.022714084 -0.047579244 0.032711625 -0.091295816 -0.040859364 -0.08815094 0.020232571 -0.08653926
-0.091637656 -0.04742537 0.08417869 0.081776895 -0.07299321 0.0560416 0.02305053 0.04289556
-0.05177525 -0.0656397 0.034488827 -0.086684264 -0.09467049 -0.076291025 -0.038159043 -0.07931332
-0.028408276 0.056700233 0.0010098161 0.09066883 0.050137185 0.028616497 -0.07247257 0.03906635
-0.04311101 0.03435425 -0.080005534 -0.03763758 0.037197955 0.024764149 0.010355848 0.038928416
-0.0075456332 -0.08483519 0.027596 0.054668665 0.076475166 -0.028692173 0.09952218 0.030731028
-0.018738866 0.048231527 -0.06728509 -0.040668078 0.05682103 0.0934024 -0.04821142 -0.021133255
-0.046225782 0.009206445 0.0087298425 -0.038377862 -0.010143768 -0.03142493 0.04585529 0.07474039
-0.08775951 0.041366424 -0.023176458 -0.061832067 0.030969582 0.06387528 0.04819972 0.09689781
0.051074553 0.097138114 -0.09554703 0.07880756 -0.014138243 -0.05132368 0.0070936247 -0.050430123
0.046446815 0.05795346 0.062291786 -0.078197315 0.052461684 -0.011459471 0.08956465 0.0735367
-0.09905319 0.061169904 -0.04473683 0.08735224 0.037371647 -0.07704166 0.016433327 0.069053486
0.05265713 0.008450039 -0.06857193 -0.07364515 -0.014240602 0.076830976 -0.067272 0.004325149
-0.0068839528 0.0466668 -0.051801614 0.0350045 0.07852883 0.10051615 -0.022994667 -0.08110862
-0.05089829 -0.004293158 0.004525329 0.037182894 -0.084392965 -0.03504465 -0.05102551 0.0107758865
0.0051657166 -0.042832755 0.05233244 0.089569025 0.00080342987 -0.004034367 -0.00400222 0.025530953
00000000: e312 ba3c 74e2 42bd a0fc 053d 4df9 babd
00000010: 265c 27bd 7b88 b4bd c7be a53c 7f3b b1bd
00000020: 86ac bbbd 1b41 42bd e165 ac3d a57a a73d
00000030: 777d 95bd e08b 653d 77d4 bc3c 41b3 2f3d
00000040: 4912 54bd 1b6e 86bd 2844 0d3d 8587 b1bd
00000050: 9ae2 c1bd 783e 9cbd a84c 1cbd 066f a2bd
00000060: 79b8 e8bc 813e 683d ce5b 843a 94b0 b93d
00000070: a65c 4d3d 256d ea3c 806c 94bd 0904 203d
00000080: 2c95 30bd 0bb7 0c3d f1d9 a3bd dd29 1abd
00000090: e25c 183d 2fde ca3c 93ab 293c 6773 1f3d
000000a0: 5c41 f7bb 12be adbd 0211 e23c 40ec 5f3d
000000b0: 039f 9c3d d90b ebbc 49d2 cb3d a3bf fb3c
000000c0: 4082 99bc 6c8e 453d c4cc 89bd 9293 26bd
000000d0: 2bbd 683d c249 bf3d 5779 45bd a61f adbc
000000e0: 3f57 3dbd a1d6 163c 9d07 0f3c 1b32 1dbd
000000f0: 0c32 26bc 6db7 00bd c2d2 3b3d 7d11 993d
00000100: 42bb b3bd d76f 293d 8edc bdbc 9f43 7dbd
00000110: ecb3 fd3c 0bd1 823d 126d 453d 5c72 c63d
00000120: 8d33 513d 59f0 c63d 29ae c3bd dc65 a13d
00000130: 17a4 67bc c738 52bd a371 e83b d18f 4ebd
00000140: 043f 3e3d 9b60 6d3d ac25 7f3d ea25 a0bd
00000150: 10e2 563d 81c0 3bbc ac6d b73d 699a 963d
00000160: 66dc cabd 4b8d 7a3d f73d 37bd bbe5 b23d
00000170: 0313 193d 05c8 9dbd 2f9f 863c ea6b 8d3d
00000180: 01af 573d 0872 0a3c 716f 8cbd 45d3 96bd
00000190: 6a51 69bc 8f59 9d3d e7c5 89bd fbb9 8d3b
000001a0: c892 e1bb b025 3f3d ee2d 54bd e160 0f3d
000001b0: b9d3 a03d 69db cd3d 505f bcbc 471c a6bd
000001c0: ba7a 50bd 9fad 8cbb 3649 943b 174d 183d
000001d0: 38d6 acbd fb8a 0fbd 2000 51bd 588d 303c
000001e0: 2c45 a93b 6671 2fbd 8a5a 563d f76f b73d
000001f0: 449d 523a b932 84bb 0e25 83bb 4a26 d13c

bias_hh_l0 f4 [128]
-0.017883306 0.030016074 -0.034947533 0.09124048 0.06268637 -0.058242165 0.09334987 -0.0045767543
-0.054506827 -0.02322226 -0.06182621 0.074504115 -0.07333171 0.09430309 0.08809422 -0.03480074
-0.005255863 0.04526457 -0.049522236 -0.018689152 -0.02955167 -0.00069743517 0.089663796 0.008638797
0.07669233 0.03742681 -0.07595864 -0.092039086 0.08251675 -0.08981461 0.035629224 0.044699572
0.09818528 -0.08071899 0.076566905 0.08467878 0.01837523 0.0331384 -0.09465911 0.030752568
0.08964069 0.044752505 -0.012745722 0.07597769 -0.007269972 0.09788666 -0.06373334 0.08678991
-0.066728 -0.022011582 0.02497188 -0.005751768 0.09288954 -0.090791464 -0.022640768 -0.035449296
-0.06377949 0.088085905 -0.05332566 0.06275618 -0.019632906 0.0642392 0.043554123 -0.07965277
-0.054541055 -0.007315213 0.044689626 -0.061239347 -0.07925529 0.08315901 0.07597252 -0.051433116
-0.09679897 -0.05373147 -0.04949271 0.030857034 0.00859864 0.0029666566 0.056823064 0.052448772
-0.013196583 -0.047704324 0.010314845 -0.0495973 -0.09057033 0.08185968 -0.022269987 0.03092786
-0.03612333 0.053027086 -0.09698994 0.04288534 0.06698716 -0.09826673 0.0812573 -0.023498368
-0.025272569 0.059895568 0.0703003 0.08501082 0.0380024 -0.021214107 -0.056141675 -0.014787241
-0.07735893 0.08845989 0.0048389025 -0.015725253 -0.07470708 0.076350465 0.040286295 -0.084287025
-0.03281671 0.07414652 -0.06977309 0.0926429 -0.096037164 -0.083814815 0.012708917 -0.059213173
0.05612283 0.042154375 -0.029354533 -0.0734125 0.09870878 0.047050558 0.012559074 -0.095468566
00000000: 0380 92bc 45e4 f53c 2525 0fbd 4adc ba3d
00000010: b661 803d 568f 6ebd 372e bf3d 99f8 95bb
00000020: 8d42 5fbd 9c3c bebc 7b3d 7dbd 9d95 983d
00000030: f02e 96bd fa21 c13d be6a b43d 398b 0ebd
00000040: 6039 acbb 5767 393d d4d7 4abd fe19 99bc
00000050: 5816 f2bc 15d4 36ba a7a1 b73d be89 0d3c
00000060: de10 9d3d db4c 193d 3490 9bbd fd7e bcbd
00000070: 8bfe a83d b9f0 b7bd f3ef 113d e616 373d
00000080: 5d15 c93d ff4f a5bd 1ccf 9c3d 116c ad3d
00000090: a687 963c 22bc 073d a3dc c1bd cfec fb3c
000000a0: 8a95 b73d 674e 373d 6fd3 50bc 319a 9b3d
000000b0: f238 eebb cd78 c83d a086 82bd e9be b13d
000000c0: b1a8 88bd a251 b4bc d491 cc3c 5479 bcbb
000000d0: df3c be3d e0f0 b9bd 2279 b9bc 4833 11bd
000000e0: d29e 82bd 6266 b43d 026c 5abd 5086 803d
000000f0: 30d5 a0bc d78f 833d cf65 323d fe20 a3bd
00000100: 7166 5fbd 74b4 efbb 780c 373d 1cd6 7abd
00000110: 9950 a2bd 454f aa3d 7b97 9b3d 88ab 52bd
00000120: 8a3e c6bd 8815 5cbd deb8 4abd e4c7 fc3c
00000130: 4fe1 0c3c 3d6c 423b 4dbf 683d 86d4 563d
00000140: 7b36 58bc 9c65 43bd 98ff 283c 8a26 4bbd
00000150: f07c b9bd 0ca6 a73d 8c6f b6bc 6c5c fd3c
00000160: 0ff6 13bd ee32 593d a9a2 c6bd 8aa8 2f3d
00000170: 9030 893d 1140 c9bd 3a6a a63d a67f c0bc
00000180: 6b08 cfbc 0e55 753d 9bf9 8f3d 271a ae3d
00000190: 68a8 1b3d 35c9 adbc d0f4 65bd 2f46 72bc
000001a0: 5c6e 9ebd 752a b53d a88f 9e3b 3fd2 80bc
000001b0: 0700 99bd a25d 9c3d 3e03 253d ad9e acbd
000001c0: d16a 06bd 21da 973d 32e5 8ebd 90bb bd3d
000001d0: 22af c4bd 1aa7 abbd 1039 503c 8389 72bd
000001e0: 0de1 653d 11aa 2c3d eb78 f0bc 4b59 96bd
000001f0: d427 ca3d 16b8 403d 93c4 4d3c 0685 c3bd
