Results/Cell1_Cell2/Cell1_Cell2_aux_siamese/Cell1_Cell2_aux_siamese_R2_model.pt (torch_old, 309901 bytes, 68 tensors)

weight_ih_l0 f4 [128, 1]
000000 3e ae 47 3c 3f e7 93 bd 9b f1 0f bd ce 59 e8 3c
       0.012187539 -0.07221841 -0.035142522 0.028363135
000010 b1 c9 a9 3d b8 32 1c bd 62 c2 b3 3d 6b a1 90 3d
       0.08290423 -0.038134307 0.0877731 0.07062038
000020 ef ed 48 bd a7 f0 00 3e ef e1 4a 3b 14 55 fa 3d
       -0.049055036 0.12591802 0.003095742 0.122232586
000030 03 4a 16 bb 92 1b b7 bc 4c 0f e5 bd d9 e7 47 3b
       -0.0022932298 -0.022352014 -0.11184558 0.0030503182
000040 18 46 e8 3d 21 ff 8d 3d cd d6 e2 bc d9 a6 12 3c
       0.11341494 0.069334276 -0.027690316 0.008950912
000050 46 c9 f5 3d 4f 4f eb bc 6b 12 02 3e 5b 03 fc bc
       0.120012805 -0.02872434 0.12702338 -0.030763319
000060 8f b7 11 bd 85 71 90 bb 7d 3e 8c bd 8f 75 d8 3d
       -0.035575446 -0.004408064 -0.06847856 0.105692975
000070 34 a7 a0 bd c2 25 8e 3d 37 c0 3e bd 38 42 fe 3b
       -0.078443915 0.069407955 -0.04657003 0.0077593587
000080 48 2c cd 3d 36 2e 25 3d b1 23 aa bb 58 ef ba 3c
       0.100182116 0.040327273 -0.005192243 0.022819206
000090 9c de 21 bd 6d fc 36 3d b5 ce c5 3c c1 3b 4d bd
       -0.039518937 0.044674326 0.024146417 -0.050105814
0000a0 39 40 18 3c 13 06 02 3d c0 5a 27 bd e2 95 4d bd
       0.009292656 0.031744074 -0.04085803 -0.050191768
0000b0 a9 e5 e9 bc 10 12 82 bc 34 aa e9 bd 64 24 a2 bd
       -0.028551893 -0.015877753 -0.11409417 -0.07917097
0000c0 45 1e 63 bd 5d 76 8f bc 42 26 b7 3c f9 79 77 3c
       -0.05544879 -0.017512495 0.02235711 0.015104764
0000d0 4c 3a 92 bd 6a fd 8e 3d 24 72 44 3c 08 d9 19 3d
       -0.071400255 0.06981929 0.011990104 0.037560493
0000e0 68 8f 50 bc b7 44 35 bd 24 bd f9 3d 33 68 e0 3c
       -0.012729503 -0.044254985 0.12194279 0.027393436
0000f0 53 ca 04 3d 1d db df 3d b3 60 87 3d 1f 74 08 3d
       0.032419514 0.109304644 0.06610241 0.033313867
000100 6c 20 1d be ed 40 14 3e 83 01 a1 3a b0 c5 c5 bd
       -0.15344399 0.14477892 0.0012283776 -0.096568465
000110 c2 ff 66 3d a3 ec d5 3c e6 98 41 3d 42 e0 12 3e
       0.056396253 0.026113814 0.047264956 0.1434336
000120 08 a6 39 3d 41 5f 5c bd c6 07 6e 3c ea d5 7a bd
       0.045324355 -0.05380178 0.0145282205 -0.06123916
000130 1d 1a 2f 3d 26 f7 85 bd 16 c6 f8 bd ea 04 0f be
       0.042749513 -0.065412804 -0.12147157 -0.13966718
000140 23 5f 0a be 77 2a ff bd 3f 39 90 bd cd ad 83 bd
       -0.13512854 -0.124592714 -0.07042169 -0.06429634
000150 93 30 11 be c3 9a 66 bd 16 25 22 bd c0 56 c1 bc
       -0.14178686 -0.056299936 -0.03958615 -0.023600936
000160 06 0e 21 be 9b 42 b5 3d c6 86 ff 3d 4a 58 06 3e
       -0.15728006 0.088505946 0.12476878 0.13119617
000170 ba 8e 6c 3c 19 ab b3 bd 0d 2b 0d bc 3b b3 11 3e
       0.014438326 -0.08772869 -0.008616221 0.14228527
000180 14 ee 5f 3a be 18 e5 3d cd f8 99 ba 0a 93 42 bc
       0.00085422513 0.1118636 -0.0011747122 -0.011875877
000190 1a 7d a4 3d c8 bf 3b 3d 04 0f 18 bb b5 26 51 3d
       0.08031674 0.045837194 -0.002320231 0.051062305
0001a0 9d e2 c6 3d fb ad d5 bc 85 f6 58 3d 3d 6c 3e 3d
       0.09711192 -0.026083937 0.052969474 0.046489943
0001b0 16 3f 77 3d 5b cb 08 3e d3 8c e1 3c 7f 18 c0 3d
       0.060362898 0.13358824 0.02753297 0.09379672
0001c0 2c b3 dc 3b 83 d2 b6 3b a2 2c 0f 3c 75 3d 0c bc
       0.006735226 0.005579294 0.008738669 -0.008559574
0001d0 26 fa d4 3c 30 43 4f 3d 87 c6 0b bc 90 5d 09 3d
       0.025998186 0.050601184 -0.008531219 0.033536494
0001e0 70 28 d6 3c 4d 72 84 3d 4e 7a 8e 3c ad bf de bc
       0.026142329 0.06467114 0.017392304 -0.027191008
0001f0 8e 59 12 3d b1 b5 83 3c 48 bf cc bc e0 98 3e bc
       0.035729937 0.016077848 -0.024993554 -0.011633128

weight_hh_l0 f4 [128, 32]
000000 a3 68 93 3a 94 cd e9 3d 9f 88 68 bc d6 06 a2 bd
       0.0011246394 0.11416164 -0.014192729 -0.0791146
000010 e9 d6 0a 3e ae b4 c7 bc fc 1f 8e bc a9 04 85 3d
       0.13558544 -0.024378147 -0.017349236 0.064950295
000020 00 ee d5 3c de d7 c9 3c 1b 10 8e bc 4a 10 9e bd
       0.026114464 0.024639066 -0.017341664 -0.07717951
000030 ad 6a 01 3d 74 ad 46 bc 68 18 63 3d 1c ab 42 3d
       0.031595875 -0.012126315 0.055443197 0.047526464
000040 2d 87 62 3b 1b ac f6 bd 51 ce e5 bc 03 41 84 bd
       0.0034565434 -0.12044545 -0.02805248 -0.064577125
000050 0f 58 32 bd 77 5e 1e bd 9a d8 4d bd 90 f2 b8 bd
       -0.04354101 -0.038664307 -0.050255395 -0.0903064
000060 60 cc 8b bd b7 ba 86 3d 44 62 58 3d 21 39 1c 3d
       -0.06826091 0.06578582 0.05282809 0.03814042
000070 f2 ab ac bd 6f e9 58 bb f9 2f 80 3c fc bf 8c bc
       -0.084312335 -0.0033098122 0.015647875 -0.017181389
000080 97 e3 09 be b5 58 b0 3d 84 35 62 3d 20 a1 10 bc
       -0.13465725 0.086106695 0.055226818 -0.008827478
000090 0b 91 cf 3c c5 13 7b 3d 6e a8 c1 3d 01 a8 46 3d
       0.025337717 0.06129815 0.094559535 0.048500065
0000a0 20 4c e1 3d eb 29 e9 bd 8c 21 a9 bd c1 d5 d1 bd
       0.11000848 -0.11384948 -0.08258352 -0.102458484
0000b0 c0 9e cd 3d 74 08 26 be 57 da 51 3d be ed 15 be
       0.10040045 -0.16214162 0.051233616 -0.14641473
0000c0 0e b1 02 be 40 69 09 3d 41 53 93 bd fc c5 2e 3b
       -0.12762854 0.03354764 -0.07193614 0.00266683
0000d0 d9 60 58 3d 07 74 cd bd 7e 1b c9 bc 95 85 76 3d
       0.052826736 -0.10031896 -0.024549242 0.060185988
0000e0 2a 30 82 3c f3 bc e5 3d 2e 78 05 3e 27 cb 37 bc
       0.015892107 0.1121768 0.13034126 -0.011217869
0000f0 aa 9e 9d bd ce 0c b1 bd 94 be f4 bd cb 79 82 3b
       -0.076962784 -0.086450204 -0.119504124 0.003981804
000100 ab bb de bd 40 0e eb 3d f8 ef bc bb 25 0c a3 bd
       -0.108756386 0.11477327 -0.005765911 -0.07961301
000110 db b0 91 3d b4 35 12 3e 0f ba e7 3d 8f 1d a4 3d
       0.07113811 0.14278299 0.11314785 0.0801345
000120 01 6d 21 3e 1a fb 4b bd 13 36 ff 3c 1c c6 8d 3d
       0.15764238 -0.049800016 0.031153714 0.06922552
000130 08 d3 3a 3d 06 58 d8 3c 4d 64 c6 bc 16 15 cb bb
       0.04561141 0.02640916 -0.024217749 -0.006197582
000140 2c 72 58 bb 39 4a 00 bd 25 f9 9b bd 6f 2f f5 bd
       -0.0033027036 -0.031320784 -0.0761588 -0.11971938
000150 10 50 99 bc f8 d3 a9 bd 95 2a 02 be 5e c8 29 3a
       -0.018714935 -0.08292383 -0.12711556 0.00064766954
000160 91 cb ee bd eb df 05 bc a3 d1 a8 3c 81 44 2c 3d
       -0.11659921 -0.008171062 0.020607775 0.042057518
000170 84 3c 20 3d 9d dd 9b bd 35 99 4b be 04 a6 00 bd
       0.039120212 -0.07610629 -0.19882663 -0.031408325
000180 81 1c a7 bd 63 a9 5f 3d f8 96 83 bc 8a 92 f1 bb
       -0.081597336 0.0546049 -0.016063198 -0.007372205
000190 8f bb fa 3d 34 15 21 3e d0 cf 0a 3d 09 98 68 3d
       0.12242805 0.15730745 0.03388959 0.056785617
0001a0 fe 41 71 3d 46 da 3f bd 18 1a 95 3c f2 96 bf bd
       0.058900826 -0.04683902 0.018200919 -0.093549624
0001b0 38 70 c1 3d 5a fc da bd 35 a8 50 3d 35 60 19 3d
       0.09445232 -0.106926635 0.050941665 0.037445266
0001c0 f6 30 26 b9 f2 47 07 3d 49 87 79 bd d7 ed 9e bd
       -0.00015849233 0.033027597 -0.060920034 -0.07760208
0001d0 83 64 06 bd 4f 9f 54 bd 0f 79 54 bd b4 58 c2 bd
       -0.0328107 -0.05190974 -0.051873263 -0.09489575
0001e0 71 c1 2b bd 9b 70 02 3e e4 6e 0d 3d 72 72 9b 3d
       -0.041932527 0.12738268 0.03452958 0.07590188
0001f0 14 28 c0 bd be 62 0c 3d 9a 08 c6 bd 3e 91 00 bd
       -0.09382644 0.034273855 -0.09669609 -0.031388514
000200 f5 bd aa bc 31 3b e0 3d e5 98 3f bd 13 2e 63 bd
       -0.020842532 0.1094879 -0.04677667 -0.05546386
000210 0d e9 9f 3d 9e e9 26 3e e3 56 e2 3d 7e fc 17 3e
       0.07808123 0.16300055 0.110517286 0.14842412
000220 ce f5 14 3e 8f d1 b1 bd 64 08 30 bd 06 42 18 3d
       0.14546892 -0.08682548 -0.042976752 0.03717234
000230 17 fa b7 3d bc 76 1e be ad 1d 1b be 6a 06 9c bd
       0.08983248 -0.15474981 -0.15148039 -0.07618411
000240 75 19 56 bc 03 b2 0a be 5d 5b ba bd 22 f7 dd bd
       -0.013067593 -0.13544469 -0.090994574 -0.108381525
000250 40 77 e3 bd 91 4b 03 3c 4e 88 4c bd c0 e6 4f bd
       -0.111067295 0.008013622 -0.049934678 -0.05075717
000260 38 9a d0 bd 47 b4 be 3d 57 59 c8 3c 33 9e 4e 3d
       -0.10185665 0.09311729 0.024456663 0.05044384
000270 ae 0a ab 3c 79 ef a1 bc 7f 53 c0 bd 01 bd 35 bc
       0.020879116 -0.01976751 -0.093909256 -0.011092425
000280 76 52 82 bd 9f ec b8 bc ea f6 ca 3d 2d e9 b4 bc
       -0.063633844 -0.022573767 0.09910376 -0.022083843
000290 e2 79 06 3e a6 5e c3 3d 5d f7 31 3d 54 bc 95 3d
       0.13132432 0.09539537 0.043448795 0.07311311
0002a0 cc 4d 93 bc 0b 74 c9 ba 52 ad c1 bd 7c 44 27 bd
       -0.017981432 -0.0015369667 -0.09456886 -0.040836796
0002b0 c1 de 06 3e b1 6a bb 3c 6b ee 24 bd 49 b0 0f be
       0.13170911 0.022878023 -0.040266436 -0.14032091
0002c0 ea a3 24 bd 56 38 0a be 6e d1 e9 bd 40 a7 82 bd
       -0.040195383 -0.13498053 -0.11416899 -0.06379557
0002d0 a4 42 29 bd b7 25 ca bd c9 64 aa bd 99 15 fe bc
       -0.04132332 -0.09870475 -0.083200045 -0.031016158
0002e0 0a 9c ff bd 11 97 43 3d 7d 1a 99 3b f6 74 13 3e
       -0.12480934 0.04775149 0.004672347 0.14400086
0002f0 b7 f1 9d 3b 33 f5 65 3c 83 8f 16 bd 95 82 84 bc
       0.0048200744 0.014035511 -0.036757957 -0.016175548
000300 5e b5 21 3d bd 42 4a 3d aa 79 10 3b c0 fd fd bd
       0.039479606 0.049380053 0.0022045174 -0.124019146
000310 52 24 5b 3d d3 42 a2 3d ff 64 e8 3d 58 8b 96 3d
       0.053501435 0.07922902 0.113473885 0.073507965
000320 a6 a1 27 bb 76 98 07 be ca d5 0c 3d 5e 67 07 be
       -0.0025578528 -0.13241753 0.034383573 -0.13223025
000330 8d 4c 8b bd 92 19 c1 bd 09 62 ab 3b eb d6 c7 bd
       -0.0680171 -0.09428705 0.0052301926 -0.09757789
000340 a9 9f c8 bd b8 c1 4d bd 57 7f 63 bd 7c 44 76 bd
       -0.09796078 -0.050233573 -0.055541363 -0.060123906
000350 78 74 a7 bd c8 81 10 be ea 6b 2c bd a0 fc e2 3b
       -0.081765115 -0.14112008 -0.042095102 0.006927088
000360 42 37 cd 3b 7a 56 8e 3d d7 0c da 3d 44 3a 00 3e
       0.0062626908 0.06950088 0.1064698 0.12522227
000370 41 0b 4a 3d b7 f0 30 ba b0 d2 fc bd 38 2c 3a 3d
       0.04932714 -0.00067497365 -0.12344873 0.045452327
000380 8d 64 4a bd e8 4f e7 3d 98 12 d8 3d a3 38 05 be
       -0.0494123 0.11294538 0.105504215 -0.13009886
000390 8c ab f8 3d f7 a0 c1 3d 70 d9 27 3e 7c 96 9c bd
       0.12142095 0.0945453 0.1639154 -0.0764589
0003a0 78 fb cd 3d 73 5f 0d bc 1a c9 25 bc 97 43 5f 3d
       0.100577295 -0.008628714 -0.010118747 0.054507818
0003b0 11 a8 e1 3d a0 8c 06 3d 8b 5c 35 bc e3 50 3d bd
       0.11018384 0.032848954 -0.011069427 -0.046219718
0003c0 76 0d ab bd d6 4b 97 3d 14 87 e8 bd 06 cb 25 be
       -0.08352177 0.073875114 -0.11353889 -0.16190729
0003d0 7d 9d d6 3b e4 77 b4 bd 7e 67 09 3d b4 8f d9 3c
       0.006549536 -0.0881193 0.033545963 0.02655778
0003e0 ff f5 a2 bd a6 b8 a2 3c 02 7d a5 3b b9 64 13 3e
       -0.07957076 0.019863438 0.0050503025 0.14393891
0003f0 c3 1c 29 bd e6 ee 8d 3d 31 83 94 3a 33 dc 10 3e
       -0.041287195 0.06930332 0.0011330602 0.141465

bias_ih_l0 f4 [128]
000000 5f 3b 00 3e 5e b5 04 3e fc 14 fa 3c 6a df 02 3d
       0.12522648 0.12959811 0.030527584 0.031951346
000010 d0 ed 1d 3e ab f8 fe 3d 55 cb 35 3d ad e8 17 bc
       0.1542275 0.124497734 0.044383366 -0.009271783
000020 08 5d b9 3d 9c 3e d8 3d 9d c1 2b bd 13 ad 1f 3e
       0.090509474 0.10558817 -0.04193269 0.15593366
000030 0e cf 46 bd 7b d5 9f 3c c3 ed e9 bc 5b 4c 5b 3d
       -0.048537306 0.019510975 -0.028555756 0.053539615
000040 83 2e 0d bd 4d de bf 3c 7e b3 99 3d a0 fd d8 3b
       -0.034468185 0.023421431 0.075049385 0.0066220313
000050 7f 92 24 3e 11 8b f1 bc b4 67 66 bb aa 97 64 3d
       0.16071509 -0.029485257 -0.0035157027 0.0558087
000060 96 16 e2 3d d3 41 36 bd e9 ef 22 3e 21 32 b3 3c
       0.11039464 -0.04449637 0.15911831 0.02187449
000070 03 83 75 bd 3b 8a 5c 3d 3f a0 3a bc ba 28 c0 3d
       -0.059939396 0.053842764 -0.011390745 0.09382768
000080 96 17 9b 3c 33 d9 29 3e 20 7f 50 3d 9c 17 1b 3e
       0.018932145 0.16586761 0.050902486 0.15145725
000090 54 a9 3a 3d 04 1d 8c 3d 6f cf 16 3e 29 8c a6 3b
       0.04557164 0.06841472 0.14727567 0.0050826264
0000a0 d0 99 db 3d 8c c5 83 3b b0 39 81 bd c3 73 ac 3d
       0.10722697 0.004021352 -0.06309831 0.08420517
0000b0 52 ca 8c 3c 31 64 1b 3e ff fb 74 bc 33 8d cc 3d
       0.017186318 0.15174939 -0.014952659 0.09987869
0000c0 45 ec 0b 3e cf 08 97 3d 9c 2f ff 3d 21 1e 0f 3e
       0.13664348 0.07374727 0.12460253 0.13976337
0000d0 85 9c 29 3e f7 1e 0a bd e7 46 48 bd 16 bf dc 3b
       0.16563614 -0.033720937 -0.048895743 0.0067366464
0000e0 4e 5f cc 3d 85 1a 0a 3d 24 59 8f 3c 2f f7 c6 bb
       0.099791154 0.033716697 0.01749856 -0.006071947
0000f0 f4 4d 7c 39 4a 23 a5 3c 22 a1 e2 3c f6 52 ca 3c
       0.00024061633 0.020158429 0.027664725 0.024697762
000100 44 d9 0b bd b5 13 ae 3d a0 4f ed bc 86 1a c4 3c
       -0.034142748 0.084998526 -0.028968632 0.023938429
000110 0c 2e bc 3d 82 8e a4 3d 3d 42 99 3b 9c 25 6c bc
       0.0918847 0.08034994 0.0046770857 -0.014413264
000120 36 27 f9 3d 71 c8 c8 bd 4b 52 00 be ee 54 ae bd
       0.12165682 -0.09803856 -0.12531392 -0.08512293
000130 02 b2 d8 3d 0d 50 22 be e1 f9 87 ba 45 71 1e be
       0.10580827 -0.1585085 -0.0010374152 -0.15472896
000140 4a 2b 9a bd 21 e2 ea bc 61 25 28 be 55 1c 17 be
       -0.07527788 -0.02867228 -0.16420509 -0.14756902
000150 dc f2 e5 bd 2f 59 89 bd 8b 45 9f bb 08 6f c3 3b
       -0.112279624 -0.067064635 -0.004860585 0.0059641637
000160 1f a8 d7 bd 47 68 0b 3d a2 ac cf 3d f1 81 a3 bc
       -0.105301134 0.034034993 0.10140349 -0.019959422
000170 1c d8 d2 bc 6a a3 a7 bd e3 07 c1 bd 4e 16 13 3e
       -0.025737815 -0.08185466 -0.094253324 0.14363977
000180 dc 93 ce bc e1 1b 51 3d ba 74 2e bd d5 a7 55 3d
       -0.02521699 0.051051978 -0.042591788 0.05216201
000190 2a b6 07 3e 88 72 aa 3d cd e6 98 3d 1d 00 59 3d
       0.13253084 0.08322626 0.07465897 0.052978624
0001a0 ca 6f de 3d 8a 46 bf 3d 11 7a 90 bd cf 5c 4f bc
       0.10861166 0.09339626 -0.07054532 -0.012656405
0001b0 ba b6 1e 3d 64 46 4a 3d ad f2 b5 ba ae 1a f6 3d
       0.03874848 0.049383536 -0.0013881527 0.120168075
0001c0 40 bf 02 3e 34 ac 7b bc 31 f6 ed 3d 2e 21 1f 3e
       0.12768269 -0.015360881 0.11619223 0.15540001
0001d0 15 7b e0 3d 59 19 88 3d 10 0b 4d bc 06 78 8c bc
       0.10960976 0.0664546 -0.012514845 -0.017147075
0001e0 1c 7f 0b 3e c0 ef ef 3c e7 c3 26 3d f9 bb ee 3b
       0.13622707 0.029289126 0.04071417 0.0072855917
0001f0 4d f4 a4 3d 63 68 74 3d f9 c8 73 ba ec 5c 1d 3e
       0.08054409 0.059669863 -0.00092996616 0.15367478

bias_hh_l0 f4 [128]
000000 b7 41 1f bc 55 70 40 3d 61 7c f4 bc c5 68 1e bd
       -0.0097202575 0.04698213 -0.029844465 -0.038674135
000010 75 75 03 3e 14 7f e1 3d b5 97 1b 3d 0e 46 91 3d
       0.12837775 0.11010566 0.037986476 0.0709344
000020 bc 21 13 3e b3 10 21 3d 54 13 d1 3c 96 48 1e 3e
       0.14368337 0.039322566 0.025521912 0.15457377
000030 b7 40 3e bd 34 da 0b 3e e9 05 d9 bd 1c 84 f3 3d
       -0.046448436 0.13657457 -0.105968304 0.11890432
000040 61 9a 2b 3d 61 0a 1a 3c 6a d0 96 3d 02 64 88 3c
       0.041895274 0.009401889 0.073639706 0.01664925
000050 9e fc 55 3b 9f a4 be 3d 22 a1 b9 3c 63 3b 16 3d
       0.0032651792 0.09308743 0.022659842 0.03667773
000060 64 a4 19 3e 4a 49 f9 bc b7 67 08 3e e6 e8 06 3d
       0.15004116 -0.030430455 0.13320814 0.032936953
000070 9d 7e ba bd 4c 7f 12 3e 24 96 d6 bc 75 be 26 3e
       -0.09106181 0.14306372 -0.02619464 0.16283591
000080 f6 88 0b 3e a5 c7 42 3b 97 b8 c0 bd e5 e6 07 3e
       0.13626465 0.0029721048 -0.09410208 0.13271673
000090 8e cb c2 3d 4b 80 45 3d 1c 30 be bc 67 7c ae bc
       0.09511481 0.048218053 -0.0232163 -0.021299554
0000a0 65 25 a1 3c 8a 75 16 bb ba 88 b4 3c 47 64 23 3e
       0.019671151 -0.0022958242 0.022037853 0.15956222
0000b0 2a 0a e3 3d b8 cf be 3d ed a1 7c bd 6e 58 d1 3c
       0.11085923 0.09316963 -0.061677862 0.025554862
0000c0 7a df 7c 3d 9f 02 38 3d a6 ce a3 3b 2d 14 07 3d
       0.06173656 0.044924375 0.0049989996 0.032978225
0000d0 f7 af fb 3c 86 e8 df 3c 5f f9 ea 3d 35 b9 50 bc
       0.030723555 0.027332556 0.11473345 -0.012739469
0000e0 af aa ba 3c 1a 4b 7c 3d 6e a0 d6 3d 6d c8 8d 3d
       0.022786466 0.06159506 0.10479818 0.06922994
0000f0 e1 6e 34 bd af 6a 1c 3e 78 d2 2f 3c 70 0d 3d 3d
       -0.044051055 0.15275072 0.010731332 0.046155393
000100 35 80 ee bc 00 16 d3 3d 5e 07 3c 3d fc 8d f4 bd
       -0.029113868 0.103069305 0.045905463 -0.11941144
000110 5f 68 e4 3d 68 a7 05 3e a8 4a 12 3e 61 ae 0f 3e
       0.1115272 0.13052142 0.14286292 0.14031364
000120 02 7a 09 3e 47 88 c6 bc 04 e1 f3 bd cb 1c 25 be
       0.13425449 -0.024234904 -0.11908153 -0.16124265
000130 6f 3b ec bc 32 62 07 be 0b 4a 8d bd e7 38 bb bd
       -0.028836934 -0.13221052 -0.06898888 -0.09141713
000140 4e 95 91 3c ee ca 47 3c 66 04 5b bc 63 01 70 3c
       0.01777139 0.012194378 -0.013367748 0.014648768
000150 44 ae 78 bd a5 7b 16 be 7f 5a a4 bd 96 d8 e0 bd
       -0.060713068 -0.14695604 -0.08025073 -0.109788105
000160 6c e3 7c bd e8 65 ea 3c e8 b3 ce 3d d7 dd 0f 3e
       -0.061740324 0.028613046 0.10092908 0.14049469
000170 3c 71 cb bc bd 75 6b bd e9 c8 8b bd d4 2b 2c 3e
       -0.024834268 -0.05748533 -0.0682543 0.16813594
000180 78 cb 6d bc ae b8 dc 3d 6f ee 8b 3d 7e 90 d0 3d
       -0.014513843 0.10777412 0.06832587 0.1018381
000190 87 0e e5 3d bf 23 7f 3d 0f 2b d9 3d 84 8d 29 3d
       0.111844115 0.06228995 0.10603916 0.041394725
0001a0 a8 34 98 3d 18 04 e8 3d c3 f3 73 3b c9 90 b8 3d
       0.074319184 0.11328906 0.003722415 0.090119906
0001b0 0b a6 07 bd ab a0 df bb 00 7b 06 3d b0 f7 cd 3c
       -0.033117335 -0.006824573 0.032832146 0.02514252
0001c0 d5 41 b1 3c 41 11 b8 bb d3 b7 15 3d 17 10 51 3d
       0.021637836 -0.005617291 0.03655226 0.051040735
0001d0 1a cf 06 3d 3e 85 3c 3d dd b9 c4 3d 2e b8 74 bc
       0.03291235 0.046025507 0.09605763 -0.01493649
0001e0 28 5a a6 3d 30 71 09 bd e0 31 cc 3d 72 38 ff 3d
       0.08122665 -0.03355521 0.099704504 0.12461938
0001f0 b7 ac 46 bd 80 72 cc 3d 07 bf 92 3d a7 66 c3 3d
       -0.048504557 0.09982777 0.07165342 0.09541064

weight_ih_l0_reverse f4 [128, 1]
000000 f7 aa a7 3d a2 74 f2 3c 18 c4 dc 3c a8 28 8b 3b
       0.08186906 0.02959663 0.026948974 0.00424679
000010 f0 3c ee bb a0 92 1f 3d f1 02 82 bc 74 7b 2c bd
       -0.007270448 0.038958192 -0.015870543 -0.04210992
000020 45 78 0e 3d 7c 15 a1 bc fc 7d 69 3d 62 64 db bc
       0.034782667 -0.019663565 0.057004914 -0.026781265
000030 70 b8 90 3d 2f 3a 0c 3e 16 7d bf 3d 6c 15 0d 3e
       0.07066429 0.1369407 0.0935003 0.13777703
000040 78 68 45 bd 2b e8 d4 3d 48 2e 94 3c f0 c9 ac 3d
       -0.048195332 0.10395845 0.018088475 0.08436954
000050 6c 53 c0 3d 16 7f 6a bc be 12 74 3d d5 c6 a7 3d
       0.093909115 -0.014312526 0.059588186 0.08192221
000060 99 42 28 3d c8 5f 79 bc d3 6b c3 3b 96 00 66 3c
       0.041079137 -0.01522059 0.0059637814 0.014038226
000070 a0 79 69 3d a6 a9 e8 3c 69 1a a4 bc d1 65 53 bd
       0.057000756 0.028401207 -0.020032125 -0.05161077
000080 49 c5 92 3d 73 44 0c 3b 1d 7e 83 bd 65 6e 59 3c
       0.071665354 0.0021403104 -0.064205386 0.013270949
000090 00 3a 16 bd e1 5f 83 bd 28 e3 24 bd 25 2f 88 3d
       -0.036676407 -0.06414772 -0.040255696 0.06649617
0000a0 ac c5 29 bd b2 15 8a bc bd 4c 90 bd 40 76 bf bc
       -0.04144828 -0.016856048 -0.07045887 -0.023371816
0000b0 17 10 85 bd 00 bf cc 3d b1 a9 8a bc 00 9a 81 bd
       -0.064972095 0.09997368 -0.016926618 -0.06328201
0000c0 8b 0f 47 3d 9f 60 ad 3d 59 ec ac bd eb fe bc bd
       0.048598807 0.08465695 -0.08443517 -0.09228309
0000d0 f7 7b ed bc dc 11 3e 3d c2 c1 50 bd 7e 03 f8 bc
       -0.028989775 0.04640375 -0.05096603 -0.030275103
0000e0 63 9a 2a 3d 92 f4 c3 bc cf d6 5f 3c 58 80 b3 3b
       0.04165114 -0.023920331 0.013662054 0.0054779463
0000f0 36 43 4d 3d c1 12 1f bd 47 3d ba bb 57 60 6d 3c
       0.050112925 -0.038836244 -0.0056835744 0.014488301
000100 c5 52 5a bd 99 9a 9f bd 6f 5f 2e bd 76 18 af bb
       -0.05330159 -0.07793159 -0.04257148 -0.005343492
000110 be ff 19 3e ec d9 70 bc 1a 4a ff 3d 81 99 08 be
       0.15038964 -0.014700394 0.124653056 -0.13339807
000120 49 da b9 3d 56 4c a0 3d 42 d3 96 3d 70 7e 1f 3e
       0.09074838 0.0782706 0.07364513 0.15575576
000130 5a af 86 3c dd 8f 19 3e e9 67 f4 3d e6 d2 57 bd
       0.016441036 0.14996286 0.11933882 -0.052691363
000140 1d a4 01 bd 64 48 f5 bd 91 0d 41 bd 82 7c df 3d
       -0.03165065 -0.11976698 -0.04713208 0.1091242
000150 48 72 cb bd 51 88 0f be 58 29 4b 3d 59 23 6d bd
       -0.09933907 -0.14016844 0.049599975 -0.05789504
000160 f8 7e 91 ba 2e 08 a0 bd d0 ff 16 3e 14 0e fb bd
       -0.0011100462 -0.0781406 0.14746022 -0.122585446
000170 dd a4 aa bd e9 f7 ea bd 94 86 41 bd a5 2e 21 3e
       -0.083322264 -0.11473066 -0.047247484 0.1574045
000180 64 a3 c5 bc e2 0e 06 3d 9c 57 0e 3e d1 ba 35 bd
       -0.024125762 0.032729037 0.13900608 -0.044367615
000190 b9 ef d4 3a 92 af 02 bc 28 37 e9 bb 96 a9 85 bc
       0.0016245759 -0.00797643 -0.007117171 -0.016316216
0001a0 16 0a a7 3d 1e a5 ac b9 36 5a 78 3c e2 13 8e 3d
       0.081562206 -0.00032929418 0.015158227 0.06937386
0001b0 e0 57 77 3d 31 c4 28 bb ae 3c cb bc 13 f5 1e 3c
       0.06038654 -0.0025751705 -0.024809208 0.009701985
0001c0 bc 6a 05 3c 53 2f 62 3d b4 70 ae 3d eb f2 39 3d
       0.008143123 0.055220913 0.0851759 0.04539768
0001d0 3c b3 a4 bc 5f b4 19 3c 0d 05 e9 bb 2a 49 42 3d
       -0.020104997 0.009381383 -0.007111198 0.047433056
0001e0 f9 7c ef bb 4c 8b b1 3c 21 a5 b4 39 66 03 45 3c
       -0.007308599 0.021672867 0.00034455306 0.012024736
0001f0 49 a8 83 3d 61 56 97 3d 98 7a ad 3d a8 6a 4a 3d
       0.06428582 0.07389522 0.084706485 0.04941812

weight_hh_l0_reverse f4 [128, 32]
000000 c7 eb e8 bd 61 df a4 bd 23 6a 8f bd b4 7a 82 3d
       -0.11373096 -0.08050419 -0.07002666 0.0637106
000010 18 cd 89 3d 51 81 72 3b c0 a1 d9 3d 6a 1f d5 3c
       0.06728572 0.0037003348 0.106265545 0.026015956
000020 08 5d 9e 3c c5 90 16 3e 9a 7a a7 3c ea 9d ef 3d
       0.01933147 0.14703663 0.020444203 0.117000416
000030 3c 41 87 bd e8 5c 36 3d 63 12 18 3e 31 44 ee bd
       -0.06604239 0.044522196 0.14850764 -0.116341
000040 c1 c7 c0 3d 27 bc 5a bd e5 5b d2 bd c6 99 d2 3d
       0.094131 -0.053402092 -0.10271434 0.10283236
000050 ad 12 ae bd 3e dd 21 be 85 dc 81 3c 02 f2 b1 3c
       -0.08499656 -0.15807053 0.015852222 0.021721844
000060 df f7 67 3d 25 d8 64 bd 02 94 85 3d 6c d1 7b bd
       0.056632873 -0.055870194 0.06522371 -0.061479017
000070 a6 be a2 bd 4d b4 6d bd 41 a1 ee 3c 9c f2 f9 3d
       -0.079465196 -0.058033276 0.029129626 0.12204477
000080 21 4d 6d bd 21 e9 d5 bc 39 30 ca 3c be e9 c9 bb
       -0.057934884 -0.026112141 0.024681197 -0.0061618974
000090 69 54 f0 3d de 94 f8 bc f8 61 85 bb 3f 93 72 3c
       0.1173485 -0.030344423 -0.0040705167 0.014805614
0000a0 11 74 25 bb f3 c4 52 3d 69 70 81 3d 15 4f b0 3d
       -0.0025246183 0.051457357 0.06320269 0.08608834
0000b0 ca 46 ab bc 03 da 8c 3d 1d ee 58 bc 77 0c b3 bd
       -0.020907778 0.0687752 -0.013240364 -0.08742612
0000c0 26 e4 6e 3c db 13 76 bc 95 cc c1 bd 29 78 82 3c
       0.014580762 -0.015019382 -0.09462849 0.015926437
0000d0 4a 9f ac bd e9 75 1a bd d1 ea cc 3d 25 36 20 bd
       -0.084288195 -0.037710104 0.10005725 -0.039114136
0000e0 42 6e f7 3d d2 3d 1b bd be 9a 18 3c 07 5c 79 3d
       0.12081577 -0.037900753 0.009314237 0.06087878
0000f0 f6 6a 78 3d a8 d3 83 bd d2 60 ce bd aa 58 06 3e
       0.06064888 -0.064368546 -0.10077061 0.1311976
000100 57 ab d1 bd 77 9b 12 be 7d a9 c9 bd 9e 25 46 3d
       -0.102377586 -0.14317118 -0.098467804 0.04837572
000110 ff 35 d9 3d e1 32 87 3d 19 66 8b bc 2e 74 5a 3c
       0.10606002 0.06601501 -0.017016457 0.013333363
000120 66 ed f3 3d b1 92 52 3d 78 dc c9 3d 53 62 c0 3b
       0.119105145 0.051409427 0.09856504 0.005871096
000130 1c cd 1c 3c 03 9c 75 3d 07 28 d9 3d ab 6a 4e bd
       0.009570386 0.059963237 0.10603338 -0.050394695
000140 d3 4a cc 3c 27 14 0d be 3f 07 34 bd b2 c9 98 bc
       0.024938023 -0.13777219 -0.043952223 -0.018650863
000150 eb 7f 00 be 73 93 d0 bd 7b 0e ad 3d b1 bb f1 bd
       -0.12548797 -0.10184374 0.084500276 -0.118033774
000160 3c b4 0a 3d 32 e8 05 be 77 f9 f2 3d c2 d3 67 3c
       0.03386329 -0.13076857 0.11863988 0.014149608
000170 3e 37 d3 bc 51 ef b4 3c e1 c3 a1 bc ae b2 10 3d
       -0.025783177 0.022086771 -0.019746723 0.035326652
000180 e2 9b 08 3d 17 17 79 3d 1f 23 0b be 3d 63 a2 3d
       0.033351786 0.060813036 -0.13587616 0.079290845
000190 f2 c3 f3 bc e3 37 6a 3c 70 b5 97 3d a6 af 25 bd
       -0.02975652 0.014295551 0.07407653 -0.040450715
0001a0 02 6a b4 3d 7e 9c 15 3c db 0c fd 3d ed 7c 8c 3d
       0.08809282 0.009131549 0.123559676 0.06859765
0001b0 a5 b4 c5 bd a0 e5 9c bd 62 4d 4b bc 2f b8 97 bd
       -0.09653596 -0.07660985 -0.012408586 -0.07408177
0001c0 13 65 13 3d 8d 2d 0d 3d 79 6e 2a be 1f 49 dd 3d
       0.035985064 0.03446727 -0.16643704 0.10804962
0001d0 19 a9 af bc a4 2a ad bd 4f c0 5a 3d cb de ac bd
       -0.021442937 -0.08455399 0.053406056 -0.08440932
0001e0 5e 05 19 3e b2 15 ae bc 77 2e 85 3c 5e fe e0 bc
       0.14943454 -0.02125058 0.016257508 -0.027465042
0001f0 6d 51 dd 3c 6b 3e b5 bc 9e ec 05 be d4 92 e2 3a
       0.027016366 -0.02212449 -0.13078544 0.001728619
000200 5f 6a d7 3c 72 cf 03 3d 86 92 32 bd 26 6b 86 3c
       0.026295839 0.032180257 -0.043596767 0.016408514
000210 4b 40 e6 bc 98 66 90 3d 7c 5f 78 3c 1d 65 a5 bd
       -0.02810683 0.07050818 0.015159484 -0.080759265
000220 0d 87 e2 3d e0 d9 49 bd ad 58 0e 3d cb 9b 80 3d
       0.11060915 -0.049280047 0.034752537 0.06279715
000230 5b 68 85 bc 41 54 e7 3d 44 4b bd bb b5 28 18 be
       -0.016285112 0.11295367 -0.0057767946 -0.14859279
000240 1e f0 1a 3d 26 3e b4 39 15 a6 b5 bc 8c 92 5b 3d
       0.03782665 0.0003437858 -0.02217392 0.053606555
000250 ff f1 a6 3c 4e fc 1f be a4 3f 0d 3d 77 ad bf bd
       0.020379065 -0.1562359 0.03448452 -0.09359258
000260 3f 0d df 3d 23 4d af bd d1 00 bc 3d 0c e5 49 bd
       0.10891198 -0.085596345 0.09179843 -0.0492907
000270 28 2c 2a bd 64 2c c4 bd f4 7f 05 be 63 0e 0e 3e
       -0.041546017 -0.09578779 -0.13037091 0.13872676
000280 17 cf a9 bc e6 06 85 3c 87 51 a1 bd 17 c1 f4 3d
       -0.020728631 0.016238641 -0.07876878 0.119508915
000290 c8 5b 0b 3e f6 90 f3 3d 99 bc 29 bc 06 1a 93 bd
       0.1360923 0.118928835 -0.010359907 -0.07182698
0002a0 2e 9d c7 bc 1e 7a 02 3e e4 29 c4 3c c7 a6 09 3e
       -0.024366941 0.12741897 0.023945756 0.13442527
0002b0 18 fb c7 bd 06 21 8d 3d ec 12 9a 3d 14 d3 05 3d
       -0.09764689 0.06891064 0.0752314 0.032672003
0002c0 54 26 7f bd f0 9c ab 3d ea d6 6c bd b8 32 b8 3d
       -0.062292412 0.08379543 -0.057822146 0.08994049
0002d0 63 c4 8a bd a1 86 8c bc f1 d3 57 3d d2 7e ac 3b
       -0.06775739 -0.01715404 0.052692357 0.0052641416
0002e0 45 bf 15 3e 72 39 0f bd 13 51 91 bd c8 31 1a bd
       0.14623745 -0.034966893 -0.07095542 -0.03764513
0002f0 f5 3d 2d bd f6 13 ee bc 9c 56 04 be 77 23 07 bd
       -0.042295415 -0.029062252 -0.12923664 -0.032992806
000300 bc 8f 85 bc c6 b2 0a be b8 24 2e be db fd ef 3d
       -0.01630389 -0.13544759 -0.17006195 0.11718341
000310 a5 50 a6 3d e7 cb 65 3c ea 00 60 3a 39 56 17 be
       0.081208505 0.014025665 0.0008545058 -0.14778985
000320 70 a3 55 3d 56 61 ef 3d 1f 15 96 3d 7a 87 a8 3b
       0.05215782 0.11688487 0.07328247 0.005143103
000330 91 9f 17 3d 92 98 fc 38 09 be b8 3d 45 14 eb bd
       0.03701741 0.00012044715 0.09020621 -0.114784755
000340 45 67 63 bd 62 da d0 bd bc 28 64 bd 1d e2 6b 3d
       -0.055518407 -0.10197903 -0.05570291 0.057588685
000350 dd d3 21 3d 11 bf 74 bd b7 1d f4 3d 49 e6 d2 bc
       0.03950869 -0.059752528 0.1191973 -0.025744574
000360 c0 33 87 bc 38 de e1 bc 6e 65 e0 bc cf 8c 10 3d
       -0.016504169 -0.027571782 -0.027392115 0.035290536
000370 38 e5 c9 bd a6 08 bd bd e0 62 e9 3b a0 80 25 3e
       -0.09858173 -0.09230165 0.0071223825 0.16162348
000380 75 89 83 bd e1 a8 b9 3c 3c 95 0a be e9 95 b1 bd
       -0.06422702 0.022663536 -0.13533491 -0.08671171
000390 95 e9 a8 3d f8 2b 8a 3d 01 36 52 bb b9 16 c8 bd
       0.08247677 0.067466676 -0.0032075646 -0.09769959
0003a0 09 33 02 bd cb b3 0d 3e fa 5a 1f bc 1f 1f 00 3e
       -0.031786952 0.13838117 -0.00972628 0.12511872
0003b0 0d c8 86 3d 36 17 13 3d b7 42 14 3e 48 70 b9 bd
       0.065811254 0.035910808 0.14478575 -0.09054619
0003c0 6b 69 f3 bc 8c 3b d8 bd f1 d3 36 bd 2e 50 cc 3d
       -0.029713353 -0.10558233 -0.044635717 0.099762306
0003d0 01 c4 1f be 17 00 01 bd 2a 97 26 bd 07 3c 9e 3c
       -0.15602113 -0.031494226 -0.040671505 0.019315733
0003e0 4b 1a a6 3d 0a b7 09 bb ad 9c 0a bd a1 fc 81 bc
       0.08110484 -0.002101364 -0.033840824 -0.015867533
0003f0 e1 14 9b bd 84 33 04 be dd 1b aa bd 94 cf ec 3c
       -0.07572342 -0.12910277 -0.08306096 0.028907575

bias_ih_l0_reverse f4 [128]
000000 86 4f 02 3a 54 55 92 3d ef c4 14 3e 1a 53 a9 bd
       0.00049709564 0.07145181 0.14528249 -0.082678035
000010 65 49 2a 3e f1 5f 7d bd a7 18 c5 3c f6 d3 88 3d
       0.1662956 -0.061859075 0.024059607 0.06681053
000020 1c 77 ec 3d 83 a0 a9 3d e0 15 ea 3d 28 fd d0 3d
       0.11546156 0.08282568 0.114299536 0.10204536
000030 bc 0a a1 bc 67 c3 6d 3d 11 47 89 3c 1e 7c 17 3e
       -0.019658439 0.05804768 0.01675752 0.1479344
000040 c1 27 2b 3d 00 21 ce bc bc 16 8b 3c f4 26 19 ba
       0.04178596 -0.02516222 0.016978614 -0.0005842291
000050 9e 57 8a bc 44 10 bc 3d 8c cb 5f bc bc ff c1 3d
       -0.016887482 0.0918279 -0.013659369 0.094726056
000060 ae cf 82 bd 2e db 14 3e 99 86 14 3e a1 9e ae 3c
       -0.06387268 0.14536735 0.1450447 0.021315875
000070 9d 2b 53 3d 37 56 92 3d 65 b7 72 3d 67 58 5b bc
       0.051555265 0.071453504 0.05925693 -0.013387776
000080 d6 49 86 3d f3 98 cd 3d ad d1 e9 3d f8 e0 e4 b9
       0.06557052 0.100389384 0.114169456 -0.00043655164
000090 b0 fc 29 3e 9a 8d ba 3d 98 cd fa 3d ae c5 dd 3d
       0.16600299 0.091090396 0.12246245 0.1082872
0000a0 b2 d3 28 3e de 28 a2 3c a0 f4 32 3d f9 d3 b9 bc
       0.16487005 0.019794878 0.043690324 -0.022684084
0000b0 67 9b a3 3d a4 e3 eb 3d 48 1a 55 3d e2 a9 1b 3e
       0.07988625 0.115180284 0.052027017 0.15201524
0000c0 e3 2a 99 bc 9f 49 49 3d 15 4e 0a 3d 2b 54 b8 3d
       -0.018697208 0.049142476 0.03376587 0.09000429
0000d0 30 9d 5c 3d b4 7c ca 3c f3 06 74 3d 05 38 18 bc
       0.053860843 0.024717666 0.05957694 -0.0092907
0000e0 63 e3 21 3d ae a6 dd 3d 61 5e 94 3d e0 95 06 bd
       0.039523493 0.10822807 0.07244564 -0.032857776
0000f0 54 1e 1b 3e 33 f9 be 3d 3f ae 64 3d 3e fd 9c 3d
       0.15148288 0.09324875 0.055830237 0.076654896
000100 16 c9 2c bd e4 c5 f6 bd df 48 6a bc 9c 87 70 3b
       -0.042183958 -0.120494634 -0.0142996 0.0036701923
000110 bf 9a 50 3c be 24 02 3e e5 0f 0d 3c 0d 30 b4 bc
       0.012732207 0.12709329 0.008609747 -0.021995569
000120 72 8d 21 3e dc 33 e5 3d 87 3f 18 bb 0d d8 cc bc
       0.15776613 0.11191532 -0.0023231225 -0.025005365
000130 61 d2 d1 bd 33 dc 5e 3d 6a 5e 38 3d 33 09 bb bd
       -0.10245205 0.054409217 0.045011915 -0.09132614
000140 e3 2b f6 3b a5 24 86 bd 41 43 22 bc 43 76 0a 3c
       0.007512556 -0.06549958 -0.00990373 0.008451047
000150 76 f7 77 bc ed 34 a5 bd 13 e5 35 3d 3a 0a bc bd
       -0.015134683 -0.080667354 0.044407915 -0.09181638
000160 85 7c c2 3d e3 ad e0 bd 9b ec 26 3d dc dd b6 bd
       0.094964065 -0.10970666 0.04075299 -0.08929035
000170 19 f5 9e bd 6d e0 26 be 1d cb 04 be e0 ce dd 3d
       -0.077615924 -0.16296549 -0.12968107 0.10830474
000180 3a 3e a6 3d 0f 7b b4 3d a4 dd ba 3d 1d 6e 0e 3d
       0.081173375 0.08812534 0.09124306 0.03477298
000190 a1 52 9d 3c 64 04 21 ba c4 5e bd 3d 80 d1 85 bc
       0.01920444 -0.0006142317 0.09246591 -0.016335249
0001a0 9c 45 2b bc 10 ce 32 3d 18 0b 98 3d 8a 83 ea 3c
       -0.010453608 0.043653548 0.07423991 0.028627176
0001b0 b0 c0 96 bd d7 73 23 bd 0b a1 be 3c 56 54 dd 3d
       -0.07360971 -0.039905395 0.02327015 0.108071014
0001c0 e3 03 d2 bd 8b a4 6f 3d 8c 3b 18 3e 98 0b 25 3d
       -0.102546476 0.05850653 0.14866465 0.04029426
0001d0 a7 c9 ac bc f6 c6 8f 3c 0a 4f 33 3e ff df 00 3e
       -0.02109225 0.017550927 0.1751062 0.12585448
0001e0 8f c1 71 3d 4f dd 45 3d c9 0b e0 3d 85 e8 d7 3c
       0.059022482 0.04830676 0.10939748 0.026355991
0001f0 97 ad 81 3d 06 7e 17 3e e5 e7 d9 3d 50 e1 2f 3e
       0.06331938 0.14794168 0.106399335 0.17175794

bias_hh_l0_reverse f4 [128]
000000 bc 92 0b 3e a4 d5 44 3d b8 f7 91 3d 98 69 b7 bd
       0.13630193 0.048055306 0.07127327 -0.08955687
000010 ed 0d a4 3d e1 eb a4 bd d4 e1 71 3d ca 9e c3 3d
       0.08010469 -0.08052803 0.059053257 0.09551771
000020 ae eb de 3d 5c e7 86 3d 6a 90 b6 3d 9a 01 59 3d
       0.10884796 0.06587097 0.089142635 0.052980043
000030 d0 45 e3 3d 29 b4 c0 3d 24 fc c1 3d 3a fd 29 3d
       0.110973 0.09409363 0.0947192 0.04150126
000040 e9 e7 78 3d a9 12 c1 3c 38 86 ff 3d 90 13 6d 3d
       0.06076804 0.023568468 0.12476772 0.057879984
000050 a2 f7 19 3e 0a 83 87 3d 27 d2 23 bd d3 5a 19 3e
       0.1503587 0.066167906 -0.03999534 0.14976053
000060 e7 00 16 3d b3 fe 88 3d 41 c0 09 bd 95 5e 48 3c
       0.036621954 0.06689205 -0.033630613 0.012229581
000070 f0 a6 b6 3d a2 f3 8c 3d cf cb 43 3d 05 4f 33 3d
       0.089185596 0.06882407 0.04780179 0.04377653
000080 3b c6 80 3c 3b d8 af 3d d7 9d c5 3d 68 fa cf bd
       0.015719524 0.085861646 0.09649246 -0.10155183
000090 c9 3e b4 3c 49 37 f2 bc e0 be f7 3b c6 33 76 bc
       0.022002595 -0.029567378 0.007560596 -0.015026992
0000a0 69 b1 a5 3d 85 05 0f bd 26 c3 86 bd c5 c2 ba 3d
       0.08090479 -0.034917373 -0.0658019 0.091191806
0000b0 b9 ce ba bd ea 7c 1d 3e 0e 9c 51 b9 84 61 e8 3b
       -0.091214605 0.15379682 -0.00019989928 0.007091703
0000c0 03 dd 67 3c bf 1f b6 3d e6 62 0b 3e 13 44 c8 bc
       0.014151814 0.08892774 0.13611946 -0.024446523
0000d0 71 e8 f9 3d 70 59 0b 3e d1 e5 c8 bb 46 70 fa 3d
       0.12202538 0.13608336 -0.006130912 0.12228446
0000e0 6f 5d a4 bd 77 44 af ba 65 9f 1e 3e 6b 15 2a bd
       -0.080256335 -0.0013371845 0.15490492 -0.041524332
0000f0 24 78 01 3e 27 37 d0 bb d9 5b 2f 3d 28 ff 2e 3e
       0.12643486 -0.006354231 0.042812202 0.17089522
000100 3c 2c 10 be 6b 53 1b be e0 5f d0 bd 46 18 03 3d
       -0.14079374 -0.1516854 -0.10174537 0.03200557
000110 aa 5a f0 3d bf 88 fa 3c a5 4a a6 3d b3 65 84 bc
       0.11736043 0.030582784 0.08119706 -0.016161775
000120 87 cd 26 3e 57 27 c6 bb ad a0 1e 3c 44 13 12 3e
       0.1628934 -0.00604717 0.009681863 0.14265162
000130 dd 43 bd bd 41 9d af 3d 92 8f d1 3c 1c 83 51 bd
       -0.092414595 0.08574916 0.025581155 -0.051150426
000140 6c 32 db 3d fa 63 06 be 1e 69 b0 bd 47 c3 84 3d
       0.107029766 -0.13124076 -0.086137995 0.06482559
000150 26 1d 68 bc 5e 55 4f bd 8d c4 18 bd 0a 2c 93 bd
       -0.014167106 -0.050618522 -0.03729682 -0.07186134
000160 f1 0e df 3d e1 cd 9a 3c 26 0f df 3d bd a9 ca 3c
       0.10891522 0.018896999 0.10891561 0.02473914
000170 16 92 2d be 9d 50 73 bd 91 82 76 3b 38 27 1d 3e
       -0.16950259 -0.05940305 0.0037614445 0.15346992
000180 1b a2 c1 3d e5 55 c2 3c f6 20 69 3c 6c 11 a3 3c
       0.09454747 0.023722598 0.01422905 0.019905768
000190 92 68 8d bc f4 79 14 3c a5 aa 36 3d 44 43 87 3c
       -0.017261777 0.009062279 0.044596333 0.016511567
0001a0 18 1e fc 3d b9 4b fb 3d 07 97 be 3d bd 21 ee 3c
       0.123104274 0.12270302 0.0930615 0.029068822
0001b0 14 6b d4 3d e6 9e f5 bc 97 e8 e7 3d 90 8e 04 3e
       0.10371986 -0.029982995 0.1132366 0.12945008
0001c0 63 8d 91 3c ce b1 84 3d 1d 03 0f 3e 66 3e 8d bc
       0.017767614 0.06479226 0.13966031 -0.017241668
0001d0 6c 34 d2 3d 0c 62 85 3d 7c bf fe 3d bc 02 1c 3e
       0.10263905 0.065128416 0.124388665 0.15235418
0001e0 bf a6 4f bd df c8 7f 3b f2 3b c2 bc 16 aa 69 bd
       -0.05069613 0.003902964 -0.023710225 -0.057046972
0001f0 b4 97 a0 3d 08 49 24 3e 07 4f a1 3d 16 74 7b 3d
       0.07841435 0.16043484 0.078764014 0.061390005

bin_context_vector f4 [64, 1]
000000 c5 75 84 3d c2 2f 4e 3d 68 0a bb bc 2a 23 d8 bd
       0.06467775 0.050338514 -0.02283211 -0.10553582
000010 d3 cb 5d bd 6b 35 d2 3d 9a ce 96 3d ca e1 81 3c
       -0.05414946 0.10264095 0.07363625 0.015854735
000020 9d 96 03 bd 73 39 9d bc 55 f8 43 bd 82 d0 4e bd
       -0.032126058 -0.019192433 -0.04784425 -0.050491817
000030 ba 3b bc 3d 59 82 8a 3b 85 42 f0 bd 0d 48 c2 bd
       0.091910794 0.0042269644 -0.117314376 -0.09486399
000040 06 a2 a5 bd b7 8c 64 bc 4f 2d dc bd 20 c0 46 3c
       -0.08087544 -0.013949565 -0.107508294 0.012130767
000050 82 5a a2 bd 3f f7 84 bd 4b 7f 11 bd b3 ca 4e 3d
       -0.07927419 -0.06492471 -0.035521787 0.050486278
000060 65 ab 7b bd 90 d8 ba 3c d7 ad fa 3c e5 8a e2 3d
       -0.06144275 0.022808343 0.030600471 0.11061648
000070 79 9e b6 bd 2a 9b af bc e3 8f cb bd f0 8d b0 3c
       -0.08916945 -0.021436293 -0.099395536 0.021552056
000080 bf 8f a3 bd 01 e2 90 bd 77 8f a4 bd e3 98 75 3c
       -0.07986402 -0.07074357 -0.08035176 0.014990064
000090 8d 63 02 3e 3f 64 ad 3d 56 c0 0a 3e 25 f5 6c bd
       0.12733288 0.08466386 0.13549933 -0.057850976
0000a0 a1 1c 1c 3c 99 ac 0c 3d 00 95 a5 bd 86 0e 2f 3d
       0.00952831 0.03434429 -0.0808506 0.04273846
0000b0 76 00 7d 3c f5 ef d5 3d 12 58 2c 3d 50 76 0c 3d
       0.015442004 0.10446159 0.042076178 0.03429252
0000c0 f3 dd 6d bd 8a f7 5f bd 04 68 71 3c 04 f6 94 bb
       -0.058072995 -0.05467943 0.014734272 -0.004545929
0000d0 6f dc 58 bd 18 13 54 bd e9 36 e2 3d 6e 16 64 bd
       -0.052944597 -0.05177602 0.110456295 -0.055685453
0000e0 0a e0 ee 3b 3a be 0a 3d c7 4d db 3d 67 02 30 3c
       0.007289891 0.03387282 0.10708194 0.01074276
0000f0 fc 04 94 3d 7b 90 7b bb ab 7f a1 3d 4d f8 09 3e
       0.07227513 -0.0038385678 0.07885679 0.13473625

weight_ih_l0 f4 [128, 1]
000000 a9 be 4f 3c 73 6c b4 3c ec 6d dc 3c db 28 05 bb
       0.012679734 0.022024369 0.026907884 -0.0020318541
000010 da 23 78 3c f0 e0 2b 3b f4 ef 2a 3e 62 7b 56 bb
       0.015145266 0.0026226602 0.16693097 -0.003272735
000020 18 7f ff 3d 10 4d 01 3c 2d 1a 10 3d cb 38 99 3c
       0.12475413 0.007891908 0.035181213 0.018703839
000030 35 03 03 3d 38 76 33 bd 27 7f 0d 3b 3a 69 b9 3c
       0.03198548 -0.043813914 0.0021590681 0.022633184
000040 f9 b8 62 bd 9b ce c5 ba 68 28 20 3c c7 d8 1a 3c
       -0.055352185 -0.001509148 0.009775259 0.009451098
000050 36 1c b1 bb 85 68 a6 3c ce 1a 54 3c 2d 93 8d 3d
       -0.0054049743 0.02031351 0.012945844 0.06912837
000060 1e cc bd 3c f7 9a f9 bb 56 43 89 3d 08 39 ee 3b
       0.02316862 -0.00761735 0.067022964 0.0072699822
000070 46 94 6a 3b 02 f8 a1 3d 24 20 f2 39 b4 98 ce bc
       0.0035793944 0.07908632 0.00046181784 -0.025219299
000080 06 b2 a7 3b a7 fa 67 3d 52 10 95 3d 35 03 ec 3b
       0.0051176576 0.056635525 0.072785035 0.0072025307
000090 ba ac a1 bc 63 ad ca bd 9e 35 85 3d 19 28 ba 3d
       -0.019735683 -0.09896352 0.06504367 0.09089679
0000a0 b4 8f c4 3d d4 cd a0 3d 2b 29 a4 3d 31 2c 80 3c
       0.09597722 0.078517586 0.08015665 0.015646072
0000b0 ba 93 18 bd 70 47 f0 ba 32 53 d6 bd 61 dc c0 3c
       -0.037250258 -0.0018331837 -0.10465087 0.023542585
0000c0 f0 cb 0b 3d e9 dd 3d 3c 0f 42 01 3d 05 ba 95 3d
       0.034130037 0.011588552 0.03155714 0.07310871
0000d0 c4 32 c5 3b 80 35 af bd ea 4e 66 bc ba 47 40 bc
       0.0060180146 -0.08555126 -0.0140569005 -0.011735851
0000e0 79 3a e5 3a c5 7d 8c 3d 90 48 6b 3d ce a5 ab bd
       0.001748874 0.06859926 0.057442248 -0.08381234
0000f0 ff 2d 8f 3d 55 5f fe 3d 39 09 05 3d e8 0a d3 bd
       0.06991195 0.12420527 0.0324795 -0.103048146
000100 bb 6e 20 bd 5e 36 bc 3d 2d 80 19 3e fd 9d 40 bd
       -0.0391681 0.09190057 0.14990301 -0.04702567
000110 e7 09 2e 3d d7 61 a3 3c 56 4b 25 3d b5 64 c4 3c
       0.042489912 0.019944115 0.04035505 0.023973802
000120 a0 16 08 3e 34 9e e6 bd 8e 3a bf bd 6f 6b 0e bd
       0.13289881 -0.112606436 -0.0933734 -0.034770425
000130 77 d7 15 3d 11 09 8d 3b d1 27 e6 3d 7c 33 0d be
       0.036582436 0.0043040593 0.11238063 -0.13789171
000140 8a 0c 9a bb 11 e4 1c be d4 f2 84 bd b9 e6 16 be
       -0.004701202 -0.15321375 -0.06491628 -0.14736451
000150 62 8c af bd d8 7a bd bd 74 92 88 bd ff dd 36 bd
       -0.08571698 -0.09251946 -0.06668559 -0.044645306
000160 b7 2d 1f be d4 19 c2 3d 77 9d 78 3d bc 5d ce 3d
       -0.15544783 0.094775826 0.060697045 0.10076472
000170 ce 9c 03 be 8c 04 a8 bd 9e eb 0a be b6 df a2 bc
       -0.12852785 -0.08203992 -0.13566443 -0.019882064
000180 23 50 2a 3d 1e 1d 0c 3d 00 12 05 36 54 24 21 ba
       0.04158033 0.034207456 1.9829022e-06 -0.0006147076
000190 bc 77 fa 3d bb 02 71 3d f8 5c 1e ba ad e2 84 3d
       0.12229869 0.058840495 -0.0006041075 0.064885475
0001a0 bf 50 59 ba f4 17 6e 3d 15 9d 23 ba 01 29 93 bd
       -0.0008289925 0.058128312 -0.00062413636 -0.07185555
0001b0 43 85 9e bd 32 69 1b bd c5 bf b4 3d ad be 69 3c
       -0.077402614 -0.03794212 0.0882564 0.014266652
0001c0 81 68 82 bd bc 3e c1 b9 c1 5d 14 3e 27 d3 17 bb
       -0.06367589 -0.0003685857 0.1448889 -0.0023166628
0001d0 38 e7 ae 3d e8 46 41 3d de f8 4b 3d ae f5 a3 3c
       0.08540195 0.047186762 0.049797885 0.02001461
0001e0 e6 ad a7 3c 43 61 69 3c f9 6d 08 3b bd 73 5d 3d
       0.020468663 0.01424438 0.0020817502 0.054065455
0001f0 48 af d3 ba 79 5b 18 bb 91 88 0a 3d a4 05 08 3d
       -0.001615026 -0.0023247881 0.033821646 0.033208504

weight_hh_l0 f4 [128, 32]
000000 5f f6 0e 3d cb 2a 19 bd f5 2e 01 3d 03 10 9e bc
       0.034902927 -0.037394326 0.031538922 -0.019294744
000010 2a 2d 9e 3d 95 48 f1 3d b5 70 54 3c f7 f8 d5 3d
       0.07723458 0.11781422 0.012966325 0.10447877
000020 24 d3 a3 3d 1b 20 a0 bc 8d fe b0 bd fa 7e 84 bd
       0.07999256 -0.01954656 -0.08642302 -0.06469531
000030 ca 75 74 3d 62 d4 bf bd 79 56 a0 3d bd c4 dc bd
       0.059682645 -0.09366681 0.07828993 -0.10779712
000040 39 0e ac 3b 39 ff 3d bd 79 f0 5a 3c 03 7b f8 bd
       0.005250719 -0.046385977 0.013362997 -0.121328376
000050 8e af 0e 3c ec 7e 1e bd 36 45 1b 3d b2 bc 0b be
       0.008708848 -0.03869526 0.0379078 -0.136462
000060 f4 ba ad bd 55 5f a3 3d 71 e0 ba 3d 6f 5b fc 3d
       -0.08482924 0.079771675 0.0912484 0.12322127
000070 79 82 45 bb cb 0f d7 bd 21 e0 ba b9 df 90 a7 3d
       -0.0030137582 -0.10501059 -0.00035643674 0.08181929
000080 ad 94 84 bd b1 85 c0 bc 16 db 48 bb fe 0d 90 bd
       -0.0647367 -0.023501249 -0.0030648164 -0.07033919
000090 39 c7 05 3e 76 8a 50 bd 8e 31 14 3d 5f 0d 52 bd
       0.13064279 -0.050913297 0.03618007 -0.051282283
0000a0 76 67 a4 3d 88 43 7f 3d 21 69 3b bd 14 fa ca bd
       0.08027546 0.062320262 -0.045754556 -0.0991098
0000b0 f5 6e d3 3d 4f d7 59 bd 8b 1c ad 3d 51 ac 15 3d
       0.10323898 -0.05318385 0.0845271 0.036541287
0000c0 5c 11 2e bc d1 4a 4b bd 69 52 31 bd fc 50 0b be
       -0.010624256 -0.049631897 -0.043291483 -0.13605112
0000d0 ac cb c6 bd 81 5b 84 bd 03 77 75 3d ad b9 7a 3d
       -0.09706816 -0.064627655 0.05992795 0.06121223
0000e0 d0 cd bd bd ca c4 c7 bb 74 f3 2f 3c 65 f3 6c 3d
       -0.09267771 -0.006096457 0.010739196 0.057849307
0000f0 68 82 ca bd 54 26 cc bc 84 ba b2 bd ea 71 7c 3d
       -0.09888154 -0.02492062 -0.08726981 0.061632074
000100 c4 07 52 3c 44 ed d6 3d 4e 3e 53 bc 82 d9 5c bd
       0.012819234 0.104944736 -0.012893273 -0.05391837
000110 c6 66 05 3e 94 ab c7 3d 41 05 1a 3c 54 72 84 bd
       0.13027486 0.09749523 0.009400667 -0.06467119
000120 39 4f f4 bc e6 f5 07 3b f1 d5 36 bd cf 5c be 3c
       -0.029822933 0.0020745932 -0.044637624 0.023237614
000130 0d 88 d2 3d 30 8d b7 bd 04 8f 30 bd 45 37 d7 3c
       0.10279856 -0.08962476 -0.04310514 0.026271472
000140 7b 5d 42 bd 08 4b a0 3b b3 7e 8e bd c2 30 1e bd
       -0.04745243 0.004891757 -0.0695776 -0.038620718
000150 4f f2 b1 bd b4 99 3e bc 13 3f aa bc c6 cf 2e 3d
       -0.08688795 -0.011633325 -0.02078203 0.042678617
000160 e9 59 2c 3c 9c f1 dc 3c 27 89 a6 3d 34 4a 4a 3d
       0.010519483 0.026970677 0.081316285 0.049387172
000170 d3 77 f2 bd b7 d3 f6 bc 6c ee 58 bc 3a 78 63 bc
       -0.11839261 -0.03013025 -0.013240438 -0.013883645
000180 d9 48 07 be c2 9f 4c bd c1 42 fe bc ed fb 15 bc
       -0.13211383 -0.049957044 -0.03103769 -0.009154302
000190 b6 d4 5e 3d 3d 0e f5 3d 1c f4 7c 3c 3c 7c f9 3d
       0.054402076 0.11965606 0.01543906 0.12181899
0001a0 23 e6 44 3d aa 27 12 3d 1f b1 23 be 07 cf 32 be
       0.048071038 0.035682358 -0.15985535 -0.17461787
0001b0 30 71 d0 bb 82 18 bf bb 90 e8 d6 3d e4 dd 76 bc
       -0.0063611493 -0.005831779 0.104935765 -0.015067551
0001c0 67 b1 00 be c2 74 0e bd b0 6f d2 bd 44 6c 45 bd
       -0.12567674 -0.034779318 -0.10275209 -0.048198953
0001d0 43 fc cc bd 21 48 4b 3d 79 b8 28 bd 33 ab 2d bc
       -0.100090526 0.049629334 -0.04119155 -0.010599899
0001e0 3a f2 10 be 40 58 f8 3d df 65 20 3d 55 2d 96 3c
       -0.14154902 0.12126207 0.03915965 0.018332163
0001f0 da b6 a1 bd 66 08 1b bd eb b1 e0 bd ba b9 cf 3d
       -0.07896204 -0.037849806 -0.10971435 0.101428464
000200 f1 f3 a1 bd 9f 51 c0 3d 14 d6 16 3c 79 a4 1b be
       -0.07907856 0.09390568 0.009206314 -0.1519946
000210 7f 54 c1 3d 19 11 d3 3d 91 4d 14 3c a9 f3 9e 3c
       0.094399445 0.103059955 0.009051696 0.019403296
000220 a5 16 0d 3e 4b e7 08 be 3a 58 87 bd 49 39 0b be
       0.1377817 -0.13369481 -0.06608625 -0.13596071
000230 3a b6 0d 3e ce a5 da bd 90 de c8 3d 89 9b f4 bc
       0.13839045 -0.10676156 0.098080754 -0.029859321
000240 29 1a 11 be 5b 81 fc 3c bc 68 5e 3d 66 93 8d 3b
       -0.14170136 0.0308234 0.0542991 0.00432055
000250 b9 8f 3e bc 48 73 57 bd 9c 86 0c be 95 b8 98 bd
       -0.011630946 -0.052600175 -0.13723224 -0.07457081
000260 89 61 f1 bc 4c dd 57 bc 03 d7 4b 3c 77 d6 34 3e
       -0.029465454 -0.01317532 0.0124413995 0.17659937
000270 b4 ac 00 3d 63 e5 30 bd 8d 2a 17 be 6b 49 6f 3d
       0.031414703 -0.04318751 -0.14762326 0.058419626
000280 dd b9 af bc 4a 8a 6b bd b8 be 56 3d 46 b1 eb 3c
       -0.021450931 -0.05750493 0.052427977 0.028771054
000290 b7 24 f7 3a 2f 5d 2c 3d b5 b7 25 3e a6 7a b9 bd
       0.0018855546 0.042081054 0.1618336 -0.090565965
0002a0 f0 53 85 3d a4 53 8e 3c 02 6a 33 3c 83 15 75 bd
       0.065101504 0.017373867 0.010950567 -0.05983497
0002b0 73 48 50 bc 96 c1 c4 bd 1e e2 11 bd 67 42 de bd
       -0.012712586 -0.09607236 -0.035616033 -0.10852509
0002c0 56 e2 b7 bd eb 6a 1d be 23 f1 63 bd 3b b9 b7 3c
       -0.08978717 -0.15372817 -0.055649888 0.022427192
0002d0 0f 84 22 bd 47 f7 cc bc 9e ed ed b8 9d 51 a7 3d
       -0.039676722 -0.025020255 -0.000113453 0.081698634
0002e0 c3 5a 24 bc 90 e9 f1 3d d2 db e6 3c 5b c3 ba 3d
       -0.010031405 0.11812127 0.02818099 0.09119292
0002f0 60 15 b6 bd 8d a3 97 bd e1 ba 0a be 09 a4 ab 3d
       -0.08890796 -0.07404242 -0.13547851 0.083808966
000300 e0 39 9b bd a9 c2 18 3e d8 f2 9b 3c bb 9f a9 3d
       -0.07579398 0.14918007 0.019036695 0.08282419
000310 3c 64 4a bb 40 ff 99 3d eb d1 19 3e f2 66 fc bc
       -0.0030882498 0.07519388 0.15021484 -0.030810807
000320 01 4b 73 bc 08 26 63 bd c9 66 b1 bd 2c dc 02 bd
       -0.014849425 -0.05545619 -0.08662183 -0.031948254
000330 5d 01 7b 3c a2 4d b2 bd ec 23 6d bc 54 43 18 be
       0.015320149 -0.087062135 -0.0144738965 -0.14869434
000340 e2 95 5f 3d 57 61 57 bd f6 ce a8 bd 51 44 07 be
       0.0545863 -0.052583065 -0.082426 -0.13209654
000350 62 f5 00 3d 1c 5c ba bd 06 82 c2 bd bd 2f bf bd
       0.031484015 -0.090996 -0.09497456 -0.09335277
000360 ca 44 0c be a2 cb b3 3b b9 13 d2 3d 9b 10 cf 3d
       -0.13698116 0.0054869214 0.10257668 0.10110589
000370 9b 9d 04 be a0 c5 3f 3c 31 9e 88 bc 93 8b f2 3d
       -0.12950747 0.011704832 -0.016676994 0.11843028
000380 5b fd 51 3c 82 04 6c bd 54 56 a0 3d de ce 26 3d
       0.012816752 -0.057621486 0.07828966 0.040724628
000390 2e 2c 04 3e 1a 21 7d bd 79 2d 49 3d b7 1d 90 bd
       0.12907478 -0.061799146 0.04911563 -0.07036918
0003a0 f5 94 d1 bc 32 b6 8a bd e8 8c 91 bd 9e ad c0 bc
       -0.025583724 -0.06773032 -0.07106954 -0.023520287
0003b0 eb f1 f0 3d c8 c1 cd bb c8 9f 41 3d 0e 7b bf bd
       0.11764892 -0.006279204 0.04727152 -0.09349643
0003c0 5f 61 0d be ba 14 a7 bd bc b7 8c bd 1b 8b 03 be
       -0.13806675 -0.0815825 -0.06870982 -0.12846033
0003d0 30 53 c3 bd 2c 37 39 bd 8b d3 3a 3d 75 af 0e bd
       -0.09537351 -0.04521863 0.0456119 -0.034835298
0003e0 1e 32 b6 bd f2 cd 91 bc 75 6c 2d 3d 19 40 1b 3e
       -0.08896278 -0.017798398 0.04233976 0.1516117
0003f0 64 d6 b0 bd 4e 2d ee bd 1a 8c 8d bd 48 a6 5c bd
       -0.08634642 -0.11629735 -0.06911488 -0.053869516
