Results/gm_bulk_k562_bulk/gm_bulk_k562_bulk_aux_siamese/gm_bulk_k562_bulk_aux_siamese_R2_model.pt (torch_old, 517793 bytes, 122 tensors)

weight_ih_l0 f4 [128, 1]
0	0x3dbb9dd0	0.0916096
1	0xbd8f37af	-0.06993043
2	0x3d84009d	0.064454295
3	0x3d1059aa	0.03524176
4	0x3cc68899	0.024235057
5	0x3da60ead	0.08108268
6	0xbc030605	-0.007997041
7	0xbca91647	-0.020640505
8	0x3d932e44	0.07186559
9	0xbe5905e7	-0.21193658
10	0x3d26d44d	0.04072981
11	0xbcb7f2d6	-0.02245466
12	0x3d9f3253	0.077732705
13	0x3dcbf2d4	0.09958425
14	0x3e60efae	0.2196643
15	0x3bc1609e	0.0059014102
16	0x3e1e565b	0.1546263
17	0x3c2f52af	0.010700866
18	0xbe02f35f	-0.12788151
19	0x3e28dd6e	0.16490719
20	0xb91f7345	-0.00015206363
21	0x3d802823	0.062576555
22	0x3de69d51	0.112604745
23	0xbca5d4cc	-0.020243071
24	0x3d6f1f8b	0.05837969
25	0x3deb26fb	0.11482044
26	0xbdd5fe73	-0.10448923
27	0xbd48369b	-0.0488802
28	0x3e00f1aa	0.12592188
29	0x3e2a9ffc	0.16662592
30	0xbdc80f15	-0.09768502
31	0x3e070a9e	0.13187644
32	0xbd12d9d3	-0.035852265
33	0xbd04f1b5	-0.032457072
34	0xbd25bf2d	-0.040465523
35	0xbdcc2fe4	-0.09970072
36	0xbc4c4a73	-0.012468922
37	0x3da8a6cb	0.08234938
38	0xbd509d98	-0.050931543
39	0xbd94082b	-0.072281204
40	0xbda21769	-0.079146214
41	0xbd86dc02	-0.06584932
42	0x3db29367	0.08719521
43	0xbd8b4d7e	-0.0680189
44	0xbdafd114	-0.085848
45	0x3ccb205a	0.0247957
46	0xbd53fc21	-0.05175412
47	0xbc6dd767	-0.014516688
48	0xbda7354e	-0.08164464
49	0xbd37f0dd	-0.04490744
50	0x3d9c5add	0.07634518
51	0xbdc5b0a2	-0.09652831
52	0xbd9bc79b	-0.07606431
53	0x3d36f0bd	0.04466318
54	0x3c923267	0.0178463
55	0xbaab4500	-0.0013066828
56	0x3dba0050	0.09082091
57	0x3cad8f80	0.02118659
58	0xbc3f51d3	-0.011677223
59	0xbd932858	-0.07185429
60	0x3d8d1857	0.06889408
61	0xbbd7e0f3	-0.0065880953
62	0xbd537959	-0.051629398
63	0xbcd407c0	-0.025882602
64	0xbe43e381	-0.19129755
65	0x3d14b968	0.03630963
66	0x3baa2591	0.0051924665
67	0x3e98ae5e	0.29820532
68	0xbe606ae8	-0.21915781
69	0x3d021ca7	0.031765606
70	0xbd90a242	-0.07062198
71	0x3dac7e5f	0.08422541
72	0x3d6e23f3	0.058139753
73	0xbe2af0c5	-0.16693409
74	0xbd9ba7ac	-0.0760034
75	0x3defeb1d	0.11714766
76	0xbe16b7bd	-0.14718528
77	0x3e930bf9	0.28720072
78	0xbdfeaf39	-0.12435765
79	0x3d2655b7	0.040609088
80	0xbd48af56	-0.04899534
81	0x3b92ad70	0.004476242
82	0x3e5a43dc	0.21314949
83	0x3eb80328	0.35939908
84	0xbdd42da7	-0.1036027
85	0x3e80c7bc	0.25152385
86	0x3d9307d7	0.0717923
87	0x3c98c003	0.018646246
88	0x3c0b697b	0.008509035
89	0x3ce74329	0.028230267
90	0xbe89d0b5	-0.26917043
91	0x3e67f4f1	0.22652031
92	0x3d9e94f3	0.077432536
93	0x3a781aa9	0.0009464422
94	0xbe1c6c7b	-0.15275757
95	0x3eba63a6	0.3640415
96	0x3d941be5	0.07231883
97	0x3e0fa114	0.1402629
98	0x3c953069	0.01821156
99	0xbd797769	-0.060904894
100	0xbe442651	-0.19155242
101	0xbdf1c332	-0.11804809
102	0xbdc33cb6	-0.09533064
103	0x3d337f46	0.04382255
104	0x3df93314	0.121679455
105	0x3d1adc79	0.037807915
106	0x3c6c77ed	0.014432889
107	0x3d5d576e	0.054038458
108	0x3df69279	0.12039656
109	0x3c2a46dc	0.010392871
110	0x3e17ba19	0.14817084
111	0x3d5c5f49	0.05380181
112	0xbd29137a	-0.04127834
113	0xbdae6283	-0.08514883
114	0xbddeb959	-0.10875196
115	0x3d8aa037	0.0676884
116	0xbd2df802	-0.042472847
117	0xbe214017	-0.15747105
118	0x3d08ad03	0.03336812
119	0x3dc9b098	0.09848136
120	0xbc86d9cf	-0.016461281
121	0x3e50368d	0.2033331
122	0xbda84db4	-0.08217946
123	0xbd8b1449	-0.067909785
124	0x3c52dbe0	0.012869805
125	0x3e108644	0.14113718
126	0x3cf21d46	0.029554974
127	0x3dfc632f	0.12323605

weight_hh_l0 f4 [128, 32]
0	0x3d0ce6a7	0.034399655
1	0xbd5bc143	-0.053651106
2	0x3d32426a	0.04352037
3	0xbd006fc3	-0.031356584
4	0x3da6287d	0.08113191
5	0x3cef5333	0.029214477
6	0xbdaaf764	-0.08347967
7	0x3ab842cd	0.0014057994
8	0x3c62439a	0.013810063
9	0x3da3aef5	0.07992355
10	0x3d80cf5d	0.062895514
11	0xbd8e5682	-0.06950094
12	0xbd8d6d62	-0.06905629
13	0x3d7f6de7	0.06236067
14	0xbc928813	-0.01788715
15	0xbd929c7f	-0.071587555
16	0x3d730500	0.05933094
17	0xbd71356e	-0.058888845
18	0xbca10377	-0.019654972
19	0x3c134033	0.008987474
20	0xbd8bcabc	-0.06825778
21	0x3db5fbb8	0.08885902
22	0x3dc749d3	0.09730878
23	0x3dab9ba7	0.08379298
24	0xbccc4397	-0.024934573
25	0x3cf23e33	0.029570675
26	0x38173333	3.604889e-05
27	0x3d314b03	0.043284427
28	0x3d22dff0	0.039764345
29	0x3db3ee13	0.087856434
30	0x3d950368	0.0727604
31	0x3d50ccdd	0.050976623
32	0x3dab4cf5	0.08364288
33	0x3da11e65	0.078671254
34	0x3d0d4587	0.034490135
35	0xbc55c220	-0.013046771
36	0x3dc41f2b	0.09576257
37	0x3c63711a	0.013881946
38	0xbc2e8833	-0.01065259
39	0xbdaefd1d	-0.08544371
40	0xbccf8e77	-0.025336487
41	0xbdb345e6	-0.087535664
42	0xbdbfd48b	-0.09366711
43	0xbd1a6938	-0.037698
44	0xbb6ca933	-0.0036111593
45	0x3d05ee4d	0.032697964
46	0x3cb675d3	0.02227298
47	0xbb4d4c9a	-0.0031326176
48	0xbd1aa5e3	-0.03775586
49	0xbdc233c6	-0.09482531
50	0xbd98287c	-0.07429597
51	0x3daa525a	0.083164886
52	0x3b767200	0.003760457
53	0x3ca6e4c0	0.020372748
54	0xbc7c60e7	-0.015403963
55	0x3d03029d	0.031984914
56	0xbd987b73	-0.07445421
57	0xbd6089c9	-0.054818902
58	0xbda7576e	-0.08170973
59	0xbc3d36da	-0.011548722
60	0x3cab5bcd	0.020917797
61	0x3c8cdf53	0.017196333
62	0xbd5803d4	-0.052738026
63	0xbc436727	-0.011926449
64	0x3d3629ea	0.044473566
65	0x3d3121e0	0.043245196
66	0xbca08b6d	-0.019597733
67	0x3d3661a0	0.044526696
68	0xbd9ab74b	-0.075544916
69	0xbc112e3a	-0.008861119
70	0x3cc5d5da	0.024149824
71	0x3b582c00	0.003298521
72	0xbd5f87cf	-0.054572877
73	0x3d4d4903	0.050118458
74	0x3b655467	0.0034992935
75	0x3d0009a7	0.031259205
76	0xbc7cdb3a	-0.015433127
77	0xbc3e3980	-0.011610389
78	0xbc34f92d	-0.011045736
79	0x3ce08793	0.027408397
80	0xbd68e728	-0.056861073
81	0x3d981be0	0.07427192
82	0x3d8be853	0.06831422
83	0x3d738267	0.059450533
84	0xbd8c54e9	-0.06852133
85	0x3db26d8a	0.08712299
86	0x3c30b24d	0.010784698
87	0x3d7bffd7	0.061523285
88	0x3dbb6960	0.09150958
89	0x3c1381da	0.009003127
90	0x3c958867	0.018253518
91	0x3cc7dec0	0.024398208
92	0x3db302a0	0.08740735
93	0xbcf5f123	-0.03002221
94	0xbcc3b053	-0.023887789
95	0x3d5853fa	0.05281446
96	0xbc86e69d	-0.016467387
97	0x3d06c163	0.03289927
98	0x3d92b4ca	0.07163389
99	0xbdc1c369	-0.094611
100	0xbce0ae53	-0.027426874
101	0x3d0bf12d	0.03416555
102	0xbccb0b4a	-0.024785656
103	0xbd11d8f2	-0.035607286
104	0xbd8adc14	-0.06780258
105	0x3cc7e120	0.02439934
106	0xbce18e47	-0.027533663
107	0xbcc80be3	-0.02441973
108	0x3d666b67	0.05625477
109	0x3ca94720	0.020663798
110	0xbd399587	-0.045308616
111	0xbb966667	-0.004589844
112	0x3d70df33	0.05880661
113	0xbb84c133	-0.0040513515
114	0xbcd13fdd	-0.025543148
115	0xbdaf53eb	-0.08560928
116	0xbd276e08	-0.04087642
117	0xbdab5ab9	-0.08366913
118	0x3d8d28cd	0.06892548
119	0x3d86444f	0.065559976
120	0x3daf64b2	0.08564128
121	0x3c951040	0.018196225
122	0xbd032ad8	-0.03202328
123	0x3da4ec5a	0.08052893
124	0x3d348c90	0.044079363
125	0xbda40519	-0.08008785
126	0xbd1785b8	-0.03699276
127	0x3b391f67	0.0028247477
128	0xbd803ee0	-0.062619925
129	0x3c1f76e7	0.009732938
130	0x3cf4ef93	0.029899394
131	0xbcb27910	-0.021786243
132	0xbd1ad9fb	-0.03780554
133	0x3c9fdf33	0.01951561
134	0xbdb04e4b	-0.08608683
135	0x3cb6d61a	0.022318888
136	0x3d80020d	0.06250391
137	0xbc257c7a	-0.010100478
138	0x3c7b14f3	0.015324819
139	0x3d981c72	0.074273005
140	0x3c136633	0.008996534
141	0xbdac17af	-0.08402955
142	0xbd75c3ef	-0.06000131
143	0x3d38b923	0.045098435
144	0xbcead79a	-0.02866726
145	0x3ca3170d	0.019908452
146	0x3dc1e443	0.094673656
147	0xbd0ae59f	-0.03391039
148	0x3bff50cd	0.0077916146
149	0xbd0d8b32	-0.034556575
150	0x3dcae505	0.09906963
151	0xbcbd9efa	-0.023147095
152	0x3c7994da	0.015233243
153	0x3d57dc47	0.052700307
154	0x3dc5feb0	0.096677184
155	0x3db9295b	0.09041091
156	0xb7884000	-1.6242266e-05
157	0x3c9c3c20	0.019071639
158	0xbad745cd	-0.0016424
159	0xbdbdbe5a	-0.09264822
160	0xbda03795	-0.078231014
161	0xbcd085ad	-0.025454367
162	0x3c5826a7	0.013192809
163	0x3c9e0113	0.019287622
164	0x3cb5bf60	0.022185981
165	0x3bd8ff1a	0.0066222074
166	0xbcae3007	-0.021263136
167	0xb9b41b33	-0.0003435254
168	0xbd9f62d6	-0.07782523
169	0xbd44b793	-0.048026633
170	0xbc6bef13	-0.014400261
171	0x3d53803a	0.05163596
172	0x3d0c023a	0.03418181
173	0x3d95286a	0.07283099
174	0x3cf36fe7	0.029716445
175	0x3b3c8c9a	0.0028770328
176	0x3d45a153	0.048249554
177	0x3d523f4a	0.05132989
178	0x3d8d4293	0.06897464
179	0xbd20fc8b	-0.039303344
180	0xbd2f48c7	-0.042794015
181	0x3daaf085	0.08346657
182	0x3cf95c07	0.03043939
183	0x3ccd5400	0.025064468
184	0xbd8fb1df	-0.07016348
185	0xbdbe415e	-0.092898116
186	0x3da87bdd	0.0822675
187	0x3d3e41fd	0.04644965
188	0xbd894e9d	-0.067044474
189	0xbd9bf649	-0.076153345
190	0xbd1a263a	-0.037634112
191	0x3d707830	0.05870837
192	0x3d20b43a	0.039234377
193	0x3d9488dd	0.07252667
194	0xbd9827df	-0.0742948
195	0x3dad239d	0.08454058
196	0x3daae7e8	0.08345014
197	0xbb5bf6cd	-0.0033563853
198	0xbdc43c70	-0.0958184
199	0xbd58e8d7	-0.05295643
200	0x3db02dbf	0.086024754
201	0x3d489a03	0.048975002
202	0x3dbe3c4a	0.09288843
203	0xbdb7e32f	-0.08978879
204	0xba79ef33	-0.00095342397
205	0x3d535b23	0.051600587
206	0xbbf211a7	-0.007387358
207	0xbd49f5ef	-0.049306806
208	0xbc30759a	-0.010770226
209	0x3d5d24a7	0.053990033
210	0xbc7c5bfa	-0.015402788
211	0x3d8ee8af	0.069779746
212	0x3d731cbd	0.05935358
213	0xbdccad97	-0.09994047
214	0xbca33bad	-0.019925917
215	0xbda0efd8	-0.078582466
216	0xbdc4a92d	-0.0960258
217	0x3d91594d	0.07097111
218	0xbd521871	-0.05129284
219	0x3d35037d	0.04419278
220	0x3dba3740	0.09092569
221	0xbc9966c0	-0.018725753
222	0x3c77d89a	0.015127325
223	0xbce829b7	-0.028340204
224	0x3dc8290a	0.097734526
225	0xbc04473a	-0.008073622
226	0x3d5986d0	0.053107083
227	0x3d1e32c3	0.03862263
228	0xbd883c75	-0.06652156
229	0xbca47b03	-0.020078188
230	0xbc0aa693	-0.008462566
231	0x3d714c2a	0.058910526
232	0x3cff7f27	0.03118856
233	0x3da6a827	0.08137541
234	0x3b469467	0.0030300857
235	0x3c276127	0.010216034
236	0xbd446bb2	-0.04795427
237	0x3c83075a	0.015994716
238	0x3da9705b	0.08273383
239	0xbccd2b2a	-0.025044996
240	0xbdbaa59d	-0.091136195
241	0xbd11f08d	-0.035629798
242	0x3d6e5607	0.05818751
243	0xbd836449	-0.06415612
244	0x3c081bc0	0.008307397
245	0x3da5573d	0.0807328
246	0x3bfea21a	0.007770789
247	0xbdc64c5d	-0.09682534
248	0x3d58b4ca	0.05290679
249	0x3d04e007	0.03244021
250	0xbdc7596f	-0.09733855
251	0xb9484667	-0.00019099713
252	0x3c5fac1a	0.013651872
253	0x3c26c327	0.010178364
254	0xbdad5206	-0.0846291
255	0x3d9d2cbf	0.0767455

bias_ih_l0 f4 [128]
0	0x3cb45faf	0.022018282
1	0x3df34b66	0.118796155
2	0xbd9db934	-0.0770134
3	0x3e77c0c4	0.24194628
4	0x3e36e4e3	0.17860751
5	0xbcdc1d77	-0.026869519
6	0x3d2ec2d9	0.04266629
7	0xbe27a779	-0.1637248
8	0x3d03d25c	0.032183036
9	0x3e66a1f4	0.22522718
10	0x3e679f83	0.22619443
11	0x3d87ee0b	0.066372
12	0x3e26b6a9	0.16280617
13	0x3e719acd	0.23594208
14	0xbc17e2a2	-0.009270342
15	0xbd8288e5	-0.06373767
16	0x3dcb2850	0.099197984
17	0x3e0edc9f	0.13951348
18	0x3c13d7f8	0.009023659
19	0x3dbdd246	0.09268622
20	0x3d332f86	0.043746494
21	0x3dd9fceb	0.106439434
22	0x3d4ae5de	0.049535625
23	0x3dafd6fc	0.08585927
24	0xbce58630	-0.028018087
25	0x3e702eca	0.23455349
26	0x3e1cf08f	0.15326141
27	0xbd021cd2	-0.031765766
28	0x3d2d924e	0.042375855
29	0x3d3bc3e9	0.04584113
30	0x3dea59f5	0.11442939
31	0x3dea6b7f	0.114462845
32	0x3d216457	0.039402332
33	0x3dbd6b4a	0.092489794
34	0xbd9449ea	-0.072406605
35	0x3d52197a	0.051293828
36	0xbd1989df	-0.037485
37	0xbd75a1bd	-0.0599687
38	0xbd09e6d7	-0.03366741
39	0xbdb804a1	-0.08985258
40	0x3a94a600	0.0011340976
41	0xbd876825	-0.06611661
42	0x3d973063	0.07382276
43	0x3d592c67	0.05302086
44	0x3dc690ea	0.09695609
45	0x3dbea490	0.093087316
46	0xbd1111e8	-0.035417467
47	0x3db37177	0.08761876
48	0xbc9aa033	-0.018875217
49	0x3cab57cd	0.02091589
50	0x3c640da7	0.013919271
51	0xbd4b24af	-0.04959553
52	0xbc1c3060	-0.009533018
53	0xbd9a79ac	-0.07542738
54	0xbd83f713	-0.0644361
55	0xbdbf34e6	-0.093362615
56	0xbd954895	-0.072892345
57	0xbcd7c78d	-0.02634027
58	0x3dbc3680	0.091900826
59	0x3d0ef9ca	0.034906186
60	0x3bf79967	0.007556129
61	0xbc5db013	-0.013530749
62	0x3da6d6a2	0.08146407
63	0x3db4db95	0.088309444
64	0xbcde09cd	-0.027104283
65	0x3e797f95	0.24365075
66	0xbda1ef48	-0.079069674
67	0x3e018f5f	0.12652348
68	0xbe576d71	-0.21037842
69	0x3cbfadc9	0.023398297
70	0xbe2e0a4c	-0.16996115
71	0x3d3b4020	0.04571545
72	0x3df5b54e	0.11997472
73	0xbe505c45	-0.20347698
74	0xbe91542a	-0.28384525
75	0x3e3eba0b	0.18625657
76	0xbe7e395a	-0.24826565
77	0x3e88fd45	0.2675573
78	0xbdc3bb22	-0.09557177
79	0x3e2c7b59	0.16843928
80	0xbe6598df	-0.22421597
81	0x3de59150	0.11209357
82	0x3d570260	0.0524925
83	0x3e49ae4c	0.19695395
84	0xbe0b0d53	-0.13579302
85	0x3e2a139d	0.16609044
86	0x3e001bb4	0.12510568
87	0x3e430f10	0.19048715
88	0x3df68035	0.12036172
89	0x3ea5f6e4	0.32414925
90	0xbe1e9c64	-0.15489346
91	0x3d488e5d	0.048963893
92	0x3dca7ae9	0.098867245
93	0xbe6dce43	-0.23223214
94	0xbd9f47c0	-0.07777357
95	0x3e430728	0.19045699
96	0x3d489c54	0.04897721
97	0x3daf18c3	0.08549645
98	0xbdd4409e	-0.10363887
99	0x3e548cf8	0.207569
100	0x3e2944ab	0.16530101
101	0xbe03e488	-0.12880147
102	0x3da51f87	0.08062654
103	0xbe383472	-0.17988756
104	0xbd7f3e50	-0.062315285
105	0x3e7c122a	0.24616304
106	0x3dc15a38	0.09441036
107	0x3d13eee7	0.036116507
108	0x3e3a233b	0.18177502
109	0x3e2294d7	0.1587709
110	0xbc7345b4	-0.0148481615
111	0x3d590fac	0.05299346
112	0x3e13a8c4	0.14419848
113	0x3a4e722b	0.0007875289
114	0xbcb8e8ce	-0.022571947
115	0x3e5172b6	0.20453915
116	0xbcaac881	-0.02084756
117	0x3db22d53	0.08700051
118	0xbd3835d5	-0.044973213
119	0xbd44d8ca	-0.04805831
120	0xbd3970db	-0.045273643
121	0x3e74cd48	0.23906434
122	0x3dcaaf18	0.09896678
123	0x3d1068c6	0.03525617
124	0xbdc0bc29	-0.09410889
125	0x3d307e4d	0.0430892
126	0x3dff8bea	0.12477858
127	0x3db644e3	0.08899858

bias_hh_l0 f4 [128]
0	0x3dfe14bc	0.124062985
1	0x3dd95241	0.10611392
2	0xbc9ca8a1	-0.019123377
3	0x3d6f32c5	0.058398027
4	0x3e49fe2e	0.19725868
5	0xbd8afebc	-0.06786868
6	0x3e14ba50	0.14524198
7	0xbcfaab31	-0.030599209
8	0x3d80fab5	0.062978186
9	0x3dbe627b	0.092961274
10	0x3defe1b7	0.117129736
11	0x3e2da1dd	0.16956277
12	0x3d79ab26	0.060954235
13	0x3db0d4c5	0.086343326
14	0xbda9dd81	-0.08294202
15	0x3d53c816	0.05170449
16	0x3e369eac	0.17833966
17	0x3e0e4cfe	0.13896558
18	0x3d85e8c2	0.06538536
19	0x3e0bc459	0.1364912
20	0x3d82118b	0.06351002
21	0x3bae8b00	0.0053266287
22	0x3dc99ab0	0.098439574
23	0x3d61181d	0.054954637
24	0x3a1f7903	0.0006083401
25	0x3e187fd6	0.14892516
26	0x3db82ccb	0.089929186
27	0x3d749419	0.05971155
28	0x3d226009	0.039642368
29	0x3d900ad5	0.07033316
30	0x3e2bc83a	0.16775599
31	0x3e200d64	0.15630108
32	0x3cec68e7	0.028858615
33	0xbd839779	-0.064253755
34	0x3d2ee23d	0.042696226
35	0x3a410e67	0.0007364512
36	0xbd4cdec2	-0.050017126
37	0xbc501b4d	-0.0127018215
38	0x3b957780	0.0045613647
39	0xbc24e927	-0.0100653535
40	0xbd8dc8a4	-0.06923035
41	0x3dbc3e6b	0.09191593
42	0x3dace0db	0.08441325
43	0x3daf861d	0.08570502
44	0x3d8fd11d	0.07022307
45	0x3d1ec033	0.038757514
46	0x3dc7abc7	0.09749561
47	0x3cbd8bc7	0.02313794
48	0x3c56521a	0.013081098
49	0x3d8e4a58	0.06947774
50	0x3d46168a	0.04836134
51	0xbd824377	-0.06360524
52	0x3d8ae9fb	0.067829095
53	0xbd30ef2d	-0.043196846
54	0xbd396ae7	-0.045267966
55	0x3d1483e7	0.036258604
56	0xbd1e2842	-0.03861261
57	0x3dc0bb72	0.09410752
58	0x3cf80f40	0.03028071
59	0x3dc05c53	0.093926094
60	0xbd0a2757	-0.033728924
61	0xbcfaf807	-0.030635847
62	0xbd673922	-0.05645097
63	0xbd689c1b	-0.0567895
64	0xbe4cdf04	-0.20006949
65	0x3e3fa8c6	0.18716726
66	0xbdb1da39	-0.08684201
67	0x3e6abd00	0.2292366
68	0xbe1d0997	-0.1533569
69	0x3d8d61b9	0.06903405
70	0xbe4aa2be	-0.19788644
71	0x3c83a8e5	0.016071746
72	0x3d470217	0.048585977
73	0xbe59225e	-0.21204516
74	0xbe919653	-0.28435
75	0x3df48943	0.11940243
76	0xbe030c01	-0.12797548
77	0x3e7b6d6e	0.24553463
78	0xbdf596ea	-0.11991675
79	0x3dd1a489	0.10236461
80	0xbdf277f8	-0.118392885
81	0x3e07ade5	0.13249929
82	0x3dad2523	0.08454349
83	0x3dd7ca39	0.10536618
84	0xbdd03a0d	-0.10167322
85	0x3e0c9124	0.13727242
86	0x3e66cb0a	0.22538391
87	0x3e365711	0.1780665
88	0x3e287a13	0.16452818
89	0x3eb28561	0.34867385
90	0xbe1faa57	-0.15592323
91	0x3e3286e0	0.17434263
92	0x3dcc87f3	0.09986868
93	0xbe5c7f49	-0.2153293
94	0xbe77d594	-0.24202567
95	0x3e772008	0.24133313
96	0xbcb0497c	-0.021519415
97	0x3d83d96b	0.064379536
98	0xbcb356ff	-0.021892069
99	0x3d9253b4	0.07144871
100	0x3befa8cf	0.0073138247
101	0xbe0b6a8b	-0.13614862
102	0x3db1d139	0.08682484
103	0xbe11ac05	-0.14225776
104	0xbd8b67ad	-0.06806884
105	0x3dd98e7b	0.10622879
106	0x3e08c728	0.13357222
107	0x3d790d19	0.060803507
108	0x3e20b8ee	0.15695545
109	0x3d8d11c7	0.068881564
110	0xbd23a2f1	-0.039950315
111	0x3d3d2cd2	0.046185322
112	0x3d45d606	0.04829981
113	0xbc3c2e94	-0.011485714
114	0xbd9e2824	-0.077225
115	0x3e6a62ec	0.22889298
116	0xbd66a6c0	-0.05631137
117	0x3cf25720	0.02958256
118	0x3ba12e94	0.0049188826
119	0x3df92d26	0.121668145
120	0xbc469ae9	-0.012121894
121	0x3da1bae0	0.07896972
122	0x3ddae50c	0.106882185
123	0x3dfc8147	0.12329345
124	0xbd3d06a1	-0.0461489
125	0x3e3b9f93	0.18322591
126	0x3e3cac20	0.18425035
127	0x3e7c1569	0.24617542

weight_ih_l0_reverse f4 [128, 1]
0	0xbd0bb447	-0.034107473
1	0xbdaa6231	-0.0831951
2	0xbd1b5888	-0.037926227
3	0x3c9db9e2	0.019253675
4	0x3d9a2be1	0.075279005
5	0xbd838149	-0.064211436
6	0x3c0a47b9	0.008439952
7	0xbdbd71d7	-0.09250229
8	0x3e8b0cbc	0.27158153
9	0xbdcb3cbf	-0.09923696
10	0x3c681f11	0.014167563
11	0x3db52f30	0.08846891
12	0xbdbbfe70	-0.091793895
13	0xbde05fc9	-0.109557696
14	0x3e17fdc3	0.14842896
15	0x3d58bbf1	0.05291361
16	0xbce3957e	-0.027781244
17	0x3e034c01	0.12821962
18	0xbd05a882	-0.032631405
19	0xbd7fc8fc	-0.062447533
20	0x3dabac19	0.083824344
21	0x3d9dca23	0.0770457
22	0x3e4f3abd	0.2023725
23	0x3db76420	0.08954644
24	0xbd35b3aa	-0.044360794
25	0x3e11fee1	0.14257385
26	0x3a06ad1c	0.00051374896
27	0x3ca91778	0.020641074
28	0xbdde18ba	-0.1084456
29	0xbd406cbf	-0.04697871
30	0x3c8bf3ed	0.017084086
31	0xbe4f5347	-0.20246612
32	0x3d2cd020	0.04219067
33	0x3bcc4ecd	0.0062349797
34	0xbdcbcf82	-0.09951688
35	0xbd84b129	-0.06479103
36	0xbd8111a3	-0.06302192
37	0x3d6e7a67	0.0582222
38	0xbc91b227	-0.017785145
39	0xbd7d9621	-0.061910752
40	0xbd7822d8	-0.060580105
41	0xbd97cd36	-0.07412188
42	0x3dc04edd	0.09390042
43	0xbdb55514	-0.08854118
44	0x3ccd1007	0.025032056
45	0x3dc78fb8	0.09744209
46	0xbd05e8d0	-0.03269273
47	0x3db3fcf5	0.08788482
48	0xbd54b0e5	-0.051926512
49	0x3ca02327	0.019548012
50	0xbac00b00	-0.0014651716
51	0x3dc9bc93	0.09850421
52	0xbba9b5e7	-0.005179155
53	0xbd34672a	-0.044043697
54	0x3da56402	0.080757156
55	0x3d903b63	0.07042577
56	0x3d9fe668	0.078076184
57	0xbd5b4410	-0.053531706
58	0xbd344ccf	-0.044018563
59	0xbd914b92	-0.07094492
60	0xbd2166a0	-0.03940451
61	0xbd65f953	-0.056145977
62	0x3ccc20c0	0.02491796
63	0x3db8f7e5	0.09031657
64	0xbc67308f	-0.014110698
65	0x3eaa7b7a	0.3329733
66	0x3e3032ef	0.1720693
67	0x3d62eedc	0.055403575
68	0xbdd57dc8	-0.104243815
69	0x3e036077	0.12829767
70	0xbdac13a1	-0.084021814
71	0xbcc61624	-0.02418048
72	0x3e8679f2	0.26264912
73	0xbe3c0150	-0.18359876
74	0x3e261e31	0.16222455
75	0xbe01a6fa	-0.12661353
76	0xbe9ee4ad	-0.3103384
77	0xbc3b35cc	-0.0114264
78	0xbdbcb577	-0.09214299
79	0x3e555b85	0.20835693
80	0x3c8a56ff	0.016887186
81	0x3e03effe	0.12884519
82	0x3e7fe413	0.24989347
83	0x3e0af6b0	0.13570666
84	0xbe1bafff	-0.15203856
85	0x3d3876b7	0.04503509
86	0xbee7533d	-0.45180693
87	0xbc2a984e	-0.010412289
88	0xbdfc8be0	-0.123313665
89	0xbc3aed67	-0.01140914
90	0x3e8bba49	0.27290562
91	0xbdc073e7	-0.093971066
92	0x3d29f63c	0.041494593
93	0x3e4f25e7	0.20229302
94	0x3dc10339	0.09424443
95	0xbdec7930	-0.11546552
96	0xbd8dc567	-0.06922417
97	0xbd922a2d	-0.07136951
98	0xbd7e2299	-0.062044714
99	0x3e40529f	0.18781517
100	0x3b896958	0.004193466
101	0xbca71fbf	-0.02040088
102	0x3d7f46e9	0.062323485
103	0xbd734dea	-0.059400477
104	0x3df0b172	0.11752595
105	0xbd5fccb5	-0.054638583
106	0xbdbc4800	-0.091934204
107	0x3dbb83bb	0.09155985
108	0x3ca949fc	0.020665161
109	0xbe7263eb	-0.23670928
110	0xbc20afa8	-0.009807505
111	0x3e384e4b	0.17998616
112	0x3e21f9a5	0.15817888
113	0x3b776673	0.0037750273
114	0xbd93c9af	-0.072162025
115	0xbdcf4d84	-0.10122207
116	0x3d35e6fe	0.044409744
117	0x3d7bbd05	0.06145956
118	0x3dba5749	0.090986796
119	0x3bc594d0	0.0060297027
120	0xbe33392c	-0.17502278
121	0x3cad98c1	0.021191003
122	0xbd5f8272	-0.05456776
123	0x3ceea74a	0.029132504
124	0xbd452d9a	-0.048139192
125	0xbdb4a3aa	-0.08820279
126	0xbd7c633d	-0.06161808
127	0xbe13b392	-0.1442397

weight_hh_l0_reverse f4 [128, 32]
0	0xbd8b2669	-0.067944355
1	0xbd959c4f	-0.07305204
2	0xbd1fc628	-0.039007336
3	0x3d948a8a	0.07252987
4	0xbd46a1a7	-0.048494007
5	0xbd0e0dad	-0.03468101
6	0xbd162648	-0.0366576
7	0x3d421960	0.04738748
8	0x3d1a9987	0.03774407
9	0x3d41c0b3	0.047302913
10	0xbd95b828	-0.07310516
11	0x3da9dfcf	0.08294641
12	0x3db776f3	0.08958235
13	0x3cbc448d	0.022981906
14	0xbd94b9c5	-0.07261995
15	0xbdb0c5a0	-0.08631444
16	0x3dc74428	0.09729797
17	0xbb7f5200	-0.0038958788
18	0xbb3880b3	-0.0028152883
19	0x3c162ec0	0.0091664195
20	0xbdb7386a	-0.08946307
21	0x3d21cd80	0.03950262
22	0xbca6c79a	-0.02035885
23	0xbd98a723	-0.07453754
24	0x3c8d992d	0.017284954
25	0xbdaa4a00	-0.08314896
26	0xbdb5e031	-0.08880652
27	0x3d3b588d	0.045738745
28	0x3b65df9a	0.0035075904
29	0xbdb8aed2	-0.09017719
30	0x3d558770	0.052131116
31	0x3d19832a	0.037478603
32	0xbd77077b	-0.06030987
33	0x3d5a821a	0.05334673
34	0x3bee9ccd	0.0072818757
35	0x3d8d549b	0.06900903
36	0xbd68d55f	-0.05684411
37	0xbda3811f	-0.07983612
38	0x3d24d7f7	0.040245023
39	0xbcef3b77	-0.02920316
40	0xbd9846db	-0.074353896
41	0xbdbc5e60	-0.09197688
42	0xbbe1015a	-0.006866616
43	0x3dcb9d0b	0.09942063
44	0x3dc8b568	0.098002255
45	0x3c6a71e7	0.014309383
46	0xbd012b1a	-0.031535245
47	0x3d74e880	0.05979204
48	0x3d635c60	0.055508018
49	0xbd018b4f	-0.031626996
50	0x3d3c4bb0	0.04597062
51	0x3dbccc57	0.09218662
52	0x3d900e8f	0.07034027
53	0xbc395120	-0.011310846
54	0xbd06aec2	-0.032881506
55	0x3da135ad	0.07871566
56	0xbd866bc7	-0.06563526
57	0x3c8854ba	0.016641963
58	0xbc953af3	-0.018216586
59	0x3d6ac9ca	0.057321347
60	0xbdad6e80	-0.08468342
61	0x3d09ac7d	0.033611763
62	0xbd2f60ad	-0.042816807
63	0xbd455013	-0.048172068
64	0xbc2194e7	-0.009862161
65	0x3d91dfc0	0.07122755
66	0xbd49aea8	-0.04923883
67	0xbca0e4e0	-0.019640386
68	0xbdc55db9	-0.09637017
69	0x3d9a0db3	0.07522144
70	0xb916c800	-0.0001437962
71	0xbd1281b0	-0.03576821
72	0xbd884bfb	-0.06655117
73	0xbd93637e	-0.07196711
74	0xbdbe7a90	-0.09300721
75	0x3cfdf953	0.031002676
76	0x3d7628a7	0.060097363
77	0xbdc9c288	-0.09851557
78	0x3d8ffbb5	0.07030431
79	0xbc53dc20	-0.0129309
80	0x3c811220	0.015755713
81	0x3d9b7162	0.075899854
82	0xbd88887c	-0.06666657
83	0x3d62aae0	0.05533874
84	0xbd69e943	-0.05710722
85	0xbd5d4c24	-0.05402769
86	0x3d8f6478	0.07001585
87	0xbdb6d60b	-0.08927544
88	0x3daa8bd7	0.083274536
89	0xbd0e1598	-0.034688562
90	0x3db0c267	0.08630829
91	0x3d8e4332	0.0694641
92	0x3c644e00	0.013934612
93	0x3d079c6d	0.033108164
94	0xbdc9234f	-0.09821188
95	0x3d12c617	0.035833444
96	0xbc9b6edd	-0.018973762
97	0xbcf32a6d	-0.029683316
98	0xbd37f63a	-0.044912554
99	0xbcc3200d	-0.023818994
100	0xbce68643	-0.028140193
101	0x3c8ba520	0.017046511
102	0xbd3d14d5	-0.046162445
103	0x3d8fc29d	0.070195414
104	0x3c8b6c67	0.017019464
105	0x3d9e9b72	0.077444926
106	0xbd9749bf	-0.07387113
107	0x3d636b3d	0.055522192
108	0x3d001fcd	0.031280328
109	0x3dbb60f8	0.09149355
110	0xbc428f80	-0.011875033
111	0xbcf6bff3	-0.030120825
112	0xbda6b519	-0.081400104
113	0x3d9d17cf	0.07670557
114	0xbd4d7d80	-0.050168514
115	0xbbc47000	-0.0059947968
116	0xb9e2c99a	-0.00043256284
117	0xbdbbb500	-0.091653824
118	0x3d0560ed	0.03256314
119	0xbd7f8376	-0.06238123
120	0xbd44b06d	-0.048019815
121	0xbda4f643	-0.08054783
122	0x3d8f55b8	0.069987714
123	0xbc0fae6d	-0.008769614
124	0xbd8a6909	-0.06758315
125	0x3d3b2c10	0.04569632
126	0xbcec9d0d	-0.028883481
127	0x3c2b144d	0.010441852
128	0x3d640fca	0.05567912
129	0x3cd02b1a	0.025411177
130	0x3d9a0b2a	0.075216606
131	0x3d6186b0	0.05506009
132	0xbd74344a	-0.05962018
133	0x3d0ca890	0.03434044
134	0x3d527a53	0.05138619
135	0xbbfb84a7	-0.0076757255
136	0xbdc31063	-0.0952461
137	0x3cb918a7	0.022594763
138	0xbdbebf44	-0.09313825
139	0x3cd7d133	0.026344871
140	0xbd831dde	-0.06402181
141	0x3cf67f9a	0.030090142
142	0x3d629a0a	0.055322684
143	0xbc4ca593	-0.012490648
144	0x3ac2a667	0.0014850617
145	0xbd530dd8	-0.051526874
146	0xbda1ed08	-0.07906538
147	0xbd8b7eb1	-0.06811274
148	0x3c7eb35a	0.01554569
149	0x3c4b4727	0.012407101
150	0xbd073cef	-0.033017095
151	0x3dc3f957	0.09569042
152	0x3d208a77	0.03919455
153	0x3c6836f3	0.014173257
154	0xbdab11fa	-0.08353038
155	0xbdac92c9	-0.084264345
156	0x3d3f248a	0.046665706
157	0xbd996108	-0.0748921
158	0xbd4fac0d	-0.05070119
159	0x3cc72c47	0.024313105
160	0x3d697d63	0.057004344
161	0xbdbe574b	-0.092939936
162	0x3d69f48a	0.057117976
163	0x3d9d098f	0.07667839
164	0x3b9a2067	0.0047035697
165	0x3c08731a	0.008328224
166	0xbce930d0	-0.028465658
167	0xbd3e6cb8	-0.0464904
168	0xbd6c03ea	-0.05762092
169	0xbd846d75	-0.0646619
170	0xbd4cd011	-0.050003115
171	0x3db89e1b	0.09014531
172	0xbdbd4a08	-0.09242636
173	0x3d8840b2	0.06652965
174	0xbd06b1d0	-0.03288442
175	0xbd2af863	-0.041740786
176	0x3da7362d	0.0816463
177	0x3d2b6f7d	0.04185437
178	0xbcdb9ca7	-0.026808096
179	0xbd86289f	-0.065507166
180	0xbd7b77a6	-0.061393403
181	0x3ca604fa	0.020266045
182	0xbd799e4b	-0.060941976
183	0xbccb7f57	-0.024840994
184	0xbd7e9937	-0.062157836
185	0x3daedbcf	0.08538019
186	0x3d1150d7	0.035477486
187	0xbdba8bba	-0.09108682
188	0x3c485d73	0.012229311
189	0xbdc2da16	-0.09514253
190	0xbcdacd7a	-0.026709307
191	0x3c5b0b80	0.013369441
192	0xbd133fbd	-0.035949457
193	0xbd68c696	-0.05683001
194	0xbbe91967	-0.007113624
195	0xbd35736a	-0.04429952
196	0xbc4a9533	-0.012364673
197	0x3dc654d8	0.096841514
198	0x3cef181a	0.029186297
199	0x3d6de850	0.05808288
200	0xbdbccf34	-0.09219208
201	0xbd07172b	-0.03298108
202	0xbd452223	-0.04812826
203	0xbba35ec0	-0.0049856603
204	0xbd1c71c3	-0.03819443
205	0x3d8454d2	0.06461491
206	0x3d7e9673	0.0621552
207	0x3c09ba73	0.008406269
208	0x3d96c318	0.0736143
209	0xbcd78153	-0.026306784
210	0xbb81b6f3	-0.003958577
211	0xbcf2fcba	-0.029661525
212	0xbd830e56	-0.06399219
213	0xbdbf698e	-0.09346305
214	0xbd70e6f7	-0.058814015
215	0x3c9df1e7	0.019280387
216	0xbc8d14da	-0.017221857
217	0x3d0a3ef7	0.033751454
218	0x3c55c7f3	0.01304816
219	0x3d2a9df3	0.04165454
220	0xbd138b57	-0.036021557
221	0xbdc0c430	-0.0941242
222	0x3d0662a0	0.0328089
223	0xbb786f00	-0.0037907958
224	0x3daccb80	0.08437252
225	0x3db8350a	0.089944914
226	0xbcfb5363	-0.03067941
227	0x3c2fbf9a	0.010726834
228	0xbdc21af3	-0.094777964
229	0x3d46e3ca	0.04855708
230	0x3d2db93a	0.042412974
231	0x3d7f7fea	0.062377848
232	0xbc5751a0	-0.0131420195
233	0x3d9c552f	0.07633435
234	0x3ce742e7	0.028230144
235	0x3d7ccf20	0.061720967
236	0xbb9c7e27	-0.0047757807
237	0xbdc839c7	-0.09776645
238	0xbdbc19b6	-0.091845915
239	0xbca90fca	-0.020637412
240	0x3d9e2553	0.07721963
241	0xbd5c99e8	-0.053857714
242	0xbd2a2640	-0.041540384
243	0x3d5cbd63	0.05389155
244	0x3d83c360	0.06433749
245	0xbd809b1c	-0.06279585
246	0x3ccff340	0.025384545
247	0x3dbde14d	0.09271488
248	0x3d547820	0.051872373
249	0x3da16877	0.07881253
250	0x3d406520	0.04697144
251	0x3d12eb57	0.03586897
252	0x3caa8bfa	0.0208187
253	0x3dc6c515	0.09705559
254	0x3d8a8cab	0.067651115
255	0xbd1a27fd	-0.037635792

bias_ih_l0_reverse f4 [128]
0	0xbd224ad3	-0.03962214
1	0x3cc63323	0.024194306
2	0x3de3ba7f	0.11119556
3	0x3e3321cc	0.17493361
4	0x3c75d197	0.015003583
5	0xbf0816c0	-0.53159714
6	0xbaa6a723	-0.0012714606
7	0x3cfeeb58	0.03111808
8	0x3e213217	0.15741764
9	0x3c8fbc36	0.0175458
10	0x3e39a3d9	0.18128909
11	0xbdda42d9	-0.106572814
12	0x3d962d5b	0.073328696
13	0xbe83d5e4	-0.25749123
14	0xbe0c62a9	-0.13709511
15	0xbe21561f	-0.15755509
16	0x3dc730a5	0.09726075
17	0xbee9dc6f	-0.4567599
18	0xbe888ee6	-0.26671523
19	0xbdfa36a9	-0.12217457
20	0x3e0d9569	0.13826527
21	0x3c65f42f	0.014035269
22	0x3df1272c	0.117750496
23	0xbb3f2b22	-0.0029169996
24	0x3c3fd6c5	0.01170892
25	0x3d0421de	0.03225886
26	0x3df38a7b	0.118916474
27	0x3e552d52	0.2081807
28	0xbc7ebde1	-0.0155482
29	0xbc215e6f	-0.009849175
30	0xbe4110ba	-0.18854037
31	0x3dc95e28	0.09832412
32	0xbc65a5a7	-0.014016545
33	0x3cea6533	0.028612709
34	0x3db2b240	0.08725405
35	0xbd868f74	-0.0657033
36	0x3d5c3603	0.053762447
37	0x3cb94a0d	0.022618318
38	0x3cf39f00	0.029738903
39	0x3db39f60	0.08770633
40	0x3d9d146d	0.076699115
41	0xbcf2b6b7	-0.02962814
42	0x3d8b99f5	0.06816474
43	0xbc92204a	-0.017837662
44	0xbd9eb559	-0.07749433
45	0xbdb950f5	-0.090486445
46	0x3d0afbb7	0.03393146
47	0xbd8d5496	-0.06900899
48	0xbd2c9977	-0.042138543
49	0xbbca8d27	-0.0061813775
50	0x3cfb9ac7	0.030713452
51	0x3d8c63f7	0.06855004
52	0xbd561dc3	-0.052274477
53	0x3d137fda	0.0360106
54	0x3d0c72a3	0.034289014
55	0xbdcbb5ca	-0.09946783
56	0x3dabf218	0.08395785
57	0x397aeccd	0.00023930073
58	0x3d468b03	0.048472416
59	0xbcf87fad	-0.030334318
60	0xbd5eb054	-0.05436738
61	0xbd3017cd	-0.04299145
62	0xbcc247a7	-0.023715807
63	0x3d60e2d7	0.05490383
64	0xbdbb5e8b	-0.09148892
65	0xbdcb5467	-0.09928208
66	0x3e86428b	0.26222643
67	0x3e24733f	0.16059588
68	0xbe179b4f	-0.1480534
69	0x3c4f93c9	0.012669512
70	0xbd82bf25	-0.06384114
71	0x3e1443a2	0.14478925
72	0x3e8b63b2	0.272245
73	0xbe2a9c72	-0.16661242
74	0x3e2a0845	0.16604717
75	0xbdfa107e	-0.12210177
76	0xbe298d8f	-0.16557907
77	0x3d9bfb99	0.07616348
78	0xbdb6cc79	-0.08925719
79	0xbaa11626	-0.0012289926
80	0x3e20dad3	0.15708475
81	0xbd385049	-0.04499844
82	0x3d44323e	0.047899477
83	0x3d585ba3	0.052821767
84	0xbe904762	-0.2817946
85	0x3dd93f0a	0.10607727
86	0xbd87116a	-0.06595118
87	0xbd903d5c	-0.07042953
88	0xbe1388fd	-0.14407726
89	0x3e36030f	0.17774604
90	0x3e6b8b24	0.23002297
91	0xbe469b39	-0.1939515
92	0xbdbdf5f8	-0.092754304
93	0x3e04e7c1	0.12979032
94	0x3d8051ef	0.062656276
95	0xbdf7f125	-0.121065415
96	0x3d7bf994	0.061517313
97	0x3da2b1a7	0.07944041
98	0x3d9c0971	0.07618988
99	0x3d107b55	0.03527387
100	0xbd055e49	-0.03256062
101	0xbee068c9	-0.43829945
102	0x3e038952	0.12845352
103	0xbde9d098	-0.11416739
104	0x3e093d43	0.13402276
105	0x3de87991	0.11351312
106	0x3e19bc87	0.15013324
107	0x3cf57db7	0.029967172
108	0x3e682124	0.22668892
109	0xbea2bb34	-0.3178345
110	0xbde9d7e2	-0.114181295
111	0xbe2f5f33	-0.1712616
112	0x3e246bc9	0.16056742
113	0xbeecf487	-0.4628031
114	0xbdc03443	-0.09384968
115	0xbda23859	-0.07920904
116	0x3e0e0249	0.13868059
117	0x3c89cc19	0.016820954
118	0x3e59fddb	0.21288244
119	0x3cb8a1f0	0.022538155
120	0x3d86502d	0.06558261
121	0x3dad8342	0.08472301
122	0x3e56643d	0.20936675
123	0x3e520004	0.20507818
124	0x3dd541b0	0.104129195
125	0xbb1c6f62	-0.00238701
126	0xbe45a786	-0.19302186
127	0x3da2555a	0.07926436

bias_hh_l0_reverse f4 [128]
0	0xbd055f7e	-0.03256177
1	0xbde688bf	-0.11256551
2	0x3dc83e47	0.097775035
3	0x3d5c68e3	0.053810965
4	0x3c3b87e0	0.011445969
5	0xbf134921	-0.5753346
6	0xbc984e9c	-0.018592171
7	0xbdb74fc6	-0.089507625
8	0x3e52b396	0.20576319
9	0x3cd2dc52	0.025739823
10	0x3e1b4dbb	0.1516637
11	0xbe1518f2	-0.14560297
12	0x3d9607fb	0.07325741
13	0xbe23a6a0	-0.15981531
14	0x3c321fc3	0.01087183
15	0xbe33b3e4	-0.17549092
16	0x3c8e3e74	0.017363764
17	0xbe9e406b	-0.30908522
18	0xbddaf6b5	-0.10691587
19	0xbd941ddc	-0.07232258
20	0x3dc8a2f0	0.09796703
21	0xbd85f72d	-0.06541286
22	0x3d99e713	0.07514777
23	0xbddcdc25	-0.10784177
24	0x3d12c993	0.035836767
25	0x3e17fa57	0.14841591
26	0x3e17e386	0.14832887
27	0x3da6e8aa	0.08149846
28	0xbd3da49b	-0.046299558
29	0x3d9e4952	0.077288285
30	0xbe859968	-0.26093602
31	0x3d8905b6	0.066905424
32	0x3d564123	0.052308213
33	0x3d91cf73	0.07119646
34	0x3d38a217	0.045076456
35	0x3d9472cd	0.07248459
36	0x3c924600	0.017855644
37	0xbd0e1990	-0.034692347
38	0xbdc7fe15	-0.09765259
39	0xbd452640	-0.04813218
40	0x3d6cee90	0.0578447
41	0x3dc27575	0.094950594
42	0xbcbdb8ed	-0.023159469
43	0xbc8a4377	-0.016877873
44	0x3cb4a4c0	0.022051215
45	0xbbd7bb00	-0.0065835714
46	0x3c291b8d	0.01032151
47	0x3da45ef8	0.08025926
48	0x3cba2533	0.022722816
49	0x3db5c71a	0.08875866
50	0x3d1c0c5a	0.038097717
51	0xbcdac283	-0.026704079
52	0xbcf0ba23	-0.029385632
53	0x3d115843	0.035484564
54	0xbdaed2e3	-0.08536317
55	0xbc0e853a	-0.008698756
56	0x3d6a0fa3	0.05714382
57	0x3c2aa9e7	0.010416484
58	0xbdcc50c5	-0.09976343
59	0x3cc3f6a0	0.02392131
60	0xbce94f4d	-0.028480196
61	0xbd883753	-0.06651177
62	0x3dc36c3d	0.09542129
63	0x3dc21c75	0.09478084
64	0xbd0567a9	-0.03256956
65	0xbd07c8a9	-0.03315035
66	0x3de7b4a4	0.11313751
67	0x3e557f06	0.20849237
68	0xbe2de03e	-0.16980073
69	0x3d0d4ed2	0.034498997
70	0xbe7e0062	-0.24804834
71	0x3d3bf4ef	0.045887884
72	0x3e44db13	0.19224195
73	0xbde900c9	-0.11377103
74	0x3e6ddc23	0.23228507
75	0x3cb81461	0.022470655
76	0xbe1c7211	-0.15277888
77	0x3d2464cb	0.040135186
78	0xbc3ffdf4	-0.011718262
79	0x3c92193f	0.017834304
80	0x3e707637	0.23482595
81	0x3d089d20	0.03335297
82	0x3d635310	0.055499136
83	0x3d6ca72c	0.057776615
84	0xbe70beb0	-0.23510242
85	0x3cb952c4	0.022622474
86	0xbdc18667	-0.09449463
87	0xbe12f3e9	-0.14350857
88	0xbe46276c	-0.19350976
89	0x3e4d984a	0.20077625
90	0x3e3e02c5	0.18555744
91	0xbe4b1294	-0.19831306
92	0xbe2a14bf	-0.16609477
93	0x3e12a743	0.14321618
94	0x3cf00477	0.029299004
95	0xbdd26619	-0.1027338
96	0xbd8fcdab	-0.0702165
97	0xbd04383e	-0.0322802
98	0x3e371ef4	0.17882901
99	0x3d98222f	0.07428395
100	0x3d3d7846	0.04625728
101	0xbeefb994	-0.46821272
102	0x3c42d2d9	0.01189109
103	0xbe111017	-0.14166294
104	0x3e096387	0.13416873
105	0x3d80e03f	0.062927715
106	0x3e1f7f3e	0.15575883
107	0xbdac6b2b	-0.08418878
108	0x3e314769	0.17312397
109	0xbeb2dc35	-0.3493363
110	0xbc122aba	-0.00892132
111	0xbe94ce51	-0.29063657
112	0x3e09d3f6	0.13459763
113	0xbe967e80	-0.29393387
114	0xbe052a1a	-0.13004342
115	0xbcae7cbd	-0.021299714
116	0x3e685439	0.22688378
117	0xbd430d73	-0.047620248
118	0x3ddc2c72	0.10750665
119	0x3bbd1420	0.0057702214
120	0x3dd02c2e	0.101646766
121	0x3dbbef29	0.091764756
122	0x3dc6e173	0.0971097
123	0x3de75d96	0.11297147
124	0x3e04e2fe	0.12977216
125	0xba1ba05c	-0.0005936676
126	0xbe807f98	-0.25097346
127	0x3c698bc9	0.014254519

bin_context_vector f4 [64, 1]
0	0x3d8fe7ca	0.07026632
1	0xbdaf9994	-0.085742146
2	0xb9515667	-0.0001996398
3	0x3cd8a61a	0.02644639
4	0xbd9fd1d5	-0.07803694
5	0xbd06c73f	-0.03290486
6	0x3d6e1bdd	0.05813204
7	0xbc84d40a	-0.01621439
8	0x3cb9a96d	0.022663796
9	0x3ca8609a	0.020553876
10	0xbd8f12a8	-0.0698598
11	0xbc448160	-0.011993736
12	0x3d493267	0.049120333
13	0x3cdc9413	0.026926076
14	0x3d6d137d	0.057879914
15	0x3a16e733	0.0005756497
16	0xbbd9e5a7	-0.006649691
17	0x3da070d0	0.07834017
18	0xbd96f29a	-0.07370491
19	0x3d04a50d	0.032383967
20	0xbd7ef67a	-0.062246777
21	0xbcbc78a7	-0.02300675
22	0x3db5ab9d	0.08870623
23	0xbdc3c8a9	-0.09559757
24	0xbcaea547	-0.021319045
25	0xbdb1dd16	-0.08684747
26	0x3d6bb2ba	0.057543494
27	0xbc56ac7a	-0.013102645
28	0xbd392890	-0.0452047
29	0xbc2d6a6d	-0.010584456
30	0xbc502bc0	-0.012705743
31	0xbd81bfa1	-0.063353784
32	0xbd8bbbcd	-0.068229295
33	0x3db5ce3b	0.08877226
34	0x3dac5c75	0.08416072
35	0xbdc92917	-0.098222904
36	0xbd8b2db8	-0.067958295
37	0xbd80b43e	-0.062843785
38	0xbcb8ca27	-0.022557331
39	0x3da2db1d	0.07951949
40	0x3da5e2b8	0.08099884
41	0xbd6e44cb	-0.058171075
42	0x3dc7fe4d	0.09765301
43	0x3ba3574d	0.0049847723
44	0xbac95e00	-0.0015363097
45	0xbd8d0077	-0.06884854
46	0xbcb3a223	-0.021927899
47	0x3dcbbe8f	0.099484555
48	0xbd8e962e	-0.06962238
49	0xbc25760d	-0.010098946
50	0xbdbb7ca1	-0.091546305
51	0x3dcc6583	0.09980299
52	0x3d292aa0	0.041300416
53	0x3ca4c067	0.020111276
54	0xbcce64f0	-0.025194615
55	0xbd44e890	-0.04807335
56	0xbd0b2d53	-0.03397877
57	0x3c692573	0.01423012
58	0xbcfc8397	-0.030824466
59	0x3d9c1de3	0.07622888
60	0x3dbe1262	0.0928085
61	0xbd184a7a	-0.0371804
62	0xbd8f17e6	-0.0698698
63	0xbbde2b67	-0.0067800763

weight_ih_l0 f4 [128, 1]
0	0xbd6e1115	-0.05812176
1	0xbd6f5240	-0.05842805
2	0xbd4cd339	-0.050006125
3	0xbe39645f	-0.18104695
4	0xbd028eea	-0.031874575
5	0xbe542f66	-0.20721206
6	0xbe4e7537	-0.20161901
7	0xbe1c29ea	-0.15250364
8	0x3d630f41	0.05543447
9	0xbdc00edf	-0.093778364
10	0x3e305891	0.17221285
11	0xbd614073	-0.054993104
12	0x3e968973	0.2940174
13	0xbcdb34b2	-0.026758526
14	0x3c9dd2e8	0.019265607
15	0xbdceccfe	-0.10097693
16	0xbe23f991	-0.16013171
17	0xbe90d1ef	-0.28285167
18	0xbd2cf42e	-0.042225055
19	0xbdfbecd9	-0.123010345
20	0xbd62d703	-0.055380832
21	0xbdade139	-0.084902234
22	0xbde4be21	-0.11169077
23	0xbd188d8a	-0.037244357
24	0x3d70a46e	0.058750562
25	0xbe093d3b	-0.13402264
26	0xb686805e	-4.008455e-06
27	0x3cb4953d	0.022043819
28	0xbdd5baa2	-0.10435988
29	0x3cff1907	0.031139864
30	0xbde12e80	-0.10995197
31	0xbe20f9b3	-0.15720253
32	0x3da4b715	0.080427326
33	0xbd3df728	-0.046378285
34	0xbd144a60	-0.036203742
35	0xbd837c9d	-0.064202525
36	0xbda70107	-0.08154493
37	0x3d525da3	0.05135883
38	0x3d8985dd	0.067149855
39	0xbdb9c6d4	-0.090711266
40	0x3d9ec00f	0.07751476
41	0x3db8595a	0.090014175
42	0x3cf13673	0.029444909
43	0xbd80bed1	-0.06286395
44	0x3d2f90b0	0.042862594
45	0x3d3d71ea	0.046251215
46	0xbd3c30d2	-0.045944996
47	0xbdb4e153	-0.0883204
48	0x3d76e06d	0.060272623
49	0x3d88e36a	0.06684001
50	0xbd5ae463	-0.053440463
51	0xbc627a2d	-0.013823074
52	0x3b0fee67	0.0021962167
53	0xbd980ca1	-0.07424284
54	0xbd8e91b5	-0.06961385
55	0xbd5c016c	-0.053712294
56	0xbd9b1066	-0.07571487
57	0x3d930b20	0.07179856
58	0x3d6f6893	0.05844934
59	0x3d1061f3	0.03524966
60	0x3d48a493	0.048985075
61	0xbd02118f	-0.031755026
62	0x3cd48e6d	0.02594682
63	0xbb908ccd	-0.004411316
64	0xbeeabeaa	-0.4584859
65	0x3d3d8bfb	0.046276074
66	0x3bdb12b2	0.0066855783
67	0x3e7c1ae4	0.24619633
68	0xbdb6f70c	-0.08933839
69	0xbd56d860	-0.052452445
70	0x3d3b6e10	0.04575926
71	0x3bf4ce66	0.0074708937
72	0x3dc0c707	0.094129615
73	0x3b739af1	0.003717121
74	0x3d0ee055	0.03488191
75	0x3d8e897e	0.06959818
76	0xbf1fd2c9	-0.6243101
77	0x3f0ce923	0.5504324
78	0xbe8c16fc	-0.27361286
79	0xbc83277a	-0.016010035
80	0x3cd2770d	0.025691533
81	0xbd8bc59f	-0.068248026
82	0x3c6b2bef	0.014353736
83	0x3f5e1baa	0.8676096
84	0xbc94ccb7	-0.018164022
85	0x3dca49c7	0.09877353
86	0x3e7f09ee	0.24906132
87	0x3c24cd7e	0.010058759
88	0x3d023d26	0.031796597
89	0x3f03ba5a	0.51456225
90	0xbec81530	-0.39078665
91	0x3e84b819	0.25921705
92	0x3da6b125	0.081392564
93	0xbe000a4b	-0.12503926
94	0xbe78d3b3	-0.24299507
95	0x3f56ffd5	0.8398412
96	0xbddf4709	-0.10902221
97	0xbd88588d	-0.06657515
98	0x3c70c590	0.01469554
99	0x3ed47080	0.4149208
100	0xbcc432b4	-0.023949958
101	0xbe78a061	-0.2427993
102	0xbe8a555e	-0.27018255
103	0xbe24b655	-0.16085179
104	0xbd341ff4	-0.043975785
105	0x3ed244fa	0.4106825
106	0x3de61c10	0.11235821
107	0x3c5d7c62	0.013518425
108	0xbe0a3587	-0.13496982
109	0xbdf44299	-0.11926765
110	0xbdcd64d7	-0.10028999
111	0x3ea0b316	0.31386632
112	0xbe2b4ed5	-0.16729291
113	0xbe86477d	-0.26226416
114	0xbd3da5bd	-0.04630064
115	0x3e5650f5	0.2092932
116	0x3aa6ebb6	0.0012735042
117	0xbdd31a46	-0.10307746
118	0xbd64358b	-0.055715125
119	0xbc850dc9	-0.016241925
120	0xbd558c18	-0.052135557
121	0xbc539b8d	-0.012915504
122	0xbe116f36	-0.1420258
123	0xbdbad942	-0.0912347
124	0x3c645690	0.013936654
125	0xbd818b3e	-0.063253865
126	0xbcbe39d9	-0.023220943
127	0x3e465ad5	0.19370587

weight_hh_l0 f4 [128, 32]
0	0xbd36cb55	-0.044627506
1	0xbc525a27	-0.012838877
2	0x3d4ee25d	0.050508846
3	0xbc41018d	-0.011780155
4	0x3c44e6f3	0.012017953
5	0xbd956c86	-0.0729609
6	0xbdb418c0	-0.08793783
7	0xbb8da20d	-0.0043222965
8	0x3d984bfb	0.07436367
9	0xbd9c3f3e	-0.0762925
10	0xbca4151a	-0.020029593
11	0xbbaae0f3	-0.0052148043
12	0xbc3624e7	-0.011117197
13	0x3db7106f	0.08938681
14	0xbd7664f7	-0.06015488
15	0xbd987714	-0.07444587
16	0x3d04c497	0.032414045
17	0xbc989f7a	-0.018630732
18	0xbc59078d	-0.013246429
19	0x3cbd8dba	0.02313887
20	0x3c8e469a	0.01736765
21	0x3c0d65e7	0.008630252
22	0xbd1501f5	-0.03637882
23	0x3d1dd89a	0.038536645
24	0xbd992fa3	-0.07479789
25	0xbd5ce10a	-0.05392555
26	0x3d148da7	0.036267903
27	0x3cad61da	0.021164823
28	0x3b8d78e7	0.004317391
29	0x3d44cd40	0.048047304
30	0xbd3bd482	-0.04585696
31	0xbd828322	-0.06372668
32	0xbc3afeda	-0.0114133
33	0x3cc663b3	0.024217462
34	0xbdaec887	-0.08534341
35	0x3d6285ad	0.055303264
36	0x3d2b78d7	0.04186329
37	0x3dafc47d	0.08582399
38	0xbd00484f	-0.03131896
39	0xbd951ac6	-0.07280497
40	0x3d20e4c3	0.039280664
41	0xbda0fe89	-0.07861049
42	0xbda99fb8	-0.08282417
43	0x3d7b40e7	0.061341193
44	0x3dbbef70	0.091765285
45	0x3d7e4e07	0.06208613
46	0x3dbb5460	0.09146953
47	0x3dae16f7	0.08500474
48	0x3d895985	0.067065276
49	0xbca35bfd	-0.019941324
50	0xbdaa5f35	-0.083189406
51	0xbd84b376	-0.06479542
52	0xbc5dbac0	-0.013533294
53	0xbd6b0587	-0.05737832
54	0xbd260f7d	-0.040542115
55	0xbd8fd4ad	-0.070229866
56	0xbdb6a82e	-0.089187965
57	0xbd82c472	-0.06385125
58	0x3d88f7d8	0.066878974
59	0xbbaa0940	-0.005189091
60	0xbd956474	-0.072945505
61	0x3db73d52	0.08947243
62	0xbdc70883	-0.0971842
63	0xbd133805	-0.035942096
64	0x3ba84100	0.0051347017
65	0xbd861ec9	-0.065488406
66	0x3db9944d	0.09061489
67	0xbc74ae00	-0.014934063
68	0xbda42ce2	-0.08016373
69	0xbdbe331a	-0.092870906
70	0xbd6e6c39	-0.058208678
71	0xbcc7cdb3	-0.024390077
72	0x3dc313df	0.095252745
73	0xbd804175	-0.06262485
74	0xbdbcd5d0	-0.09220469
75	0xbdab3745	-0.08360151
76	0xbd1150db	-0.0354775
77	0xbd57e6d0	-0.052710354
78	0xbd09bfe2	-0.03363026
79	0xbd281cba	-0.04104302
80	0xbc899ac0	-0.016797423
81	0x3da5e3b0	0.081000686
82	0x3a2c4d9a	0.0006572843
83	0xbdb387a7	-0.08766108
84	0xbda7301f	-0.08163475
85	0x3d130a97	0.03589877
86	0x3a4800cd	0.0007629514
87	0x3d98d30b	0.07462128
88	0x3d52cbdd	0.05146395
89	0xbccaabb3	-0.024740076
90	0x3cc13093	0.023582732
91	0x3cc26d07	0.023733629
92	0x3d978f80	0.07400417
93	0xbca06450	-0.019579083
94	0xbd78dc30	-0.060756862
95	0xbcb44177	-0.022003872
96	0x3d10e63a	0.03537581
97	0x3cd40c1a	0.025884677
98	0xbd935f90	-0.071959615
99	0x3a37e59a	0.00070151093
100	0x3db3a757	0.08772152
101	0xbd98aad0	-0.07454455
102	0xbda661ae	-0.081241
103	0x3c99e593	0.018786227
104	0x3c80b94d	0.015713358
105	0x3c5f2d9a	0.013621712
106	0xbccfde3d	-0.025374526
107	0xbc413d5a	-0.0117944125
108	0xbd544d5d	-0.051831592
109	0xbda9970a	-0.082807615
110	0xbda9990f	-0.08281147
111	0xbd17b913	-0.037041735
112	0xbd9cc129	-0.0765403
113	0x3d8da765	0.069166936
114	0xbd8a2201	-0.06744767
115	0xbacdeb9a	-0.0015710474
116	0x3dbe23ca	0.0928417
117	0xbd7349a9	-0.05939642
118	0xbd616d71	-0.055036012
119	0xbdbf312e	-0.09335552
120	0x3d8f7eef	0.070066325
121	0xbd52d85b	-0.051475864
122	0x3d5dd2aa	0.054155983
123	0xbdacd3ae	-0.08438812
124	0xbdcc38c6	-0.09971766
125	0x3d94a3a0	0.072577715
126	0xbd52218a	-0.051301517
127	0x3dc5f848	0.096664965
128	0x3d2cd030	0.04219073
129	0x3d8965cf	0.067088716
130	0x3d901167	0.07034569
131	0x3d60d17a	0.054887272
132	0x3ca63033	0.020286655
133	0xbda36656	-0.079785034
134	0x3d96fb80	0.073721886
135	0x3d7ab6ed	0.061209608
136	0xbd99bf39	-0.07507176
137	0xbd111b9f	-0.035426732
138	0xbcdf8340	-0.027284265
139	0x3d22c18a	0.039735354
140	0x3daabe5a	0.08337088
141	0xbcaa59fd	-0.020794863
142	0xbd8233ed	-0.0635756
143	0x3da2696a	0.079302624
144	0x3d3487bd	0.044074763
145	0x3db8a2bd	0.09015415
146	0x3dc57ecf	0.096433274
147	0xbdbd1701	-0.09232903
148	0x3d1e726d	0.038683344
149	0xbd9318e4	-0.07182482
150	0x3db333f0	0.08750141
151	0x39a55333	0.0003153324
152	0x3aa96933	0.0012925029
153	0xbd69acbb	-0.057049494
154	0xbd2a3555	-0.041554768
155	0x3d6e8690	0.058233798
156	0xbcbb2750	-0.022845894
157	0x3c3cbd4d	0.011519742
158	0x3d0417ad	0.03224914
159	0xbdc4ca5b	-0.09608909
160	0xbd845b46	-0.064627215
161	0xbdbe8aa6	-0.09303789
162	0xbd973163	-0.07382467
163	0x3dac531b	0.084142886
164	0x3d828a83	0.06374075
165	0x3d38118a	0.0449386
166	0xbdbee632	-0.0932125
167	0xbd758369	-0.059939776
168	0x3dbad740	0.09123087
169	0x3c987e3a	0.018614877
170	0x3cdb3700	0.026759624
171	0xbb550d67	-0.003250921
172	0x3d1a48b7	0.037667003
173	0xbd0a9aff	-0.033839222
174	0xbc939f53	-0.018020308
175	0xbc6937ed	-0.014234525
176	0x3d655a07	0.05599406
177	0x3d898e22	0.06716563
178	0x3cd6e17a	0.026230562
179	0xbd87b161	-0.06625629
180	0xbc868c4d	-0.016424323
181	0xbd68f7f3	-0.056877088
182	0x3c9a4433	0.018831348
183	0xbd164265	-0.036684413
184	0xbd505362	-0.05086077
185	0xbd1ea708	-0.038733512
186	0x3dc68590	0.09693444
187	0xbd83f2f2	-0.064428225
188	0x3d24e0f7	0.040253606
189	0x3c26d0c0	0.010181606
190	0x3dc59e9d	0.09649394
191	0xbda7535d	-0.08170197
192	0xbd94714a	-0.07248171
193	0x3d8beb6b	0.06832012
194	0xbd3cc555	-0.046086628
195	0x3cbe13e7	0.02320285
196	0xbc6df8d3	-0.014524656
197	0xbc17f9cd	-0.009275866
198	0xbd7b1953	-0.061303448
199	0xbd1d29a2	-0.038369782
200	0xbcdd678d	-0.027026916
201	0xbd8ab203	-0.06772234
202	0xbd87f2ed	-0.06638131
203	0xbdb7ce4b	-0.08974894
204	0xbcc9a0b3	-0.02461276
205	0x3d287bd0	0.0411337
206	0xbdbdac8e	-0.09261428
207	0x3d842d05	0.06453899
208	0x3db7a46b	0.08966907
209	0xbd990eed	-0.0747355
210	0xbcca7c3d	-0.024717445
211	0xbd98a24f	-0.07452833
212	0x3c853e67	0.016265107
213	0x3dc309f8	0.09523386
214	0xbc350747	-0.011049098
215	0x3d28ac9d	0.04118024
216	0x3dc46977	0.09590428
217	0x3ce5ff1a	0.028075743
218	0xbdca0fc3	-0.098662876
219	0x3d4c5537	0.049885955
220	0xbd1239e8	-0.035699755
221	0x3d41c40a	0.047306098
222	0xbd7b40d5	-0.061341126
223	0x3c54a1b3	0.012978005
224	0xbc4d8527	-0.012543953
225	0xbd76d97e	-0.06026601
226	0x3d472fe3	0.048629653
227	0x3d4db95a	0.050225593
228	0x3d576f57	0.052596416
229	0xbd976eca	-0.07394178
230	0xbd345cbb	-0.044033747
231	0xbd418337	-0.047244277
232	0x3dbb7940	0.09153986
233	0x3d1132e0	0.03544891
234	0xbbde0a33	-0.006776118
235	0xbd13731d	-0.035998452
236	0xbc32cced	-0.010913116
237	0x3d1add33	0.03780861
238	0xbda3f274	-0.08005229
239	0xbc5a526d	-0.013325316
240	0xbd50d53f	-0.050984617
241	0x3d4b9357	0.04970106
242	0x3d8a1232	0.06741752
243	0x3d412ed7	0.04716381
244	0x3cb10927	0.02161081
245	0xbdcb7363	-0.09934118
246	0xbda18b2a	-0.078878716
247	0x3da8fe5a	0.08251639
248	0xbcfdbada	-0.030972887
249	0x3d1868ea	0.03720943
250	0xbda54927	-0.08070593
251	0xbda1328b	-0.078709684
252	0x3cbdaae7	0.023152782
253	0xbd3f5a78	-0.046717137
254	0x3c5c17b3	0.013433385
255	0x3d9599bd	0.07304714

bias_ih_l0 f4 [128]
0	0x3e588fa2	0.21148542
1	0x3e8f84e4	0.28031075
2	0x3ed168ef	0.4090037
3	0x3e27eab3	0.16398124
4	0x3e468b82	0.19389156
5	0xbd735dcc	-0.059415624
6	0x3cf7ac56	0.030233543
7	0xbd99666b	-0.07490238
8	0xbe3bd787	-0.18343936
9	0x3e83514d	0.25647965
10	0x3ee83dc9	0.45359638
11	0x3d23f25a	0.040026046
12	0x3e9c01ad	0.3047003
13	0x3ecbb83a	0.3978899
14	0xbc9af995	-0.018917838
15	0x3e8a6ae3	0.27034673
16	0x3d9c6c67	0.076378636
17	0x3d596d9e	0.053083055
18	0x3db6e045	0.08929495
19	0x3e44a3fe	0.19203183
20	0x3dc974bd	0.09836719
21	0x3bbb5ab6	0.0057176007
22	0x3e3c58d8	0.18393266
23	0x3d08d62c	0.033407375
24	0x3ccfc1e7	0.025361015
25	0x3ec42dd4	0.38316214
26	0x3ea6ec2e	0.32602066
27	0x3ec5f4e3	0.38663396
28	0x3d96e6bd	0.073682286
29	0x3ea82ced	0.32846776
30	0xbd978215	-0.07397858
31	0x3eb7b1d8	0.35877872
32	0xbd2c2cd7	-0.04203495
33	0x3d15cdca	0.03657321
34	0xbda471ed	-0.08029542
35	0xbd1d4b25	-0.03840174
36	0x3d150daa	0.036389984
37	0x3cc07653	0.023493921
38	0x3c409127	0.011753357
39	0x3d24c8a3	0.040230405
40	0xbc093dc0	-0.008376539
41	0xbdabc47e	-0.08387087
42	0x3cdeab20	0.027181208
43	0x3d57146a	0.052509703
44	0x3da2ff93	0.07958903
45	0xbcf86aed	-0.030324424
46	0x3dcaa415	0.098945774
47	0x3d0207e3	0.031745803
48	0xbc89485d	-0.016758138
49	0x3d3278f7	0.043572392
50	0xbd8a21a2	-0.06744696
51	0xbd2ba8c5	-0.041908998
52	0x3d70b56a	0.05876676
53	0x3dc1a0f2	0.09454526
54	0xbd327f63	-0.043578517
55	0xbca5063a	-0.02014457
56	0xbd43d29f	-0.047808286
57	0x3c259c67	0.01010809
58	0x3c2b9d1a	0.010474468
59	0xbd18b092	-0.037277766
60	0xbc2f4c47	-0.010699338
61	0xbd0072b0	-0.031359375
62	0x3d3c6ea0	0.046003938
63	0x3d9913e0	0.07474494
64	0xbe85b0d7	-0.2611148
65	0x3eb2e0c9	0.34937122
66	0xbee0b35e	-0.43886846
67	0x3e96da35	0.29463354
68	0xbe809f24	-0.25121415
69	0x3e2e806a	0.17041174
70	0xbe1075ce	-0.14107439
71	0x3e4ba4cd	0.19887085
72	0x3df727f3	0.120681666
73	0xbe6af069	-0.22943272
74	0xbeec8c67	-0.46200868
75	0x3e085c81	0.13316537
76	0xbeafd0b8	-0.34338927
77	0x3e8eb6be	0.27873796
78	0xbd856f35	-0.06515352
79	0x3e685c0d	0.22691365
80	0xbe1ed5b7	-0.15511213
81	0x3e6c96e5	0.23104437
82	0x3e3b2a16	0.18277773
83	0x3e4cb3e0	0.19990492
84	0xbe3d7c60	-0.18504477
85	0x3dee6680	0.11640644
86	0x3eb27fcb	0.34863123
87	0x3e86d1ac	0.26331842
88	0x3dc1dc67	0.094658665
89	0x3ed68ad5	0.41902795
90	0xbeaec622	-0.34135538
91	0x3eb4aa5a	0.35286218
92	0x3e04d4a5	0.12971742
93	0xbeb82ee6	-0.3597328
94	0xbe213db1	-0.1574619
95	0x3ea4f2d4	0.32216513
96	0x3e738594	0.23781425
97	0x3ea6357c	0.3246268
98	0x3eb42607	0.35185263
99	0x3e4caee4	0.1998859
100	0x3e630db1	0.22173192
101	0x3d28c14c	0.041199967
102	0xbddda85b	-0.10823127
103	0xbd25765a	-0.040396072
104	0xbdca96ec	-0.09892067
105	0x3eba4e22	0.36387736
106	0x3e991281	0.2989693
107	0x3cc61c22	0.024183337
108	0x3ec4249f	0.3830919
109	0x3ebf3ae8	0.3734963
110	0xbe0824b8	-0.13295257
111	0x3e4a085d	0.19729753
112	0x3d884d28	0.066553414
113	0x3e03550e	0.12825415
114	0x3d4c6c91	0.049908224
115	0x3ea8b76b	0.32952437
116	0x3e091940	0.13388538
117	0x3c35e0f5	0.011100997
118	0x3e52c35d	0.20582338
119	0x3e1c91c4	0.1528998
120	0x3cfc31ac	0.030785404
121	0x3ea90e05	0.3301851
122	0x3e9f4964	0.3111068
123	0x3ea25db5	0.31712118
124	0x3d945305	0.07242397
125	0x3e6409ff	0.22269438
126	0x3b07b613	0.002070789
127	0x3ebb3008	0.36560082
