Results/gm_full_k562_full/gm_full_k562_full_aux_siamese/gm_full_k562_full_aux_siamese_R2_model.pt (torch_old, 540311 bytes, 122 tensors)

weight_ih_l0 f4 [128, 1]
00000000: 025d 8f3d 557b 23bd 6db9 8ebe 2665 633e
00000010: 407d 903e 9e05 b2be 2486 513a 5701 6ebd
00000020: 2049 783e 8425 38be 7a5b 0c3e 5a79 71be
00000030: 556d 113e 72d0 f7bd ee57 c83d cf6d eabe
00000040: baed a1be 4a77 223e 2d6e f0be 2a41 0dbe
00000050: 986d b23d 7490 243e 28bd fe3d 02d5 40bf
00000060: 6671 fd3d 65c4 88be 38af 49be f3bf 53bd
00000070: e5a4 6f3d 6ea5 4fbe b498 47be 8fb7 373e
00000080: 9a93 6bbd a006 cabc d365 6cbd bb14 8b3d
00000090: 9ed3 a0bd 7ae9 38bd 9a84 5ebd b8da b63c
000000a0: 72ab 9dbd 3297 243d 4b03 9dbd 204e bdbb
000000b0: e9a2 ba3d 1230 4a3d 7aa7 563d 33fc 46bd
000000c0: ea65 9cbd 8172 c73d 1e07 673d b364 32bd
000000d0: 2fc8 833d 7a0f 393d 7d85 98bd 48fe e0bc
000000e0: 20fd 50bd 93e2 a9bd 0058 2c3c dde9 6abd
000000f0: a286 373d 3cb4 15bd e069 9fbb 5840 30bc
00000100: 8bf1 90be b93d 7f3e 63b5 89bc 0a23 babe
00000110: 0e05 a93e ff6f 3e3e f268 b0bd 2ff8 3e3e
00000120: cfee 903e 2282 6a3d 443f 803e 6e6f 5abe
00000130: fca4 6f3e 1abe 63be 7645 3f3e 851d 6ebe
00000140: d950 88be 84ef 2cbe 4bd4 e33d 6957 3dbe
00000150: 2941 a93e 256e 2e3e c022 3bbe cce7 803e
00000160: caf9 9e3e b784 4fbe 56de ea3d 7bd5 f4bd
00000170: 2c78 3dbe e18f 293e 5e0e 8dbe 3be4 a2be
00000180: 4062 c03d 18f9 fd3d 1afc 02be fa8e 363d
00000190: 9d58 543e 7392 01bf 2bd9 0d3d ae82 7ebe
000001a0: cba6 6c3e c8a2 6dbe f4a0 94bc 6595 41be
000001b0: 9171 9d3d 1e35 6cba fee1 be3d e882 f1be
000001c0: 81cf abbe baf2 0f3e bea7 b4be 8e57 8fbc
000001d0: 69b5 333e 6043 ab3d 5289 543e 0ba2 18bf
000001e0: 0e89 043e 7f59 68be afbf 45be 2f3e 56bd
000001f0: b4a9 223c 9035 7ebd f996 a039 d3a7 f13d
0.07000162 -0.03991254 -0.27875844 0.22206554 0.28220558 -0.3476991 0.0007992706 -0.058106747
0.24246645 -0.17983061 0.1370677 -0.23581448 0.14201863 -0.12100305 0.09782396 -0.45786902
-0.31626683 0.15865818 -0.46959057 -0.1379439 0.087123096 0.1607073 0.124384224 -0.75325024
0.12375145 -0.26712337 -0.19695747 -0.05169673 0.058506865 -0.2027795 -0.19491845 0.17941116
-0.05751381 -0.024661362 -0.057714295 0.067910634 -0.07852863 -0.045144536 -0.054325677 0.02232109
-0.07698716 0.040183254 -0.07666644 -0.0057771355 0.09113104 0.04936225 0.05240581 -0.04858036
-0.07636626 0.09738637 0.05640327 -0.043553066 0.06434666 0.045180775 -0.07447336 -0.027465
-0.05102265 -0.08295169 0.010519028 -0.057351936 0.04480613 -0.036548838 -0.004864916 -0.010757528
-0.28309283 0.24925889 -0.016810125 -0.36354858 0.3301167 0.1859741 -0.08613767 0.18649362
0.28307196 0.05725301 0.25048268 -0.2133157 0.2340278 -0.22240487 0.18678841 -0.23253448
-0.26624182 -0.16888243 0.11124476 -0.18490376 0.33057526 0.17034204 -0.18274975 0.25176847
0.3104995 -0.2026547 0.114681885 -0.11954781 -0.18502873 0.16558792 -0.27550024 -0.3181475
0.0939374 0.124010265 -0.12791482 0.044569947 0.20736928 -0.5061409 0.034630936 -0.24854538
0.23110501 -0.23206627 -0.018143155 -0.18904646 0.07687677 -0.00090106006 0.09320448 -0.47170186
-0.3355675 0.14057437 -0.35284227 -0.017497804 0.17549671 0.0836246 0.20755509 -0.5962226
0.12942907 -0.2269039 -0.19311403 -0.052305397 0.009928156 -0.0620628 0.00030630062 0.11799588

weight_hh_l0 f4 [128, 32]
00000000: 8934 b53d 8103 ad3d eee7 83bd 91b7 c73d
00000010: a0bd c23c 8b9b af3d c040 51bd 08a9 9dbd
00000020: a0ce 6dbb 6c0a f63c b7b9 68bd 1574 a0bd
00000030: 957d 9e3d ffa4 b03d d464 8bbd 41b0 8a3d
00000040: 1027 bfbd 7fc9 bbbd 8a2a c3bd 38ce fbbc
00000050: d0f7 263c d494 0dbd 75d9 8c3d 777b 22bd
00000060: 869a 13bd 2adc 613d 00ab 3e3a d2b9 9bbd
00000070: 7967 c43d 8248 313d 9af4 73bd 5027 f43b
00000080: 68db afbd 4460 0cbd 7875 c3bd a0f3 9d3c
00000090: a893 bfbc 52db 0a3d 00de c5b9 ac3f fbbc
000000a0: d225 343d 7c19 09bd 52cb 1a3d 14ab fbbc
000000b0: cd89 c4bd 86de 6a3d ddbf b03d 2576 8fbd
000000c0: 50b7 aa3b 0005 86bd e308 a73d fad2 183d
000000d0: 5021 09bc d488 eabc d212 5f3d 586d 49bc
000000e0: 7eac 573d 33bf aabd c1ff 8d3d d02e 393c
000000f0: 6045 18bb 6e69 393d 9d26 bfbd 9a26 32bd
00000100: 8d99 bbbd 9c0a 82bd 9a66 bebd b7b7 22bd
00000110: 1f0c b1bd 7a72 abbd e07b 9d3c 0676 793d
00000120: c8ce 89bc 4069 7fbd caed 423d 8744 c2bd
00000130: 35e3 9fbd 74cc adbc 5d76 bf3d 1052 38bc
00000140: 82ff 113d 4259 163d bd0e a8bd fb15 843d
00000150: 8062 493a 5da3 893d c9f8 c13d c04d 613b
00000160: 6184 a83d 9ada 86bd f0f3 5e3c d45b f63c
00000170: 2265 5b3d 1006 51bc 31aa bb3d 2568 853d
00000180: c760 bfbd 8bc2 bb3d aa8b 563d 3a76 40bd
00000190: 8a67 013d dac2 313d e345 b73d cc2c f23c
000001a0: 00a1 90bb e0ac a2bb 4040 b3bd 685e 8b3c
000001b0: aa2c a2bd 3308 97bd a008 473b 30a7 3bbc
000001c0: f967 a63d 9011 b9bd 5094 403c 6bdd afbd
000001d0: c1b6 bf3d a8eb 49bc b668 04bd 1061 73bc
000001e0: 8097 25bc e76d c23d 0281 233d 0066 37bc
000001f0: 807c 73bc 70bb 28bc ca94 b3bd c821 ebbc
00000200: f824 dcbc 60d7 9fbb 5fc3 bc3d 767e 613d
00000210: f0ef 48bc d524 923d b9c6 873d e8e4 b83c
00000220: 22a7 303d 183b 6abc ea42 60bd f835 c53c
00000230: 0899 9f3c a593 9dbd a89e bfbd 300c 07bc
00000240: a034 1f3b 2c74 a43c 60f0 7dbd c0a9 9dbc
00000250: 6d5b 45bd 21fb 8d3d 2cac 9dbc 4496 f93c
00000260: 7964 ab3d bb3c b3bd 8ea9 133d cc63 e63c
00000270: 3051 1a3c 6273 6c3d 1ddf 9e3d 3dfa 51bd
00000280: 0a81 a8bd b63a 8fbd df59 c0bd 2e63 96bd
00000290: 9285 383d 344a 80bd 6e4e 173d bb36 a63d
000002a0: 809f deba d048 24bc 83b5 b0bd 175f 22bd
000002b0: 7a96 763d cb8d 863d 1aa5 373d 5f47 b1bd
000002c0: 325d 7b3d cc50 debc a3ca 6abd 325a 143d
000002d0: 8d55 8a3d 40f0 3dbc ddfd 30bd 775b c83d
000002e0: 4628 7f3d 2c00 fe3c 4e21 453d 6fa7 b33d
000002f0: 30c6 7abc 2eed 0b3d 4225 4c3d 12af 5a3d
00000300: 903b 4e3c 18af aebc c917 843d ea38 2abd
00000310: 5205 563d b3b7 6dbd 30e7 3dbd 3acc 0bbd
00000320: ea9a 713d a95e 8a3d 6096 b7bb 975f 833d
00000330: 0dbe 42bd 8694 81bd 502f 9cbd 6bf8 b13d
00000340: 1ad9 31bd 1dfb 6abd ac0c b13c 504b bc3b
00000350: a098 90bb 688e f5bc 7452 ff3c 6f07 823d
00000360: 8764 55bd 5c57 0ebd 4e71 7e3d 80d2 e23a
00000370: f761 34bd 09f4 af3d 4198 a23d 787d c2bc
00000380: b167 a73d c307 b1bd c01a fabc 1034 33bc
00000390: e72c a33d 603a 4a3b 1254 b4bd c006 f1ba
000003a0: 5885 4a3c 98f8 0abc b50b c8bd f080 723c
000003b0: c192 963d 034e 2fbd 4a76 503d 3263 013d
000003c0: 18a7 2e3c 48ff e9bc be5d 203d e3e9 ab3d
000003d0: e60d 773d 361a 9abd 1067 4abc ac93 89bc
000003e0: 59d1 863d 040a d63c 6a72 793d 9cef d23c
000003f0: 76a9 603d 80e0 5c3c 9863 02bc 920b 4e3d
0.08847911 0.08447934 -0.064407215 0.097518094 0.02377206 0.08574589 -0.05108714 -0.07698256
-0.0036286488 0.030034266 -0.056817736 -0.07834641 0.077387966 0.086252205 -0.06806341 0.06771899
-0.093336225 -0.09169292 -0.09529598 -0.030737981 0.010190919 -0.03456576 0.06877414 -0.039668527
-0.036036037 0.055141605 0.0007273406 -0.07603802 0.09590048 0.04328204 -0.059559442 0.0074509755
-0.0858677 -0.034271494 -0.0954389 0.019281209 -0.023385838 0.033900566 -0.0003774017 -0.03067001
0.04398138 -0.03347157 0.037791558 -0.030721225 -0.09596596 0.05734112 0.08630345 -0.07004956
0.005209841 -0.065439224 0.08155992 0.037310578 -0.008369759 -0.028629698 0.054461308 -0.012294136
0.052654736 -0.083372496 0.06933547 0.011302665 -0.002323471 0.04526656 -0.09333537 -0.043493845
-0.09160147 -0.0634968 -0.092969134 -0.039725985 -0.0864489 -0.08371444 0.019224107 0.06090357
-0.016822234 -0.062356234 0.047590055 -0.09485727 -0.07807008 -0.021215655 0.09348748 -0.011250034
0.035644062 0.036706217 -0.08205936 0.06449505 0.0007682219 0.06720612 0.0947128 0.0034378618
0.08228374 -0.06584664 0.013607964 0.030073084 0.053563245 -0.012757793 0.09163321 0.065140046
-0.09344631 0.091679655 0.052379288 -0.04698775 0.031592883 0.043398716 0.08948877 0.029562376
-0.004413724 -0.004964456 -0.08752489 0.01701279 -0.07918675 -0.07374611 0.003037013 -0.011453435
0.081253 -0.09036553 0.01175411 -0.08587154 0.093610294 -0.012324251 -0.032326423 -0.0148546845
-0.010106921 0.094936185 0.039917953 -0.011193752 -0.014861226 -0.010298595 -0.08768614 -0.028702632
-0.026873097 -0.0048779696 0.092169516 0.055052243 -0.012264237 0.071359314 0.066297 0.022570089
0.04312814 -0.014296316 -0.054751314 0.024073586 0.01948215 -0.076941766 -0.09356433 -0.008242652
0.0024292842 0.020074926 -0.061996818 -0.019245982 -0.048182894 0.06932665 -0.019247137 0.03046716
0.08368773 -0.08751818 0.03605037 0.028123759 0.009418771 0.057727225 0.07757399 -0.051264036
-0.08227737 -0.0699362 -0.093921416 -0.07343136 0.045049258 -0.06264153 0.03694003 0.08115908
-0.001698479 -0.0100271255 -0.086283706 -0.039641466 0.0602021 0.065700136 0.044835187 -0.08656191
0.061368175 -0.027138136 -0.057322156 0.03621883 0.06754599 -0.011592925 -0.043210853 0.097830705
0.062294267 0.031005941 0.048127465 0.0877217 -0.015306041 0.03416174 0.04984022 0.053389616
0.012587443 -0.021323726 0.06449849 -0.041558184 0.052251168 -0.058036517 -0.046363056 -0.034130313
0.05898563 0.06756336 -0.005602643 0.06414717 -0.047544528 -0.06327157 -0.07626212 0.0868996
-0.043419935 -0.057368387 0.021612488 0.0057462826 -0.0044127256 -0.029975131 0.031167246 0.06349074
-0.052097823 -0.03475128 0.062119775 0.0017305166 -0.04403874 0.08591468 0.079391964 -0.023741469
0.081740744 -0.086440586 -0.030530334 -0.010937706 0.07967549 0.0030857548 -0.08805098 -0.0018388852
0.012360893 -0.008482121 -0.09767858 0.014801249 0.0735221 -0.042799007 0.05089406 0.03158874
0.010659955 -0.02856411 0.0391519 0.0839422 0.06031599 -0.075245306 -0.012353674 -0.016794048
0.06582899 0.026127823 0.06090013 0.02574902 0.05484911 0.013481259 -0.007958315 0.050304003

bias_ih_l0 f4 [128]
00000000: 2ef1 06bf 4d38 81be 9264 593d 6aea 26be
00000010: fcd3 8bbe 5b62 ebbd 7ce1 173d e827 bcbe
00000020: 5ca7 d1be 27c5 b4be 4139 e1bd c7d4 9fbe
00000030: 8d10 b6be 522c e4be 5dba 00bf 2704 9abe
00000040: 18de a7be d61b a0be 5043 15bf 6362 04bf
00000050: 0eea 9cbe 1d93 0dbf e8dd 8fbe ea58 50be
00000060: f107 b7be 5fb2 96be 85b2 28bf 22dd 73bd
00000070: f768 96be 1dee ddbe abd8 a7be 6fe6 9cbe
00000080: 82a1 3d3d 33d9 3cbd e06f a2bb 6363 bcbd
00000090: 3557 aabd c073 6abd 9324 ab3d e63f 2f3d
000000a0: 350b bc3d 010a c63d 4d37 32bd c83d f9bc
000000b0: e041 8dbd 32c1 483d 14c7 ba3c c8a4 c5bd
000000c0: 6a2d 213d d888 a73c e022 f7bc b07e eabb
000000d0: 3a29 2cbd 74b8 bfbc 1fce 883d 3292 393d
000000e0: 430a b9bd ba44 173d 80ab c7bb b079 ec3b
000000f0: fe15 0e3d 723d 303d 024a 1d3d c489 ff3c
00000100: 7658 9e3d 451c 55bc b0dd be3e 5d46 53bd
00000110: bcc2 2d3c fd79 eabd 88f9 3dbe 93dc 8ebc
00000120: f54b 21bc 560a f03d c3a8 13bb a16b 4d3d
00000130: 51a0 3bbd ce52 2b3c 584c 86bc 9d40 463e
00000140: 6144 4e3d 2b90 40bd be31 e9ba 9022 1c3d
00000150: d8b3 3a3e 385f cebd 4903 5ebd 3730 75bd
00000160: b821 db3d d9bc 143e 6a15 cbbc 2b8f 17be
00000170: b7ba 2dbd 6d03 c7bd f985 05bd 622c 03be
00000180: 81f6 ecbe 68f7 c3be eaa5 8d3d d8df 01be
00000190: f82e 77be 45bd 58be 71d2 0abe 1cd9 c7be
000001a0: 05ad a9be 4661 dbbe ed95 64be dc27 9dbe
000001b0: 9103 98be edc1 bdbe 69a2 08bf 4ffd 4bbe
000001c0: cf8b 96be cca3 66be 7750 05bf 1aab c4be
000001d0: 11f9 90be 5de5 08bf a27e 54be 6568 a8be
000001e0: 588f ddbe 04bf bbbe f2b0 08bf 45a2 26be
000001f0: dbbd 68be f04f 1ebf 8397 76be c0e0 7abe
-0.5271176 -0.25238267 0.053074427 -0.1630036 -0.2731017 -0.11493369 0.037080273 -0.36749196
-0.40947998 -0.35306665 -0.109972484 -0.31217024 -0.35559502 -0.44565064 -0.5028437 -0.30081293
-0.32786632 -0.31271237 -0.58305836 -0.51712626 -0.3064732 -0.553026 -0.2809899 -0.20346418
-0.35748246 -0.2943296 -0.658974 -0.05953706 -0.29376957 -0.4334573 -0.32782492 -0.30644557
0.046296604 -0.046105575 -0.004957184 -0.09198644 -0.08317415 -0.057239294 0.08356585 0.042785548
0.09181825 0.09669877 -0.04350977 -0.030424967 -0.0689733 0.04901237 0.022800006 -0.0965057
0.03934995 0.020450994 -0.030167997 -0.0071562156 -0.042031504 -0.023403384 0.066799395 0.04530544
-0.090351604 0.036930777 -0.0060934424 0.0072166547 0.034688942 0.04302735 0.038400657 0.031193621
0.07731716 -0.013007228 0.3727851 -0.051580776 0.01060551 -0.11449049 -0.1855222 -0.017439162
-0.00984477 0.117207214 -0.002253101 0.05015147 -0.045807187 0.010456754 -0.016393825 0.19360586
0.05035818 -0.04701249 -0.0017791314 0.0381189 0.18232667 -0.10076755 -0.05420235 -0.059860434
0.10699791 0.14525165 -0.024790484 -0.14800708 -0.042414393 -0.0971745 -0.03259847 -0.128099
-0.46281818 -0.38274693 0.06916411 -0.12683046 -0.24139011 -0.2116595 -0.1355684 -0.3903283
-0.33139816 -0.4284765 -0.22322817 -0.30694473 -0.2969022 -0.37062016 -0.5337282 -0.19920848
-0.2940354 -0.22523421 -0.52075905 -0.3841179 -0.28315023 -0.5347498 -0.20751432 -0.32892147
-0.43273425 -0.3666917 -0.53395 -0.16272838 -0.22728674 -0.61840725 -0.24081235 -0.24499798

bias_hh_l0 f4 [128]
00000000: 3773 f6be 9e2b acbe 1d7a 943d 9276 5bbe
00000010: 5f46 82be c912 91be b6a9 a83c 284c cfbe
00000020: 18ca debe 0b07 9dbe a6f3 2fbe 01f4 c0be
00000030: 79ab 98be ee57 b6be a11b efbe c89f 22be
00000040: 9c6c c5be 74c9 82be 7108 d8be c3f4 fbbe
00000050: 85ac 83be 02dc e5be e29a 63be 418e bbbe
00000060: 8759 b9be f59e c2be cdcd 03bf d7f0 4bbe
00000070: 7948 5ebe fb30 debe f34d a4be 0127 65be
00000080: e044 e23b 6798 66bd e8d7 b2bd f5c4 93bd
00000090: d27e adbd 2979 c23d fa64 7bbd 0002 a6bb
000000a0: 9769 babd 1245 433d 8882 ba3c 60f4 40bd
000000b0: e8b9 9c3c 734e 9fbd e060 a53b 62e3 82bd
000000c0: ce03 4e3d 36ef 1a3d 46ae 583d a006 a1bb
000000d0: 03e6 bc3d 3e57 243d ec92 9cbc c7f4 79bd
000000e0: e21a 153d dd92 6ebd 00da f2bb 7e8c 85bd
000000f0: 0e46 583d 6ea6 413d d08d 6a3c c411 89bd
00000100: 56c0 bdbd aa40 0f3d e09d aa3e 01cd 90bd
00000110: 8bfa 093d 8eaa 80be 8e04 5abe 3a18 e8bc
00000120: fdfc 923d 940d 633e fda8 173e 2106 ad3d
00000130: 84d1 db3d 617e ed3c 0636 123c 3038 883d
00000140: 6ac6 023e a723 61bd 2510 31be 6003 8e3d
00000150: 6ae4 2a3e 202c a73d 3916 5cbd 46db 19be
00000160: 76d7 903c 9cb9 dc3c 2979 a9bc bd05 00be
00000170: b976 40bd 06dd 463d fb9e 2f3d a29d a1bd
00000180: 91ce e2be 32be 5cbe 43b8 b23d eba4 11be
00000190: 67cf 0ebe fd3c 16be 2398 ac3c 4657 b0be
000001a0: bd71 bbbe c467 9ebe e684 85bd bfda dcbe
000001b0: 4187 b3be 9302 9ebe 888b dabe cdab 72be
000001c0: d4f6 bfbe 50e0 31be de92 ecbe beac eebe
000001d0: 23e1 d2be 5423 19bf 4ddc a3be ba19 76be
000001e0: 0283 e0be 6e72 84be c33b 19bf e46f eabd
000001f0: d7d5 aabe a701 e8be ee78 abbe e3ff 97be
-0.48134777 -0.33627027 0.07249854 -0.2143195 -0.25444314 -0.28334644 0.020588737 -0.4048779
-0.4351356 -0.30669436 -0.17182788 -0.3768616 -0.29818323 -0.3561396 -0.46700767 -0.15881264
-0.38559425 -0.25544322 -0.4219394 -0.49210176 -0.2571756 -0.44894415 -0.22227052 -0.3663197
-0.36201116 -0.380119 -0.514859 -0.19916092 -0.21707334 -0.43396744 -0.3209072 -0.2237816
0.006905183 -0.056297686 -0.08732587 -0.07215301 -0.08471455 0.09495766 -0.061375596 -0.0050661564
-0.09102171 0.047673292 0.02276732 -0.047108054 0.019131616 -0.07778635 0.005046949 -0.06391026
0.050296597 0.037825786 0.052900575 -0.00491412 0.09223559 0.040122263 -0.019113027 -0.061024453
0.03640259 -0.05824553 -0.0074112415 -0.065209374 0.052801184 0.04727786 0.014316037 -0.06692842
-0.09265201 0.034973778 0.33323574 -0.070703514 0.033686202 -0.25130123 -0.212908 -0.028331865
0.0717716 0.22173148 0.14810558 0.084484346 0.10733321 0.028990926 0.008924013 0.06651342
0.12771001 -0.05496564 -0.17291315 0.069342375 0.16688696 0.08162713 -0.05373213 -0.15025052
0.017680865 0.026943974 -0.020687656 -0.12502189 -0.046988223 0.048550628 0.042876225 -0.07891394
-0.44298223 -0.21556929 0.087265514 -0.14223067 -0.13946305 -0.14671703 0.021068638 -0.34441584
-0.36610213 -0.30938542 -0.06519489 -0.4313564 -0.35064128 -0.3086134 -0.4268458 -0.2369835
-0.37493002 -0.17370725 -0.462058 -0.46616167 -0.4118739 -0.5981953 -0.32004014 -0.24033251
-0.4384995 -0.25868553 -0.59856814 -0.11447123 -0.33366272 -0.4531376 -0.334907 -0.29687414

weight_ih_l0_reverse f4 [128, 1]
00000000: fcca 31bf 566d f53d b53d f13d c314 4bbe
00000010: f6f2 13be 6e20 f9be ce7f 36be 8ada 983e
00000020: 26af 3cbe b65a 553e 594d 433d 192a 1bbd
00000030: cb9b 14be 04ef 683d 2120 7b3e 6741 483d
00000040: 02c7 253e fae2 af3b ad68 483e a10e 6cbe
00000050: 188c 69be b7c3 a2bd 7bf4 dd3c 59a2 603d
00000060: ca27 03bf f361 3a3e 729f 533e e28a fbbd
00000070: f922 69bd 5f8f 69be cd78 723e d115 03bf
00000080: d949 873d 2a7d 40bd 3285 6a3d d264 463d
00000090: e8de a3bc 60a6 be3b c02e 7ebc f658 5d3d
000000a0: 812a a33d 8059 87bd 7c27 fe3c 410e 833d
000000b0: 303b 0bbd c6be 9bbd e019 953c 74d6 b1bc
000000c0: 1a16 38bd 3691 593d aae0 1a3d dae0 3cbd
000000d0: 1a3a 01bd 3e40 7a3d 0b69 b3bd 7707 53bd
000000e0: 5bc8 c7bd 3045 eabb 2630 06bd 2298 2e3d
000000f0: 5018 89bd b0b0 eabb e879 a1bd 80b3 b0bd
00000100: 489a 8b3e a60e 5a3e ca2b 983e 3ca1 56be
00000110: c74d d2bd efa0 83be 94e5 213e 3b79 a8be
00000120: 977e 4c3c 9e37 adbe ca65 9bbe 9d28 893e
00000130: f18f fcbc ab62 aebe 4ada 9c3e 37c3 173e
00000140: 8765 90be 310f 563e 2d9f 35be 36ee de3d
00000150: f2a4 3f3e 047a 76bd f59b 35be 4ccf ef3d
00000160: a6c7 aebd 75da 65be 6817 803e 1683 013e
00000170: 9049 0dbd 12e5 41be 2e97 95be faf1 f83d
00000180: 10e1 2cbf a274 223e f34b 8e3d 0323 b9be
00000190: b8d2 0ebe f6e1 0abf 0516 83be 0b29 eb3d
000001a0: 31e5 a8be d2c0 f63d ae19 9f3d 9026 8cbd
000001b0: 911f b3be 365c 1e3d aa62 103e 6be6 e23d
000001c0: 42ab 26bd 263a 29bd 9cae 4a3e b28a c2be
000001d0: fd7b 3dbe 749b 8ebc 2efd a53d a78e cd3d
000001e0: bd41 c5be 38bf 933e 628c 8a3d fae3 04bd
000001f0: 1ca1 abbd 1b6a c0bd b869 db3c 81fc 2bbf
-0.69450355 0.11983745 0.11779348 -0.19832139 -0.14448151 -0.48657554 -0.17822191 0.29854232
-0.18426189 0.20835385 0.047681186 -0.037881944 -0.14512555 0.056868568 0.24523975 0.048890498
0.16189197 0.005367634 0.1957118 -0.23052455 -0.22807348 -0.07947486 0.027094116 0.054842327
-0.5123259 0.18201427 0.20666292 -0.12282349 -0.05691812 -0.22808598 0.23678894 -0.51205164
0.06605882 -0.046994366 0.05725593 0.048435993 -0.02000375 0.0058181733 -0.015514076 0.054039918
0.07967091 -0.06608868 0.031024687 0.06399203 -0.033991992 -0.076047465 0.018200815 -0.021708705
-0.044942953 0.053117 0.037811913 -0.046112873 -0.03154955 0.061096422 -0.0876027 -0.05152079
-0.09755012 -0.007149361 -0.03276076 0.042625554 -0.0669409 -0.007162176 -0.0788458 -0.08627987
0.27266145 0.2129465 0.29720908 -0.20959944 -0.10268741 -0.2570872 0.15810233 -0.32904992
0.012481353 -0.33831495 -0.30351096 0.26788798 -0.030830355 -0.34059653 0.3063529 0.14820562
-0.2820246 0.20904233 -0.17736502 0.10885279 0.18715265 -0.060174957 -0.17735274 0.117094606
-0.08534174 -0.22446616 0.25017858 0.12647662 -0.034493983 -0.1893504 -0.29216903 0.12155528
-0.6753092 0.15864804 0.0694808 -0.36159524 -0.1394757 -0.5425104 -0.25602737 0.11482438
-0.3298736 0.12048496 0.0776857 -0.06843293 -0.3498502 0.038662158 0.14100137 0.11079105
-0.040690668 -0.04131522 0.1979317 -0.3799644 -0.18504329 -0.01740811 0.08104931 0.100369744
-0.38526717 0.28856826 0.06765057 -0.032443978 -0.083803385 -0.09395238 0.026783809 -0.67182165

weight_hh_l0_reverse f4 [128, 32]
00000000: 3790 43bd 8c42 f3bc db79 973d a891 a6bc
00000010: 5978 953d 48ed b1bc 6699 a7bd 2669 6f3d
00000020: 657d 823d 932a 9f3d e8a7 8fbd 4ca3 a3bc
00000030: d867 a7bd 47f1 6fbd 7497 a0bc 0ac2 89bd
00000040: e016 cdbb 18ac b8bd e350 28bd 3122 b93d
00000050: cbe3 853d 60b3 c8bb f8f5 a63c c842 b2bd
00000060: cc8e d4bc f194 b43d 7adf 08bd cea5 753d
00000070: d039 c3bb d0ec 8bbb 5d07 82bd bd44 80bd
00000080: 74ef bfbc 2b3a b13d f0df 41bc 20c6 1abd
00000090: 04f6 f43c 5076 b8bb dee7 90bd 08b7 95bd
000000a0: bc8a fc3c 8284 213d 65c3 853d 7768 2ebd
000000b0: 2089 c43c 9499 a7bc db55 b23d 9004 14bc
000000c0: f2ca 653d c9e2 853d e026 6abd bf5a 9c3d
000000d0: e2f3 233d 4e89 423d e889 edbc 4033 99ba
000000e0: 29e0 be3d 4054 36bc 109b 73bd 2b8c 99bd
000000f0: dd14 7abd a953 ad3d 850e 813d fbd0 933d
00000100: f2f9 513d 12de 1e3d 2ceb a1bc 403a 78bc
00000110: ead0 b4bd b0c7 0bbc cf86 c33d 1206 733d
00000120: 806f fcba 2cda cd3c 50b5 b2bd 0023 87b9
00000130: 70ac 1ebd 9d01 93bd 60e4 fbbc 06d3 83bd
00000140: 4c14 e7bc b02c d23b 28d2 4cbc 59ba 8b3d
00000150: 64b3 0ebd d4ec 83bc 0092 dfba d172 c33d
00000160: 80f5 31bd ea15 11bd 0397 31bd 2411 e43c
00000170: 8961 c13d 77d2 51bd e931 873d 0008 d9b8
00000180: e4a7 d13c 6025 583b 8874 c83c 623c 4a3d
00000190: fe06 8ebd 7470 dd3c c392 74bd d881 d4bc
000001a0: 99a5 823d d9f2 ad3d b286 5b3d 804a 9e3c
000001b0: a674 a6bd 0201 683d 808e 44ba 54c4 e73c
000001c0: 5051 90bd d10a 873d c856 b63c ba39 17bd
000001d0: 9fd6 c43d fac8 593d 5da3 c7bd d26b 89bd
000001e0: 3176 ca3d 3a24 5d3d 60ba 29bb 696e 9f3d
000001f0: 666b 89bd 4763 c1bd 2e73 463d 4403 07bd
00000200: ff6f bdbd 20a4 9f3c c20f 5e3d eaa3 5f3d
00000210: 3253 353d 2054 a3bb ec3f d6bc 0762 6abd
00000220: 930d 3cbd 6047 94bc 5710 5cbd e888 25bc
00000230: 8bf0 c03d a8cf 18bc ecb0 a63c a8bc 053c
00000240: 9404 e1bc 92bf 3b3d 380c dfbc aab6 283d
00000250: d31f 93bd d504 cb3d b45e e63c cea1 293d
00000260: 8363 65bd cda2 98bd 00a7 15bd 9fb6 9a3d
00000270: 092d 9b3d 100c 86bd 9e2f 343d 1449 f03c
00000280: 591a 823d 5039 5a3c 62c2 7f3d c82d 99bc
00000290: acb9 85bd be29 9fbd 8cbc 88bc 4cd2 fbbc
000002a0: 7006 7d3c 4cc4 cf3c b90f 9e3d 2344 27bd
000002b0: db03 803d 0fce c0bd 37e7 41bd 3b45 c3bd
000002c0: ca55 1ebd 889b 873c 3e2c 92bd 3646 403d
000002d0: a604 083d 5610 96bd e43f db3c 02b7 143d
000002e0: 813c b03d 21c3 b63d 3626 623d 9841 96bc
000002f0: 3ae7 bdbd ae89 87bd 98cd 9f3c 36fa 4c3d
00000300: 8076 0bbd 50e1 03bc e2f1 263d 8098 c73b
00000310: 742f b43c a3a9 7bbd 0d0f afbd 6a2c 7f3d
00000320: 80f7 883a 12ac 333d 58e5 c8bd 6a21 a6bd
00000330: c00a c5bd 5754 813d c26b 3a3d 4020 2e3b
00000340: 5a4e 7fbd 2c07 ccbc b060 bdbd dcf4 fc3c
00000350: f2c4 233d eb20 ab3d 282a aebd cabc 513d
00000360: de3d 043d 686d be3c 4b75 b9bd 68e4 ac3c
00000370: 602d 973c f0f8 b1bd 2ace a8bd 114a 973d
00000380: 9d27 a23d cc86 cc3c 943d 81bd bebb 263d
00000390: 7aa3 8ebd 90ad 5fbd a5df c73d b2a1 aabd
000003a0: 3657 84bd 10fc 8ebd 805b c4bd 1e97 533d
000003b0: 9012 543c 8e2e 653d 49d0 8c3d 3a65 b3bd
000003c0: c688 753d 4e56 87bd aafc 97bd 3bb2 a43d
000003d0: e344 40bd 8d56 23bd 37f5 4cbd 122e 523d
000003e0: 3a9e 663d c8ee 8e3c df45 af3d 407f e3ba
000003f0: f3d3 be3d 3a38 6fbd a949 843d da9e a8bd
-0.047744956 -0.029694818 0.07396289 -0.020333126 0.07298345 -0.02171959 -0.08183555 0.058449887
0.06371573 0.07771792 -0.070144475 -0.019975327 -0.081741035 -0.05857971 -0.019603468 -0.06726463
-0.0062588304 -0.09017199 -0.041092765 0.090397246 0.06537589 -0.006124899 0.020380959 -0.08704144
-0.025946997 0.08817471 -0.03341625 0.059972577 -0.0059578195 -0.0042701736 -0.06349061 -0.06263111
-0.02342961 0.08653673 -0.011833176 -0.037786603 0.029902466 -0.0056293383 -0.07075475 -0.07310301
0.030827872 0.03943301 0.06531409 -0.042580094 0.023991168 -0.020458974 0.08707782 -0.009034291
0.056101747 0.065373965 -0.05716598 0.07634496 0.040027507 0.047494225 -0.028996423 -0.0011688247
0.09320099 -0.011128485 -0.05947405 -0.07497438 -0.061055053 0.084632225 0.063015975 0.07217594
0.051263757 0.038786 -0.019765459 -0.015150607 -0.0882891 -0.008531496 0.09547197 0.05933196
-0.0019259304 0.025128447 -0.08725989 -0.00025775284 -0.038738668 -0.07178042 -0.030748546 -0.06436734
-0.02820792 0.0064140186 -0.012501277 0.06822652 -0.03483905 -0.01610414 -0.0017057061 0.09543384
-0.043447018 -0.03542129 -0.043356907 0.027840205 0.094424315 -0.051226106 0.066013165 -0.000103488564
0.025592752 0.0032981262 0.024469629 0.04937399 -0.069349274 0.02703116 -0.059710275 -0.02594082
0.063792415 0.08493585 0.053595252 0.019322634 -0.08127718 0.056641586 -0.0007498041 0.028291859
-0.07046759 0.0659386 0.022258177 -0.036920287 0.09611248 0.05317018 -0.09747956 -0.06710018
0.098858245 0.053989626 -0.0025898442 0.07784731 -0.06709938 -0.09442764 0.048449688 -0.0329621
-0.09249877 0.01948744 0.054214247 0.05459968 0.044268794 -0.0049843937 -0.026153527 -0.057222392
-0.045911383 -0.01810044 -0.05372652 -0.010103442 0.0942088 -0.009326853 0.020348035 0.008162655
-0.027468003 0.045836993 -0.027227506 0.041189827 -0.07183804 0.09913031 0.02812133 0.041414075
-0.056003105 -0.07452927 -0.036536217 0.075543635 0.07576949 -0.065452695 0.043990724 0.029331721
0.06352682 0.013319328 0.062441237 -0.018698588 -0.06529555 -0.077716336 -0.016691469 -0.030739926
0.015443429 0.025362156 0.077178426 -0.040836465 0.06250735 -0.094143026 -0.047339644 -0.09534689
-0.038656034 0.016553655 -0.07137345 0.04694196 0.033207558 -0.073273346 0.026763864 0.036307342
0.0860529 0.08923937 0.055212222 -0.018341824 -0.092726186 -0.06618057 0.019507214 0.050043307
-0.034048557 -0.008049324 0.04075802 0.0060911775 0.021995284 -0.061441075 -0.085477926 0.062298216
0.0010449737 0.04386527 -0.09809369 -0.08111842 -0.09621191 0.06314915 0.045512922 0.0026569515
-0.06233058 -0.024905764 -0.09246957 0.030878477 0.039982744 0.08355888 -0.085041344 0.051205434
0.032285564 0.023245528 -0.09055575 0.021105006 0.018454254 -0.08690059 -0.08242448 0.07387174
0.07917712 0.02496662 -0.06310573 0.04070639 -0.069647744 -0.05460888 0.09759454 -0.08331622
-0.06461947 -0.06981671 -0.09587765 0.05165779 0.012943879 0.0559526 0.06875665 -0.08759542
0.05994489 -0.06608258 -0.07421239 0.08041807 -0.046940695 -0.039877463 -0.050038543 0.051313467
0.05630324 0.017447844 0.08558249 -0.0017356649 0.0931777 -0.05840323 0.06459362 -0.082334235

bias_ih_l0_reverse f4 [128]
00000000: 38f0 0abe d3d2 83be 4ec0 c7be 38ae ccbe
00000010: 9bd4 f1be 05d1 85be 03b1 1abe e7db de3a
00000020: bfcf a3be 94e3 093c 11d4 5cbe 120d c6be
00000030: 5b4b d3be e528 17be 365f acbe dc6b 5abe
00000040: 080b adbe 1a1c 4dbf 7b16 0fbf f050 02bf
00000050: c009 b5be cf02 12bf af29 09bf 98a8 72bf
00000060: 4156 27bf 961b 12be d2a6 18bf a3e4 31bf
00000070: 151b babd 765f 94be 3521 06be e2e4 cfbe
00000080: 1dd0 89bd f6a4 11bd 30f8 d23b 7d15 a1bd
00000090: 0080 b1b6 f378 a8bd e84f 373c 60b7 4fbd
000000a0: a095 fe3b da38 3abd 897d b83d 1eff 203d
000000b0: cf77 b0bd 55ae c53d 3074 09bd 6ae1 093d
000000c0: fb0b a5bd e892 84bc 38e7 a9bc 4de9 b2bd
000000d0: 50c0 d03b 4322 38bd 004b efbc 8054 4a3c
000000e0: 00e2 d8ba 686e c1bd 0de8 98bd 00e4 06bc
000000f0: 8d5f 3dbd 6a43 083d 663d 00bd 0673 503d
00000100: f6a2 9fbd f52d f43d 4ae8 58bd a89e b33d
00000110: f721 bdbd 9ea1 693e 7ad9 e33c e42a 623c
00000120: a3b1 20be 14e1 d2bd 1ad2 e7bc efc2 aabc
00000130: da14 083e 6adf b0bb e18d 8c3c 6c6f 5a3d
00000140: 479b 79bd a39f 1fbb ff99 763c 91e0 b9bd
00000150: 6a5b c3bd ae4a 61bd 11d2 34bd e5f9 ae3d
00000160: 5fdf b8ba 342f 79bd 9060 d73d 68ac 4a3a
00000170: 99ad 86be 9232 dbbc fd0e 6fbd ee5f 46ba
00000180: a805 6fbe aa3d 8cbe fc63 d6be 3b7b abbe
00000190: 05b5 f6be b4e9 aebe f1e9 8abe 2181 c43c
000001a0: 9627 8ebe 730c 913d 0616 d0bd cec2 dfbe
000001b0: 3041 05bf dc1b 99bd 7049 8bbe 175c 92be
000001c0: 38ba 85be ec6c 42bf 1084 08bf 557c 00bf
000001d0: 3941 ebbe dfe0 03bf fe8b cdbe 529c 77bf
000001e0: 95a0 26bf 2e77 8fbe 83fb 06bf bf3f 20bf
000001f0: 8e9a 46bd 6f61 e5be 2a74 50bd 47e0 01bf
-0.13568199 -0.25746784 -0.39013904 -0.39976668 -0.47232518 -0.26136032 -0.15106587 0.0017002792
-0.31994435 0.008416075 -0.21565272 -0.38681847 -0.4126843 -0.14761694 -0.3366639 -0.21330208
-0.3379748 -0.80121005 -0.5589368 -0.5090475 -0.35359 -0.57035536 -0.5357923 -0.94788504
-0.6536599 -0.14268336 -0.5962955 -0.69489497 -0.09087197 -0.2897908 -0.13098605 -0.4060431
-0.067291476 -0.03555771 0.0064382777 -0.07865427 -5.289912e-06 -0.08226194 0.011188485 -0.05071199
0.0077693015 -0.045464374 0.09008319 0.0393058 -0.08616602 0.09652392 -0.03355807 0.033662237
-0.08058926 -0.016183332 -0.020740137 -0.08735905 0.0063705817 -0.04495455 -0.029210567 0.012349248
-0.0016546845 -0.094448864 -0.07466135 -0.00823307 -0.046233702 0.033267416 -0.031308554 0.050890945
-0.07794754 0.11922828 -0.052955903 0.08770496 -0.09234994 0.22815558 0.027813662 0.013804171
-0.15692763 -0.102968365 -0.028298426 -0.020844905 0.13289204 -0.005397727 0.017157497 0.053328916
-0.0609391 -0.0024356626 0.015051364 -0.09076036 -0.0953892 -0.05500286 -0.044145647 0.08543757
-0.0014104656 -0.060836032 0.10516465 0.0007731379 -0.2630432 -0.026757512 -0.058363903 -0.0007567395
-0.23342001 -0.27390796 -0.41873157 -0.33492455 -0.48184982 -0.34162676 -0.27131608 0.023987355
-0.27764577 0.070824526 -0.10160451 -0.43703312 -0.52052593 -0.07476017 -0.27204466 -0.28585884
-0.26118636 -0.7594745 -0.5332651 -0.50189716 -0.45948198 -0.51515 -0.40145868 -0.967229
-0.6508878 -0.28020614 -0.52727526 -0.6259727 -0.04848724 -0.44800898 -0.050892033 -0.50732845

bias_hh_l0_reverse f4 [128]
00000000: 85c2 1ebe 9f64 9fbe b819 abbe 1480 bebe
00000010: 4903 c8be a240 57be c1e1 39be d242 03be
00000020: 53ad 49be 4e52 1abd da13 1abe ae8c b9be
00000030: 7b89 16bf 86c1 cabd 707a abbe b61f 7abe
00000040: 127b e2be 54eb 3abf acc4 05bf 68d7 f1be
00000050: 9605 eabe d3ed 2abf 0b54 15bf 9239 75bf
00000060: 4b30 26bf fe3f 81be 22bf 01bf 2325 29bf
00000070: 6517 a7bd e742 bbbe 384e 90bd a279 e0be
00000080: c372 94bd fed6 4c3d 5a08 37bd 2efe 163d
00000090: 983f 67bc 783d c83c 4753 c33d 7242 7f3d
000000a0: aae6 65bd 4062 5b3c 80cb cdba af95 cb3d
000000b0: 3e75 91bd 07cf acbd ccc5 f9bc 70bc 6cbd
000000c0: 6723 6dbd 802e 9c3c d2d3 8ebd aa9b 5cbd
000000d0: d34a 64bd 9d9e 843d 802e 6eba 6858 4c3c
000000e0: e281 c4bd c9fd b13d 5971 c83d 78b5 febc
000000f0: 00f0 2c38 2c21 95bc a5d1 a0bd d43b cc3c
00000100: 789d 20be 67af 2c3e c122 90bd 30a1 943d
00000110: f74b a4bd 06d7 7a3d c1b9 a13d 106a 2bbe
00000120: a318 46be c209 27be 1c2b f3bd a895 46b9
00000130: 85e1 cebc 8e1e ecbd 0f37 cd3c 93bb 713d
00000140: 749f 363d 410a be3d d6a2 6ebc ac31 1dbe
00000150: 3c1f 553b 4c7f fabd 49ab 1bbe 7412 3d3e
00000160: c808 fe3d 7991 bbbd be61 153e 2aca 69bd
00000170: 2528 85be 9709 423d 5472 d6bd c356 09be
00000180: d6b5 33be cf40 d2be 6a3f bbbe 7519 b8be
00000190: b48f 0bbf 8ecc 95be 9251 83be 1ef8 7e3d
000001a0: 3a88 3fbe c329 6dbd 6173 2ebe c862 c4be
000001b0: 61fb f2be 26d8 d3bd b7e7 aebe 2f9d a9be
000001c0: e536 8ebe 42f5 3abf cb09 05bf 3c89 c0be
000001d0: 8af5 ffbe a975 1bbf f16d 14bf 848e 5cbf
000001e0: 2774 1abf deb3 1bbe bf01 e5be 38cf 10bf
000001f0: fb42 dabd 67cb a9be 67a0 1d3c 8876 0ebf
-0.15503891 -0.31131455 -0.3341806 -0.3720709 -0.39065006 -0.21020749 -0.18152525 -0.12818459
-0.19695024 -0.037676148 -0.15046635 -0.36240143 -0.5880353 -0.09900193 -0.3349185 -0.2442616
-0.4423452 -0.7301533 -0.5225322 -0.47234654 -0.45707387 -0.6676914 -0.58331364 -0.9579097
-0.6491744 -0.25244135 -0.5068227 -0.6607229 -0.08158759 -0.3657448 -0.07046169 -0.43842798
-0.072484516 0.05000972 -0.0446857 0.0368635 -0.014114283 0.024443373 0.09537368 0.062319227
-0.05612818 0.013390124 -0.0015700907 0.09940659 -0.0710244 -0.08437925 -0.030489825 -0.057796896
-0.05789509 0.019065142 -0.06973995 -0.05385939 -0.05573542 0.064755656 -0.00090859085 0.01247225
-0.09595086 0.08690984 0.09787244 -0.03109239 4.1231513e-05 -0.018204294 -0.078524865 0.024930872
-0.1568507 0.16863786 -0.07037879 0.072573066 -0.08022302 0.06124022 0.07896758 -0.16739678
-0.19345336 -0.16312316 -0.11873457 -0.00018938503 -0.02525402 -0.11529265 0.025050668 0.059016775
0.04458566 0.092792995 -0.01456519 -0.1535098 0.0032519838 -0.12231311 -0.15202059 0.1846407
0.12404019 -0.09158606 0.14588067 -0.057077564 -0.2600719 0.047372427 -0.10471025 -0.13412003
-0.17549834 -0.4106507 -0.3657182 -0.35956922 -0.5451615 -0.29257625 -0.2564817 0.06224834
-0.1870431 -0.057901155 -0.17036201 -0.38356614 -0.47457412 -0.103439614 -0.3416116 -0.33127734
-0.27776256 -0.73030484 -0.5196807 -0.37604702 -0.4999202 -0.6072641 -0.5798026 -0.8615496
-0.60333484 -0.15205333 -0.44727895 -0.5656619 -0.10657307 -0.33162996 0.009620762 -0.55649614

bin_context_vector f4 [64, 1]
00000000: d1a4 cc3d 496a b53d 9eea 0f3d 8248 1e3d
00000010: 4b3a c63d 7549 873d d8fb e1bc aaae 22bd
00000020: 3ecd 523d d8d6 273c 6a2b 12bd 05a2 c23d
00000030: 43ca 42bd 00fa c3b9 b882 babc 2535 903d
00000040: d2c5 173d 6033 aabb 7cef d93c d5d3 b0bd
00000050: 7bde a1bd a1e1 a43d c5b8 a33d 38d9 c2bd
00000060: 022a 5f3d 934d 4cbd c87a babd f027 afbd
00000070: ee3a 96bd 74b8 80bd 030b 973d 7a2f 12bd
00000080: 40e9 b63a 7364 b43d 4071 d9ba 8045 b53c
00000090: d67d a5bd d1bb b63d 5da7 6abd 9d0f cabd
000000a0: 4e6a 6b3d 210e a03d 4526 a83d fd01 4dbd
000000b0: e34d 27bd 946e 833c 18bf 28bc e0aa 9b3b
000000c0: f484 fd3c 2396 4bbd 086d d4bc 8ac3 2bbd
000000d0: 4023 77bc 582c 883c a081 f93b a8f7 69bc
000000e0: be13 303d 7ba1 c3bd 3d7d 973d d916 9f3d
000000f0: 10ef 15bc 1728 48bd 50c9 cf3b 21fd c53d
0.09992374 0.08858163 0.035135858 0.038643368 0.09679087 0.06605808 -0.027585909 -0.039717354
0.051465265 0.010244094 -0.035685934 0.09503559 -0.047556173 -0.00037379563 -0.02276741 0.070413865
0.03705389 -0.0051941127 0.026603453 -0.08634154 -0.07903763 0.08050848 0.07994226 -0.095140874
0.05448342 -0.049878668 -0.0910545 -0.08552539 -0.07335459 -0.06285182 0.07375147 -0.03568981
0.0013955012 0.08808222 -0.0016589537 0.022127867 -0.08080642 0.08922542 -0.057288516 -0.09866259
0.057474427 0.07815195 0.08210424 -0.050050724 -0.040845763 0.016043939 -0.010299467 0.0047505945
0.030947186 -0.04970373 -0.025930896 -0.041934527 -0.015084088 0.016622707 0.0076143295 -0.014280237
0.042987578 -0.09552284 0.07396934 0.0776803 -0.009151235 -0.048866358 0.006341137 0.09667421

weight_ih_l0 f4 [128, 1]
00000000: ef55 67be 953b 0dbe 1cbb 9bbd 22d4 e43e
00000010: d7bd 46be d631 69be df89 aabe 54da 45be
00000020: 3577 00be dfa8 82be a0e7 19be c669 06bf
00000030: aeb4 bfbd b562 103e dcee e8be 72e8 88be
00000040: 028d dabe 772b 803d 6330 0cbe 31f8 9cbe
00000050: e553 9fbe 51ce db3e 6fbb 39be 56df 23bf
00000060: e9bb a0be 7713 4c3f e629 293f 723a aebd
00000070: f573 df3e cabc 733f 50f3 84be 2858 b5be
00000080: 28b3 e9bc 3ea7 93bd a038 96bc 0073 d5bb
00000090: d097 763c 81ea 9b3d 5add 473d b862 acbd
000000a0: bd85 a4bd 9506 c9bd 8b29 a43d 9e2d 7f3d
000000b0: 3495 afbc 87ed 65bd e634 a4bd 5a56 7b3d
000000c0: 4043 0d3b 001e c2b9 26ea 3f3d da44 cabd
000000d0: a82e bf3c 6dda c7bd 40c4 713b 191c 823d
000000e0: b76e 3abd 8263 1d3d 33a6 6ebd 06a0 84bd
000000f0: 39b1 b83d 43fa c93d 693f b73d f692 583d
00000100: 985c 15bf 709b 173f 045e a9be e445 3dbf
00000110: a6c5 1c3f 1b40 be3e bae2 fe3d a0aa 563e
00000120: f429 223f 50fc af3d 9f9f 263f f084 76be
00000130: e25c 053f 71bb 313d 9d78 e53d 87b2 aebe
00000140: 3ef4 dfbe b868 f4be aad5 d53e 4ec8 55be
00000150: 452a b73d 71d9 133e 6a01 2bbf 1e77 823e
00000160: d19e f03e e1a6 b93c 2c76 a7bc b8a2 f0ba
00000170: dc34 9dbe caa0 babc 9445 12bf bedc f9bd
00000180: 6f95 17bf 47d0 5abe 4bc9 afbd 7349 18be
00000190: 6173 d93e 8797 8abe 24ac 6cbe 0ca9 90be
000001a0: 1c50 43be 7bb3 40be 37e1 16be e873 07bf
000001b0: 63e9 28be 1d1c 853f 52d4 903f 8551 2fbe
000001c0: 6aa6 81be 20a4 50be c4f0 87be b731 72be
000001d0: b2e2 9abe 14c5 92be b007 8fbc 1646 3fbf
000001e0: effd a5be 5920 a83d bd19 ce3e 629d a63c
000001f0: 0d35 a5be 8c0b 2abe 791e 2fbe 920a e7be
-0.22591375 -0.1379226 -0.07604048 0.44693094 -0.19408356 -0.22772917 -0.33308312 -0.19321567
-0.12545474 -0.25519463 -0.15029764 -0.5250515 -0.09360634 0.14100154 -0.45494735 -0.26739842
-0.42685705 0.0625829 -0.13690333 -0.30658105 -0.31118694 0.42930844 -0.18137906 -0.6401266
-0.31393364 0.797172 0.66079557 -0.08507241 0.43643156 0.95209944 -0.25966883 -0.3541882
-0.028527811 -0.07209633 -0.018337548 -0.006513953 0.015050843 0.076130874 0.04879508 -0.084172666
-0.08033321 -0.098157085 0.08015736 0.062299363 -0.02143345 -0.056134727 -0.08017902 0.06136165
0.0021554977 -0.00037024915 0.04685416 -0.09876414 0.023337677 -0.09758458 0.0036890656 0.063530155
-0.045515742 0.038424976 -0.05826397 -0.064758345 0.090181775 0.09862187 0.089476414 0.052874528
-0.5834441 0.59221554 -0.3307954 -0.7393477 0.6123909 0.37158284 0.124455884 0.20963526
0.63345265 0.08593047 0.6508731 -0.24074149 0.5209485 0.04339165 0.11204646 -0.3412058
-0.4374103 -0.47736144 0.41764575 -0.20877191 0.08943609 0.14438416 -0.6679903 0.25481504
0.46996167 0.022662582 -0.02044209 -0.0018359041 -0.3070439 -0.022781748 -0.5713742 -0.12200306
-0.5921239 -0.21368514 -0.085833155 -0.14871769 0.4247084 -0.2706873 -0.23112541 -0.28253973
-0.19073528 -0.18818466 -0.1473435 -0.52911234 -0.1649528 1.0399204 1.1314795 -0.17120941
-0.25322276 -0.20375109 -0.26550877 -0.23651777 -0.3025108 -0.28665984 -0.01745972 -0.7471632
-0.32420298 0.08209295 0.40254012 0.020338718 -0.32267037 -0.16605967 -0.17101468 -0.45125252

weight_hh_l0 f4 [128, 32]
00000000: d248 403d 1aef 10bd b189 b33d 32ff 683d
00000010: f4b4 ec3c a0bd 1abb c713 2ebd 0051 fc3b
00000020: 43c4 b33d acc2 e73c 6058 9fbb 7590 88bd
00000030: 163b 643d 00fe a0b9 2aef 283d d53f a8bd
00000040: bb36 b63d c027 3cbc be39 9bbd 9829 99bd
00000050: 3e7d 473d 2d95 af3d 3252 653d d342 7abd
00000060: fa9b 98bd 0f46 af3d 5b0d abbd b84f e1bc
00000070: 2bc1 a23d 7dc6 a03d 50e2 70bd 96e0 343d
00000080: cc1d bb3c 806b adbc 528f 86bd a90a 983d
00000090: e267 7c3d 53de 9d3d 4a15 91bd 32ce 9fbd
000000a0: 1b7b 93bd fdc3 73bd 60f8 3dbb ca68 4cbd
000000b0: ca56 053d 4a2e 533d 923c 4f3d 7ccd 08bd
000000c0: 78a4 ae3c 217a c83d 6568 af3d 85dc b43d
000000d0: 80db febb 4a7f 5fbd 25eb 883d 321a aabd
000000e0: 6640 81bd b379 9abd 7992 933d 55d7 833d
000000f0: 2234 bfbd 2065 89bb 5949 c13d 90d0 2dbc
00000100: 8060 f83b c0fd 01bd 8700 2abd 0034 e3ba
00000110: 503b 7d3c 6021 ea3b 3dac 95bd 9d82 3cbd
00000120: 6e68 5e3d f4af d3bc 5593 bd3d d01e fabb
00000130: e289 adbd ce53 2a3d 681b 00bc f06d 24bc
00000140: 8167 a53d c323 8fbd 1d34 bc3d 4a57 6e3d
00000150: 60cf 1bbd 14db b33c 119f 8e3d 62bd 0a3d
00000160: 232b 75bd 5038 02bd 9921 c43d 1811 4f3c
00000170: 2455 d63c 220b 503d 5925 9b3d b7f0 57bd
00000180: a136 a93d 9ac4 5f3d 3015 f8bb 7258 99bd
00000190: 034b 923d d00e 9abd 476a b23d 1ad5 2abd
000001a0: cc82 b13c a753 6dbd b80d e7bc 0022 0bbc
000001b0: f419 0ebd 733d 30bd 886a 8c3c 6863 95bc
000001c0: 33d8 39bd 585c 353c c227 c5bd 6b33 bdbd
000001d0: 6233 293d ba4b 6abd e4f2 ee3c ca13 1cbd
000001e0: 00a9 8ebb 7ac2 71bd 58a8 a8bc 984b 013c
000001f0: a0b2 49bb f847 9fbc f0c8 adbd dd9e a2bd
00000200: 9bb0 b73d 8054 8fbd 41a6 ca3d 6fd2 b1bd
00000210: d0ad c2bd 4ecd 3b3d 0d77 59bd 562c a1bd
00000220: 344f ebbc 12d7 183d 34af c1bc 3d55 bbbd
00000230: ec90 c2bc 2aa3 a4bd cdf0 1bbd 2880 31bc
00000240: 96ba 7c3d d4b0 bf3c 2dc8 a53d 30c9 e4bb
00000250: 333b 913d 0de4 a13d 5623 81bd 2a57 7f3d
00000260: 3434 9fbc a019 8cbd f8e3 c4bc 85d3 a73d
00000270: 2218 1d3d 0058 e6b8 703a 7ebc 942f ffbc
00000280: 30d1 553c 1548 983d 08fb 843c 29b9 903d
00000290: 973d 21bd 4e2d 1d3d 1047 693c df5a ab3d
000002a0: 2169 c73d 7d24 a9bd 5d54 c13d a352 a63d
000002b0: 8a05 91bd a6c3 273d 984e aebd 4c11 d83c
000002c0: 8dde 53bd e4ac fd3c c2fc 5a3d a10b 8f3d
000002d0: 5125 ba3d 187e 123c 44f0 f53c 068e 0c3d
000002e0: 5112 a43d 7d9d 88bd 3206 053d 74f8 fd3c
000002f0: f728 9b3d 6fc0 963d 7c83 d93c 277d c73d
00000300: 985f 463c 9e99 153d 00eb ed3b 07ce 73bd
00000310: 0ad4 36bd a081 a33b 528c 613d 4b05 adbd
00000320: 99e0 a33d d8dc 23bc 70e1 2cbd 481b c1bc
00000330: 494f a43d 485f be3c 9eeb 8ebd 5455 ea3c
00000340: 600d 11bd cb8e 97bd 90d6 59bc 93a3 5ebd
00000350: 16d9 7c3d 216f a43d ee37 98bd caaa 2a3d
00000360: 8000 c4ba 9ed7 88bd 80ac 0e3c 66d0 abbd
00000370: 78b3 f5bc 0e99 023d d087 f33b fd23 80bd
00000380: 6400 f33c 0d9e b3bd 4236 013d 0080 37b9
00000390: 304c d13b bce4 ff3c aa3c 283d 3004 9bbd
000003a0: fd44 9dbd 6ca9 febc 6e01 203d b56b 813d
000003b0: 3aeb 8bbd 793f 873d 0211 203d 601c 0cbb
000003c0: 58d7 b0bc c152 bf3d 4df2 ac3d 42d8 763d
000003d0: cac6 3abd 6759 853d e468 07bd d426 c3bc
000003e0: 669f 203d 349b ad3c 6097 37bb ccdb c2bc
000003f0: e8fb 2a3c 03fc 953d 90c9 bebd 3067 90bd
0.046944447 -0.035384275 0.08766497 0.056884 0.028894879 -0.002361156 -0.04249933 0.0077000856
0.08777668 0.028291069 -0.00486283 -0.06668178 0.05572041 -0.00030706823 0.04124371 -0.082153
0.08897158 -0.0114840865 -0.07579373 -0.074786365 0.048703425 0.08573375 0.05598659 -0.061098885
-0.07451625 0.085582845 -0.08352157 -0.027503833 0.07947 0.07850359 -0.05880958 0.044159494
0.022841357 -0.021169424 -0.06570305 0.07423908 0.061622508 0.077084206 -0.07084139 -0.078030005
-0.07201215 -0.05951308 -0.0028987154 -0.049904622 0.03255347 0.051557817 0.050594874 -0.03339909
0.02131866 0.09788919 0.085648336 0.08831123 -0.0077776313 -0.05456475 0.06685475 -0.083057776
-0.06311111 -0.075427435 0.07205672 0.06437556 -0.093361154 -0.0041929632 0.09437818 -0.010608807
0.007579863 -0.031736135 -0.04150441 -0.0017334223 0.015456036 0.007145092 -0.073082425 -0.046023
0.05429881 -0.025840737 0.09256617 -0.0076330677 -0.08473565 0.04158383 -0.007819034 -0.010035977
0.080763824 -0.06989243 0.09189627 0.058188714 -0.038039565 0.02195505 0.06963933 0.033872016
-0.05985559 -0.031791985 0.09576721 0.012638353 0.026163645 0.050791867 0.07575483 -0.052719798
0.08262373 0.054630853 -0.007570885 -0.07487573 0.071432136 -0.075223565 0.08711677 -0.041707136
0.021668814 -0.057941105 -0.028204784 -0.008491993 -0.03469272 -0.043027353 0.017140642 -0.018235877
-0.0453722 0.01106938 -0.09626724 -0.09238323 0.041308768 -0.057201125 0.029168554 -0.03810481
-0.0043536425 -0.059023358 -0.020588085 0.007891558 -0.0030776635 -0.019443497 -0.084855914 -0.07940457
0.08969232 -0.06998539 0.09894992 -0.08682715 -0.09505808 0.04585009 -0.05309205 -0.078697845
-0.02872429 0.037314482 -0.023643114 -0.09147117 -0.023750745 -0.080389336 -0.038071442 -0.0108337775
0.06170138 0.023399748 0.08094821 -0.006981991 0.070913695 0.07904825 -0.06305568 0.062338986
-0.019434072 -0.06840825 -0.024034485 0.08194641 0.038353093 -0.00010983646 -0.015516862 -0.031150617
0.0130503625 0.074356236 0.016232982 0.070665665 -0.039365377 0.038373284 0.014238134 0.08366942
0.097368486 -0.08258913 0.09439919 0.081212305 -0.070811346 0.04095807 -0.08511084 0.026375435
-0.051725913 0.03096623 0.053463705 0.0698464 0.09089149 0.008941196 0.030021794 0.03431513
0.08011306 -0.066706635 0.03247661 0.03100226 0.07576173 0.073609225 0.026551954 0.09740668
0.012107752 0.036523454 0.00726068 -0.059522655 -0.04463581 0.0049898177 0.05506546 -0.08448275
0.08001823 -0.010001384 -0.04220718 -0.023572579 0.08022935 0.023238793 -0.06978534 0.02860514
-0.035413146 -0.074002825 -0.013295785 -0.054355215 0.061730467 0.08029009 -0.07432543 0.041666783
-0.0014953762 -0.06681751 0.008708119 -0.08389358 -0.029992804 0.031884246 0.0074319616 -0.06256864
0.029663272 -0.0877038 0.031545885 -0.00017499924 0.006387256 0.031236999 0.04107348 -0.07569158
-0.07679174 -0.031086646 0.039063863 0.063193716 -0.06831975 0.06603903 0.03907872 -0.0021379218
-0.021587059 0.09341956 0.08444653 0.060264833 -0.045599736 0.06511193 -0.033059016 -0.023822226
0.039214514 0.02119217 -0.002801381 -0.023786448 0.010436036 0.07323458 -0.09315789 -0.070509315

bias_ih_l0 f4 [128]
00000000: fd96 83be 2e3c a2be f1ee 9cbe 227e a23e
00000010: cd97 143e 1d9d 1dbd 6c35 42bf 6cc9 51bd
00000020: 0dc1 94be 2374 d2be 1c94 2f3e 9736 2fbe
00000030: 364e eebd 80c7 f23c d15f a8be bee7 8dbe
00000040: e9c0 9cbe c808 76bd 5cd6 b3bd 23e9 5bbe
00000050: a00f 4abd ccba 453c 7f0c 0c3e 89ef 89be
00000060: c44e 8fbe fffc 19be fbb2 9cbe d095 a4be
00000070: 369e d1bd c64c 05be dc3f 36be e167 063d
00000080: 50ca 50bd fffd a33d 677f 65bd 29f8 bb3d
00000090: 5515 9a3d 78a2 fabc e352 64bd 29e4 b13d
000000a0: 6c32 83bd 88ac 9ebc 5b6e 91bd 00b6 71b9
000000b0: 6121 ab3d 6039 d4bc c0dd 023b 45d2 aebd
000000c0: 4a78 83bd aaa2 033d 357c b5bd 5846 203c
000000d0: 8728 79bd 23b2 a33d 572a bbbd 81a6 b63d
000000e0: 7266 c6bd 50e2 e83b 23f0 b43d ca05 c9bd
000000f0: e524 afbd 4c4e 03bd 80a4 a1bc 5ca5 f23c
00000100: 0dcb b93d efc9 ac3b 7abd 33bd c346 acbe
00000110: 60cc 623e d879 103e 9122 c33b 4c97 223e
00000120: c457 053d 3dc7 033e 10b8 163e eef4 b73d
00000130: 7d56 ad3d d350 36be 13a8 793b 5f96 043e
00000140: 70db d53d 6d8e c0bc 5470 003e c504 c3bd
00000150: 9682 61be 3127 0f3e 295f 75be e379 9bbd
00000160: 6368 a1bd 62e0 fdbd 1dd0 5a3d e857 0e3e
00000170: 77b7 e9bd ff93 143e 5707 0dbd eca0 703e
00000180: 40ed a2be 0412 adbe ce2a 96be ba29 0d3e
00000190: 8f28 613e 7290 efbd b64b 50bf 6deb 35be
000001a0: c629 51be 3a7d cdbe a322 dc3d 86f1 89bd
000001b0: 1ca0 a0be e51a a2bd 0db6 b0be b8ab d5be
000001c0: 5e2b 8abe 9d63 c1bd b55a 67be 38dd 13be
000001d0: 95e2 09be 674f ccbc d7ae e13d 2e7b 96be
000001e0: 05ae aebe ad64 c6bc 2b35 81be f81c 90be
000001f0: a017 80be caa9 0bbe 7053 fdbd 7ab2 7cbd
-0.25701132 -0.31686538 -0.30651048 0.31736857 0.14511032 -0.038479913 -0.75862765 -0.05121748
-0.29053536 -0.4110423 0.17146343 -0.17110668 -0.11636011 0.029636145 -0.32885602 -0.27715868
-0.3061593 -0.06006697 -0.0878112 -0.21475653 -0.049331307 0.012068462 0.13676642 -0.26940563
-0.2798978 -0.15037917 -0.306053 -0.32145548 -0.102352545 -0.13017568 -0.17797798 0.03281391
-0.05097419 0.0800743 -0.056029703 0.09178192 0.075236 -0.03059505 -0.05574311 0.08686096
-0.064061016 -0.019369379 -0.07101127 -0.00023051351 0.08355976 -0.025906265 0.00199686 -0.085361995
-0.06419428 0.03213755 -0.08861581 0.009782396 -0.060829666 0.07992961 -0.09138935 0.08918477
-0.09687509 0.0071070567 0.08834865 -0.09815557 -0.08551959 -0.03205709 -0.01973176 0.029619865
0.09071932 0.005273096 -0.04388187 -0.33647737 0.22148275 0.1410898 0.0059550484 0.15878028
0.032554403 0.12868972 0.14718652 0.089822635 0.08463762 -0.1780427 0.0038094565 0.12947987
0.10442245 -0.023505414 0.1254285 -0.09522394 -0.22022471 0.13979794 -0.23962082 -0.075916074
-0.07881238 -0.12396313 0.05342113 0.13900721 -0.11411946 0.14509581 -0.034430828 0.23498887
-0.31821632 -0.33802807 -0.29329532 0.13785449 0.21988128 -0.11697473 -0.81365526 -0.17765589
-0.20426092 -0.40134603 0.10748794 -0.0673552 -0.31372154 -0.07915286 -0.34513894 -0.41732574
-0.26986212 -0.09442828 -0.22593196 -0.14439857 -0.1346534 -0.024940206 0.11019676 -0.29390854
-0.3411714 -0.024217928 -0.25235876 -0.281471 -0.25018024 -0.13638988 -0.1236943 -0.061693646

bias_hh_l0 f4 [128]
00000000: a90b 5ebe a6dd 87be 4f2e 95be d657 583e
00000010: 0fbf 453e 0174 673c 7443 72bf 6b19 0abd
00000020: 1e40 48be edf9 ebbe 9a12 2c3d 9c84 543c
00000030: 1e1d 83be 1f65 ccbc 08d6 88be 8d10 d7be
00000040: 5579 d2be 6ff6 edbd cce3 1abe 8409 cebd
00000050: e42b a4bd fb0b e1bd 78c9 4a3d aa43 86be
00000060: 2d62 acbe 6402 4b3c cb82 96be 53e3 28be
00000070: d668 d8bd 5bba d23c c141 a7be 6d85 a7bb
00000080: 97bf ca3d 221c 5f3d 393b bc3d 6030 1e3b
00000090: cdea be3d 0c9d ccbc cfd5 c9bd 1d13 c7bd
000000a0: 9004 12bd 22f8 723d 6c3a adbc 8cb8 80bd
000000b0: 008d b3bc 4ce9 f73c 64da ea3c 6900 8d3d
000000c0: d8e3 febc 4684 293d 0232 133d 9fa1 b7bd
000000d0: b2b4 093d f291 213d 5d5f 5cbd de38 713d
000000e0: 2a92 27bd 52ba cabd 9d38 78bd 4c2f 00bd
000000f0: 40a0 96bc 5ff0 c93d 2ab5 2d3d 9224 c0bd
00000100: 0c21 e33d 758d 623c 172e c53b 3fbf adbe
00000110: 081e 2b3e effe ba3d 46f3 b13d bcba 493d
00000120: 7223 84bd 2333 3a3e b829 933e 2dea 0e3e
00000130: c223 0abd ab9e 14be 59f1 513d 760d b9bb
00000140: c22a e53b bad3 13be 86d6 9e3b 0dcf 82bd
00000150: fa34 0bbe 3582 2a3e 0001 82be 9872 05be
00000160: 36c6 44bd 41a6 a6bd 98a3 f13c 8bdc f73d
00000170: e440 233d ea9c 323e f94d 7fbd e837 103e
00000180: 7233 b6be a87e aabe 1150 9fbe 0e0e 853e
00000190: 67a4 4f3e 0edd 2dbe 5650 56bf 297e 96bc
000001a0: ea9d 31be eadb a3be d283 cd3c 44aa 25be
000001b0: fc60 32be 8d55 a6ba e18c 98be 7ef2 c8be
000001c0: 4430 c4be c9a9 38bd 929d 19be a5a6 0fbd
000001d0: cfd7 50be dd9b 773c a571 043e 44b1 6cbe
000001e0: af3d c1be 5495 cebd 5ccc 1dbe 8d9e 80be
000001f0: 54a9 83be 8a7a d13c c3e1 26be f6b2 42be
-0.21684135 -0.26536292 -0.29136893 0.21127257 0.19311164 0.014126779 -0.94634175 -0.033715647
-0.19555709 -0.46089116 0.042009927 0.01297107 -0.25608152 -0.024950562 -0.26725793 -0.42004815
-0.41108194 -0.11619269 -0.1512596 -0.10060409 -0.08016184 -0.10988613 0.04950854 -0.262235
-0.33668652 0.012390707 -0.29396662 -0.16492967 -0.10566871 0.025723627 -0.32667354 -0.005112341
0.09899824 0.05447019 0.09190983 0.002413772 0.093221284 -0.02497723 -0.09855234 -0.097204424
-0.035648882 0.05931867 -0.021146022 -0.062851995 -0.02191782 0.030262612 0.02866859 0.06884844
-0.031114504 0.04138591 0.035936363 -0.08966374 0.03361959 0.039445825 -0.053801883 0.058892123
-0.040910877 -0.09898819 -0.060600866 -0.031295106 -0.01838696 0.098603 0.0424091 -0.09381975
0.110902876 0.013827671 0.006017457 -0.33934972 0.16710675 0.09130656 0.08688979 0.04925035
-0.06452073 0.1818357 0.28742766 0.13956518 -0.033725508 -0.14513652 0.051255558 -0.0056473566
0.0069936225 -0.14436236 0.0048473505 -0.06387148 -0.13594428 0.16651233 -0.25391388 -0.13031995
-0.04804059 -0.08137179 0.029496953 0.12102612 0.039856806 0.1744267 -0.06233022 0.14083827
-0.35586125 -0.33299756 -0.31115773 0.25987285 0.20277558 -0.16978857 -0.8371633 -0.018370705
-0.17345396 -0.3200372 0.02508727 -0.16178232 -0.17419809 -0.0012690291 -0.29794982 -0.39247507
-0.38318074 -0.045083795 -0.15001515 -0.035071034 -0.20394824 0.015112844 0.12933977 -0.23114496
-0.37742373 -0.10087076 -0.15409988 -0.25120965 -0.25715125 0.025571126 -0.16297059 -0.1901358
