Results/gm_full_k562_full/gm_full_k562_full_aux_siamese/gm_full_k562_full_aux_siamese_R2_model.pt (torch_old, 517793 bytes, 122 tensors)

weight_ih_l0 f4 [128, 1]
000000 ff a8 13 3e ea f6 17 be 33 f1 ba bd 5f 8d c5 bd
       0.14419936 -0.14840284 -0.09128036 -0.09646105
000010 19 fe 5e bd d5 0e 9d 3d c9 0e 89 bd 17 63 1d bd
       -0.054441545 0.076688446 -0.06692273 -0.038424578
000020 06 65 4a 3e 58 6a 71 be 04 aa 6f 3c 12 18 f4 3c
       0.197651 -0.23575723 0.014627937 0.029796634
000030 6a fa 8d 3d 6c b4 3b 3e a8 a5 92 3e 9a fa 86 bd
       0.06932528 0.18330544 0.2864201 -0.06590767
000040 55 7e 07 3d 1a be 11 be f8 fd fe bd d5 4c d2 3d
       0.033079464 -0.14232674 -0.124507844 0.10268561
000050 36 e0 9e bd ea 84 8e 3d 1d 16 8d bd 70 7f 45 3d
       -0.077576086 0.06958945 -0.068889834 0.048217237
000060 b4 10 3c 3e a5 e7 5f 3d 61 98 1a be 1d 8f 69 bd
       0.18365747 0.054664273 -0.1509719 -0.05702125
000070 71 62 a6 bd be c9 89 3d 9f 67 48 be 8d 67 2d 3e
       -0.08124245 0.067279324 -0.19570778 0.16934033
000080 d3 d9 12 bd b5 f1 04 bd 2d bf 25 bd e4 2f cc bd
       -0.035852265 -0.032457072 -0.040465523 -0.09970072
000090 73 4a 4c bc cb a6 a8 3d 98 9d 50 bd 2b 08 94 bd
       -0.012468922 0.08234938 -0.050931543 -0.072281204
0000a0 69 17 a2 bd 02 dc 86 bd 67 93 b2 3d 7e 4d 8b bd
       -0.079146214 -0.06584932 0.08719521 -0.0680189
0000b0 14 d1 af bd 5a 20 cb 3c 21 fc 53 bd 67 d7 6d bc
       -0.085848 0.0247957 -0.05175412 -0.014516688
0000c0 4e 35 a7 bd dd f0 37 bd dd 5a 9c 3d a2 b0 c5 bd
       -0.08164464 -0.04490744 0.07634518 -0.09652831
0000d0 9b c7 9b bd bd f0 36 3d 67 32 92 3c 00 45 ab ba
       -0.07606431 0.04466318 0.0178463 -0.0013066828
0000e0 50 00 ba 3d 80 8f ad 3c d3 51 3f bc 58 28 93 bd
       0.09082091 0.02118659 -0.011677223 -0.07185429
0000f0 57 18 8d 3d f3 e0 d7 bb 59 79 53 bd c0 07 d4 bc
       0.06889408 -0.0065880953 -0.051629398 -0.025882602
000100 f4 c4 71 be bd 60 95 3c 43 44 62 3e 9d ac 15 3e
       -0.23610288 0.018234605 0.22096352 0.14616628
000110 ed 02 be bd 05 3f bf 3d 83 c4 3d bc 82 54 0d 3e
       -0.09277902 0.09338192 -0.011582497 0.13801768
000120 74 e8 41 3e cd b0 a4 bd a7 24 f6 bc 45 e0 2d 3e
       0.1893633 -0.080415346 -0.030046774 0.16980083
000130 d7 ff 1c be 98 63 a8 3e 79 cf 80 be b1 cb 1a bc
       -0.1533197 0.32888484 -0.2515829 -0.009447978
000140 d3 b0 ae bb 17 7b ce bc a2 e7 ea 3d e4 08 2e bd
       -0.0053311377 -0.025205178 0.11469962 -0.042488948
000150 6a 99 b0 bd c4 b8 7b 3e 85 45 98 3c 7a c5 fc 3d
       -0.086230114 0.24582201 0.018587837 0.12342353
000160 2f 7f 0d 3e 6f 8b 9f 3c ad 3d 51 be 1e e3 31 3e
       0.13818048 0.019475667 -0.20433684 0.17371795
000170 09 2f 9f 3c 39 bc 76 bc 84 77 92 bd 02 1a b2 3e
       0.019431608 -0.015059524 -0.07151702 0.34785467
000180 8d ea f3 3d bb 37 f1 3c 35 df 0b be 3d e0 2d be
       0.119099714 0.02944552 -0.13659365 -0.16980071
000190 ac 20 70 be db fa fb bd 03 b5 0f be 86 7e f4 3c
       -0.23449963 -0.12303706 -0.14033894 0.029845487
0001a0 0c 21 6c 3e 3d 4a 27 bc aa 5b fe 3b 01 85 d2 3d
       0.23059481 -0.010210571 0.007762392 0.10279275
0001b0 ae 7b e3 3d 99 cb c3 3d 33 67 41 3e f4 c6 c2 bc
       0.111075744 0.095603175 0.18887024 -0.023776509
0001c0 e8 63 05 be 17 a1 68 be 83 3f ce bd de be 27 3d
       -0.13026392 -0.22717701 -0.10070708 0.04095351
0001d0 cd 40 c8 bd 90 55 10 be b0 d5 06 be 12 22 2b 3e
       -0.09777985 -0.1409514 -0.13167453 0.16712216
0001e0 b8 ec be 3d 17 f7 0c 3e ec 33 f7 bd 4e 95 8c bd
       0.09322494 0.13766132 -0.1207045 -0.06864415
0001f0 a8 f3 28 be fb 93 55 3d b0 db 8a bd 10 0a 25 3e
       -0.16499197 0.05214308 -0.06780183 0.1611712

weight_hh_l0 f4 [128, 32]
000000 a7 e6 0c 3d 43 c1 5b bd 6a 42 32 3d c3 6f 00 bd
       0.034399655 -0.053651106 0.04352037 -0.031356584
000010 7d 28 a6 3d 33 53 ef 3c 64 f7 aa bd cd 42 b8 3a
       0.08113191 0.029214477 -0.08347967 0.0014057994
000020 9a 43 62 3c f5 ae a3 3d 5d cf 80 3d 82 56 8e bd
       0.013810063 0.07992355 0.062895514 -0.06950094
000030 62 6d 8d bd e7 6d 7f 3d 13 88 92 bc 7f 9c 92 bd
       -0.06905629 0.06236067 -0.01788715 -0.071587555
000040 00 05 73 3d 6e 35 71 bd 77 03 a1 bc 33 40 13 3c
       0.05933094 -0.058888845 -0.019654972 0.008987474
000050 bc ca 8b bd b8 fb b5 3d d3 49 c7 3d a7 9b ab 3d
       -0.06825778 0.08885902 0.09730878 0.08379298
000060 97 43 cc bc 33 3e f2 3c 33 33 17 38 03 4b 31 3d
       -0.024934573 0.029570675 3.604889e-05 0.043284427
000070 f0 df 22 3d 13 ee b3 3d 68 03 95 3d dd cc 50 3d
       0.039764345 0.087856434 0.0727604 0.050976623
000080 f5 4c ab 3d 65 1e a1 3d 87 45 0d 3d 20 c2 55 bc
       0.08364288 0.078671254 0.034490135 -0.013046771
000090 2b 1f c4 3d 1a 71 63 3c 33 88 2e bc 1d fd ae bd
       0.09576257 0.013881946 -0.01065259 -0.08544371
0000a0 77 8e cf bc e6 45 b3 bd 8b d4 bf bd 38 69 1a bd
       -0.025336487 -0.087535664 -0.09366711 -0.037698
0000b0 33 a9 6c bb 4d ee 05 3d d3 75 b6 3c 9a 4c 4d bb
       -0.0036111593 0.032697964 0.02227298 -0.0031326176
0000c0 e3 a5 1a bd c6 33 c2 bd 7c 28 98 bd 5a 52 aa 3d
       -0.03775586 -0.09482531 -0.07429597 0.083164886
0000d0 00 72 76 3b c0 e4 a6 3c e7 60 7c bc 9d 02 03 3d
       0.003760457 0.020372748 -0.015403963 0.031984914
0000e0 73 7b 98 bd c9 89 60 bd 6e 57 a7 bd da 36 3d bc
       -0.07445421 -0.054818902 -0.08170973 -0.011548722
0000f0 cd 5b ab 3c 53 df 8c 3c d4 03 58 bd 27 67 43 bc
       0.020917797 0.017196333 -0.052738026 -0.011926449
000100 ea 29 36 3d e0 21 31 3d 6d 8b a0 bc a0 61 36 3d
       0.044473566 0.043245196 -0.019597733 0.044526696
000110 4b b7 9a bd 3a 2e 11 bc da d5 c5 3c 00 2c 58 3b
       -0.075544916 -0.008861119 0.024149824 0.003298521
000120 cf 87 5f bd 03 49 4d 3d 67 54 65 3b a7 09 00 3d
       -0.054572877 0.050118458 0.0034992935 0.031259205
000130 3a db 7c bc 80 39 3e bc 2d f9 34 bc 93 87 e0 3c
       -0.015433127 -0.011610389 -0.011045736 0.027408397
000140 28 e7 68 bd e0 1b 98 3d 53 e8 8b 3d 67 82 73 3d
       -0.056861073 0.07427192 0.06831422 0.059450533
000150 e9 54 8c bd 8a 6d b2 3d 4d b2 30 3c d7 ff 7b 3d
       -0.06852133 0.08712299 0.010784698 0.061523285
000160 60 69 bb 3d da 81 13 3c 67 88 95 3c c0 de c7 3c
       0.09150958 0.009003127 0.018253518 0.024398208
000170 a0 02 b3 3d 23 f1 f5 bc 53 b0 c3 bc fa 53 58 3d
       0.08740735 -0.03002221 -0.023887789 0.05281446
000180 9d e6 86 bc 63 c1 06 3d ca b4 92 3d 69 c3 c1 bd
       -0.016467387 0.03289927 0.07163389 -0.094611
000190 53 ae e0 bc 2d f1 0b 3d 4a 0b cb bc f2 d8 11 bd
       -0.027426874 0.03416555 -0.024785656 -0.035607286
0001a0 14 dc 8a bd 20 e1 c7 3c 47 8e e1 bc e3 0b c8 bc
       -0.06780258 0.02439934 -0.027533663 -0.02441973
0001b0 67 6b 66 3d 20 47 a9 3c 87 95 39 bd 67 66 96 bb
       0.05625477 0.020663798 -0.045308616 -0.004589844
0001c0 33 df 70 3d 33 c1 84 bb dd 3f d1 bc eb 53 af bd
       0.05880661 -0.0040513515 -0.025543148 -0.08560928
0001d0 08 6e 27 bd b9 5a ab bd cd 28 8d 3d 4f 44 86 3d
       -0.04087642 -0.08366913 0.06892548 0.065559976
0001e0 b2 64 af 3d 40 10 95 3c d8 2a 03 bd 5a ec a4 3d
       0.08564128 0.018196225 -0.03202328 0.08052893
0001f0 90 8c 34 3d 19 05 a4 bd b8 85 17 bd 67 1f 39 3b
       0.044079363 -0.08008785 -0.03699276 0.0028247477
000200 e0 3e 80 bd e7 76 1f 3c 93 ef f4 3c 10 79 b2 bc
       -0.062619925 0.009732938 0.029899394 -0.021786243
000210 fb d9 1a bd 33 df 9f 3c 4b 4e b0 bd 1a d6 b6 3c
       -0.03780554 0.01951561 -0.08608683 0.022318888
000220 0d 02 80 3d 7a 7c 25 bc f3 14 7b 3c 72 1c 98 3d
       0.06250391 -0.010100478 0.015324819 0.074273005
000230 33 66 13 3c af 17 ac bd ef c3 75 bd 23 b9 38 3d
       0.008996534 -0.08402955 -0.06000131 0.045098435
000240 9a d7 ea bc 0d 17 a3 3c 43 e4 c1 3d 9f e5 0a bd
       -0.02866726 0.019908452 0.094673656 -0.03391039
000250 cd 50 ff 3b 32 8b 0d bd 05 e5 ca 3d fa 9e bd bc
       0.0077916146 -0.034556575 0.09906963 -0.023147095
000260 da 94 79 3c 47 dc 57 3d b0 fe c5 3d 5b 29 b9 3d
       0.015233243 0.052700307 0.096677184 0.09041091
000270 00 40 88 b7 20 3c 9c 3c cd 45 d7 ba 5a be bd bd
       -1.6242266e-05 0.019071639 -0.0016424 -0.09264822
000280 95 37 a0 bd ad 85 d0 bc a7 26 58 3c 13 01 9e 3c
       -0.078231014 -0.025454367 0.013192809 0.019287622
000290 60 bf b5 3c 1a ff d8 3b 07 30 ae bc 33 1b b4 b9
       0.022185981 0.0066222074 -0.021263136 -0.0003435254
0002a0 d6 62 9f bd 93 b7 44 bd 13 ef 6b bc 3a 80 53 3d
       -0.07782523 -0.048026633 -0.014400261 0.05163596
0002b0 3a 02 0c 3d 6a 28 95 3d e7 6f f3 3c 9a 8c 3c 3b
       0.03418181 0.07283099 0.029716445 0.0028770328
0002c0 53 a1 45 3d 4a 3f 52 3d 93 42 8d 3d 8b fc 20 bd
       0.048249554 0.05132989 0.06897464 -0.039303344
0002d0 c7 48 2f bd 85 f0 aa 3d 07 5c f9 3c 00 54 cd 3c
       -0.042794015 0.08346657 0.03043939 0.025064468
0002e0 df b1 8f bd 5e 41 be bd dd 7b a8 3d fd 41 3e 3d
       -0.07016348 -0.092898116 0.0822675 0.04644965
0002f0 9d 4e 89 bd 49 f6 9b bd 3a 26 1a bd 30 78 70 3d
       -0.067044474 -0.076153345 -0.037634112 0.05870837
000300 3a b4 20 3d dd 88 94 3d df 27 98 bd 9d 23 ad 3d
       0.039234377 0.07252667 -0.0742948 0.08454058
000310 e8 e7 aa 3d cd f6 5b bb 70 3c c4 bd d7 e8 58 bd
       0.08345014 -0.0033563853 -0.0958184 -0.05295643
000320 bf 2d b0 3d 03 9a 48 3d 4a 3c be 3d 2f e3 b7 bd
       0.086024754 0.048975002 0.09288843 -0.08978879
000330 33 ef 79 ba 23 5b 53 3d a7 11 f2 bb ef f5 49 bd
       -0.00095342397 0.051600587 -0.007387358 -0.049306806
000340 9a 75 30 bc a7 24 5d 3d fa 5b 7c bc af e8 8e 3d
       -0.010770226 0.053990033 -0.015402788 0.069779746
000350 bd 1c 73 3d 97 ad cc bd ad 3b a3 bc d8 ef a0 bd
       0.05935358 -0.09994047 -0.019925917 -0.078582466
000360 2d a9 c4 bd 4d 59 91 3d 71 18 52 bd 7d 03 35 3d
       -0.0960258 0.07097111 -0.05129284 0.04419278
000370 40 37 ba 3d c0 66 99 bc 9a d8 77 3c b7 29 e8 bc
       0.09092569 -0.018725753 0.015127325 -0.028340204
000380 0a 29 c8 3d 3a 47 04 bc d0 86 59 3d c3 32 1e 3d
       0.097734526 -0.008073622 0.053107083 0.03862263
000390 75 3c 88 bd 03 7b a4 bc 93 a6 0a bc 2a 4c 71 3d
       -0.06652156 -0.020078188 -0.008462566 0.058910526
0003a0 27 7f ff 3c 27 a8 a6 3d 67 94 46 3b 27 61 27 3c
       0.03118856 0.08137541 0.0030300857 0.010216034
0003b0 b2 6b 44 bd 5a 07 83 3c 5b 70 a9 3d 2a 2b cd bc
       -0.04795427 0.015994716 0.08273383 -0.025044996
0003c0 9d a5 ba bd 8d f0 11 bd 07 56 6e 3d 49 64 83 bd
       -0.091136195 -0.035629798 0.05818751 -0.06415612
0003d0 c0 1b 08 3c 3d 57 a5 3d 1a a2 fe 3b 5d 4c c6 bd
       0.008307397 0.0807328 0.007770789 -0.09682534
0003e0 ca b4 58 3d 07 e0 04 3d 6f 59 c7 bd 67 46 48 b9
       0.05290679 0.03244021 -0.09733855 -0.00019099713
0003f0 1a ac 5f 3c 27 c3 26 3c 06 52 ad bd bf 2c 9d 3d
       0.013651872 0.010178364 -0.0846291 0.0767455

bias_ih_l0 f4 [128]
000000 c5 1f 58 bc 1f 48 47 be 92 7b 4f be 10 da c3 bc
       -0.013191168 -0.19461106 -0.20261982 -0.023907691
000010 45 14 fe bc 7d cc d9 be 3f 7b d8 bd bc 22 8c be
       -0.031015525 -0.42538825 -0.10570382 -0.2737025
000020 a3 8f 89 3d c9 cf 95 bd 8b cb 22 be 93 33 17 3d
       0.0671685 -0.073150225 -0.15897958 0.03691442
000030 b3 db 7e bd f3 2e 14 3e b8 e7 58 3d 0c 6c 51 be
       -0.06222124 0.14471035 0.05295536 -0.20451373
000040 81 cd bd bc 65 48 3c be 47 9a 83 be 09 9a 39 be
       -0.023169281 -0.18386991 -0.25703642 -0.18125166
000050 bc de ba be 8e 7f 89 3c 6d b8 a0 be 47 b9 32 3d
       -0.36498058 0.016784456 -0.31390706 0.043633725
000060 ad d4 54 bd 28 97 62 bd 98 5f fd bd 22 7b 88 be
       -0.051960636 -0.055319935 -0.12371749 -0.26656443
000070 c5 20 da be f9 9e 86 be d6 35 11 be e6 a3 e0 3c
       -0.42603126 -0.26293162 -0.14180693 0.027421903
000080 57 64 21 3d 4a 6b bd 3d ea 49 94 bd 7a 19 52 3d
       0.039402332 0.092489794 -0.072406605 0.051293828
000090 df 89 19 bd bd a1 75 bd d7 e6 09 bd a1 04 b8 bd
       -0.037485 -0.0599687 -0.03366741 -0.08985258
0000a0 00 a6 94 3a 25 68 87 bd 63 30 97 3d 67 2c 59 3d
       0.0011340976 -0.06611661 0.07382276 0.05302086
0000b0 ea 90 c6 3d 90 a4 be 3d e8 11 11 bd 77 71 b3 3d
       0.09695609 0.093087316 -0.035417467 0.08761876
0000c0 33 a0 9a bc cd 57 ab 3c a7 0d 64 3c af 24 4b bd
       -0.018875217 0.02091589 0.013919271 -0.04959553
0000d0 60 30 1c bc ac 79 9a bd 13 f7 83 bd e6 34 bf bd
       -0.009533018 -0.07542738 -0.0644361 -0.093362615
0000e0 95 48 95 bd 8d c7 d7 bc 80 36 bc 3d ca f9 0e 3d
       -0.072892345 -0.02634027 0.091900826 0.034906186
0000f0 67 99 f7 3b 13 b0 5d bc a2 d6 a6 3d 95 db b4 3d
       0.007556129 -0.013530749 0.08146407 0.088309444
000100 06 1d 9f 3c c9 e9 6a 3c 13 e1 55 3d 53 e4 ff bc
       0.01942302 0.014337965 0.0522166 -0.031236803
000110 42 28 9b bd 3c 59 44 bd 72 eb 65 bd 93 38 7c 3c
       -0.07576038 -0.047936663 -0.05613274 0.015394348
000120 70 3a f6 3d 79 60 1b bc 91 b6 a8 3b 5e b1 0e 3e
       0.12022865 -0.00948345 0.0051487167 0.13934848
000130 90 f7 c5 bd fb 5c 32 3e fa 3d ff bd 5e c2 b2 bd
       -0.096663594 0.17418282 -0.12462993 -0.08728479
000140 29 74 20 be 0f 68 27 bb 90 08 41 bd bd 33 32 3c
       -0.15669312 -0.0025544201 -0.047127306 0.010876593
000150 ce c1 01 3d 9a 09 ad 3d 3a 28 cf bd e3 89 1a 3e
       0.031678967 0.08449097 -0.101150945 0.15091662
000160 fa 5c c4 3d f4 79 86 3d 34 49 a9 3c 66 39 95 bd
       0.09588046 0.065662295 0.020664789 -0.072863385
000170 94 e6 07 bd b8 3e 7f bc a5 de 9d 3d ea f8 c1 3d
       -0.03317888 -0.015578918 0.07708482 0.09471305
000180 7e 7e a6 3c 32 1b 66 be 40 a4 68 be da 44 32 bd
       0.020323988 -0.22471312 -0.22718906 -0.043522693
000190 f2 a7 a6 bc b7 10 fe be 50 fc 7f bd 1d 3a 95 be
       -0.020343754 -0.49622127 -0.062496483 -0.291459
0001a0 e6 c7 fc bc 2d 19 86 bd 21 c9 8d be d7 63 94 3b
       -0.030857038 -0.06547771 -0.27692512 0.0045285034
0001b0 e7 b4 22 bd 5a be a9 3d 62 ce 46 3d 61 a6 ab bd
       -0.039723303 0.0828826 0.048536666 -0.08381344
0001c0 fb 2f f9 3c f4 ea a0 be 5f 3c 92 be 9f 63 64 bd
       0.030418387 -0.31429255 -0.28561684 -0.05575907
0001d0 12 21 d5 be 50 0e 94 3c 89 f3 cd be c2 08 bd bd
       -0.41626793 0.018073231 -0.40224865 -0.09230186
0001e0 03 60 89 bd 65 3b 36 bd 7a 50 32 be fa 76 45 be
       -0.06707766 -0.044490237 -0.17413512 -0.19283667
0001f0 9d bd 0d bf 89 37 85 be 74 11 08 be 1d 82 d7 3b
       -0.5536745 -0.26018932 -0.13287908 0.00657679

bias_hh_l0 f4 [128]
000000 a6 f8 b5 3d 8f 44 54 be cc 33 14 be 92 6f 54 be
       0.088853166 -0.20729278 -0.14472884 -0.20745686
000010 5f 96 4a bc 41 ca ee be ab ed 4c bb bb f3 0f be
       -0.012364953 -0.46638682 -0.003126959 -0.1405782
000020 04 a2 c8 3d 0d 59 52 be 28 3d 89 be d8 77 0f 3e
       0.09796527 -0.20541783 -0.2680447 0.1401056
000030 ad 02 28 be 62 21 a0 bb b2 b2 a9 bc 85 6b b6 bd
       -0.1640727 -0.004886792 -0.020715091 -0.089072265
000040 78 43 65 3d 0b d8 3c be e4 7d 4d be b8 be 0c be
       0.055972546 -0.18441789 -0.20067555 -0.13744628
000050 49 c0 b0 be 32 b4 ac bd 7c ae 87 be 43 8e 50 3c
       -0.34521702 -0.08432807 -0.2650031 0.01272923
000060 58 28 bf bc f7 54 10 be dc 89 3f be 4d 4a 33 be
       -0.023334667 -0.14094912 -0.18704933 -0.17508812
000070 12 87 db be 9e 29 74 be ce 34 b5 bd a7 d7 8d 3d
       -0.42876488 -0.23844 -0.08847962 0.06925898
000080 e7 68 ec 3c 79 97 83 bd 3d e2 2e 3d 67 0e 41 3a
       0.028858615 -0.064253755 0.042696226 0.0007364512
000090 c2 de 4c bd 4d 1b 50 bc 80 77 95 3b 27 e9 24 bc
       -0.050017126 -0.0127018215 0.0045613647 -0.0100653535
0000a0 a4 c8 8d bd 6b 3e bc 3d db e0 ac 3d 1d 86 af 3d
       -0.06923035 0.09191593 0.08441325 0.08570502
0000b0 1d d1 8f 3d 33 c0 1e 3d c7 ab c7 3d c7 8b bd 3c
       0.07022307 0.038757514 0.09749561 0.02313794
0000c0 1a 52 56 3c 58 4a 8e 3d 8a 16 46 3d 77 43 82 bd
       0.013081098 0.06947774 0.04836134 -0.06360524
0000d0 fb e9 8a 3d 2d ef 30 bd e7 6a 39 bd e7 83 14 3d
       0.067829095 -0.043196846 -0.045267966 0.036258604
0000e0 42 28 1e bd 72 bb c0 3d 40 0f f8 3c 53 5c c0 3d
       -0.03861261 0.09410752 0.03028071 0.093926094
0000f0 57 27 0a bd 07 f8 fa bc 22 39 67 bd 1b 9c 68 bd
       -0.033728924 -0.030635847 -0.05645097 -0.0567895
000100 33 3a 1d be 39 9f 2c bd 3b 0b 36 3d 97 62 92 3d
       -0.15354232 -0.042144034 0.044444304 0.07147711
000110 bc 80 99 bc 4f bb 16 bb 64 26 ac bd b4 74 69 bc
       -0.018738143 -0.0022999828 -0.0840576 -0.014249016
000120 c3 0c 48 3d 75 e0 93 bc b7 2b 98 3b 60 78 94 3d
       0.048840296 -0.018051365 0.004643883 0.07249522
000130 1f 8f c1 3c ad cf 1b 3e 7b 8c 18 be 59 0a 1d be
       0.023627816 0.15215941 -0.14897339 -0.15335979
000140 bd 5b 50 bd a0 3c 92 3c 88 fd 76 bc e4 4b a5 bd
       -0.05086874 0.017851174 -0.015075095 -0.080711156
000150 75 c1 86 3d 8a 09 64 3d 16 ff 64 ba 02 d2 0d 3e
       0.06579868 0.05567316 -0.00087355205 0.13849643
000160 53 68 0f 3e 36 b4 b8 3d 6a d9 a0 3c 00 1b 57 3d
       0.1400464 0.090187475 0.019634921 0.052515984
000170 aa cc 03 bd 32 9e ad 3a 9f 86 b2 bd cd 15 15 3e
       -0.032177605 0.0013245998 -0.08717083 0.14559098
000180 15 83 4d bd cf ba 7b be ac ee 14 be a1 f3 37 be
       -0.050173838 -0.2458298 -0.14544171 -0.17964031
000190 89 9c 36 be de e9 00 bf a2 98 66 bd d4 f5 81 be
       -0.17833151 -0.50356853 -0.056297906 -0.25382864
0001a0 21 f5 15 bd 44 57 52 be 73 78 73 be 74 55 ef 3c
       -0.036610726 -0.20541102 -0.23776416 0.029215552
0001b0 b2 2e 84 bd 26 95 e5 bb 1d fb bf 3c ed 97 b9 bd
       -0.06454219 -0.0070063053 0.02343517 -0.09062181
0001c0 ff 1a 86 bd a4 33 a7 be cd 37 ae be 36 a2 00 bd
       -0.06548118 -0.32656586 -0.34026948 -0.031404696
0001d0 61 49 e7 be 93 27 21 bd 22 68 b4 be 9c 91 9e 3d
       -0.4517317 -0.03934438 -0.35235697 0.077426165
0001e0 72 f5 0a bd f7 7e 51 be 7b 35 2a be f4 a1 d6 bd
       -0.03392548 -0.2045859 -0.16621964 -0.10480109
0001f0 84 76 01 bf 68 de f5 bd bb 56 96 bd a5 af 27 3e
       -0.50571465 -0.12005311 -0.07340761 0.16375597

weight_ih_l0_reverse f4 [128, 1]
000000 31 60 e8 bd a0 dd dc bd 85 1a 53 3c ce 59 08 be
       -0.11346472 -0.10784459 0.012884741 -0.13315508
000010 c9 a5 1a 3e e3 f5 03 3e c2 67 5d 3d 1e 33 3f 3e
       0.15102305 0.12886767 0.05405403 0.18671843
000020 d9 18 1e 3e ce 52 0d be ef c6 83 3e 83 4f 2f 3d
       0.15439166 -0.13801119 0.25737712 0.042800438
000030 36 cf 2e be 8c 7a 8f 3c 41 9a d3 bd 0a 5a b4 3d
       -0.17071232 0.01751449 -0.10332156 0.08806236
000040 44 45 c1 bd b4 f6 46 3e 05 52 32 be 28 6a 86 be
       -0.094370395 0.19430047 -0.174141 -0.26252866
000050 82 fa a0 3d 7a 47 c0 3d 29 fa 87 3e 89 c6 b2 3d
       0.078602806 0.09388633 0.26558045 0.08729274
000060 2b 57 0c be d3 7f 8e 3d 3f c8 40 bd a1 60 1f 3b
       -0.13705127 0.06957974 -0.04706597 0.002431907
000070 c8 a9 e7 bb 0e 4d ba bc 70 a3 6f 3e ca 2e 81 be
       -0.0070698 -0.02274182 0.2340219 -0.2523101
000080 20 d0 2c 3d cd 4e cc 3b 82 cf cb bd 29 b1 84 bd
       0.04219067 0.0062349797 -0.09951688 -0.06479103
000090 a3 11 81 bd 67 7a 6e 3d 27 b2 91 bc 21 96 7d bd
       -0.06302192 0.0582222 -0.017785145 -0.061910752
0000a0 d8 22 78 bd 36 cd 97 bd dd 4e c0 3d 14 55 b5 bd
       -0.060580105 -0.07412188 0.09390042 -0.08854118
0000b0 07 10 cd 3c b8 8f c7 3d d0 e8 05 bd f5 fc b3 3d
       0.025032056 0.09744209 -0.03269273 0.08788482
0000c0 e5 b0 54 bd 27 23 a0 3c 00 0b c0 ba 93 bc c9 3d
       -0.051926512 0.019548012 -0.0014651716 0.09850421
0000d0 e7 b5 a9 bb 2a 67 34 bd 02 64 a5 3d 63 3b 90 3d
       -0.005179155 -0.044043697 0.080757156 0.07042577
0000e0 68 e6 9f 3d 10 44 5b bd cf 4c 34 bd 92 4b 91 bd
       0.078076184 -0.053531706 -0.044018563 -0.07094492
0000f0 a0 66 21 bd 53 f9 65 bd c0 20 cc 3c e5 f7 b8 3d
       -0.03940451 -0.056145977 0.02491796 0.09031657
000100 cd eb 2c 3d 7f c4 91 3c 28 cd 58 3e d0 d0 8a bb
       0.042217065 0.017793892 0.21172011 -0.004236318
000110 b5 c7 4c be e5 8e 9a 3e fe 92 22 be 3a 1d 22 3e
       -0.19998057 0.30187145 -0.15876386 0.15831462
000120 46 04 7b 3e 08 a3 c5 bd f1 5b b7 3e 1b e8 06 be
       0.24513349 -0.09650236 0.35812333 -0.13174479
000130 15 64 62 be da b5 94 bc 75 e8 54 bd 82 1b 81 3e
       -0.22108491 -0.01815312 -0.0519795 0.252163
000140 4a f3 1a 3d e9 9f 6f 3e cf 62 be 3d 9b 2e 5f 3d
       0.037829675 0.23400845 0.0929619 0.054487806
000150 5f 61 18 be 9d 3e a9 3d c6 db d3 be 7d 92 b0 bd
       -0.14880894 0.08263896 -0.4137861 -0.086216904
000160 1b 27 10 bd 53 e7 9f bb 71 63 56 3e 66 55 f7 bd
       -0.035193544 -0.004879871 0.20936371 -0.12076835
000170 3f 43 52 bc 97 24 4e 3e f5 a4 a4 3e 42 ea c1 3d
       -0.0128334155 0.20131145 0.32157102 0.09468509
000180 ab 86 11 be 60 bd c5 bd 18 fe ae bb a3 92 58 3c
       -0.14211528 -0.09655261 -0.005340349 0.013218555
000190 9d 1f 90 3d 53 75 2a 3e 86 bc d3 3d 41 dd 55 3e
       0.0703728 0.16646318 0.10338692 0.20885183
0001a0 e9 88 af 3c 5f 61 ba bd af 2c 17 3e bc 8a 28 3d
       0.021427589 -0.09100603 0.14763139 0.041147932
0001b0 b0 ca 68 bd 3b be ce bd eb 91 85 be 53 20 58 3e
       -0.056833923 -0.10094877 -0.2608789 0.2110608
0001c0 d5 1c 88 3d 57 2b 26 3d 57 54 54 be 1b 25 94 be
       0.06646124 0.040568676 -0.20735298 -0.2893456
0001d0 dc e4 39 3d 48 99 a7 3d bf f9 1e 3e 7f a4 86 3c
       0.045384273 0.08183533 0.15524958 0.01643586
0001e0 6c b2 80 be a6 88 01 bd 5b 82 b9 bd 51 85 5b 3c
       -0.25136125 -0.03162446 -0.090580665 0.013398484
0001f0 41 0f 3e 3d ed 7a 5c bd ec 71 01 3e cd aa 41 be
       0.046401266 -0.05382817 0.12641114 -0.18912812

weight_hh_l0_reverse f4 [128, 32]
000000 69 26 8b bd 4f 9c 95 bd 28 c6 1f bd 8a 8a 94 3d
       -0.067944355 -0.07305204 -0.039007336 0.07252987
000010 a7 a1 46 bd ad 0d 0e bd 48 26 16 bd 60 19 42 3d
       -0.048494007 -0.03468101 -0.0366576 0.04738748
000020 87 99 1a 3d b3 c0 41 3d 28 b8 95 bd cf df a9 3d
       0.03774407 0.047302913 -0.07310516 0.08294641
000030 f3 76 b7 3d 8d 44 bc 3c c5 b9 94 bd a0 c5 b0 bd
       0.08958235 0.022981906 -0.07261995 -0.08631444
000040 28 44 c7 3d 00 52 7f bb b3 80 38 bb c0 2e 16 3c
       0.09729797 -0.0038958788 -0.0028152883 0.0091664195
000050 6a 38 b7 bd 80 cd 21 3d 9a c7 a6 bc 23 a7 98 bd
       -0.08946307 0.03950262 -0.02035885 -0.07453754
000060 2d 99 8d 3c 00 4a aa bd 31 e0 b5 bd 8d 58 3b 3d
       0.017284954 -0.08314896 -0.08880652 0.045738745
000070 9a df 65 3b d2 ae b8 bd 70 87 55 3d 2a 83 19 3d
       0.0035075904 -0.09017719 0.052131116 0.037478603
000080 7b 07 77 bd 1a 82 5a 3d cd 9c ee 3b 9b 54 8d 3d
       -0.06030987 0.05334673 0.0072818757 0.06900903
000090 5f d5 68 bd 1f 81 a3 bd f7 d7 24 3d 77 3b ef bc
       -0.05684411 -0.07983612 0.040245023 -0.02920316
0000a0 db 46 98 bd 60 5e bc bd 5a 01 e1 bb 0b 9d cb 3d
       -0.074353896 -0.09197688 -0.006866616 0.09942063
0000b0 68 b5 c8 3d e7 71 6a 3c 1a 2b 01 bd 80 e8 74 3d
       0.098002255 0.014309383 -0.031535245 0.05979204
0000c0 60 5c 63 3d 4f 8b 01 bd b0 4b 3c 3d 57 cc bc 3d
       0.055508018 -0.031626996 0.04597062 0.09218662
0000d0 8f 0e 90 3d 20 51 39 bc c2 ae 06 bd ad 35 a1 3d
       0.07034027 -0.011310846 -0.032881506 0.07871566
0000e0 c7 6b 86 bd ba 54 88 3c f3 3a 95 bc ca c9 6a 3d
       -0.06563526 0.016641963 -0.018216586 0.057321347
0000f0 80 6e ad bd 7d ac 09 3d ad 60 2f bd 13 50 45 bd
       -0.08468342 0.033611763 -0.042816807 -0.048172068
000100 e7 94 21 bc c0 df 91 3d a8 ae 49 bd e0 e4 a0 bc
       -0.009862161 0.07122755 -0.04923883 -0.019640386
000110 b9 5d c5 bd b3 0d 9a 3d 00 c8 16 b9 b0 81 12 bd
       -0.09637017 0.07522144 -0.0001437962 -0.03576821
000120 fb 4b 88 bd 7e 63 93 bd 90 7a be bd 53 f9 fd 3c
       -0.06655117 -0.07196711 -0.09300721 0.031002676
000130 a7 28 76 3d 88 c2 c9 bd b5 fb 8f 3d 20 dc 53 bc
       0.060097363 -0.09851557 0.07030431 -0.0129309
000140 20 12 81 3c 62 71 9b 3d 7c 88 88 bd e0 aa 62 3d
       0.015755713 0.075899854 -0.06666657 0.05533874
000150 43 e9 69 bd 24 4c 5d bd 78 64 8f 3d 0b d6 b6 bd
       -0.05710722 -0.05402769 0.07001585 -0.08927544
000160 d7 8b aa 3d 98 15 0e bd 67 c2 b0 3d 32 43 8e 3d
       0.083274536 -0.034688562 0.08630829 0.0694641
000170 00 4e 64 3c 6d 9c 07 3d 4f 23 c9 bd 17 c6 12 3d
       0.013934612 0.033108164 -0.09821188 0.035833444
000180 dd 6e 9b bc 6d 2a f3 bc 3a f6 37 bd 0d 20 c3 bc
       -0.018973762 -0.029683316 -0.044912554 -0.023818994
000190 43 86 e6 bc 20 a5 8b 3c d5 14 3d bd 9d c2 8f 3d
       -0.028140193 0.017046511 -0.046162445 0.070195414
0001a0 67 6c 8b 3c 72 9b 9e 3d bf 49 97 bd 3d 6b 63 3d
       0.017019464 0.077444926 -0.07387113 0.055522192
0001b0 cd 1f 00 3d f8 60 bb 3d 80 8f 42 bc f3 bf f6 bc
       0.031280328 0.09149355 -0.011875033 -0.030120825
0001c0 19 b5 a6 bd cf 17 9d 3d 80 7d 4d bd 00 70 c4 bb
       -0.081400104 0.07670557 -0.050168514 -0.0059947968
0001d0 9a c9 e2 b9 00 b5 bb bd ed 60 05 3d 76 83 7f bd
       -0.00043256284 -0.091653824 0.03256314 -0.06238123
0001e0 6d b0 44 bd 43 f6 a4 bd b8 55 8f 3d 6d ae 0f bc
       -0.048019815 -0.08054783 0.069987714 -0.008769614
0001f0 09 69 8a bd 10 2c 3b 3d 0d 9d ec bc 4d 14 2b 3c
       -0.06758315 0.04569632 -0.028883481 0.010441852
000200 ca 0f 64 3d 1a 2b d0 3c 2a 0b 9a 3d b0 86 61 3d
       0.05567912 0.025411177 0.075216606 0.05506009
000210 4a 34 74 bd 90 a8 0c 3d 53 7a 52 3d a7 84 fb bb
       -0.05962018 0.03434044 0.05138619 -0.0076757255
000220 63 10 c3 bd a7 18 b9 3c 44 bf be bd 33 d1 d7 3c
       -0.0952461 0.022594763 -0.09313825 0.026344871
000230 de 1d 83 bd 9a 7f f6 3c 0a 9a 62 3d 93 a5 4c bc
       -0.06402181 0.030090142 0.055322684 -0.012490648
000240 67 a6 c2 3a d8 0d 53 bd 08 ed a1 bd b1 7e 8b bd
       0.0014850617 -0.051526874 -0.07906538 -0.06811274
000250 5a b3 7e 3c 27 47 4b 3c ef 3c 07 bd 57 f9 c3 3d
       0.01554569 0.012407101 -0.033017095 0.09569042
000260 77 8a 20 3d f3 36 68 3c fa 11 ab bd c9 92 ac bd
       0.03919455 0.014173257 -0.08353038 -0.084264345
000270 8a 24 3f 3d 08 61 99 bd 0d ac 4f bd 47 2c c7 3c
       0.046665706 -0.0748921 -0.05070119 0.024313105
000280 63 7d 69 3d 4b 57 be bd 8a f4 69 3d 8f 09 9d 3d
       0.057004344 -0.092939936 0.057117976 0.07667839
000290 67 20 9a 3b 1a 73 08 3c d0 30 e9 bc b8 6c 3e bd
       0.0047035697 0.008328224 -0.028465658 -0.0464904
0002a0 ea 03 6c bd 75 6d 84 bd 11 d0 4c bd 1b 9e b8 3d
       -0.05762092 -0.0646619 -0.050003115 0.09014531
0002b0 08 4a bd bd b2 40 88 3d d0 b1 06 bd 63 f8 2a bd
       -0.09242636 0.06652965 -0.03288442 -0.041740786
0002c0 2d 36 a7 3d 7d 6f 2b 3d a7 9c db bc 9f 28 86 bd
       0.0816463 0.04185437 -0.026808096 -0.065507166
0002d0 a6 77 7b bd fa 04 a6 3c 4b 9e 79 bd 57 7f cb bc
       -0.061393403 0.020266045 -0.060941976 -0.024840994
0002e0 37 99 7e bd cf db ae 3d d7 50 11 3d ba 8b ba bd
       -0.062157836 0.08538019 0.035477486 -0.09108682
0002f0 73 5d 48 3c 16 da c2 bd 7a cd da bc 80 0b 5b 3c
       0.012229311 -0.09514253 -0.026709307 0.013369441
000300 bd 3f 13 bd 96 c6 68 bd 67 19 e9 bb 6a 73 35 bd
       -0.035949457 -0.05683001 -0.007113624 -0.04429952
000310 33 95 4a bc d8 54 c6 3d 1a 18 ef 3c 50 e8 6d 3d
       -0.012364673 0.096841514 0.029186297 0.05808288
000320 34 cf bc bd 2b 17 07 bd 23 22 45 bd c0 5e a3 bb
       -0.09219208 -0.03298108 -0.04812826 -0.0049856603
000330 c3 71 1c bd d2 54 84 3d 73 96 7e 3d 73 ba 09 3c
       -0.03819443 0.06461491 0.0621552 0.008406269
000340 18 c3 96 3d 53 81 d7 bc f3 b6 81 bb ba fc f2 bc
       0.0736143 -0.026306784 -0.003958577 -0.029661525
000350 56 0e 83 bd 8e 69 bf bd f7 e6 70 bd e7 f1 9d 3c
       -0.06399219 -0.09346305 -0.058814015 0.019280387
000360 da 14 8d bc f7 3e 0a 3d f3 c7 55 3c f3 9d 2a 3d
       -0.017221857 0.033751454 0.01304816 0.04165454
000370 57 8b 13 bd 30 c4 c0 bd a0 62 06 3d 00 6f 78 bb
       -0.036021557 -0.0941242 0.0328089 -0.0037907958
000380 80 cb ac 3d 0a 35 b8 3d 63 53 fb bc 9a bf 2f 3c
       0.08437252 0.089944914 -0.03067941 0.010726834
000390 f3 1a c2 bd ca e3 46 3d 3a b9 2d 3d ea 7f 7f 3d
       -0.094777964 0.04855708 0.042412974 0.062377848
0003a0 a0 51 57 bc 2f 55 9c 3d e7 42 e7 3c 20 cf 7c 3d
       -0.0131420195 0.07633435 0.028230144 0.061720967
0003b0 27 7e 9c bb c7 39 c8 bd b6 19 bc bd ca 0f a9 bc
       -0.0047757807 -0.09776645 -0.091845915 -0.020637412
0003c0 53 25 9e 3d e8 99 5c bd 40 26 2a bd 63 bd 5c 3d
       0.07721963 -0.053857714 -0.041540384 0.05389155
0003d0 60 c3 83 3d 1c 9b 80 bd 40 f3 cf 3c 4d e1 bd 3d
       0.06433749 -0.06279585 0.025384545 0.09271488
0003e0 20 78 54 3d 77 68 a1 3d 20 65 40 3d 57 eb 12 3d
       0.051872373 0.07881253 0.04697144 0.03586897
0003f0 fa 8b aa 3c 15 c5 c6 3d ab 8c 8a 3d fd 27 1a bd
       0.0208187 0.09705559 0.067651115 -0.037635792

bias_ih_l0_reverse f4 [128]
000000 30 db 74 3c 2c 96 f3 bd 83 0d fe bc e6 45 8f bd
       0.0149448365 -0.118938774 -0.031012302 -0.06995754
000010 6d ce 33 3c 93 c7 7f be 31 bf 3c be 03 0d 79 3d
       0.010974509 -0.24978475 -0.18432309 0.060803425
000020 9a 1a 08 bd d5 c1 30 be 83 9c 4b 3e 68 e8 0f be
       -0.033228494 -0.17261441 0.19883923 -0.140535
000030 aa 08 38 be 3f 60 5d bd 30 25 c8 be 31 21 de bd
       -0.17972055 -0.054046866 -0.39090872 -0.108461745
000040 8a e7 36 be 11 0f 89 be 6f f0 b7 be e1 67 b1 be
       -0.17861763 -0.26769307 -0.35925624 -0.34649566
000050 86 13 93 3c 27 2f 40 be 5a 85 a5 3d 9f 82 93 be
       0.017953645 -0.18767987 0.080820754 -0.28810593
000060 f2 19 8a be 80 bc ac bd 31 6f 6e bd d1 4e 9e 3d
       -0.2697292 -0.08434391 -0.05821151 0.07729877
000070 ab a8 cc bd 53 12 37 be 9e c2 9d bd dc a8 55 be
       -0.09993108 -0.17878084 -0.07703136 -0.20865196
000080 a7 a5 65 bc 33 65 ea 3c 40 b2 b2 3d 74 8f 86 bd
       -0.014016545 0.028612709 0.08725405 -0.0657033
000090 03 36 5c 3d 0d 4a b9 3c 00 9f f3 3c 60 9f b3 3d
       0.053762447 0.022618318 0.029738903 0.08770633
0000a0 6d 14 9d 3d b7 b6 f2 bc f5 99 8b 3d 4a 20 92 bc
       0.076699115 -0.02962814 0.06816474 -0.017837662
0000b0 59 b5 9e bd f5 50 b9 bd b7 fb 0a 3d 96 54 8d bd
       -0.07749433 -0.090486445 0.03393146 -0.06900899
0000c0 77 99 2c bd 27 8d ca bb c7 9a fb 3c f7 63 8c 3d
       -0.042138543 -0.0061813775 0.030713452 0.06855004
0000d0 c3 1d 56 bd da 7f 13 3d a3 72 0c 3d ca b5 cb bd
       -0.052274477 0.0360106 0.034289014 -0.09946783
0000e0 18 f2 ab 3d cd ec 7a 39 03 8b 46 3d ad 7f f8 bc
       0.08395785 0.00023930073 0.048472416 -0.030334318
0000f0 54 b0 5e bd cd 17 30 bd a7 47 c2 bc d7 e2 60 3d
       -0.05436738 -0.04299145 -0.023715807 0.05490383
000100 46 3a d1 3d d7 90 b3 bd cf 0e 03 3e cb 6d f8 bd
       0.10216193 -0.087678604 0.12798618 -0.12130316
000110 60 82 fc bd 79 5c d0 bc 85 f4 39 3d 38 02 14 3e
       -0.123295546 -0.02543472 0.045399208 0.14453971
000120 9c 5c db 3d e3 f4 2a bd 64 ad 07 3e 75 ba d0 bd
       0.10711023 -0.04173745 0.13249737 -0.10191814
000130 c0 62 5a bc d3 c8 b8 bd 88 02 90 bb e4 a4 81 3b
       -0.013329208 -0.09022679 -0.004394833 0.003956424
000140 95 bc 10 bd 91 03 15 bd c3 96 8c bd 27 5d 59 bd
       -0.035336096 -0.036380354 -0.06864693 -0.053067353
000150 19 9f 28 be 0a 73 3a 3d b8 68 bc bc ec a0 52 3d
       -0.16466941 0.045519866 -0.022999153 0.051423
000160 4e a8 b0 bc f6 4c d8 3d b2 90 bd 3d 3c c9 a2 bd
       -0.021564629 0.10561554 0.09256114 -0.07948539
000170 40 df ec ba c4 ee 75 3c d0 17 68 3d de d6 16 bb
       -0.0018071905 0.015010539 0.056663334 -0.0023016254
000180 d0 fd ee 3d 62 65 85 bd 35 66 5e bd ca 8e 4e be
       0.11669505 -0.06513478 -0.05429669 -0.20171657
000190 ed 27 ce bc 21 56 24 be 20 7b 5a bd 79 63 b5 bd
       -0.025165522 -0.1604848 -0.053340077 -0.088568635
0001a0 82 a0 34 bd f0 7f 98 bd df 59 4b 3e 19 71 8d bb
       -0.044098385 -0.07446277 0.19858502 -0.004316461
0001b0 81 16 06 bd 7d 81 e1 bd 94 18 ba be d0 7e fb bd
       -0.032736305 -0.11011026 -0.36346877 -0.12280047
0001c0 ff 85 e7 bd d6 89 8d be ed 2e 3e be a0 46 99 be
       -0.113048546 -0.27644223 -0.18572588 -0.29936695
0001d0 e7 33 d7 3c 25 bc 3a be cc 21 3e 3e 63 9b 82 be
       0.026269866 -0.18235834 0.1856758 -0.25509176
0001e0 9b 8d 4e be 68 96 eb bc 21 1f 36 3d c7 85 a1 3d
       -0.20171206 -0.028758243 0.04446328 0.07886844
0001f0 17 f7 86 3c f2 5e 25 be 5d 86 9c bd cb 3c 65 be
       0.016475243 -0.161495 -0.07642815 -0.22386472

bias_hh_l0_reverse f4 [128]
000000 93 44 b4 3c af ea 82 be 79 fe 35 bd b6 aa 43 be
       0.022005355 -0.25569674 -0.044432137 -0.1910809
000010 29 09 f3 3b 2f 48 96 be b1 7b 4e be e5 09 75 bd
       0.0074168635 -0.29351947 -0.20164372 -0.05982389
000020 88 ad 77 3c d9 5d 28 be 0c 46 2d 3e ed df 37 be
       0.015117057 -0.1644205 0.16921252 -0.17956515
000030 57 1b 38 be ae b5 32 3d 0d c6 78 be 4e 6e 01 be
       -0.1797918 0.043630295 -0.242943 -0.12639734
000040 1b 5c 84 be 7e cb f5 bd 53 3e 4c be 95 e1 97 be
       -0.2585152 -0.12001704 -0.1994565 -0.29664293
000050 40 0c b7 bc 3c c5 88 be 5d 8a 1c 3d 02 3b c9 be
       -0.022344708 -0.26712978 0.03821789 -0.39302832
000060 ea 7e 7b be 5d 4f 02 3d 90 ec eb bc 13 45 4a bd
       -0.24560133 0.031813968 -0.028799325 -0.04938228
000070 79 d1 05 be 96 af bb bd 45 03 19 be f2 d4 75 be
       -0.13068189 -0.0916435 -0.14942653 -0.24007013
000080 23 41 56 3d 73 cf 91 3d 17 a2 38 3d cd 72 94 3d
       0.052308213 0.07119646 0.045076456 0.07248459
000090 00 46 92 3c 90 19 0e bd 15 fe c7 bd 40 26 45 bd
       0.017855644 -0.034692347 -0.09765259 -0.04813218
0000a0 90 ee 6c 3d 75 75 c2 3d ed b8 bd bc 77 43 8a bc
       0.0578447 0.094950594 -0.023159469 -0.016877873
0000b0 c0 a4 b4 3c 00 bb d7 bb 8d 1b 29 3c f8 5e a4 3d
       0.022051215 -0.0065835714 0.01032151 0.08025926
0000c0 33 25 ba 3c 1a c7 b5 3d 5a 0c 1c 3d 83 c2 da bc
       0.022722816 0.08875866 0.038097717 -0.026704079
0000d0 23 ba f0 bc 43 58 11 3d e3 d2 ae bd 3a 85 0e bc
       -0.029385632 0.035484564 -0.08536317 -0.008698756
0000e0 a3 0f 6a 3d e7 a9 2a 3c c5 50 cc bd a0 f6 c3 3c
       0.05714382 0.010416484 -0.09976343 0.02392131
0000f0 4d 4f e9 bc 53 37 88 bd 3d 6c c3 3d 75 1c c2 3d
       -0.028480196 -0.06651177 0.09542129 0.09478084
000100 7d f2 24 3e 3d 83 b0 bc 8b e3 ac bc 33 56 96 bd
       0.16108127 -0.021546954 -0.021104595 -0.0734066
000110 26 86 14 be 85 48 6c bb 93 23 0e be 63 f0 3a 3d
       -0.14504299 -0.0036053967 -0.13880758 0.045639407
000120 b5 11 de 3c 3e e6 35 3c 66 81 4b 3e 0a b7 2e 3d
       0.027108053 0.011102257 0.1987358 0.04265503
000130 f0 b1 0a ba 0a 49 01 be 86 cc 95 3d 71 93 bc 3c
       -0.0005290797 -0.12625518 0.073144004 0.023019524
000140 9d b2 2d 3d 11 ea 2b 3d b3 0c 7a bd a8 11 45 bd
       0.042406667 0.04197127 -0.061047267 -0.04811254
000150 3a 9e f1 bd 4c 62 1b bd f7 1e 53 bd 35 69 b1 bc
       -0.117977574 -0.03793554 -0.051543202 -0.021656612
000160 f6 66 91 bd c1 bb 03 3e d0 fe 44 3d cf b7 ab bd
       -0.07099716 0.12864591 0.04809457 -0.08384668
000170 e7 e6 99 bd bd f2 e8 3c 8c ec be 3c 3e 50 83 3c
       -0.07514744 0.02843606 0.023306154 0.016029473
000180 b3 65 76 bc 78 19 35 be c1 02 46 3d 81 9c 26 be
       -0.015038895 -0.17685497 0.04834247 -0.16270639
000190 f9 c3 5b 3d af f7 42 be ef fa 2d be 38 b3 ed bd
       0.05365369 -0.19039796 -0.16990255 -0.11606449
0001a0 6a 07 34 bd 00 0d 00 be 92 1c 51 3e 13 a2 f2 bd
       -0.043952383 -0.12504959 0.20421055 -0.118473195
0001b0 d6 bd b0 bd d2 02 11 be da 33 84 be 0c fd 77 be
       -0.08629958 -0.14161232 -0.2582081 -0.24217623
0001c0 ce 5a 0e be 2a 4e dc bd cb 3e 63 be 22 41 77 be
       -0.13901827 -0.10757096 -0.22191922 -0.2414594
0001d0 35 70 ea 3d e5 b8 7c be 87 74 a4 3d 30 31 8b be
       0.11447183 -0.24679907 0.08030038 -0.27185965
0001e0 b2 9f 29 be 92 e6 b1 bc 7a d6 8a bd ce e5 58 bc
       -0.16564825 -0.02171639 -0.067791894 -0.013238383
0001f0 0e 83 2c 3d e3 88 23 be d0 9a 09 be 6e e7 93 be
       0.04211717 -0.15970187 -0.13437963 -0.28887504

bin_context_vector f4 [64, 1]
000000 ca e7 8f 3d 94 99 af bd 67 56 51 b9 1a a6 d8 3c
       0.07026632 -0.085742146 -0.0001996398 0.02644639
000010 d5 d1 9f bd 3f c7 06 bd dd 1b 6e 3d 0a d4 84 bc
       -0.07803694 -0.03290486 0.05813204 -0.01621439
000020 6d a9 b9 3c 9a 60 a8 3c a8 12 8f bd 60 81 44 bc
       0.022663796 0.020553876 -0.0698598 -0.011993736
000030 67 32 49 3d 13 94 dc 3c 7d 13 6d 3d 33 e7 16 3a
       0.049120333 0.026926076 0.057879914 0.0005756497
000040 a7 e5 d9 bb d0 70 a0 3d 9a f2 96 bd 0d a5 04 3d
       -0.006649691 0.07834017 -0.07370491 0.032383967
000050 7a f6 7e bd a7 78 bc bc 9d ab b5 3d a9 c8 c3 bd
       -0.062246777 -0.02300675 0.08870623 -0.09559757
000060 47 a5 ae bc 16 dd b1 bd ba b2 6b 3d 7a ac 56 bc
       -0.021319045 -0.08684747 0.057543494 -0.013102645
000070 90 28 39 bd 6d 6a 2d bc c0 2b 50 bc a1 bf 81 bd
       -0.0452047 -0.010584456 -0.012705743 -0.063353784
000080 cd bb 8b bd 3b ce b5 3d 75 5c ac 3d 17 29 c9 bd
       -0.068229295 0.08877226 0.08416072 -0.098222904
000090 b8 2d 8b bd 3e b4 80 bd 27 ca b8 bc 1d db a2 3d
       -0.067958295 -0.062843785 -0.022557331 0.07951949
0000a0 b8 e2 a5 3d cb 44 6e bd 4d fe c7 3d 4d 57 a3 3b
       0.08099884 -0.058171075 0.09765301 0.0049847723
0000b0 00 5e c9 ba 77 00 8d bd 23 a2 b3 bc 8f be cb 3d
       -0.0015363097 -0.06884854 -0.021927899 0.099484555
0000c0 2e 96 8e bd 0d 76 25 bc a1 7c bb bd 83 65 cc 3d
       -0.06962238 -0.010098946 -0.091546305 0.09980299
0000d0 a0 2a 29 3d 67 c0 a4 3c f0 64 ce bc 90 e8 44 bd
       0.041300416 0.020111276 -0.025194615 -0.04807335
0000e0 53 2d 0b bd 73 25 69 3c 97 83 fc bc e3 1d 9c 3d
       -0.03397877 0.01423012 -0.030824466 0.07622888
0000f0 62 12 be 3d 7a 4a 18 bd e6 17 8f bd 67 2b de bb
       0.0928085 -0.0371804 -0.0698698 -0.0067800763

weight_ih_l0 f4 [128, 1]
000000 2e 5e 8a 3e 31 30 ae be 67 09 bb be 04 77 79 be
       0.27024978 -0.34021142 -0.3653061 -0.24361807
000010 b9 bb 8b bd 05 c4 2d bd 50 f8 21 be 34 97 4d bd
       -0.06822915 -0.042423267 -0.1581738 -0.050193027
000020 0b 86 c6 3e be ff e7 be 22 83 82 bd 2c 54 d9 bd
       0.38774142 -0.45312303 -0.06372668 -0.10611758
000030 e1 c1 e5 3d a2 41 ca 3d b8 8c 68 3e be 8d 96 be
       0.1121862 0.098758 0.2270993 -0.29405016
000040 94 4e 65 bd f0 5f 34 be 31 36 d7 bd 17 87 c0 bd
       -0.05598314 -0.17614722 -0.10508383 -0.09400766
000050 43 80 cb be 93 33 85 bd 7b 89 e2 be 6a d3 e5 bd
       -0.39746293 -0.065039776 -0.44245514 -0.11221965
000060 0f 39 b6 3d 65 24 1e be 70 f4 5d bc 6d ec c1 3c
       0.08897602 -0.15443571 -0.013547048 0.023672307
000070 2e 6f a6 be 69 37 4f bd b3 4c 9e be ae 9f d9 bd
       -0.32506698 -0.050589953 -0.30917892 -0.106261596
000080 15 b7 a4 3d 28 f7 3d bd 60 4a 14 bd 9d 7c 83 bd
       0.080427326 -0.046378285 -0.036203742 -0.064202525
000090 07 01 a7 bd a3 5d 52 3d dd 85 89 3d d4 c6 b9 bd
       -0.08154493 0.05135883 0.067149855 -0.090711266
0000a0 0f c0 9e 3d 5a 59 b8 3d 73 36 f1 3c d1 be 80 bd
       0.07751476 0.090014175 0.029444909 -0.06286395
0000b0 b0 90 2f 3d ea 71 3d 3d d2 30 3c bd 53 e1 b4 bd
       0.042862594 0.046251215 -0.045944996 -0.0883204
0000c0 6d e0 76 3d 6a e3 88 3d 63 e4 5a bd 2d 7a 62 bc
       0.060272623 0.06684001 -0.053440463 -0.013823074
0000d0 67 ee 0f 3b a1 0c 98 bd b5 91 8e bd 6c 01 5c bd
       0.0021962167 -0.07424284 -0.06961385 -0.053712294
0000e0 66 10 9b bd 20 0b 93 3d 93 68 6f 3d f3 61 10 3d
       -0.07571487 0.07179856 0.05844934 0.03524966
0000f0 93 a4 48 3d 8f 11 02 bd 6d 8e d4 3c cd 8c 90 bb
       0.048985075 -0.031755026 0.02594682 -0.004411316
000100 36 28 be be cc 20 ba 3d a3 89 92 3d b3 c4 b0 3e
       -0.37140054 0.09088287 0.07155158 0.3452507
000110 9f f0 76 bd e0 e3 1e 3e b6 f6 31 bc b4 9d 51 3e
       -0.060288068 0.15516615 -0.010862043 0.20470315
000120 d8 c4 c0 3e dd d4 f2 bc 75 34 30 bd 31 ad 77 3e
       0.3765018 -0.029642517 -0.043018777 0.24187161
000130 be 62 a0 be 42 55 d8 3e f2 2c ef be c5 72 9a 3e
       -0.31325334 0.42252547 -0.46713978 0.30165687
000140 14 22 03 3d 2b 28 49 bd 3e 1b 47 3d 02 b8 7b bd
       0.03201492 -0.049110573 0.048609965 -0.06145478
000150 24 fc 3f be f6 5f 83 3e f2 b9 46 3e 04 bd 90 3e
       -0.18748528 0.2565915 0.1940687 0.28269207
000160 ea c7 b7 3e 77 9f f3 3d 74 9e 4b be 14 7b 49 3e
       0.3589471 0.1189565 -0.19884664 0.19675857
000170 46 4c 80 3e bb 14 de bd a2 12 6b be e4 4a 1e 3f
       0.25058192 -0.10843798 -0.22956327 0.61833024
000180 5a 6d b7 bd ff 6d af be 32 e3 ae be f4 41 c4 bd
       -0.08956404 -0.34263608 -0.3415771 -0.09582892
000190 20 9a 4c bd 51 31 eb bd 8f 09 95 be e7 49 f0 bd
       -0.049951673 -0.11484016 -0.29108855 -0.11732846
0001a0 58 5f 05 be 3c 49 8d be 0b 24 b9 bd f6 7a fa ba
       -0.13024652 -0.27594936 -0.09040078 -0.0019110132
0001b0 9f 08 f2 bd 1b 40 d3 bd 11 ed 01 be 01 8b 51 be
       -0.118180506 -0.103149615 -0.1268809 -0.20463182
0001c0 d8 ea 85 bd ac aa f4 bb 80 81 e1 bd 52 cd 53 bd
       -0.065389335 -0.0074666347 -0.11011028 -0.05170948
0001d0 d3 5e b5 be e6 0e d5 bd df 93 b8 be 55 3c f5 3c
       -0.35423908 -0.10403232 -0.36050317 0.029935995
0001e0 7c 0f 28 be b3 e9 b8 bd 50 84 02 be ff 16 00 be
       -0.16412157 -0.090289496 -0.12745786 -0.12508772
0001f0 6a 77 f4 bd d5 b4 7a be 2e b8 85 be 12 ea 11 3e
       -0.11936839 -0.24483044 -0.2611708 0.14249447

weight_hh_l0 f4 [128, 32]
000000 55 cb 36 bd 27 5a 52 bc 5d e2 4e 3d 8d 01 41 bc
       -0.044627506 -0.012838877 0.050508846 -0.011780155
000010 f3 e6 44 3c 86 6c 95 bd c0 18 b4 bd 0d a2 8d bb
       0.012017953 -0.0729609 -0.08793783 -0.0043222965
000020 fb 4b 98 3d 3e 3f 9c bd 1a 15 a4 bc f3 e0 aa bb
       0.07436367 -0.0762925 -0.020029593 -0.0052148043
000030 e7 24 36 bc 6f 10 b7 3d f7 64 76 bd 14 77 98 bd
       -0.011117197 0.08938681 -0.06015488 -0.07444587
000040 97 c4 04 3d 7a 9f 98 bc 8d 07 59 bc ba 8d bd 3c
       0.032414045 -0.018630732 -0.013246429 0.02313887
000050 9a 46 8e 3c e7 65 0d 3c f5 01 15 bd 9a d8 1d 3d
       0.01736765 0.008630252 -0.03637882 0.038536645
000060 a3 2f 99 bd 0a e1 5c bd a7 8d 14 3d da 61 ad 3c
       -0.07479789 -0.05392555 0.036267903 0.021164823
000070 e7 78 8d 3b 40 cd 44 3d 82 d4 3b bd 22 83 82 bd
       0.004317391 0.048047304 -0.04585696 -0.06372668
000080 da fe 3a bc b3 63 c6 3c 87 c8 ae bd ad 85 62 3d
       -0.0114133 0.024217462 -0.08534341 0.055303264
000090 d7 78 2b 3d 7d c4 af 3d 4f 48 00 bd c6 1a 95 bd
       0.04186329 0.08582399 -0.03131896 -0.07280497
0000a0 c3 e4 20 3d 89 fe a0 bd b8 9f a9 bd e7 40 7b 3d
       0.039280664 -0.07861049 -0.08282417 0.061341193
0000b0 70 ef bb 3d 07 4e 7e 3d 60 54 bb 3d f7 16 ae 3d
       0.091765285 0.06208613 0.09146953 0.08500474
0000c0 85 59 89 3d fd 5b a3 bc 35 5f aa bd 76 b3 84 bd
       0.067065276 -0.019941324 -0.083189406 -0.06479542
0000d0 c0 ba 5d bc 87 05 6b bd 7d 0f 26 bd ad d4 8f bd
       -0.013533294 -0.05737832 -0.040542115 -0.070229866
0000e0 2e a8 b6 bd 72 c4 82 bd d8 f7 88 3d 40 09 aa bb
       -0.089187965 -0.06385125 0.066878974 -0.005189091
0000f0 74 64 95 bd 52 3d b7 3d 83 08 c7 bd 05 38 13 bd
       -0.072945505 0.08947243 -0.0971842 -0.035942096
000100 00 41 a8 3b c9 1e 86 bd 4d 94 b9 3d 00 ae 74 bc
       0.0051347017 -0.065488406 0.09061489 -0.014934063
000110 e2 2c a4 bd 1a 33 be bd 39 6c 6e bd b3 cd c7 bc
       -0.08016373 -0.092870906 -0.058208678 -0.024390077
000120 df 13 c3 3d 75 41 80 bd d0 d5 bc bd 45 37 ab bd
       0.095252745 -0.06262485 -0.09220469 -0.08360151
000130 db 50 11 bd d0 e6 57 bd e2 bf 09 bd ba 1c 28 bd
       -0.0354775 -0.052710354 -0.03363026 -0.04104302
000140 c0 9a 89 bc b0 e3 a5 3d 9a 4d 2c 3a a7 87 b3 bd
       -0.016797423 0.081000686 0.0006572843 -0.08766108
000150 1f 30 a7 bd 97 0a 13 3d cd 00 48 3a 0b d3 98 3d
       -0.08163475 0.03589877 0.0007629514 0.07462128
000160 dd cb 52 3d b3 ab ca bc 93 30 c1 3c 07 6d c2 3c
       0.05146395 -0.024740076 0.023582732 0.023733629
000170 80 8f 97 3d 50 64 a0 bc 30 dc 78 bd 77 41 b4 bc
       0.07400417 -0.019579083 -0.060756862 -0.022003872
000180 3a e6 10 3d 1a 0c d4 3c 90 5f 93 bd 9a e5 37 3a
       0.03537581 0.025884677 -0.071959615 0.00070151093
000190 57 a7 b3 3d d0 aa 98 bd ae 61 a6 bd 93 e5 99 3c
       0.08772152 -0.07454455 -0.081241 0.018786227
0001a0 4d b9 80 3c 9a 2d 5f 3c 3d de cf bc 5a 3d 41 bc
       0.015713358 0.013621712 -0.025374526 -0.0117944125
0001b0 5d 4d 54 bd 0a 97 a9 bd 0f 99 a9 bd 13 b9 17 bd
       -0.051831592 -0.082807615 -0.08281147 -0.037041735
0001c0 29 c1 9c bd 65 a7 8d 3d 01 22 8a bd 9a eb cd ba
       -0.0765403 0.069166936 -0.06744767 -0.0015710474
0001d0 ca 23 be 3d a9 49 73 bd 71 6d 61 bd 2e 31 bf bd
       0.0928417 -0.05939642 -0.055036012 -0.09335552
0001e0 ef 7e 8f 3d 5b d8 52 bd aa d2 5d 3d ae d3 ac bd
       0.070066325 -0.051475864 0.054155983 -0.08438812
0001f0 c6 38 cc bd a0 a3 94 3d 8a 21 52 bd 48 f8 c5 3d
       -0.09971766 0.072577715 -0.051301517 0.096664965
000200 30 d0 2c 3d cf 65 89 3d 67 11 90 3d 7a d1 60 3d
       0.04219073 0.067088716 0.07034569 0.054887272
000210 33 30 a6 3c 56 66 a3 bd 80 fb 96 3d ed b6 7a 3d
       0.020286655 -0.079785034 0.073721886 0.061209608
000220 39 bf 99 bd 9f 1b 11 bd 40 83 df bc 8a c1 22 3d
       -0.07507176 -0.035426732 -0.027284265 0.039735354
000230 5a be aa 3d fd 59 aa bc ed 33 82 bd 6a 69 a2 3d
       0.08337088 -0.020794863 -0.0635756 0.079302624
000240 bd 87 34 3d bd a2 b8 3d cf 7e c5 3d 01 17 bd bd
       0.044074763 0.09015415 0.096433274 -0.09232903
000250 6d 72 1e 3d e4 18 93 bd f0 33 b3 3d 33 53 a5 39
       0.038683344 -0.07182482 0.08750141 0.0003153324
000260 33 69 a9 3a bb ac 69 bd 55 35 2a bd 90 86 6e 3d
       0.0012925029 -0.057049494 -0.041554768 0.058233798
000270 50 27 bb bc 4d bd 3c 3c ad 17 04 3d 5b ca c4 bd
       -0.022845894 0.011519742 0.03224914 -0.09608909
000280 46 5b 84 bd a6 8a be bd 63 31 97 bd 1b 53 ac 3d
       -0.064627215 -0.09303789 -0.07382467 0.084142886
000290 83 8a 82 3d 8a 11 38 3d 32 e6 be bd 69 83 75 bd
       0.06374075 0.0449386 -0.0932125 -0.059939776
0002a0 40 d7 ba 3d 3a 7e 98 3c 00 37 db 3c 67 0d 55 bb
       0.09123087 0.018614877 0.026759624 -0.003250921
0002b0 b7 48 1a 3d ff 9a 0a bd 53 9f 93 bc ed 37 69 bc
       0.037667003 -0.033839222 -0.018020308 -0.014234525
0002c0 07 5a 65 3d 22 8e 89 3d 7a e1 d6 3c 61 b1 87 bd
       0.05599406 0.06716563 0.026230562 -0.06625629
0002d0 4d 8c 86 bc f3 f7 68 bd 33 44 9a 3c 65 42 16 bd
       -0.016424323 -0.056877088 0.018831348 -0.036684413
0002e0 62 53 50 bd 08 a7 1e bd 90 85 c6 3d f2 f2 83 bd
       -0.05086077 -0.038733512 0.09693444 -0.064428225
0002f0 f7 e0 24 3d c0 d0 26 3c 9d 9e c5 3d 5d 53 a7 bd
       0.040253606 0.010181606 0.09649394 -0.08170197
000300 4a 71 94 bd 6b eb 8b 3d 55 c5 3c bd e7 13 be 3c
       -0.07248171 0.06832012 -0.046086628 0.02320285
000310 d3 f8 6d bc cd f9 17 bc 53 19 7b bd a2 29 1d bd
       -0.014524656 -0.009275866 -0.061303448 -0.038369782
000320 8d 67 dd bc 03 b2 8a bd ed f2 87 bd 4b ce b7 bd
       -0.027026916 -0.06772234 -0.06638131 -0.08974894
000330 b3 a0 c9 bc d0 7b 28 3d 8e ac bd bd 05 2d 84 3d
       -0.02461276 0.0411337 -0.09261428 0.06453899
000340 6b a4 b7 3d ed 0e 99 bd 3d 7c ca bc 4f a2 98 bd
       0.08966907 -0.0747355 -0.024717445 -0.07452833
000350 67 3e 85 3c f8 09 c3 3d 47 07 35 bc 9d ac 28 3d
       0.016265107 0.09523386 -0.011049098 0.04118024
000360 77 69 c4 3d 1a ff e5 3c c3 0f ca bd 37 55 4c 3d
       0.09590428 0.028075743 -0.098662876 0.049885955
000370 e8 39 12 bd 0a c4 41 3d d5 40 7b bd b3 a1 54 3c
       -0.035699755 0.047306098 -0.061341126 0.012978005
000380 27 85 4d bc 7e d9 76 bd e3 2f 47 3d 5a b9 4d 3d
       -0.012543953 -0.06026601 0.048629653 0.050225593
000390 57 6f 57 3d ca 6e 97 bd bb 5c 34 bd 37 83 41 bd
       0.052596416 -0.07394178 -0.044033747 -0.047244277
0003a0 40 79 bb 3d e0 32 11 3d 33 0a de bb 1d 73 13 bd
       0.09153986 0.03544891 -0.006776118 -0.035998452
0003b0 ed cc 32 bc 33 dd 1a 3d 74 f2 a3 bd 6d 52 5a bc
       -0.010913116 0.03780861 -0.08005229 -0.013325316
0003c0 3f d5 50 bd 57 93 4b 3d 32 12 8a 3d d7 2e 41 3d
       -0.050984617 0.04970106 0.06741752 0.04716381
0003d0 27 09 b1 3c 63 73 cb bd 2a 8b a1 bd 5a fe a8 3d
       0.02161081 -0.09934118 -0.078878716 0.08251639
0003e0 da ba fd bc ea 68 18 3d 27 49 a5 bd 8b 32 a1 bd
       -0.030972887 0.03720943 -0.08070593 -0.078709684
0003f0 e7 aa bd 3c 78 5a 3f bd b3 17 5c 3c bd 99 95 3d
       0.023152782 -0.046717137 0.013433385 0.07304714
