Results/E116_E123/E116_E123_aux_siamese/E116_E123_aux_siamese_R2_model.pt (torch_old, 290188 bytes, 68 tensors)

weight_ih_l0 f4 [128, 1]
0.12797384 -0.1917818 0.12092229 -0.006374604 -0.14158916 0.027001569 0.080723815 -0.06656884
0.039996933 -0.28582755 -0.08629072 -0.04897881 -0.22357468 0.11013139 -0.037143618 -0.012808506
-0.13121359 -0.11650809 0.01910107 0.050081372 -0.08984057 0.03144477 -0.13129772 -0.20305543
0.029335 -0.0672367 -0.06585434 -0.17668633 0.15603477 -0.0038605444 -0.21012087 -0.1354509
0.14267597 0.13122936 -0.04835745 -0.12151381 -0.18111344 0.013871125 -0.038866207 -0.11556521
-0.02178907 -0.22276238 -0.11906252 -0.13413918 -0.21512242 0.07661156 -0.10013384 -0.041101124
-0.24540265 0.08263195 0.23498015 -0.14277157 -0.15742333 0.030662501 -0.08057863 0.170328
-0.05480351 -0.03820102 0.098491535 -0.1704442 0.16981174 -0.122130364 -0.09302507 -0.1458446
-0.11291076 -0.034647286 0.118317075 0.0779011 -0.11944939 -0.009480044 0.21795288 -0.2504385
0.0011661921 -0.032505956 0.03134072 0.19970043 0.10627774 0.18700984 0.07263699 -0.16499346
0.01825176 -0.071318716 -0.07879379 -0.026217453 -0.08686559 0.107963294 -0.024587758 -0.039567422
-0.1781884 -0.11473977 -0.021873912 -0.085535996 -0.15366443 0.11235696 0.03268348 0.01718991
0.06904506 0.102299325 0.10855508 -0.07160487 -0.16868784 -0.14938581 -0.18237935 -0.29150814
0.13140616 -0.08970395 -0.106635615 -0.04892435 -0.16562961 -0.024408612 -0.067211315 -0.11946252
-0.15346475 0.03576429 -0.08865359 0.02984916 -0.08309823 -0.08140167 -0.22929338 0.12874466
-0.28773224 0.0016874666 0.049716838 -0.123648286 -0.10793828 -0.0670304 -0.07536873 -0.11616151
00000000: 930b 033e 7362 44be 1ba6 f73d 0ee2 d0bb
00000010: c0fc 10be 6532 dd3c 8752 a53d 3e55 88bd
00000020: d3d3 233d fd57 92be 30b9 b0bd 019e 48bd
00000030: c3f0 64be 918c e13d e823 18bd c5da 51bc
00000040: db5c 06be cb9b eebd d979 9c3c 2022 4d3d
00000050: 55fe b7bd 3bcc 003d e972 06be c3ed 4fbe
00000060: f44f f03c 65b3 89bd a4de 86bd 43ed 34be
00000070: 94c7 1f3e 3001 7dbb ed29 57be a4b3 0abe
00000080: a619 123e fd60 063e 7612 46bd 3bdc f8bd
00000090: cd75 39be b743 633c 2c32 1fbd 74ad ecbd
000000a0: fe7e b2bc d21b 64be 0dd7 f3bd c85b 09be
000000b0: 0d49 5cbe 86e6 9c3d f912 cdbd a759 28bd
000000c0: d54a 7bbe f13a a93d a39e 703e b632 12be
000000d0: 9533 21be ed2f fb3c 6906 a5bd 776a 2e3e
000000e0: a579 60bd ac78 1cbd eeb5 c93d ed88 2ebe
000000f0: 21e3 2d3e 7c1f fabd ee83 bebd 4958 15be
00000100: c23d e7bd 50ea 0dbd 3950 f23d 9d8a 9f3d
00000110: e2a1 f4bd 3052 1bbc 0a2f 5f3e 7a39 80be
00000120: eada 983a f724 05bd 205f 003d 457e 4c3e
00000130: 25a8 d93d 827f 3f3e b4c2 943d 0cf4 28be
00000140: b784 953c 8c0f 92bd a35e a1bd fcc5 d6bc
00000150: 96e6 b1bd dc1b dd3d 446c c9bc 7311 22bd
00000160: 0577 36be affc eabd eb30 b3bc 7f2d afbd
00000170: 355a 1dbe 681b e63d 1ddf 053d dbd1 8c3c
00000180: 7f67 8d3d 4f82 d13d 2052 de3d 93a5 92bd
00000190: 81bc 2cbe 98f8 18be a7c1 3abe 8e40 95be
000001a0: 568f 063e b4b6 b7bd c663 dabd e664 48bd
000001b0: cf9a 29be 92f4 c7bc 16a6 89bd c4a8 f4bd
000001c0: dd25 1dbe 937d 123d 0390 b5bd 3a86 f43c
000001d0: 682f aabd ebb5 a6bd e2cb 6abe a4d5 033e
000001e0: a451 93be fc2d dd3a e2a3 4b3d 503b fdbd
000001f0: bf0e ddbd 3c47 89bd ec5a 9abd 16e6 edbd

weight_hh_l0 f4 [128, 32]
-0.023102466 0.025887508 -0.06242182 0.07802069 0.016943283 -0.07222763 -0.005874413 -0.11009042
-0.097473316 -0.039524373 -0.04095674 0.022245387 0.02144462 0.1479892 -0.067101 -0.20194729
0.13070434 -0.18917274 -0.041315977 0.00927414 0.05581122 0.15622193 0.02698315 0.16460992
0.03724224 0.06370143 -0.080270536 -0.033466097 -0.12401341 0.023210082 -0.049370762 0.1813141
-0.06578809 0.21687515 -0.021060053 -0.20305377 0.3188479 -0.017199984 -0.2245333 0.061180778
0.10016449 -0.058924012 0.10825427 -0.30049038 -0.23120408 -0.18275933 0.15691747 -0.17593145
-0.23992367 -0.19538186 -0.19541968 0.18562053 -0.08995013 0.07192263 -0.34805396 0.14078441
-0.27493918 -0.14554988 -0.12429038 0.015862849 -0.15589175 0.2657322 -0.10862901 -0.20658934
0.068794675 0.011168977 0.124418035 -0.18652667 0.07133733 0.0020502247 -0.27097923 0.2173284
0.1467007 0.10954057 0.19468988 -0.11182054 -0.22083707 -0.15709381 0.26479882 0.14079714
-0.15105896 0.18708389 0.16909109 0.10614235 -0.09085351 0.049955577 -0.18753785 -0.02527602
-0.112938985 -0.22278535 0.06611621 -0.08576401 0.11705495 0.27696323 -0.06924508 -0.17503734
-0.0532218 0.09234828 0.027670914 -0.117232844 -0.031666927 0.06139325 -0.067864306 -0.045511562
-0.06085659 -0.07025361 -0.0365708 0.02849391 0.024789272 0.044958357 0.0028298246 0.03015537
0.08770767 -0.027403597 -0.009382609 -0.010386982 0.067930534 -0.040177166 -0.044623055 0.066305794
0.1374816 -0.026392182 -0.07749329 -0.045629412 0.052141547 -0.04005506 -0.15808871 0.01884642
-0.044717763 -0.061798926 -0.030027986 -0.10843719 0.029017 0.06333163 -0.16756135 0.03346667
0.12631832 -0.0071473657 0.119591825 -0.027474776 -0.043472506 -0.21095778 0.03101297 0.15458366
-0.035233863 0.11982999 0.15481955 0.111457735 0.09966149 -0.23441193 -0.019934595 -0.13175838
-0.00017032899 -0.0054469584 0.18798995 0.0024099457 0.06178959 0.10056481 -0.070484005 -0.1345185
-0.10750139 0.08478054 -0.19141759 0.08594071 0.06274847 -0.052181955 0.06991813 -0.035903037
-0.13028085 -0.080162294 -0.0210201 0.026321005 0.03641518 0.0900231 -0.11326793 -0.06998973
0.0058961837 -0.078651294 0.030545805 -0.12800506 0.06400559 0.10339215 -0.049986836 0.11134311
0.035929818 0.05419541 0.01561481 0.10219916 -0.19778945 -0.17803816 -0.08606979 0.13346297
0.020651178 0.04469197 -0.09319917 0.20142202 -0.15445162 0.010817454 0.12468194 -0.24986434
-0.079320505 -0.024144867 -0.09308584 0.10722819 0.07532577 0.21655427 -0.11103605 0.06033454
0.043515313 0.008527912 -0.07589989 0.08407609 -0.011792555 -0.16949438 0.25015792 -0.041939985
0.09699587 0.16764468 -0.062195476 -0.019451927 0.21033125 -0.16709608 -0.015776923 0.10143474
0.15821205 -0.09900625 0.04590298 0.09550358 -0.32245192 0.011867136 0.16069886 -0.13104986
-0.06939133 0.07749275 -0.15058364 0.14959793 0.07243495 0.10527097 -0.0074582687 0.16523883
-0.0090306215 0.015427062 0.06377342 -0.004407929 -0.0032790245 -0.07661687 0.28770342 -0.13285868
0.30917862 0.09747059 -0.037064273 -0.10382403 0.20068324 -0.14293267 -0.11257625 0.17460941
00000000: 6241 bdbc 0a12 d43c 06ae 7fbd 50c9 9f3d
00000010: a4cc 8a3c 14ec 93bd 267e c0bb 1677 e1bd
00000020: 17a0 c7bd 4fe4 21bd 41c2 27bd f53b b63c
00000030: a1ac af3c 7b8a 173e 406c 89bd 45cb 4ebe
00000040: 5cd7 053e 80b6 41be f13a 29bd 90f2 173c
00000050: 4e9a 643d a4f8 1f3e c40b dd3c 818f 283e
00000060: 528b 183d e575 823d e164 a4bd bf13 09bd
00000070: befa fdbd 1223 be3c ff38 4abd 67aa 393e
00000080: e8bb 86bd 8514 5e3e 2286 acbc 54ed 4fbe
00000090: 0840 a33e fbe6 8cbc 0fec 65be b298 7a3d
000000a0: 0a23 cd3d 4e5a 71bd 6ab4 dd3d e0d9 99be
000000b0: c3c0 6cbe 4325 3bbe f9ae 203e 6027 34be
000000c0: 8dae 75be 2f12 48be 191c 48be 4f13 3e3e
000000d0: c637 b8bd 2c4c 933d 2134 b2be ca29 103e
000000e0: d4c4 8cbe 070b 15be f48b febd cef2 813c
000000f0: 16a2 1fbe 0d0e 883e e378 debd 288c 53be
00000100: 39e4 8c3d 16fe 363c e2ce fe3d d900 3fbe
00000110: 4e19 923d 105d 063b cabd 8abe 568b 5e3e
00000120: b538 163e ce56 e03d c95c 473e 2b02 e5bd
00000130: 1d23 62be 33dd 20be b693 873e 202d 103e
00000140: 33af 1abe eb92 3f3e 3726 2d3e 2961 d93d
00000150: 6811 babd 389e 4c3d ec09 40be a80f cfbc
00000160: 8e4c e7bd d821 64be ef67 873d 0ba5 afbd
00000170: 81ba ef3d 20ce 8d3e 5dd0 8dbd fd3c 33be
00000180: 1aff 59bd 1821 bd3d 1dae e23c c617 f0bd
00000190: 2eb5 01bd 7d77 7b3d 71fc 8abd 556a 3abd
000001a0: c244 79bd 20e1 8fbd 43cb 15bd 0f6c e93c
000001b0: df12 cb3c 4126 383d 9474 393b 6508 f73c
000001c0: 14a0 b33d 827d e0bc 84b9 19bc 292e 2abc
000001d0: 2a1f 8b3d d090 24bd aac6 36bd 55cb 873d
000001e0: fac7 0c3e 6b34 d8bc cdb4 9ebd e8e5 3abd
000001f0: 6092 553d c610 24bd 02e2 21be cf63 9a3c
00000200: f929 37bd df20 7dbd 40fd f5bc 5114 debd
00000210: 0fb5 ed3c 03b4 813d 3495 2bbe 5914 093d
00000220: 9759 013e 7334 eabb 8fec f43d c812 e1bc
00000230: 3a10 32bd 5105 58be e90e fe3c 2e4b 1e3e
00000240: 6251 10bd 6d69 f53d 0489 1e3e f443 e43d
00000250: 531b cc3d ae09 70be e04d a3bc abeb 06be
00000260: 579a 32b9 667c b2bb 7080 403e 2ef0 1d3b
00000270: 1517 7d3d ecf4 cd3d eb59 90bd 38bf 09be
00000280: b029 dcbd 6ba1 ad3d f902 44be af01 b03d
00000290: 4582 803d bfbc 55bd 3d31 8f3d 100f 13bd
000002a0: 5868 05be 212c a4bd 5832 acbc 269f d73c
000002b0: 1528 153d 085e b83d 04f9 e7bd c756 8fbd
000002c0: c634 c13b ee13 a1bd 323b fa3c c213 03be
000002d0: 5d15 833d 43bf d33d ffbe 4cbd db07 e43d
000002e0: 252b 133d 02fc 5d3d 43d5 7f3c cb4d d13d
000002f0: 5189 4abe a34f 36be 5c45 b0bd 84aa 083e
00000300: a92c a93c ed0e 373d 35df bebd 9341 4e3e
00000310: 9128 1ebe b13b 313c 3f59 ff3d 70dc 7fbe
00000320: ca72 a2bd 75cb c5bc caa3 bebd 749a db3d
00000330: 6644 9a3d 67c0 5d3e de66 e3bd 5a21 773d
00000340: 1d3d 323d a8b8 0b3c 6771 9bbd 1630 ac3d
00000350: 9035 41bc ef8f 2dbe b314 803e 43c9 2bbd
00000360: c5a5 c63d 0cab 2b3e afc0 7ebd a659 9fbc
00000370: 1361 573e 3c1b 2bbe 9b3e 81bc 04bd cf3d
00000380: 5702 223e cac3 cabd c304 3c3d 6297 c33d
00000390: 6b18 a5be 606e 423c 3e8e 243e ef31 06be
000003a0: 0b1d 8ebd 85b4 9e3d 9932 1abe 3330 193e
000003b0: c658 943d 4e98 d73d 7e64 f4bb 5e34 293e
000003c0: 2cf5 13bc cac1 7c3c a49b 823d 6370 90bb
000003d0: e7e4 56bb 4ee9 9cbd dd4d 933e 1b0c 08be
000003e0: a94c 9e3e a99e c73d b5d0 17bd b1a1 d4bd
000003f0: e87f 4d3e f15c 12be 618e e6bd cfcc 323e

bias_ih_l0 f4 [128]
0.012569795 -0.09674867 -0.092439756 0.099762306 0.017794222 0.0531961 0.15199623 0.08298488
0.18563949 -0.1590823 0.05815658 0.045004386 0.059582602 0.08771865 -0.067409664 -0.029187081
-0.091120414 -0.056886084 0.03211224 -0.07348524 -0.005706309 -0.07427318 0.0744134 -0.069768675
0.13477537 -0.004376407 -0.052410737 -0.20646249 0.050218027 0.03422958 -0.17359565 -0.09795054
0.21555014 0.18554446 -0.1547871 0.07072348 -0.05073965 -0.067955285 0.1281814 0.07968569
0.20018518 -0.2796067 0.06146719 0.09790222 0.18021074 0.12155486 -0.056520704 0.24483524
-0.082496986 0.16470732 0.1045178 -0.10458695 -0.029674197 -0.055205375 0.032863073 0.04842474
0.023715582 -0.06877585 0.115655236 -0.03679691 0.20052432 0.052288566 -0.042455345 0.089962535
0.1711256 0.001453199 -0.0235503 0.035742108 -0.14958292 -0.090207525 0.18421765 -0.17290667
-0.10557801 -0.013072373 -0.15202898 0.20090245 0.05274617 0.11345912 -0.07082478 0.117108494
-0.004217956 0.07232618 0.028583208 0.023153257 0.091212906 0.0055779773 0.08846571 0.02314236
0.087366946 0.115181684 0.028247809 -0.13847442 0.061451193 -0.13449448 0.067136005 0.09617059
0.042200416 -0.073093526 -0.08152248 0.026607519 0.04086457 -0.045334227 0.039882 -0.023875268
0.13348131 -0.16816469 -0.13656065 -0.022460658 0.1908133 -0.028475314 -0.04903013 0.10276548
-0.015565341 -0.0021006414 0.07685342 0.058451306 -0.097296715 -0.025611 -0.12241038 -0.109151684
-0.016440688 0.04642675 -0.14518765 -0.16959831 -0.008650538 0.016194545 -0.16430227 -0.12205184
00000000: 8bf1 4d3c 2b24 c6bd 0e51 bdbd 2e50 cc3d
00000010: 30c5 913c 27e4 593d e6a4 1b3e faf3 a93d
00000020: 4718 3e3e 78e6 22be 9835 6e3d 8556 383d
00000030: e30c 743d d6a5 b33d 140e 8abd bf19 efbc
00000040: 579d babd 6201 69bd 2088 033d 6e7f 96bd
00000050: fdfb babb 891c 98bd 0d66 983d e1e2 8ebd
00000060: 8e02 0a3e f667 8fbb a4ac 56bd e76a 53be
00000070: 6bb1 4d3d 5134 0c3d 0fc3 31be 4b9a c8bd
00000080: 2db9 5c3e 5eff 3d3e 8280 1ebe 79d7 903d
00000090: 61d4 4fbd 242c 8bbd fc41 033e 4032 a33d
000000a0: 58fd 4c3e 9c28 8fbe 05c5 7b3d f680 c83d
000000b0: 2a89 383e c1f1 f83d 4182 67bd 17b6 7a3e
000000c0: 2ef4 a8bd 09a9 283e 6e0d d63d af31 d6bd
000000d0: 4d17 f3bc 081f 62bd 6e9b 063d 0559 463d
000000e0: 2e47 c23c 5ada 8cbd a7dc ec3d 5bb8 16bd
000000f0: 3f56 4d3e 892c 563d a8e5 2dbd 473e b83d
00000100: 8d3b 2f3e 4479 be3a 8fec c0bc 5166 123d
00000110: 442c 19be b9be b8bd 8da3 3c3e 720e 31be
00000120: 4939 d8bd 822d 56bc 7cad 1bbe 5fb9 4d3e
00000130: 5e0c 583d 415d e83d 950c 91bd 94d6 ef3d
00000140: c836 8abb c01f 943d 5527 ea3c e6ab bd3c
00000150: d5cd ba3d 77c7 b63b 832d b53d 0c95 bd3c
00000160: 71ed b23d 60e4 eb3d f367 e73c 3dcc 0dbe
00000170: 3fb4 7b3d ecb8 09be 9a7e 893d 16f5 c43d
00000180: 58da 2c3d 0fb2 95bd 42f5 a6bd 03f8 d93c
00000190: 9b61 273d 62b0 39bd 4f5b 233d 1196 c3bc
000001a0: 53af 083e 5d33 2cbe 8ed6 0bbe 6aff b7bc
000001b0: 9064 433e 1045 e9bc d1d3 48bd b576 d23d
000001c0: c605 7fbc eaaa 09bb 5365 9d3d a36a 6f3d
000001d0: 8043 c7bd 29ce d1bc 4bb2 fabd eb8a dfbd
000001e0: 9fae 86bc fa29 3e3d 12ac 14be 2eab 2dbe
000001f0: fcba 0dbc 6caa 843c db3e 28be 51f6 f9bd

bias_hh_l0 f4 [128]
0.11461498 -0.10943031 -0.034549553 -0.08378712 0.03644533 0.01219766 0.2545718 0.21610996
0.21643595 -0.2913487 -0.050908584 0.148195 -0.042269293 -0.061880432 -0.14108004 0.08625521
-0.0119786 -0.05743408 0.088473275 -0.029680321 0.014057034 -0.17538589 0.12331677 -0.10067355
0.16340157 -0.090005316 -0.11574215 -0.11498553 0.04748455 0.058721326 -0.120268404 -0.056112763
0.2050065 0.028801039 -0.039684433 0.020166043 -0.06327198 -0.020688523 0.16641015 0.15947278
0.12982062 -0.12157458 0.07205774 0.13058618 0.1534775 0.06722456 0.07639233 0.18035467
-0.050540727 0.21326919 0.13895968 -0.11859665 0.047687933 -0.022974826 0.05203125 0.17804556
0.057995163 0.051671978 0.05403478 0.022223007 0.15923908 0.03518349 -0.18037063 -0.05513653
-0.0018402423 -0.055028733 -0.03132268 0.13845491 -0.092561394 -0.044571042 0.15629315 -0.20255014
-0.17696758 -0.021640543 -0.15253377 0.13404857 0.17303765 0.09143551 -0.09516897 0.051033434
0.10160615 0.09273161 0.060635418 -0.06843431 0.12533197 -0.02324003 0.18874279 0.010722208
0.13153271 0.13970524 0.027218025 -0.013095236 0.062452536 -0.11759061 -0.09711867 0.14704642
-0.028296538 -0.09421048 0.00022430715 -0.10950967 -0.11712315 -0.05268147 0.046080455 0.013754508
0.12772754 -0.30809823 -0.097399436 0.002225796 0.16599399 -0.11836412 -0.074131645 0.095957235
-0.11146411 -0.014373819 0.022201173 0.082805976 -0.13276052 -0.0830294 -0.07251881 0.060575087
0.016711403 -0.11366905 -0.1372723 -0.081562296 0.03930888 0.15633102 -0.10483003 0.03512679
00000000: 42bb ea3d 001d e0bd d583 0dbd 9598 abbd
00000010: b347 153d b2d8 473c 3c57 823e ee4b 5d3e
00000020: 63a1 5d3e a82b 95be 8585 50bd 6ec0 173e
00000030: 9122 2dbd 5676 7dbd 4977 10be 92a6 b03d
00000040: e441 44bc ff3f 6bbd 7a31 b53d 2524 f3bc
00000050: 794f 663c 5c98 33be 818d fc3d ef2d cebd
00000060: be52 273e b554 b8bd 380a edbd 897d ebbd
00000070: 297f 423d c685 703d 484f f6bd 7fd6 65bd
00000080: 39ed 513e 28f0 eb3c 258c 22bd 4233 a53c
00000090: bd94 81bd fa7a a9bc 6c67 2a3e d54c 233e
000000a0: b2ef 043e 18fc f8bd 0293 933d 62b8 053e
000000b0: 3529 1d3e 08ad 893d 9573 9c3d e5ae 383e
000000c0: cb03 4fbd 3d63 5a3e 724b 0e3e cde2 f2bd
000000d0: 6c54 433d b435 bcbc b81e 553d 9351 363e
000000e0: 568c 6d3d ffa5 533d 9353 5d3d 060d b63c
000000f0: 920f 233e 901c 103d 14b3 38be d8d6 61bd
00000100: 4934 f1ba cf65 61bd 364c 00bd 20c7 0d3e
00000110: d490 bdbd 2090 36bd 500b 203e 4e69 4fbe
00000120: fd36 35be 8247 b1bc d031 1cbe 0744 093e
00000130: c830 313e 8a42 bb3d f3e7 c2bd 6f08 513d
00000140: e316 d03d 12ea bd3d d85c 783d 4a27 8cbd
00000150: 0657 003e e061 bebc ca45 413e 33ac 2f3c
00000160: 83b0 063e e40e 0f3e 56f8 de3c 678d 56bc
00000170: 3bce 7f3d 59d3 f0bd 27e6 c6bd 5693 163e
00000180: 24ce e7bc 6df1 c0bd fe33 6b39 9b46 e0bd
00000190: 43de efbd 86c8 57bd dcbe 3c3d 975a 613c
000001a0: 02cb 023e 0dbf 9dbe 5b79 c7bd a9de 113b
000001b0: 54fa 293e e368 f2bd 55d2 97bd 3a85 c43d
000001c0: 4c47 e4bd 2b80 6bbc 3cdf b53c 2e96 a93d
000001d0: 60f2 07be 510b aabd be84 94bd 951d 783d
000001e0: 5ae6 883c 52cb e8bd 1c91 0cbe 220a a7bd
000001f0: 5902 213d 3d15 203e 20b1 d6bd 1ce1 0f3d

weight_ih_l0_reverse f4 [128, 1]
0.123621315 -0.034615476 0.106872976 -0.004058308 0.15816602 -0.063012145 -0.08105699 0.14147902
0.02033727 -0.059036624 0.14541718 -0.08712947 0.035296977 0.22474363 0.038998608 -0.072117634
0.015969874 0.1638979 0.016146254 -0.04202794 0.06535796 0.11224708 0.16046034 0.18471758
0.18077847 0.23001581 0.1265817 0.14328337 0.07283568 -0.05415398 0.15977176 -0.17553417
0.41268918 0.24636747 -0.12232576 -0.0087465765 -0.0396298 0.27880183 0.2809101 0.23076393
-0.086375 -0.16246463 0.07873963 -0.090484895 0.31025 0.119332835 0.15329246 0.21221904
0.11708588 0.20427373 -0.044476148 0.097447 0.1992588 -0.022382915 0.21624759 0.40103716
0.2480999 0.109042585 0.12862113 0.25794965 0.056537207 0.09257838 0.15116599 0.11349142
0.17396021 0.0824623 0.1723408 -0.19883949 -0.067768075 -0.020871783 0.028383601 -0.18859103
-0.031240609 -0.13707133 0.13773426 0.03383686 -0.14579831 -0.27717727 0.028950699 -0.028505059
-0.18032493 -0.14436604 0.14967479 0.09531928 0.02896639 -0.003855566 -0.16063417 0.1567008
-0.19023728 -0.19599676 0.1327937 0.035246104 0.08705689 -0.0011496241 -0.15983853 -0.014680645
0.12119384 -0.06218242 0.02287536 0.23956995 0.05239305 0.02208953 0.21010168 0.2686381
-0.049584024 -0.0042068046 0.008163759 0.067942865 0.14915967 -0.13800691 -0.004823258 0.15292549
0.28885838 0.08635606 -0.071305774 -0.09506554 0.1550979 0.057688117 0.02724294 0.19514647
-0.0022010296 0.12221775 0.17382136 0.18504407 0.060649168 0.08444621 0.006707077 -0.004759916
00000000: 2c2d fd3d f5c8 0dbd 38e0 da3d 8efb 84bb
00000010: 46f6 213e 830c 81bd 3501 a6bd e0df 103e
00000020: 599a a63c 63d0 71bd 3ee8 143e f070 b2bd
00000030: 9093 103d 3223 663e 01bd 1f3d 69b2 93bd
00000040: 41d3 823c dad4 273e 2645 843c 7d25 2cbd
00000050: 65da 853d cce1 e53d b74f 243e 9b26 3d3e
00000060: fe1d 393e 4489 6b3e a29e 013e e0b8 123e
00000070: df2a 953d 90d0 5dbd 359b 233e 3bbf 33be
00000080: ff4b d33e c147 7c3e ee85 fabd cd4d 0fbc
00000090: db52 22bd 1dbf 8e3e 73d3 8f3e 614d 6c3e
000000a0: 60e5 b0bd 215d 26be 3e42 a13d 2550 b9bd
000000b0: 17d9 9e3e c664 f43d b3f8 1c3e f34f 593e
000000c0: b9ca ef3d 222d 513e 9f2c 36bd 4b92 c73d
000000d0: 800a 4c3e 605c b7bc 0270 5d3e be54 cd3e
000000e0: e60d 7e3e b851 df3d 42b5 033e fa11 843e
000000f0: 8f93 673d bc99 bd3d 42cb 1a3e 316e e83d
00000100: a022 323e ffe1 a83d 1b7a 303e 949c 4bbe
00000110: fdc9 8abd 4dfb aabc ba84 e83c 021e 41be
00000120: 4eec ffbc 6d5c 0cbe 360a 0d3e 8598 0a3d
00000130: 274c 15be 2eea 8dbe 042a ed3c 7183 e9bc
00000140: 19a7 38be b1d4 13be 5944 193e c136 c33d
00000150: ec4a ed3c aaad 7cbb 497d 24be 2d76 203e
00000160: 90cd 42be 60b3 48be 12fb 073e 385e 103d
00000170: e24a b23d fcae 96ba b6ac 23be 1787 70bc
00000180: 7a34 f83d feb2 7ebd 1b65 bb3c d351 753e
00000190: 189a 563d 1af5 b43c e524 573e ef8a 893e
000001a0: 9e18 4bbd 3cd9 89bb 49c1 053c a125 8b3d
000001b0: 50bd 183e af51 0dbe 6c0c 9ebb 8098 1c3e
000001c0: 3fe5 933e 72db b03d c308 92bd b9b1 c2bd
000001d0: fcd1 1e3e 604a 6c3d 962c df3c 7ad4 473e
000001e0: 263f 10bb 4d4d fa3d 3afe 313e 317c 3d3e
000001f0: 436b 783d 22f2 ac3d 0ac7 db3b 12f9 9bbb

weight_hh_l0_reverse f4 [128, 32]
-0.039460793 -0.28737366 -0.034514744 0.08714663 -0.07607758 0.0453315 -0.21042924 0.005856903
0.16694897 0.059302695 -0.02512669 -0.05970396 0.05460302 0.1480464 -0.15411608 -0.20118769
0.09135069 -0.038561523 -0.1061046 -0.19025677 -0.32610384 0.19888344 -0.061902143 0.013650368
0.014387636 -0.06364104 -0.0786372 -0.22427538 0.017601319 0.004504359 0.059908148 -0.17448443
0.05002348 0.050239287 0.1300665 -0.018342879 -0.121580906 -0.15797436 0.004063138 -0.084525645
-0.102384344 -0.17690308 0.1331722 0.16304953 0.055979718 -0.032154575 -0.060717665 0.056706224
0.0052390173 -0.04975719 -0.050102815 0.20752078 0.097189285 -0.09457496 -0.079474 0.10988083
-0.1451752 -0.044493083 0.041289873 0.07670706 -0.026228033 0.02747743 -0.1529139 0.07607181
-0.02241076 0.100974664 -0.05836667 0.032241393 -0.04856518 0.043003608 0.089964435 0.008529288
-0.06620028 -0.05491736 -0.08952401 0.039787054 0.10300517 -0.07577903 0.11862497 -0.02593609
0.08192876 0.10963119 -0.09581076 -0.031989463 -0.06531841 -0.12627676 0.11498224 -0.14326213
0.128553 0.0031518424 0.0325173 0.056468703 -0.034018684 0.041595485 -0.037707627 0.008364381
0.14314114 -0.1377179 -0.003393851 -0.092575155 -0.07550603 0.043935303 -0.14871198 -0.0715911
0.09895347 0.02433719 -0.048329826 -0.017145902 -0.08056955 0.087005466 -0.064083114 -0.16370726
-0.16445768 -0.057366025 0.0037724574 -0.07645613 -0.18745112 0.021570064 -0.05691253 0.08501878
-0.10209386 -0.15681927 0.13136292 -0.1813611 -0.013304916 0.12162312 -0.06095215 -0.11265212
0.13946587 0.023164038 0.07167293 0.07941127 -0.030028181 0.057179376 0.067439035 -0.010743927
-0.058966868 0.0027166312 -0.08172114 -0.061473638 -0.08386222 0.087901786 0.0589668 -0.00626346
0.03956397 -0.05552237 -0.1047696 -0.23098166 -0.042798776 -0.021369424 -0.054930456 0.13598965
0.030674726 -0.018626774 -0.10554742 -0.12844737 0.023006676 -0.031050615 -0.026293915 -0.08291583
0.007395159 -0.12824035 0.07953664 0.15776093 0.078498274 0.12530401 -0.14216442 0.041574605
-0.08043963 -0.10350454 -0.10109362 0.09860215 -0.098210394 0.078048944 -0.1273263 -0.2302577
0.2084906 0.0890502 -0.16030163 -0.16574529 -0.15809222 -0.047757175 0.020342855 -0.029503724
0.001191693 0.1597856 0.021854399 -0.208514 -0.05444342 0.011150052 0.04283473 0.060247615
-0.049869336 -0.28726694 0.019707516 0.018569196 0.09706951 0.18337737 -0.259184 0.15195607
-0.06928551 -0.045752354 -0.06964159 -0.06533815 0.0118292915 0.097182095 -0.10985075 -0.123822816
0.15368403 0.065410234 -0.1845756 0.05800876 -0.14695515 -0.09716134 0.00021647944 -0.065878026
0.08572765 0.11376906 -0.08438174 -0.14024378 -0.11794187 -0.028127141 0.15833141 0.025742777
0.2465291 -0.051457163 0.017065598 -0.062282868 -0.15994744 0.11254535 -0.09660175 -0.08236305
0.08417685 0.036243584 0.06376563 0.013571708 -0.12752865 -0.05621975 -0.17587914 -0.16111797
0.0009109509 -0.14366359 -0.027614165 -0.022037448 -0.12713735 0.17826977 -0.08244476 0.25400597
0.0055215727 0.002821572 0.1291762 -0.16887324 0.08949638 0.20957544 0.02556554 -0.1997566
00000000: a4a1 21bd a422 93be 555f 0dbd ef79 b23d
00000010: 90ce 9bbd 86ad 393d c37a 57be 43eb bf3b
00000020: acf4 2a3e 62e7 723d 7dd6 cdbc 248c 74bd
00000030: 6ba7 5f3d 7a99 173e 9bd0 1dbe 2504 4ebe
00000040: 1216 bb3d b0f2 1dbd 5e4d d9bd acd2 42be
00000050: 15f7 a6be 1aa8 4b3e 1a8d 7dbd cba5 5f3c
00000060: 1fba 6b3c 3c56 82bd 8a0c a1bd 72a8 65be
00000070: a430 903c 4d99 933b 3f62 753d 0cac 32be
00000080: 6ce5 4c3d b6c7 4d3d 2730 053e ce43 96bc
00000090: 69ff f8bd 08c4 21be 1224 853b c81b adbd
000000a0: e2ae d1bd 1526 35be 4b5e 083e 75f6 263e
000000b0: fd4a 653d 84b4 03bd 16b3 78bd c944 683d
000000c0: 10ac ab3b 32ce 4bbd 9c38 4dbd 5480 543e
000000d0: 2d0b c73d 84b0 c1bd 44c3 a2bd 3309 e13d
000000e0: cfa8 14be 613e 36bd 921f 293d 9718 9d3d
000000f0: 2cdc d6bc 5918 e13c 7695 1cbe 8acb 9b3d
00000100: c596 b7bc cecb ce3d e411 6fbd 8d0f 043d
00000110: 48ec 46bd 8d24 303d 463f b83d 6dbe 0b3c
00000120: 0394 87bd 07f1 60bd 5d58 b7bd c0f7 223d
00000130: 60f4 d23d 0932 9bbd a6f1 f23d ec77 d4bc
00000140: 44ca a73d 5186 e03d 6f38 c4bd 6207 03bd
00000150: a9c5 85bd b24e 01be cf7b eb3d 4fb3 12be
00000160: 66a3 033e 248f 4e3b dc30 053d ba4b 673d
00000170: 2d57 0bbd 0760 2a3d 5073 1abd c20a 093c
00000180: 9793 123e ec05 0dbe 5f6b 5ebb 0b98 bdbd
00000190: e8a2 9abd 81f5 333d f447 18be 5b9e 92bd
000001a0: 1ea8 ca3d c95e c73c 7ff5 45bd 9075 8cbc
000001b0: a601 a5bd ec2f b23d 023e 83bd e0a2 27be
000001c0: 9867 28be a3f8 6abd 553b 773b 0895 9cbd
000001d0: 30f3 3fbe b4b3 b03c 1d1d 69bd 531e ae3d
000001e0: 9616 d1bd 3b95 20be 0084 063e b9b6 39be
000001f0: ddfc 59bc 8b15 f93d f6a8 79bd 28b6 e6bd
00000200: 24d0 0e3e 82c2 bd3c 42c9 923d 60a2 a23d
00000210: a9fd f5bc ec34 6a3d 7a1d 8a3d 4c07 30bc
00000220: 3e87 71bd 8209 323b 6a5d a7bd c8cb 7bbd
00000230: f5bf abbd da05 b43d 2c87 713d b63d cdbb
00000240: d40d 223d 6d6b 63bd 7291 d6bd 7586 6cbe
00000250: c54d 2fbd ee0e afbc c2fe 60bd df40 0b3e
00000260: 9049 fb3c 2d97 98bc 3f29 d8bd b587 03be
00000270: 7f78 bc3c dc5d febc 5666 d7bc c6cf a9bd
00000280: 1753 f23b 7051 03be 1be4 a23d 158c 213e
00000290: b4c3 a03d b24f 003e 8d93 11be 224a 2a3d
000002a0: 88bd a4bd 30fa d3bd 2c0a cfbd edef c93d
000002b0: 8822 c9bd 20d8 9f3d d361 02be adc8 6bbe
000002c0: 8f7e 553e f45f b63d 1c26 24be 22b9 29be
000002d0: ede2 21be 079d 43bd 0fa6 a63c cbb1 f1bc
000002e0: 9532 9c3a d69e 233e ff07 b33c b284 55be
000002f0: 1000 5fbd b5ae 363c 7873 2f3d 34c6 763d
00000300: ca43 4cbd a714 93be a871 a13c 6d1e 983c
00000310: 61cc c63d 47c7 3b3e c4b3 84be 5f9a 1b3e
00000320: 90e5 8dbd d266 3bbd 40a0 8ebd 02d0 85bd
00000330: a5cf 413c 6807 c73d 6ef9 e0bd d196 fdbd
00000340: 595f 1d3e cdf5 853d 6301 3dbe 989a 6d3d
00000350: 697b 16be 86fc c6bd c2fe 6239 0feb 86bd
00000360: fa91 af3d c1ff e83d 55d0 acbd 119c 0fbe
00000370: 828b f1bd e46a e6bc a121 223e 84e2 d23c
00000380: 2072 7c3e bfc4 52bd 27cd 8b3c 521c 7fbd
00000390: 43c9 23be 2d7e e63d 23d7 c5bd f5ad a8bd
000003a0: ea64 ac3d 2774 143d 8e97 823d df5b 5e3c
000003b0: df96 02be ae46 66bd a919 34be 1cfc 24be
000003c0: e1cc 6e3a 8c1c 13be 1a37 e2bc e187 b4bc
000003d0: 4b30 02be 5a8c 363e ccd8 a8bd 120d 823e
000003e0: 4fee b43b 1fea 383b c446 043e 1bed 2cbe
000003f0: e149 b73d f29a 563e d36e d13c ff8c 4cbe

bias_ih_l0_reverse f4 [128]
-0.08340938 0.11660456 -0.028775437 0.10466248 -0.09961208 -0.018878467 -0.10915311 0.0710614
-0.15084283 -0.060311843 0.035577558 -0.1528672 -0.13576005 0.19822441 -0.1254933 -0.013725026
0.02611548 -0.12106272 0.017815934 0.14443807 0.007399375 0.06775939 -0.029331941 -0.04435081
-0.24736404 -0.020432666 -0.067440055 0.20563589 -0.12926382 -0.15453246 -0.0473684 0.07137515
0.17046705 0.2527352 0.028443737 -0.0102912355 0.0080859605 0.14845634 0.22206648 0.19795002
0.012710812 -0.053316664 0.02741684 -0.08393339 0.12166996 0.07891083 0.044289693 -0.036840852
0.07394921 0.020211123 0.09149416 0.18576398 0.05400307 0.035709575 0.045144577 0.06165217
0.105250604 0.07522722 0.07055342 0.26807854 -0.06887229 0.03575345 -0.021581503 0.1442665
-0.12903287 0.14901285 0.07005799 0.050514013 -0.0059274463 -0.16925429 0.14874005 0.13452162
0.011378279 0.058230475 -0.036220804 -0.013300849 0.081051946 -0.24070969 0.050146535 0.060594622
0.06329309 0.037386198 0.076514944 0.16076165 0.09141246 -0.013224792 0.122820646 -0.032706954
0.06607532 0.10172589 0.020720137 0.13751976 0.01286615 -0.11071962 -0.009712336 0.11598258
0.25843436 0.12380076 -0.08451609 -0.036232557 -0.13249299 0.036458723 0.06392542 0.018340977
-0.15698346 0.09524021 0.07193726 0.028545374 0.11268917 -0.05659745 -0.12544969 0.038458068
0.07807022 -0.0972733 0.036920525 0.02931127 0.008225179 0.013831137 0.06850619 0.10659008
-0.017856963 0.06397618 0.08889317 0.15346707 0.008848736 -0.08387318 -0.012567075 0.07302569
00000000: 89d2 aabd 5fce ee3d 77ba ebbc 4859 d63d
00000010: 6b01 ccbd 04a7 9abc aa8b dfbd a488 913d
00000020: 8b76 1abe 8d09 77bd c6b9 113d 3889 1cbe
00000030: af04 0bbe 57fb 4a3e 5181 00be eede 60bc
00000040: 22f0 d53c bbef f7bd b9f2 913c 93e7 133e
00000050: 7576 f23b 6fc5 8a3d 8a49 f0bc 32a9 35bd
00000060: 004d 7dbe 6862 a7bc 031e 8abd 3792 523e
00000070: bc5d 04be c23d 1ebe 5e05 42bd 222d 923d
00000080: ea8e 2e3e 8266 813e d702 e93c 929c 28bc
00000090: fa7a 043c f004 183e 6565 633e 69b3 4a3e
000000a0: 0241 503c 9362 5abd 4899 e03c 45e5 abbd
000000b0: 1a2e f93d 009c a13d 1c69 353d 6fe6 16bd
000000c0: af72 973d cc91 a53c 4a61 bb3d ea38 3e3e
000000d0: 5332 5d3d 3444 123d 85e9 383d fc86 7c3d
000000e0: a18d d73d bb10 9a3d 507e 903d 9741 893e
000000f0: ea0c 8dbd 3672 123d b1cb b0bc 99ba 133e
00000100: 3121 04be d396 183e 907a 8f3d c8e7 4e3d
00000110: 063b c2bb ff50 2dbe 504f 183e 09c0 093e
00000120: f66b 3a3c 1483 6e3d 445c 14bd ceeb 59bc
00000130: 90fe a53d 9a7c 76be 7466 4d3d 1132 783d
00000140: cf9f 813d 4522 193d deb3 9c3d b49e 243e
00000150: 7536 bb3d ccac 58bc 6489 fb3d baf7 05bd
00000160: 7f52 873d aa55 d03d 47bd a93c fbd1 0c3e
00000170: 8bcc 523c f8c0 e2bd 7d20 1fbc 4688 ed3d
00000180: 8251 843e 418b fd3d c616 adbd 9768 14bd
00000190: 3eac 07be be55 153d 55eb 823d d13f 963c
000001a0: 46c0 20be 4d0d c33d d853 933d fdd7 e93c
000001b0: 94c9 e63d bad2 67bd e275 00be 3586 1d3d
000001c0: 48e3 9f3d 3937 c7bd fa39 173d 301e f03c
000001d0: e7c2 063c fe9b 623c f94c 8c3d e64b da3d
000001e0: c448 92bc f205 833d 9f0d b63d 7926 1d3e
000001f0: 4afa 103c b4c5 abbd 22e6 4dbc 7e8e 953d

bias_hh_l0_reverse f4 [128]
-0.07634869 -0.020154968 -0.04219523 -0.016461307 -0.10316963 -0.06261392 -0.12647387 -0.04956526
-0.10249704 -0.052117646 0.0059509994 -0.19189748 -0.1358313 0.29590046 0.022473423 -0.031660665
-0.05378184 0.026611581 0.17761452 0.19429018 -0.032899346 -0.011688729 -0.07193445 -0.14927511
-0.22323586 0.09572466 -0.03802773 0.0789552 -0.16001463 -0.067394555 -0.11976326 0.03995724
0.23679142 0.29531902 -0.013733721 0.12789667 -0.027820902 0.09114555 0.094675295 0.06211101
-0.0061433692 0.07126221 -0.0639073 -0.08297363 0.2212154 0.1628134 0.020679655 0.11242732
0.1388107 0.115151174 0.09887848 0.09050996 0.0768922 0.03518354 -0.07450763 0.15242136
0.078436516 0.08540439 -0.07768242 0.322334 -0.042985074 0.012233117 0.09755535 0.18414362
-0.070114255 0.21514452 -0.079031564 0.09841031 -0.02767492 -0.14742534 -0.03546746 0.035620082
-0.06862338 0.111070685 0.030017791 0.13127203 0.09385207 -0.2767384 0.12768464 0.07965769
0.14103648 0.11573762 0.084114686 0.16571657 0.13810517 -0.09668009 0.094276406 -0.10578607
0.016642641 0.12475619 -0.023746466 0.13315828 -0.060474142 -0.09729387 -0.04306972 0.13431412
0.12670025 0.012080491 0.018123722 0.0027774253 -0.053673897 0.0065453015 -0.05263673 -0.009154952
-0.15683751 0.044653337 0.07756281 -0.08561093 0.059125274 -0.08809968 -0.02018912 -0.080918185
0.052101243 0.0715972 0.0007262644 0.08722076 0.09642612 -0.050609205 -0.036868315 0.0898222
0.018206896 0.071017966 -0.023362173 0.06135978 0.03449049 -0.08207995 -0.07051829 0.00801604
00000000: b45c 9cbd 081c a5bc e8d4 2cbd ddd9 86bc
00000010: 994a d3bd ba3b 80bd 5e82 01be f104 4bbd
00000020: f8e9 d1bd 5079 55bd 9a00 c33b c680 44be
00000030: 5c17 0bbe 4480 973e 2f1a b83c 9dae 01bd
00000040: 594a 5cbd 8800 da3c 95e0 353e 01f4 463e
00000050: 77c1 06bd 1582 3fbc 5e52 93bd 93db 18be
00000060: f197 64be 4a0b c43d f7c2 1bbd 44b3 a13d
00000070: e0da 23be 2806 8abd 7146 f5bd 34aa 233d
00000080: 7379 723e 0e34 973e 6703 61bc 58f7 023e
00000090: a9e8 e3bc 85aa ba3d 1fe5 c13d 1d68 7e3d
000000a0: 514e c9bb ecf1 913d d5e1 82bd 14ee a9bd
000000b0: 4a86 623e 8eb8 263e 6168 a93c 4b40 e63d
000000c0: 6424 0e3e 61d4 eb3d cd80 ca3d 495d b93d
000000d0: a879 9d3d 9e1c 103d 7597 98bd 5814 1c3e
000000e0: 53a3 a03d 7fe8 ae3d f617 9fbd f608 a53e
000000f0: 1e11 30bd 696d 483c 19cb c73d 2590 3c3e
00000100: 1098 8fbd d84e 5c3e 4ddb a1bd 588b c93d
00000110: 84b6 e2bc abf6 16be 5446 11bd 5de6 113d
00000120: 6a8a 8cbd 0779 e33d dfe7 f53c 2d6c 063e
00000130: 8435 c03d a8b0 8dbe c3bf 023e 9223 a33d
00000140: de6b 103e d807 ed3d 5244 ac3d 9bb1 293e
00000150: 716b 0d3e 3600 c6bd fd13 c13d 5ea6 d8bd
00000160: 2656 883c 2c80 ff3d f387 c2bc a55a 083e
00000170: bcb3 77bd 0242 c7bd e069 30bd a489 093e
00000180: b6bd 013e 40ed 453c 3378 943c 7705 363b
00000190: 29d9 5bbd f879 d63b 9d99 57bd a7fe 15bc
000001a0: 039a 20be 6be6 363d 40d9 9e3d c954 afbd
000001b0: 582d 723d 9b6d b4bd a763 a5bc 6fb8 a5bd
000001c0: 1d68 553d 8ea1 923d c762 3e3a cca0 b23d
000001d0: 0f7b c53d 994b 4fbd 3b03 17bd b4f4 b73d
000001e0: a126 953c de71 913d 0762 bfbc 6554 7b3d
000001f0: e645 0d3d 8819 a8bd e56b 90bd b555 033c

bin_context_vector f4 [64, 1]
0.17481959 -0.24511261 -0.08661329 -0.008399928 -0.14974776 0.0066501196 0.0076750657 -0.041015
0.154809 -0.017254222 -0.070873566 0.079723604 0.10827357 -0.027591014 0.032966062 0.11005818
0.09411533 0.22249508 0.12079459 0.038429357 0.0058143465 -0.076787025 0.13851425 -0.3144483
0.009732231 -0.054275744 0.1841661 -0.11270591 0.044074953 -0.06448334 -0.027638823 -0.032971367
-0.26104522 0.19928047 -0.012741134 0.05163959 0.085507914 -0.1879948 0.19100815 0.2502369
-0.031338412 0.05082969 -0.01598779 0.17565368 0.19688165 -0.10178323 0.14319351 0.19800825
0.080003954 0.1861449 -0.19591174 0.07235876 0.14613692 -0.14611484 0.12781319 -0.2528978
0.10758297 0.17996183 -0.21289325 0.17736848 -0.04501548 -0.18840559 0.10723828 0.2018203
00000000: e803 333e cdfe 7abe 4f62 b1bd da9f 09bc
00000010: 7a57 19be 3fe9 d93b 1e7f fb3b 58ff 27bd
00000020: 4086 1e3e ba58 8dbc 2926 91bd 2146 a33d
00000030: 89be dd3d 8d06 e2bc 6c07 073d 2f66 e13d
00000040: 8abf c03d c0d5 633e 2763 f73d 1a68 1d3d
00000050: 4686 be3b 8442 9dbd aed6 0d3e 5eff a0be
00000060: ef73 1f3c 3e50 5ebd 0a96 3c3e 5bd2 e6bd
00000070: f087 343d d70f 84bd d06a e2bc fc0c 07bd
00000080: b8a7 85be 2e10 4c3e 30c0 50bc 0984 533d
00000090: c61e af3d b581 40be a497 433e 0d1f 803e
000000a0: b55c 00bd cb32 503d d3f8 82bc 8fde 333e
000000b0: 589b 493e ba73 d0bd 52a1 123e adc2 4a3e
000000c0: 1dd9 a33d c59c 3e3e 169d 48be d430 943d
000000d0: eba4 153e 219f 15be 76e1 023e d27b 81be
000000e0: 7654 dc3d ea47 383e b000 5abe 15a0 353e
000000f0: 2762 38bd 65ed 40be be9f db3d fba9 4e3e

weight_ih_l0 f4 [128, 1]
-0.18963274 -0.01643336 0.104909666 -0.10325233 0.08973774 0.06782724 -0.03295626 0.011954572
-0.22133194 -0.14244914 0.047595717 0.014368777 0.082684256 0.11158242 -0.11685999 0.090421654
-0.022575956 -0.0012958231 -0.18378553 -0.035592012 0.035026234 0.07843487 0.05389524 -0.06919962
0.13390623 0.049613107 0.0011097786 -0.17884392 -0.13243926 0.054211646 0.08570131 -0.067071155
-0.098874375 -0.060230702 0.0868735 -0.087745555 0.008005822 0.11777497 0.13691041 -0.13910188
-0.032054454 0.20505017 0.078868836 0.0114567075 -0.029267514 0.08851344 0.01430867 -0.14007753
0.17058428 0.11364509 -0.18582277 -0.02043279 0.038533103 0.023383776 0.046435174 -0.041916557
-0.056517124 0.119123735 0.09269077 0.06782997 0.104636565 0.004528396 0.07549473 -0.046031497
0.09950578 -0.06448155 -0.013315714 0.046514217 -0.109565586 0.118918836 -0.026927788 0.053550158
0.00042012395 -0.082269005 -0.00898749 0.03431983 -0.07463213 0.09830762 0.042387925 0.07891342
0.0020556338 -0.017850257 -0.018750746 0.071356915 -0.03996124 0.11384217 0.09281572 -0.019545704
-0.00013464087 0.078033395 -0.023815894 -0.08378444 0.019287197 0.046917103 0.12279957 0.08587103
-0.116295464 0.0017282929 0.119476646 0.11710551 0.036925334 0.033850227 -0.10049125 -0.043449
-0.1300286 0.11896973 0.039203912 0.024285378 0.02229368 0.004327486 0.031387202 0.13213739
0.024027037 -0.08748023 -0.13431464 0.015384854 0.06879716 0.009846111 0.06841912 0.014470863
-0.10925115 0.060521822 -0.014159385 0.039919954 0.08286585 -0.1429865 0.06261459 0.028603561
00000000: 162f 42be 419f 86bc e1da d63d f575 d3bd
00000010: 6cc8 b73d 02e9 8a3d 25fd 06bd 1cdd 433c
00000020: d7a4 62be 30de 11be baf3 423d 056b 6b3c
00000030: 5d56 a93d 5385 e43d 4a54 efbd fd2e b93d
00000040: 36f1 b8bc 9cd8 a9ba 4632 3cbe eec8 11bd
00000050: ab77 0f3d 76a2 a03d 41c1 5c3d 88b8 8dbd
00000060: b71e 093e 1d37 4b3d fe75 913a dc22 37be
00000070: 289e 07be 080d 5e3d 2b84 af3d 9a5c 89bd
00000080: a67e cabd 78b4 76bd bcea b13d f1b3 b3bd
00000090: da2a 033c 0134 f13d 3e32 0c3e b970 0ebe
000000a0: 884b 03bd acf8 513e fc85 a13d eab4 3b3c
000000b0: 6dc2 efbc 8946 b53d e96e 6a3c 7c70 0fbe
000000c0: a5ad 2e3e c2be e83d 5348 3ebe ab62 a7bc
000000d0: e3d4 1d3d 558f bf3c cf32 3e3d b2b0 2bbd
000000e0: 807e 67bd 25f7 f33d a9d4 bd3d 70ea 8a3d
000000f0: b24b d63d f062 943b fb9c 9a3d 868b 3cbd
00000100: b0c9 cb3d e70e 84bd 272a 5abc b185 3e3d
00000110: ec63 e0bd b88b f33d aa97 dcbc 6957 5b3d
00000120: 1544 dc39 a77c a8bd 4440 13bc f392 0c3d
00000130: bbd8 98bd 8155 c93d f69e 2d3d 5c9d a13d
00000140: d0b7 063b b43a 92bc 2a9b 99bc 9323 923d
00000150: 66ae 23bd 1526 e93d 2b16 be3d 501e a0bc
00000160: 622e 0db9 f9cf 9f3d 8d19 c3bc 2d97 abbd
00000170: 2f00 9e3c 262c 403d 577e fb3d 27dd af3d
00000180: 512c eebd e387 e23a 2cb0 f43d 03d5 ef3d
00000190: 053f 173d 89a6 0a3d 5bce cdbd 94f7 31bd
000001a0: 3826 05be 67a6 f33d 4894 203d 21f2 c63c
000001b0: 3ca1 b63c 95cd 8d3b de8f 003d 064f 073e
000001c0: 59d4 c43c d628 b3bd c789 09be c110 7c3c
000001d0: 87e5 8c3d 9551 213c 531f 8c3d 3317 6d3c
000001e0: 11bf dfbd bbe5 773d c4fc 67bc 1b83 233d
000001f0: 92b5 a93d 0e6b 12be 143c 803d 0452 ea3c

weight_hh_l0 f4 [128, 32]
0.093253635 0.044095512 0.12825675 0.04510952 -0.017886197 -0.036983922 0.041705824 -0.21487226
0.009514339 -0.076120704 -0.0800649 0.071074784 -0.041016903 0.12405266 -0.11598866 -0.012778204
0.09423907 -0.07979788 0.18417025 -0.004899967 -0.040166 0.06555193 0.044740885 0.12014338
0.014416303 -0.0038289707 -0.048340797 0.08538918 0.0802955 -0.09519022 -0.0035355287 0.012202151
-0.15368854 0.11168486 -0.20751484 -0.0024266953 0.040234078 0.0974237 -0.14982869 0.10230411
-0.042093493 0.0705513 -0.08388111 0.05919537 0.0004391196 0.05446572 0.108771846 0.07362681
0.051745318 0.019399203 -0.1643169 -0.0097619565 -0.028849196 -0.059230655 -0.05564208 -0.08919913
-0.24669905 -0.06736149 0.07081621 0.15167356 -0.0807339 0.13285257 -0.1036815 -0.10553564
-0.025740908 0.027546665 0.20769696 0.09370828 -0.1569504 -0.023268731 0.05780764 -0.14565364
-0.0030322114 0.0097994795 -0.18196021 0.005192111 -0.08799481 0.030458946 -0.12815814 0.0652897
0.091759995 -0.019168863 0.084214985 -0.013965205 -0.15911405 0.13239756 0.094347514 0.17915641
0.1632025 0.05762795 -0.07033111 0.12638712 0.18463014 -0.15818706 0.019995853 0.09474273
-0.1706926 0.10536947 0.010127392 0.08788024 0.03951118 -0.060595244 -0.0053365985 0.033662435
-0.027148465 0.11705725 -0.06684516 0.03300069 -0.15762307 -0.034262545 -0.12318814 -0.0058965287
-0.022929173 0.023132458 -0.16770582 0.11361509 0.033108182 -0.0035319636 -0.014845074 -0.03536254
0.11527488 -0.011183316 0.0061250795 -0.014162936 -0.062637895 0.06850933 -0.011319958 0.12545367
0.045702327 0.122464105 0.05349633 0.08185399 -0.045338854 -0.019934187 0.08570312 0.06236567
-0.06757382 -0.0031836256 -0.099654995 0.12326051 0.038739134 0.044823475 -0.14878651 0.14903456
0.09130898 0.031729456 0.15392628 -0.08502906 -0.048281547 -0.011137794 0.16811548 0.05892386
-0.003341416 0.014859548 -0.122889236 0.09265995 0.045400638 -0.06457268 0.11072643 -0.03025765
-0.06624266 -0.04451173 -0.040517263 0.11220137 -0.00978356 0.10772039 -0.023449974 -0.10819878
0.10463264 0.063 -0.06549724 0.086616874 -0.023489522 0.037607804 -0.11423368 0.0856135
0.1340247 -0.01483513 0.13427307 -0.06335305 -0.118401445 0.021867413 0.11448327 0.043436583
-0.026815273 0.04469572 0.001351037 -0.008157567 0.13297206 -0.104743354 0.1807496 0.012483728
-0.099294275 0.108939216 0.04146005 0.04328821 -0.030632004 0.023082288 0.097654566 -0.1371147
-0.057363935 -0.05669419 -0.1277241 -0.03496385 -0.04190724 0.046296418 -0.13657403 0.11561142
0.16402298 -0.13531709 0.047515832 -0.062642336 -0.04186918 0.14090362 0.04023998 0.11345916
0.13291861 0.064663194 -0.15906425 0.09723159 0.03679673 -0.0559639 -0.02797804 0.094109245
-0.06709354 0.00096914184 0.14172894 0.15530778 0.03610238 -0.05151658 0.11071086 -0.22457501
0.03984627 0.027109662 -0.037666056 0.012818413 0.0046375194 0.07097763 -0.14559385 0.044059634
0.0049946895 -0.0060406374 0.15512852 0.10853167 -0.011133626 -0.043337878 -0.023672817 0.13769716
0.10749841 0.06673286 -0.13935277 -0.025531163 0.07702439 -0.18034177 0.043040257 0.14959572
00000000: c3fb be3d 7f9d 343d bd55 033e c3c4 383d
00000010: 1386 92bc 747c 17bd bad3 2a3d 7907 5cbe
00000020: 08e2 1b3c 2ce5 9bbd 11f9 a3bd a88f 913d
00000030: 5701 28bd 520f fe3d 768b edbd ac5b 51bc
00000040: 6a00 c13d 126d a3bd 2097 3c3e e78f a0bb
00000050: 1b85 24bd 1740 863d 3842 373d bb0d f63d
00000060: 5b32 6c3c 78ef 7abb 0001 46bd 86e0 ae3d
00000070: f871 a43d 17f3 c2bd 54b4 67bb 88eb 473c
00000080: 8760 1dbe 08bb e43d c57e 54be 3109 1fbb
00000090: 7dcc 243d 1486 c73d b16c 19be d184 d13d
000000a0: 3a6a 2cbd 337d 903d dcc9 abbd d876 723d
000000b0: a339 e639 7217 5f3d c6c3 de3d a7c9 963d
000000c0: e6f2 533d 14eb 9e3c b042 28be 9df0 1fbc
000000d0: 2655 ecbc d89b 72bd f3e8 63bd 09ae b6bd
000000e0: ad9e 7cbe d2f4 89bd 1708 913d 5050 1b3e
000000f0: d157 a5bd 810a 083e f756 d4bd 1223 d8bd
00000100: 99de d2bc 8ba9 e13c 83ae 543e 20ea bf3d
00000110: 9bb7 20be 119e bebc b4c7 6c3d 3a26 15be
00000120: 11b8 46bb ff8d 203c c753 3abe 9522 aa3b
00000130: 9f36 b4bd 0a85 f93c e33b 03be 9bb6 853d
00000140: aaec bb3d 0508 9dbc e878 ac3d 51ce 64bc
00000150: cbee 22be 3a93 073e 4539 c13d c774 373e
00000160: 8e1e 273e 490b 6c3d c209 90bd a06b 013e
00000170: af0f 3d3e cafb 21be 58ce a33c 7a08 c23d
00000180: 0aca 2ebe f3cb d73d 5ced 253c 8efa b33d
00000190: 7ad6 213d b832 78bd a2de aebb 9fe1 093d
000001a0: 7566 debc b6bb ef3d 1ee6 88bd bb2b 073d
000001b0: f167 21be e256 0cbd 104a fcbd ab37 c1bb
000001c0: f6d5 bbbc 4880 bd3c 13bb 2bbe 07af e83d
000001d0: 729c 073d 8478 67bb c138 73bc 50d8 10bd
000001e0: 3c15 ec3d 3a3a 37bc e4b4 c83b a90b 68bc
000001f0: 4c48 80bd 9f4e 8c3d 5877 39bc ed76 003e
00000200: 5d32 3b3d 76ce fa3d f81e 5b3d 11a3 a73d
00000210: 3cb5 39bd 054d a3bc 1e85 af3d 2573 7f3d
00000220: 2564 8abd 60a4 50bb eb17 ccbd 0270 fc3d
00000230: edac 1e3d d298 373d 7e5b 18be 849c 183e
00000240: 3400 bb3d bff6 013d da9e 1d3e b723 aebd
00000250: dfc2 45bd 4b7b 36bc 7726 2c3e 255a 713d
00000260: a8fb 5abb 7675 733c 5aad fbbd 80c4 bd3d
00000270: 05f6 393d ae3e 84bd 8ac4 e23d e4de f7bc
00000280: 3baa 87bd ef51 36bd 6ef5 25bd d5c9 e53d
00000290: 3a4b 20bc 829c dc3d 291a c0bc 5297 ddbd
000002a0: a349 d63d 2506 813d 6b23 86bd 3064 b13d
000002b0: 196d c0bc a40a 1a3d 59f3 e9bd 2156 af3d
000002c0: c53d 093e 0c0f 73bc e17e 093e 3ebf 81bd
000002d0: 757c f2bd 4a23 b33c 3476 ea3d 8fea 313d
000002e0: b4ab dbbc dc12 373d 4715 b13a 51a7 05bc
000002f0: d429 083e af83 d6bd 6c16 393e 8d88 4c3c
00000300: cc5a cbbd 861b df3d 03d2 293d fa4e 313d
00000310: f8ef fabc 1117 bd3c 1eff c73d cc67 0cbe
00000320: 72f6 6abd 2b38 68bd 1bca 02be 4136 0fbd
00000330: eda6 2bbd 50a1 3d3d 10da 0bbe aec5 ec3d
00000340: a4f5 273e 9090 0abe f69f 423d a04a 80bd
00000350: 047f 2bbd 0a49 103e add2 243d 475d e83d
00000360: d11b 083e 236e 843d bde1 22be 5b21 c73d
00000370: 2bb8 163d 673a 65bd 3432 e5bc 59bc c03d
00000380: 5768 89bd 020e 7e3a 6421 113e 0109 1f3e
00000390: 17e0 133d 0d03 53bd 60bc e23d fef6 65be
000003a0: d835 233d 1515 de3c b947 1abd 5204 523c
000003b0: 55f6 973b b85c 913d 8e16 15be e077 343d
000003c0: 7eaa a33b 8af0 c5bb 03da 1e3e da45 de3d
000003d0: d069 36bc 0f83 31bd 7fed c1bc 7c00 0d3e
000003e0: 2028 dc3d 3dab 883d 7eb2 0ebe bb26 d1bc
000003f0: f7be 9d3d 83ab 38be fb4a 303d 9f2f 193e

bias_ih_l0 f4 [128]
0.14005211 -0.08645907 0.10541072 -0.07327277 0.018423028 -0.02800447 0.039830867 -0.025243191
-0.21540794 -0.08100553 0.14176531 0.144114 -0.1515263 0.18358162 0.07080906 0.16931786
0.045594305 0.038885634 0.08880727 -0.17771117 0.021609522 0.04221051 0.14702052 -0.09772097
-0.037626702 0.13639833 0.06362381 -0.090536095 0.04425964 0.026015365 0.038398463 0.13010575
0.09692766 0.017464666 0.06962336 -0.046113826 0.12371828 0.095718965 0.1516292 0.09865646
-0.067749135 0.15646529 0.14593554 0.14007029 -0.011560293 0.059803944 0.2501444 0.05644258
0.08399139 0.17220813 0.061980914 -0.113514714 0.17642917 0.21566662 0.12045489 -0.0012265876
-0.025042344 0.111226656 0.08659979 0.07450925 0.12977913 0.04973621 0.15558949 0.14386027
0.029251372 0.0059547652 0.05967444 -0.046784155 -0.020531982 0.13714093 0.1094997 -0.009100871
0.09563156 -0.018112633 -0.12671621 0.12930365 -0.065556034 0.06914177 -0.040864393 0.045381743
0.115920484 -0.042732198 0.19344562 -0.093123145 -0.027707122 0.07223567 0.25721097 0.065656774
0.0004971509 0.13002095 -0.11216138 0.063848 0.045372054 -0.14171757 0.08093846 0.1730369
0.224347 0.021264886 0.044111513 -0.16223122 -0.0864469 0.065076284 0.05753803 0.020046879
0.07345514 0.21114455 -0.012953669 0.009089469 -0.0069089555 0.08927975 -0.043372605 0.0155052785
-0.0069042705 0.07912437 0.20593408 -0.075130865 -0.105955936 -0.024365794 -0.018627107 0.042378087
0.0055233967 0.00437704 0.09790541 0.21187933 0.13631923 -0.007389242 0.028091976 0.09358624
00000000: d269 0f3e 7411 b1bd 93e1 d73d 0910 96bd
00000010: e4eb 963c a169 e5bc b125 233d cfca cebc
00000020: e693 5cbe 3ae6 a5bd ed2a 113e 9f92 133e
00000030: b629 1bbe d2fc 3b3e 5704 913d a961 2d3e
00000040: 18c1 3a3d 8b46 1f3d 96e0 b53d ebf9 35be
00000050: 7406 b13c ede4 2c3d 8c8c 163e ef21 c8bd
00000060: 751e 1abd 01ac 0b3e 334d 823d fd6a b9bd
00000070: 9949 353d 2d1e d53c b547 1d3d 713a 053e
00000080: 0282 c63d 0f12 8f3c b196 8e3d dae1 3cbd
00000090: 0260 fd3d 4e08 c43d af44 1b3e 660c ca3d
000000a0: 0fc0 8abd 7038 203e 2070 153e 966e 0f3e
000000b0: 6267 3dbc fbf4 743d ed12 803e 5630 673d
000000c0: ae03 ac3d 5457 303e b3df 7d3d 677a e8bd
000000d0: d9a9 343e b6d7 5c3e 0eb1 f63d 73c5 a0ba
000000e0: 9a25 cdbc cdca e33d 3b5b b13d 4e98 983d
000000f0: d2e4 043e 32b8 4b3d da52 1f3e 1b50 133e
00000100: 93a0 ef3c 3120 c33b 306d 743d bea0 3fbd
00000110: b032 a8bc ac6e 0c3e 6141 e03d d21b 15bc
00000120: 7bda c33d f260 94bc e5c1 01be 2d68 043e
00000130: 3e42 86bd 339a 8d3d 6c61 27bd 35e2 393d
00000140: b867 ed3d f507 2fbd 9c16 463e 59b7 bebd
00000150: 0cfa e2bc 4cf0 933d 28b1 833e 0f77 863d
00000160: 3b53 023a 3624 053e deb4 e5bd bdc2 823d
00000170: 0cd8 393d 691e 11be 10c3 a53d 9630 313e
00000180: 38bb 653e b333 ae3c 46ae 343d f11f 26be
00000190: 130b b1bd b746 853d ffac 6b3d 5a39 a43c
000001a0: a66f 963d 4736 583e a03b 54bc ffeb 143c
000001b0: 8564 e2bb 4dd8 b63d 79a7 31bd da09 7e3c
000001c0: 383d e2bb f50b a23d 62e0 523e 36de 99bd
000001d0: 6dff d8bd c69a c7bc e097 98bc a594 2d3d
000001e0: 9cfd b43b 466d 8f3b a282 c83d e5f6 583e
000001f0: 4597 0b3e 7421 f2bb 2521 e63c 25aa bf3d

bias_hh_l0 f4 [128]
0.09945486 -0.008863791 0.03775178 0.109263435 0.121968895 0.001904305 0.11294832 0.05671922
-0.17827709 -0.05680258 -0.004239892 0.13684122 -0.15186477 0.22184272 0.13585271 0.09162157
0.09211373 0.14978969 0.004796329 -0.10971576 0.086728424 0.11780408 0.274843 -0.009768912
0.06747381 0.11712519 -0.013344768 -0.27324384 0.076638594 -0.09241585 0.14650005 0.13573883
0.23822421 -0.0976086 0.22619638 0.076202944 0.10489567 0.104093224 0.04661401 0.0904806
0.029437175 0.28605303 0.10559358 0.16137917 -0.09530547 0.18638252 0.08688915 0.11250165
0.036002297 0.10196516 0.15423828 -0.0785984 0.2124976 0.031472504 0.14602561 -0.015542704
-0.04259611 0.19010627 0.024544118 0.17564309 0.12029011 0.14539994 0.15328823 -0.010532913
0.062469747 -0.04272655 0.12754075 -0.04619144 -0.13075694 0.15642518 0.13727264 -0.15743163
-0.052241724 -0.16898207 -0.08066234 0.08135347 -0.042818878 0.12343235 0.008865059 0.14826094
0.05627709 -0.1483897 0.14146867 -0.064523175 -0.17073868 0.16555484 0.14537679 0.023047619
0.06342698 0.12187824 -0.16441494 0.019380914 0.07498742 -0.162943 0.14576247 0.080485046
0.1464173 0.072710514 0.18298368 -0.0035749264 -0.034203727 -0.03296888 0.068668224 0.0009344223
0.002980295 0.25293747 0.043686807 -0.04164029 -0.16014475 0.06511384 0.01990835 0.012326879
0.011177325 0.1575639 0.13163549 -0.019670941 -0.11760011 -0.07313591 0.04510725 -0.027611
0.056480464 0.08936394 0.016218178 0.048898283 0.23422438 0.043695495 0.044653233 -0.027413422
00000000: fdae cb3d 6f39 11bc 9ca1 1a3d 82c5 df3d
00000010: d4ca f93d df99 f93a 7351 e73d 6a52 683d
00000020: 458e 36be d2a9 68bd cbee 8abb 1b20 0c3e
00000030: 7082 1bbe bd2a 633e f91c 0b3e 17a4 bb3d
00000040: 20a6 bc3d 7862 193e 862a 9d3b a8b2 e0bd
00000050: ac9e b13d 4443 f13d 39b8 8c3e c90d 20bc
00000060: b52f 8a3d 55df ef3d 04a4 5abc 9ee6 8bbe
00000070: b2f4 9c3d 8544 bdbd 1c04 163e 1fff 0a3e
00000080: 0cf1 733e 05e7 c7bd 06a0 673e 4a10 9c3d
00000090: 8bd3 d63d d42e d53d 55ee 3e3d e54d b93d
000000a0: 3b26 f13c 8b75 923e 7241 d83d 9540 253e
000000b0: 842f c3bd 0fdb 3e3e f0f2 b13d 4467 e63d
000000c0: 2577 133d 1cd3 d03d a4f0 1d3e 33f8 a0bd
000000d0: f998 593e 50e9 003d bd87 153e d3a6 7ebc
000000e0: 4279 2ebd 38ab 423e bf10 c93c c8db 333e
000000f0: a95a f63d b9e3 143e 97f7 1c3e 3d92 2cbc
00000100: 47e0 7f3d 0902 2fbd 0b9a 023e 3c33 3dbd
00000110: 26e5 05be ec2d 203e 3391 0c3e c235 21be
00000120: 6bfb 55bd a309 2dbe 4c32 a5bd a69c a63d
00000130: d962 2fbd 1aca fc3d c13e 113c b7d1 173e
00000140: ce82 663d 78f3 17be 2add 103e ba24 84bd
00000150: 1fd6 2ebe 3587 293e a7dd 143e 5cce bc3c
00000160: 01e6 813d 4c9b f93d 645c 28be b9c4 9e3c
00000170: 0193 993d 88da 26be c242 153e 58d5 a43d
00000180: 6bee 153e 40e9 943d 1360 3b3e 5049 6abb
00000190: 3519 0cbd 600a 07bd eda1 8c3d 05f4 743a
000001a0: 0e51 433b 0581 813e f0f0 323d 028f 2abd
000001b0: fcfc 23be 685a 853d d616 a33c aef6 493c
000001c0: 1921 373c 6e58 213e 74cb 063e f424 a1bc
000001d0: 54d8 f0bd 48c8 95bd 61c2 383d 7730 e2bc
000001e0: 0f58 673d 7104 b73d fcdb 843c 9149 483d
000001f0: 84d8 6f3e 0cfa 323d 4fe6 363d 1d92 e0bc
