Results/gm_k562/gm_k562_aux/gm_k562_aux_R2_model.pt (torch_old, 936509 bytes, 221 tensors)

weight_ih_l0 f4 [128, 1]
00000000: b777 0f3e fc34 07bd 77ab d03d 3841 8b3d
00000010: 69b6 303d b881 103e 1fb8 f8bc 7f89 a6bd
00000020: c3a9 af3d 3ea7 93bd 3ea3 0b3e d8b9 4c3d
00000030: 46c8 c9bb 7571 843d 2c70 033d d5b7 b03c
00000040: 23c3 c93d e251 8f3d d1f7 debc 730c 383d
00000050: 9002 cc3d e48c 333d ab0c d03c 6d9a a2bc
00000060: 361a 4d3d 4853 ad3c 2a30 18bd adea d1bb
00000070: 7599 433d d679 173e baf1 a4bb c159 1b3d
00000080: beed dd3c 9fa9 f63c 79a0 aebc c999 21bd
00000090: 5e76 dd3b 85a6 133e bb6a 91bd c350 25bd
000000a0: 36b9 9dbc a648 dbbc 0512 0e3e 9f8e cebc
000000b0: a037 ccbc 99b8 8e3d ab15 ebbc 0fe3 923c
000000c0: 6451 82bd fb11 963c 102e b43d e121 a2bd
000000d0: 5fa0 56bc 1528 3c3d abbf a53d 94da 743d
000000e0: 887d 1c3e 43c2 813d 30b1 4e3d a341 0dbd
000000f0: 7364 b43d b747 4d3d 7cc5 1a3c 61fc 1d3d
00000100: f78c babd 2188 9f3c 0caa f03d fcb7 0f3e
00000110: 8cc9 abbc 3c9d e7bd fd81 7f3d a0f7 20ba
00000120: 8f5d acbd 025b 8bba 9e9d a4bd fb93 2fbd
00000130: 0b9b 083e 9b09 c43d 78fd ba3c 7eba 05be
00000140: 2b3b 993d ab8a fd3c c1d2 cd3d 1ebe 2e3d
00000150: 8a90 993d 6634 c03c cab2 0ebd 4296 a1bb
00000160: e333 19bd 65a7 3abd c5a8 e0bd 240c 35bd
00000170: a53d ffbb b006 9cbc e261 9abd cfe8 c03d
00000180: 7c55 173e 7d50 ed3d b3c6 7c3d d395 bc3c
00000190: 485b a7bd 028a cfbc b97b c6bd 6ec8 bcbb
000001a0: a344 083e 3593 003e a4f2 0b3e d994 013e
000001b0: f93d 243d b420 ac3c c2bc 153a 914a 893d
000001c0: 56f4 6dbd 1979 303c 7c5e 8ebc dc27 93bb
000001d0: 88cf af3d bdca c1bd 4d86 60bb 4293 bf3d
000001e0: 708c 50bc 3008 c93d 7256 0a39 933f 1dbc
000001f0: 6773 43bc 6d66 0f3e e6de d33d ad10 603d
0.14010511 -0.033009514 0.10188954 0.06799549 0.04314271 0.14111984 -0.030361233 -0.08131694
0.08577301 -0.07209633 0.1363649 0.049981922 -0.0061579077 0.06466953 0.032089397 0.021572033
0.098516725 0.0699804 -0.027217777 0.044933748 0.09961426 0.043835536 0.025396666 -0.019849027
0.050073825 0.021157876 -0.037155308 -0.0064061494 0.04775377 0.1479257 -0.005033699 0.037927393
0.027090903 0.030110179 -0.021316754 -0.0394533 0.0067584952 0.14418991 -0.07100435 -0.040360224
-0.019253355 -0.02676804 0.13874061 -0.025214491 -0.024928868 0.06968803 -0.028696856 0.017930536
-0.0636318 0.01831912 0.08797848 -0.07916618 -0.013099759 0.045936663 0.080931984 0.059778765
0.15282261 0.063358806 0.050461948 -0.034486424 0.08808222 0.05011722 0.009446498 0.038570765
-0.09108918 0.019474091 0.11751184 0.14035028 -0.020970128 -0.11309287 0.062379826 -0.00061404146
-0.084162824 -0.0010631981 -0.080378756 -0.042865735 0.13340394 0.095721446 0.022825941 -0.13059422
0.074819885 0.030949911 0.10049964 0.04266178 0.07498272 0.023462486 -0.034838475 -0.004931242
-0.037403 -0.045569796 -0.1096969 -0.04420103 -0.007789331 -0.019046158 -0.07538201 0.09419405
0.14778703 0.115876175 0.06171293 0.02302066 -0.081717074 -0.025334362 -0.09691567 -0.005761198
0.13307433 0.12556155 0.13666779 0.12654437 0.040098164 0.021011688 0.0005712026 0.067036755
-0.058094345 0.010771059 -0.017379038 -0.0044908356 0.08584505 -0.094624974 -0.0034259737 0.09354259
-0.012728795 0.09816015 0.00013192909 -0.009597677 -0.0119293695 0.14003916 0.10345249 0.054703403

weight_hh_l0 f4 [128, 32]
00000000: 5b52 ecbc f076 3b3c ab00 e23d 3bfc f93c
00000010: cfb4 cd3d 2ac8 12bd bf05 b5bd b834 133d
00000020: c5e8 46bd b71a 023e 1019 68bb 4e2b ecbd
00000030: c0a4 bfbb 591c 033e 8a56 abbd 0114 e0bd
00000040: e295 ba3d f7f7 af3b d5f9 a1bb 1256 ad3a
00000050: 6d2b 3bbb 8a00 b33d 452b 263e eed1 183e
00000060: 56fb 253d f92a c43d fa1c 81bd 09e4 b2bc
00000070: 193e 713d 8ca1 b83c 429e 123c 1d44 ef3d
00000080: 7b2f 993c 566a 133e 4f90 cc3d d80c 503d
00000090: 08c5 e63d e330 53bd a29d 90bc 322e 5bbd
000000a0: 0679 b7bd 937b 2dbd f6c9 23be 2474 a6bd
000000b0: 0233 793d 1be4 c93d f3c5 34bd 501d 1dbd
000000c0: 0b32 0cbc d909 f4bc 3955 7dbd a742 a23d
000000d0: cdd3 8d3d c95a b53c 7dd5 4c3d b75b c73d
000000e0: 53ae 11bc 0e3a 383c 2787 15be 5898 9ebd
000000f0: a8df 193d 88b2 45bd f9a4 f0bd 3f4d 5e3d
00000100: 38aa d53c 1b27 833d 6d23 4cbb 984d 803d
00000110: 639f 8fbd 2da7 f1bc a333 133d e8b4 363b
00000120: 515a 94bd 3cdd 473d 90dc 92bc eb78 073d
00000130: 40d2 623b c732 1c3c 2e41 16bd 7236 e53c
00000140: 2c67 6cbd f394 c03d 4033 9b3d bb21 0e3d
00000150: c9bc 43bd 22d3 963d 3e0a fe3c e6a2 a93d
00000160: 2881 e63d 1137 023d f96b 49ba e7e6 703b
00000170: 34a1 be3d 4caa 50bd de76 31bd 371d 953d
00000180: fdf5 9bbd cf8e c23d 935c 0a3e 013a 14bd
00000190: 743c 19bc fcbd e3bc bb04 febc 552f 01bb
000001a0: b9a3 01be 285e 903d 8b21 babd 6dde 8dbd
000001b0: 18c4 ed3d 0996 aa3d 27a4 dcbd 1f4b 29bd
000001c0: bf0d b73d a65a 693d 043d 46bc 20cf bbbd
000001d0: fe33 b03c c4f2 abbd cee1 053e cc39 033e
000001e0: efb8 173e 5dd0 a63d 0cef bbbd c0ee 993c
000001f0: d6ca 7d3d 24d6 11be b7de c7bd d4dd 853d
00000200: a2db b2bd 8335 073d de4c 503d 9dc2 363b
00000210: ee99 b43c 8f9c 7fbb 13f6 04bd a1da a63d
00000220: a2e9 193d ec07 253d e194 07bc 25b1 b63c
00000230: a4b3 073d 95c5 77bd 35f1 a8bd 1585 4ebc
00000240: 82c6 fd3c 43ec 323d 5fa1 1d3e 2fb0 b9bd
00000250: d30d ff3c 5b14 bfbd 4e16 fb3d d7b7 9ab9
00000260: 4b76 1c3d c5c2 9b3d e273 943d 1b87 893d
00000270: 6c8d 753d 203f 8dbb 41b9 cebc ee22 8dbd
00000280: 10de 11be 4a5a 213d 6dd5 9f3d 0be1 a83d
00000290: aa22 1f3d 6ee9 6ebd 8775 e9bc 85a6 fd3c
000002a0: 6ac0 10be 1bec 76bb 3201 a4bd f1ef 113c
000002b0: 9cdf c83d 7d75 0d3e c77d 11bd f9f9 00bd
000002c0: ca47 9d3d e043 ed3d d075 a63d 0925 30bd
000002d0: 7436 b63c 9b23 af3d 5c48 c33d e05c b83d
000002e0: 586c a5bb c9cb e0bc 4787 973c 2fee 99bc
000002f0: d05e 4fbd 1087 10be 44b0 d0bd 9591 fe3d
00000300: 98c5 503d 8743 713d 4d43 b7bd 103a 953d
00000310: c941 023e 48a3 223c e3e6 3cbd 58d9 ccbc
00000320: d2c2 c73d 8526 6e3d 9044 d83d a52c cebd
00000330: d3eb 5dbc 6248 1e3d 66ac 5a3a 3367 98bd
00000340: 5ad8 b33c ada9 273d 6ef9 f73c 4f72 af3c
00000350: 0cd9 3b3d 4f1f 1abe e394 07bd 73a5 bdbd
00000360: ed76 e0bd 7d55 6f3d 3ab3 1ebd 01b9 653d
00000370: cf3e 0a3e cb1c acbb 8b22 e63c 5880 27bd
00000380: 5657 783d 6783 dc3c 6c4e b83d 95eb 9a3d
00000390: 5c3e 1bbc 6017 63bd e5fc 043d 5a91 f43d
000003a0: 96d4 c9bb 88e2 0e3e a83f 05bd a495 49bd
000003b0: 613c 3dbc b483 523d b5fe 4d3d a45d b0bd
000003c0: aac1 f3bc 81fb 9938 eaee e83d 6fc5 cabd
000003d0: b071 323d 2770 143d cac3 303d 57d0 7ebd
000003e0: 0cba b33d 2e05 893d 39b4 08be b82a 12bd
000003f0: 158e 903d 2719 ccbc a184 f6bd 0557 e73d
-0.028847864 0.011441931 0.11035284 0.03051578 0.10044252 -0.035835423 -0.088389866 0.03593895
-0.04856183 0.12705503 -0.003541533 -0.11531697 -0.005848497 0.12803783 -0.083661154 -0.109413154
0.09110619 0.005370136 -0.0049431124 0.0013224503 -0.002855982 0.08740337 0.16227444 0.14923832
0.040522896 0.09578509 -0.06304355 -0.021837251 0.05889711 0.022537969 0.008948864 0.116829135
0.018699398 0.14396033 0.09988462 0.0507935 0.112680495 -0.051560294 -0.01765329 -0.053510852
-0.0895863 -0.042354178 -0.1599501 -0.08127621 0.06083966 0.09857961 -0.04413409 -0.038358033
-0.008556853 -0.029789852 -0.061848853 0.07922869 0.069251634 0.022138016 0.050008286 0.0973429
-0.00889166 0.01124431 -0.14602338 -0.07743901 0.03756681 -0.048265964 -0.11750216 0.054272886
0.026082143 0.06403943 -0.0031149045 0.062648 -0.070128225 -0.029498661 0.035937916 0.0027878825
-0.07243789 0.04879497 -0.017927438 0.0330743 0.0034610182 0.009533591 -0.036683254 0.027980063
-0.05771558 0.0940341 0.075781345 0.034700137 -0.04778746 0.07364489 0.031010743 0.082830235
0.11255103 0.031790797 -0.00076836307 0.0036758722 0.09308091 -0.050943658 -0.04332625 0.07280963
-0.07615278 0.09499895 0.13511877 -0.03618813 -0.009352792 -0.027800553 -0.031008115 -0.001971205
-0.12660111 0.07049209 -0.09088429 -0.0692719 0.116096675 0.08329398 -0.10773497 -0.041331407
0.08938169 0.056971215 -0.012099508 -0.09170365 0.021509167 -0.08395913 0.13074419 0.12815017
0.1481664 0.08145211 -0.09176454 0.018790603 0.061961018 -0.14241844 -0.09759276 0.06536451
-0.08733298 0.033010017 0.050854556 0.0027886995 0.022046056 -0.0039003228 -0.032461237 0.08147169
0.037576325 0.040290758 -0.008275242 0.022301266 0.033130303 -0.060491163 -0.082491316 -0.012604971
0.030978445 0.043682348 0.1539359 -0.090668075 0.031134522 -0.093300544 0.12260114 -0.0002951014
0.03819875 0.07605509 0.072486654 0.067152224 0.059949324 -0.0043105036 -0.02523482 -0.06891428
-0.14244866 0.039392747 0.078043796 0.082460485 0.038851418 -0.058328085 -0.028498424 0.030963192
-0.141359 -0.003767735 -0.080080405 0.008907304 0.09808275 0.1381435 -0.03552034 -0.031488393
0.07679708 0.11585212 0.0812794 -0.04300407 0.022242762 0.08551713 0.09535286 0.090020895
-0.005048316 -0.027440922 0.018497122 -0.018790333 -0.05062753 -0.14114022 -0.1018987 0.12430111
0.05096969 0.05890229 -0.089483835 0.07286465 0.12720408 0.009926625 -0.04611863 -0.025005981
0.09753956 0.058142204 0.10559952 -0.10067109 -0.013544994 0.03864325 0.00083417294 -0.07441559
0.02195375 0.0409333 0.030270305 0.021416811 0.04586129 -0.15051006 -0.033100974 -0.092600726
-0.10960183 0.058431137 -0.038745143 0.056084637 0.13500522 -0.005252456 0.028092643 -0.040893883
0.060630165 0.026918126 0.08999333 0.07564465 -0.009475317 -0.055442214 0.03246774 0.11941786
-0.0061593754 0.13953602 -0.03253141 -0.049214974 -0.01155004 0.051395133 0.050291736 -0.086116105
-0.029755432 7.342455e-05 0.11373694 -0.09900939 0.043565452 0.03623977 0.04315547 -0.062210407
0.0877572 0.06690441 -0.1335 -0.03568527 0.0705835 -0.024914337 -0.12037016 0.112958945

bias_ih_l0 f4 [128]
00000000: 4336 743c cf09 7d3d 3198 1b3d db84 1a3e
00000010: e8e2 7f3d 58ef eb3d 0110 6ebd dcbd 08bd
00000020: 82ca be3d 34b2 093e c938 063e a67d 243d
00000030: 4fff fd3d e9a9 d23d 0a70 9e3c 1d92 4fbd
00000040: 3607 d83b ba53 1c3e 3abc 9c3c 5232 4abd
00000050: ee88 b03d e5ca 053c 69d4 ab3d a8c1 e13d
00000060: c3de 5a3d 111b cf3d f1f5 813d b7ec 2dbd
00000070: 2aaa 553d b818 adbc 73dc 9c3d 60f7 82bb
00000080: 503f d83d f01f 213e c98e 50bd 678b eb3d
00000090: 6fea 8dbc 4c03 9f3b 00bb 6abd 149f 68bd
000000a0: 53b3 853d 9236 cbbc c484 033e 24f6 c73d
000000b0: 21f1 243e 3e85 113e 317c 36bc c559 f43d
000000c0: d180 13bb b189 b13d 51e3 cc3c 8426 00bd
000000d0: 8ca4 653d d841 a4bd fcae 943a 33de f2bc
000000e0: 96a8 09bc 7b06 913c c15b 203e 2264 a63d
000000f0: 5a43 e53c 3945 3d3d 4ccd 143e 6670 1f3e
00000100: d091 bc3c 7e4f 153e 7aa1 8d3d 4095 403c
00000110: 0738 cdba 980b 08be 95ba 67bb be16 253d
00000120: 76c1 dbbc 41ab 4a3d 38c9 15be a90d 2c3b
00000130: 1aa7 263c fe58 023e 234b 3fbd 761a 7cbc
00000140: 9de1 58bc 71f1 9a3d c81e cbbc 7370 6d3c
00000150: 90e1 c33d 4376 083c 3502 563d 9aa0 0f3e
00000160: e3a6 ce3d d6d4 e33d a8a1 6ebd b166 12be
00000170: c496 f63c 292f 00be 984f c43b 95bb ae3d
00000180: b0fa 6d3d d072 063d df57 873c 4c08 113e
00000190: bcc1 ac3d 4acc d43c 8451 26bc 0214 2abd
000001a0: 3385 873b 1152 0c3e 3ef7 8b3c 3a5f 963c
000001b0: 2f51 1b3e a3e7 243d 8127 823c 2a64 913d
000001c0: fb38 893d c379 ed3c d7a7 2fbb 9df9 9f3d
000001d0: 728b 113d ac1a 533c f276 1fbb 98f1 39bc
000001e0: dde1 293d 77b4 f33d eead ab3c 9a9f 033d
000001f0: 240d 98bd d830 66bc 006a b73d 810e a5bc
0.014905515 0.061776932 0.037986938 0.15089743 0.062472254 0.115202606 -0.05812073 -0.03338419
0.09315969 0.13446885 0.131076 0.04015889 0.12402212 0.10286314 0.019340534 -0.050676454
0.0065926565 0.15266314 0.019132722 -0.049364395 0.08619867 0.00816605 0.083901234 0.11023265
0.0534351 0.101125844 0.06345738 -0.042462077 0.052164234 -0.02112995 0.07659235 -0.0039967746
0.10558951 0.1573484 -0.05091742 0.11501198 -0.0173237 0.004852688 -0.057307243 -0.056792334
0.06528344 -0.024806295 0.12843615 0.097637445 0.16107608 0.14210984 -0.011138008 0.11931185
-0.00225072 0.08668841 0.025010737 -0.03128673 0.056065127 -0.08020371 0.0011343653 -0.029646968
-0.00840201 0.017703285 0.15660001 0.081245676 0.027986217 0.046208594 0.1453144 0.1557022
0.023018748 0.14581105 0.06915565 0.011754334 -0.0015656956 -0.13285673 -0.0035359014 0.04030489
-0.026825648 0.049479727 -0.1462754 0.002625326 0.010171676 0.1272926 -0.046702515 -0.015387168
-0.013237384 0.075655825 -0.024794951 0.014492142 0.09564507 0.008328977 0.0522482 0.14026108
0.10090425 0.111245796 -0.058259636 -0.14296986 0.030101188 -0.1251799 0.0059909336 0.08531872
0.058100402 0.032824337 0.016521392 0.14163321 0.084353894 0.025976319 -0.010151271 -0.041522987
0.0041357516 0.13703181 0.017085668 0.018355954 0.15167688 0.04025997 0.015887978 0.07099183
0.06700321 0.028988725 -0.0026802921 0.07811282 0.035533376 0.012884777 -0.0024332372 -0.011349104
0.041475166 0.11899655 0.02095696 0.03213463 -0.074243814 -0.014049731 0.08955765 -0.020148518

bias_hh_l0 f4 [128]
00000000: c283 ef3d 2918 493d 4b5b c43d 48be 05bd
00000010: 0824 a63d 50f8 973d bc16 363d fb44 cc3d
00000020: c1dc fd3d 2951 103b dd4f b43c 33ca 123e
00000030: 579e b53c d96d 3fbd fb88 5ebd eda3 843d
00000040: 8895 af3d 14c4 1b3e 6a9c 9a3d 5c2c b6bb
00000050: a102 d93d c55a bebd dffd 073e 9b76 a23d
00000060: bd0f a83d 4fe7 7d3c 1f38 0439 60c3 483d
00000070: e477 4a3d d450 5c3b a509 053e 46ff 1a3d
00000080: 5fa7 c23d 968e 1e3a aa73 833d c700 843d
00000090: 3794 f4bc 517b 553d 764a 9cbc b95f bc3c
000000a0: 8e7e a6bb 756c 083e ff5c 0e3e 0773 053e
000000b0: 3891 093e 08c6 b33d 3765 f93d 8696 603d
000000c0: 2259 f33c 0c7f 0a3e ca84 733d c688 39bd
000000d0: 25a1 083e 7e7f 44bd 7251 a63c 4bbf cc3d
000000e0: 84fd d33c 7a77 0d3e d084 c23d c9a1 0f3e
000000f0: 5de3 59bc 756a ee3c 5976 f23b 65b9 2d3c
00000100: a98b 19be faf1 b63d 056d 7b3d ce6d ea3d
00000110: aa25 633d 84a0 b2bd 9cdc 00bd 3aac 2e3c
00000120: e024 c9bd e292 273d 8e4d 16be 658a 83bd
00000130: 2c98 053e 5697 d73d f080 91bd a3d5 a6bd
00000140: 1e9e bd3d ccbb c43d 50cc ed3b 22e4 9dbd
00000150: ece0 043e a7d8 a7bc b52f 1c3e c0e8 023e
00000160: 3b8d 143e 4007 0b3e 78d9 72bd 801a 90bc
00000170: c8ca fe3c ebbf ddbd df0f 22be a176 0b3e
00000180: 071b 4bbc 72d0 3f3c d140 c93d 68c1 b43b
00000190: 64cd 96bd 029c 983c 7487 81bb 1025 7fbb
000001a0: e40f d4ba 2523 3ebb 0a63 663d 4a4d 303d
000001b0: eee6 013e d147 4bbd 77f4 16bc b772 833d
000001c0: 94b6 ecbc f4ee 883c a6d5 6abd 5fda d13d
000001d0: dcee 9138 de68 36bd a763 423d d32d 223e
000001e0: 34d6 983d 9a57 28bd a185 ec3c 311c f63d
000001f0: 5352 d7bc e21c 013e 409b 183e a251 0c3e
0.11695053 0.049095307 0.09587725 -0.03265217 0.08112341 0.07420409 0.044455275 0.099740945
0.12395621 0.0022021031 0.022010738 0.14334945 0.022170229 -0.04673562 -0.054329854 0.06476579
0.08573443 0.15211517 0.07549365 -0.0055594873 0.105962045 -0.09294657 0.13280438 0.079327784
0.08206127 0.015497043 0.00012609408 0.04901445 0.049430743 0.0033617513 0.1299196 0.037841104
0.0950458 0.00060484686 0.064185455 0.06445461 -0.02985583 0.052119557 -0.019078474 0.022994863
-0.0050810045 0.13322623 0.13902663 0.1303216 0.13434303 0.08778006 0.12177508 0.05483105
0.029705588 0.13525027 0.05945281 -0.045296453 0.13342722 -0.04797315 0.020302508 0.09997424
0.025877722 0.13815108 0.09497988 0.1402656 -0.013298837 0.029103497 0.007399362 0.0106032835
-0.14994682 0.08932872 0.061383266 0.11446725 0.05545584 -0.08722022 -0.03146039 0.010661179
-0.098214865 0.040911563 -0.14678022 -0.06422881 0.1304633 0.10526912 -0.07104671 -0.08146217
0.09258674 0.09606132 0.007257022 -0.077095285 0.12976426 -0.02048905 0.15252574 0.127841
0.14507 0.13576984 -0.059289426 -0.017590761 0.031102553 -0.10827621 -0.15826367 0.13619472
-0.012396581 0.011707412 0.09826816 0.00551622 -0.07363394 0.018629078 -0.003952915 -0.0038932003
-0.0016179052 -0.0029012647 0.056246795 0.04304246 0.12685749 -0.049629036 -0.009213558 0.064183645
-0.028895654 0.016715504 -0.057332657 0.10246729 6.95863e-05 -0.044533603 0.047458317 0.15837793
0.07462731 -0.04109917 0.028872313 0.12017096 -0.026284372 0.12608674 0.14902973 0.13703015

weight_ih_l0_reverse f4 [128, 1]
00000000: c8f3 4fbd e4b3 16bd 847b 073e 8244 d7bb
00000010: 15fb 183e 76f8 6fbd 2a99 9d3c 49cc f6bc
00000020: 0bf0 e43d 7603 c8bc 1bf9 843d b81e a83a
00000030: 4786 90bd 7b3f 243e e171 0d3e 356e adbd
00000040: 4cc4 a6bb 4c83 ab3d f091 9c3d 145f 98bd
00000050: c43e ea3d f0a5 823d a5c7 c43d fa14 003e
00000060: e1c4 d53d 964c 073e f367 a53d 0f3e 893d
00000070: 42db 9a3d 38ef 883c efc1 2bbb d8d1 deba
00000080: 3505 9b3d 3e63 893d d364 14bd 8075 cb3a
00000090: ce0e 6c3a 31e2 033d 7165 2f3d dce8 8cbd
000000a0: c31a 34bc d78f 0ebd 9a78 d83d 580a 38bd
000000b0: 2491 b03d d545 273e 4e0f 063d 6fe8 7c3d
000000c0: 7186 713c f240 873d 3196 283d f82a 833d
000000d0: 9966 773d 829e 84bd 1db9 903d 075a 093e
000000e0: 803c 123e edce 3b3c 9892 b33c 67de 85bc
000000f0: f46d cd3c b1eb 1bbd 8bb1 62bc 9011 fc3d
00000100: 6ea0 0f3c 03f3 e63c c7d9 1a3e 5894 18bc
00000110: 8500 95bd ad47 95bd d871 0a3e 2b25 70bd
00000120: 5c4a 49bd 4b1b 89bc c152 e03c e568 00bd
00000130: 7e69 fbbc f979 0fbe d39d ae3d b5ac 9bbd
00000140: 7c13 a53c 81a0 10be db1f 923c 5c62 8e3c
00000150: d616 65bd 0d4c fc3b bb7b 06be c0c1 253e
00000160: cf4c 13be e45e d3bc d5bf 1c3e b4db 27bd
00000170: a987 a43d 1c4c 7a3d 8d8f d4bb ae5d 16be
00000180: 6a46 82bd b578 42bb 314c 0a3e 5cdb 193e
00000190: 13f9 ef3d c2f9 8ebc c660 8c3d b32e 35ba
000001a0: 1cd6 2b3d 56bb 183d c37d 833c 76a4 3c3c
000001b0: 0182 683d 2fac 593d d774 9f3c 9b19 f33c
000001c0: 20f4 003e 3c88 2dbd 8079 5b3d 9c5b cabd
000001d0: f684 dc3d a4fc 7a3d 173f b33b 4b02 833d
000001e0: 8f42 133c fcda 353d a459 823d 9909 b53d
000001f0: e22f 023e affa faba f8c3 7bbd aeac 713d
-0.050769597 -0.03679265 0.13230711 -0.006569446 0.1493953 -0.05858656 0.019238073 -0.030126708
0.11178597 -0.024415713 0.064928256 0.0012826538 -0.07056861 0.16039841 0.13812973 -0.08468286
-0.0050893184 0.08374652 0.07645023 -0.0744001 0.11437753 0.06379306 0.09608392 0.12508002
0.10437942 0.13212809 0.08076467 0.0670129 0.07561351 0.01671563 -0.0026208123 -0.0016999794
0.075693525 0.06708382 -0.036228966 0.0015522689 0.00090048916 0.032198135 0.04282135 -0.06880352
-0.010992709 -0.034805145 0.10569878 -0.04493174 0.086214334 0.16335233 0.03272944 0.061745103
0.014741526 0.06604184 0.04115886 0.0640468 0.06040058 -0.064755455 0.070665576 0.13413249
0.14280891 0.011462909 0.021920487 -0.016341401 0.025076844 -0.03806657 -0.013836275 0.12308037
0.008766277 0.028192049 0.15122138 -0.009312712 -0.0727549 -0.07289062 0.1351999 -0.058629196
-0.04914318 -0.016736647 0.02738321 -0.031350035 -0.030689951 -0.14011373 0.08526196 -0.076013006
0.020150892 -0.14123727 0.017837455 0.017380886 -0.05592998 0.0076994956 -0.13133137 0.16187191
-0.14384769 -0.025802083 0.15307553 -0.04098101 0.080336876 0.06110774 -0.006486839 -0.14684173
-0.06361087 -0.0029673998 0.13505627 0.15025085 0.11717429 -0.017453078 0.068543956 -0.0006911561
0.041952237 0.037288032 0.016051179 0.01151382 0.056764606 0.053142723 0.019464893 0.029675296
0.12593126 -0.04236625 0.05358267 -0.09880754 0.10767548 0.061276093 0.0054701674 0.06396922
0.008988037 0.044398293 0.06364754 0.08839721 0.12713578 -0.0019148196 -0.061466187 0.05900257

weight_hh_l0_reverse f4 [128, 32]
00000000: 1423 05be cdf4 dfbd b8a4 933a 0423 e13d
00000010: 16c6 acbd 842b 6fbd b883 cf3b 6735 883d
00000020: f917 3dbc ddf6 de3d 963a 03be 169f b73c
00000030: f892 033e 52a1 5ebc 4550 0ebd e39a ccbd
00000040: 8135 093e a6e0 25bd 3fba 1ebd 0c3b 223d
00000050: d17b 00be ba91 a73d 1d79 83bd 0447 06bd
00000060: f62a bbbc d186 3ebd 6747 54bd 0bd7 ee3b
00000070: ad75 3f3d 7b51 00bd ea25 a43d c30b ccbc
00000080: 53d6 c9bd 6472 29bc 0102 8a3d bd78 073e
00000090: 30dd f7bd ddf9 0bbe b14f c73d 9264 543c
000000a0: bfb8 02be b715 49bd 1505 a5bc 04fc 5f3d
000000b0: 8eda 233e 8b1b 4dbd 1b75 fd3c c14e 383c
000000c0: f625 f53d 0b23 c5bd cb23 96bc 0b99 a23d
000000d0: 0737 c23b bd27 48bc 4132 08bd bdf9 0c3e
000000e0: 1372 00be 68b1 a43d 8d09 3b3d 9265 9abb
000000f0: a768 e3bc b5bf 643d 8621 6abd a3ba aabd
00000100: f161 4ebd d57f b63b 31b0 4a3c da97 393d
00000110: d7d9 26be d051 963c ae79 763d 27dc 153c
00000120: 0fff f6bd 6268 c9bc 6315 dbbd c452 9fbc
00000130: 955a fd3d d046 29be 234b 093e cdd9 78bd
00000140: f56e a83d da71 113c 3f87 09be 3dee 2e3d
00000150: 1a0a febd 33d7 5ebd 8de0 8b3d 68d0 e8bc
00000160: 7432 b33c 9bcd fe3c 15d5 1b3e d03e a63b
00000170: d567 973d aad8 663d 5c76 e6bd 2857 21ba
00000180: 943c 5cbd c2dd c9bd 57d7 ae3c 36e2 373d
00000190: 322d c7bd deb6 2bbd d233 8b3c 1e93 f63d
000001a0: 3cf5 22bd 1e9f f53d f8fe abbd cd26 203c
000001b0: 3db2 cb3d b872 b43c 508f 653d 9740 a5bd
000001c0: 55d0 45bc 4a4b d83b 94a2 f5bd a88e b3bc
000001d0: 1ed0 8ebd 5761 c4bd 6aec 103d c839 573b
000001e0: 2833 e9bd 513c 3dbc 9a74 0e3e 32d1 9ebd
000001f0: 1b9e 7cbb ec78 823d 9c28 41bd 7dcc a3bc
00000200: 9397 ca3c 90f6 2dbd 5975 113e 68b6 fb3d
00000210: 3b51 02be 09f7 aabc f1d0 eb3d 6137 1f3d
00000220: 6b9f 1cbe 617a 7d3d 4da5 ccbd 6887 81bc
00000230: 10ee 703b 72f3 19bd 4f7e fb3d 94fb 78bd
00000240: 44b1 8d3d a132 f5bd b44d 16be 33ae b5bd
00000250: 5450 55bd 6563 913b 74fc d3bc e74b 263e
00000260: 4169 e0bc e301 a83d 7644 80bc c3fc 1bbe
00000270: a9ae e43d c7a6 78bd 270a 99bd fa26 22bb
00000280: 19c3 363d 7124 7fbd 062f d03c 70e6 373d
00000290: 71c6 0f3d d239 153d 2f7b 66bd 6fb3 a7bd
000002a0: 7219 16bd 94b5 79bd a061 97bd 65fd b83d
000002b0: c2bd febd cfd1 c73d ade0 83bd e383 5bbc
000002c0: ef4e 4f3d 5cdb 933d 4745 c73a 0765 19bd
000002d0: 152a fcbc ce90 413d 0756 b1bd 8c66 68bd
000002e0: a1bd fcbc efab 5e3d c8c5 823b c83d 7dbd
000002f0: bd86 93bc c056 98bd 7f92 843a e41b 0abb
00000300: 8111 9dbd ea05 f6bd 6bb3 593d 718f 973c
00000310: 17a3 9cbd 1eb6 233d e3f6 b43d 5288 cd3d
00000320: f2e7 13be 8b12 5c3c 7320 83bd ea87 5ebd
00000330: d9d1 be3c 55a6 d538 3955 fe3d 6840 22bd
00000340: 4d07 0d3e 31d9 babd 8de3 8cbd 9a5d 23bd
00000350: 2280 03be 0ce3 bbbd 4122 81bd e76d a13d
00000360: 094e 9ebd f907 c73d 7778 9d3d 2ec1 a6bc
00000370: 8090 b83c 70a1 8cbd 6b17 ac3c df29 2cbd
00000380: f189 cd3d bf82 c93d 5dca 34bd f894 0b3a
00000390: 22dc b2bd 3691 6f3d cdaf e13c f8d8 573d
000003a0: 9835 8c3a 511c 673d 8168 e73c 9c06 a43d
000003b0: 661f 87bc 5144 b7bd e4b3 d2bd b1d7 f8bb
000003c0: fa8f 8c3d 9547 39bd 813f 0ebd 0a4d 853d
000003d0: 0d55 933d e856 63bd a7a2 ab3c 4355 a13d
000003e0: 9435 853d 3519 8f3d 0d97 193d 6dbd 3c3d
000003f0: ae8f c93b 5684 bc3d e3de a33d 82cc bbbc
-0.13001662 -0.10935364 0.00112643 0.10993007 -0.084362194 -0.05839111 0.006332841 0.06650811
-0.01154136 0.10886929 -0.12815318 0.022414725 0.12849033 -0.013588266 -0.03474452 -0.0999048
0.13399316 -0.040497445 -0.038751837 0.039607093 -0.12547232 0.08182092 -0.06419585 -0.03278257
-0.022847634 -0.04651529 -0.051825907 0.0072888187 0.046743084 -0.031327706 0.08015044 -0.024907952
-0.09855332 -0.010342214 0.067386635 0.13229652 -0.12102735 -0.13669534 0.09731997 0.012963431
-0.12765788 -0.049092975 -0.020144025 0.0546837 0.16001341 -0.050075095 0.03093963 0.011249245
0.11970131 -0.096258245 -0.018327614 0.07939347 0.00592697 -0.012216506 -0.03325105 0.13767143
-0.12543516 0.0804165 0.045663405 -0.004711815 -0.027759863 0.05584689 -0.057160877 -0.083363794
-0.050386373 0.005569438 0.012371109 0.045310833 -0.16294037 0.018349558 0.060174637 0.009146727
-0.12060367 -0.024585906 -0.106974386 -0.019448645 0.12370793 -0.16530919 0.13407569 -0.060754586
0.082242884 0.008877242 -0.13430499 0.04270767 -0.124042705 -0.05440445 0.06829939 -0.028419688
0.021874644 0.0311039 0.15218003 0.005073406 0.07392851 0.05635897 -0.11253044 -0.000615465
-0.05376871 -0.0985675 0.021342916 0.044893466 -0.09725417 -0.041922443 0.016992483 0.12039779
-0.039784655 0.1199324 -0.08398241 0.009774876 0.09946106 0.022027358 0.056044877 -0.0806896
-0.012073596 0.006600772 -0.119939 -0.02191861 -0.06973289 -0.095888786 0.035381712 0.0032840837
-0.113867104 -0.011550025 0.13911667 -0.077547446 -0.0038546387 0.0637072 -0.04715787 -0.019994969
0.02473048 -0.04247147 0.14204921 0.122906506 -0.127263 -0.020869749 0.11514462 0.038871173
-0.15295188 0.061884288 -0.09992466 -0.015811637 0.003676299 -0.037585683 0.12279951 -0.0607868
0.06918576 -0.11972547 -0.14678079 -0.088711165 -0.05207856 0.0044368976 -0.025877215 0.16239892
-0.027393939 0.08203485 -0.015657645 -0.1523314 0.11166126 -0.060705926 -0.074726395 -0.002474247
0.044619653 -0.062290613 0.025413048 0.044897497 0.035101358 0.036432095 -0.05626982 -0.08188521
-0.03664536 -0.060964182 -0.07391667 0.09032706 -0.12438537 0.09756815 -0.06439338 -0.013398143
0.050612386 0.07219574 0.0015203141 -0.037449863 -0.030781785 0.047257237 -0.086589865 -0.05673842
-0.03085214 0.054363187 0.0039908625 -0.061826497 -0.018008584 -0.07438421 0.001011446 -0.0021073753
-0.07669354 -0.12012847 0.053149622 0.018501015 -0.076482944 0.039968602 0.088361524 0.10035767
-0.14443949 0.013432155 -0.064026736 -0.054328837 0.023293423 0.00010187613 0.12418599 -0.039612204
0.13772316 -0.09123457 -0.06879339 -0.039884187 -0.12841848 -0.09174165 -0.063053615 0.0788229
-0.07729728 0.097183175 0.076889925 -0.020355787 0.02252984 -0.06866729 0.02100726 -0.04203212
0.10036076 0.09839391 -0.0441383 0.0005324627 -0.08733393 0.058488093 0.027549649 0.052697152
0.0010697125 0.05642349 0.028248074 0.08009073 -0.016494464 -0.08948577 -0.10288218 -0.007594072
0.06863399 -0.04523428 -0.03472853 0.06508835 0.071939565 -0.055502802 0.020951582 0.078775905
0.0650436 0.0698723 0.03749757 0.046079088 0.006151161 0.092049286 0.08001497 -0.022924665

bias_ih_l0_reverse f4 [128]
00000000: 42ad b83c f985 d13d 091d 9e3d fcdc 1c3e
00000010: 1dfe 033d 85b9 83bd b9ef 12bc a3ff ab3d
00000020: 2564 41bc a39d 6b3c 37e8 d43d 62d9 2fbc
00000030: 727a cbbb 06c3 693d d467 a63a f8e9 383d
00000040: 664d 923d 56f6 b2bc 5650 14bd 6c4e 30bd
00000050: 70b1 493d 8c82 623d eab3 b7bc 3ddc c23d
00000060: 6a9b 90bc 208e 4b3d 9f8f 1a3d 9458 123e
00000070: 5996 a83c 4fa7 a1bd 6f53 3ebd dbc9 dc3d
00000080: 4dcb a83c bd48 bf3d 4465 1f3e de4e 533b
00000090: 547a f53d e505 debb b28f c23d 5bae aa3d
000000a0: 1cbd 023e 94ef 393c 9ce4 a53d 549c e53c
000000b0: 2e06 28bc 0f54 afbc a1c4 d13d efaf c9bd
000000c0: 4a8d dd3c 42d8 293d baa8 993d 96a2 043d
000000d0: b415 803c e329 603c c564 ae3c 226b efbc
000000e0: 448e 1c3e e9a0 8a3d 0921 f23d 8aaa de3c
000000f0: 3c6a 6b3c e3f4 d1bc 4dd3 84bd 2809 b13d
00000100: e202 a0bd 6a84 f1bd dbed 0b3e cdd2 6b3d
00000110: 3228 debd 55c9 99bd 5f21 213e cfac 9a3d
00000120: 91a8 74bc 474f 533c 8eae 3fbd 46c5 fabd
00000130: 2eb5 9c3d d894 e7bd 1461 5b3d 98e2 87bd
00000140: e128 963d 94d2 04be a985 09be 1ead adbc
00000150: c487 1dbe fafe 1b3d 7127 293c 0ca3 c43d
00000160: 3097 31bd 22b5 b43d 2e47 123e e522 a7bd
00000170: 6dd5 c63d 6201 983c 7c8f 64bc 0664 77bd
00000180: d774 033e 70cc 213e 104f 823d 3330 903c
00000190: ea25 b13b 0810 fa3c fc18 013e b632 7bbd
000001a0: 3d3b 84bc d9c5 ef3d d2db d23d 02bf 043e
000001b0: f585 143e ad4a 653c bbf2 013d 2b58 303d
000001c0: 4803 113e 2eb1 29bd ffa8 123e 710f a63b
000001d0: 363c 843d eb21 813d 3d1a 9f3d 344e 053e
000001e0: 2e63 8b3d f2b5 dd3d 5dcd 173e 3ec5 193e
000001f0: be37 113e 8afe 6dbd 62bf 44bd c552 bc3d
0.022543553 0.102306314 0.07720382 0.15318674 0.032224763 -0.064318694 -0.008968287 0.08398368
-0.0118036615 0.014380845 0.10395854 -0.01073298 -0.006209665 0.057070754 0.0012695738 0.045145005
0.07143669 -0.021845978 -0.036209427 -0.04304354 0.049241483 0.05530028 -0.022424657 0.09514663
-0.017652232 0.049696088 0.037734624 0.14291602 0.020579504 -0.0789324 -0.046466287 0.107806884
0.020604754 0.093400456 0.15565974 0.0032243053 0.11986223 -0.006775605 0.09500064 0.08334037
0.12767452 0.011348624 0.081002444 0.028028645 -0.01025538 -0.021402387 0.10242582 -0.0984801
0.027044911 0.041466005 0.07502885 0.032381617 0.015635349 0.013681862 0.021288285 -0.02922589
0.15288645 0.067689724 0.11822707 0.027180929 0.01436859 -0.025629466 -0.06485615 0.086443245
-0.0781305 -0.11792834 0.13664953 0.057574082 -0.108475104 -0.07509104 0.15735386 0.07552492
-0.0149327675 0.012897319 -0.046797328 -0.12244658 0.07651745 -0.113076866 0.053559378 -0.06635016
0.07332016 -0.12970954 -0.13429894 -0.021200713 -0.15383822 0.03808496 0.010324345 0.09601411
-0.043357074 0.08823611 0.14284965 -0.081609525 0.097086765 0.018555347 -0.013950225 -0.060398124
0.1283754 0.15800643 0.06362736 0.017601108 0.005406131 0.030525222 0.12607187 -0.06132766
-0.016141528 0.11707658 0.10295834 0.12963489 0.14504226 0.013994855 0.031725626 0.043052834
0.14161408 -0.041428737 0.1432228 0.0050677587 0.06456797 0.063052975 0.077686764 0.13018113
0.068060264 0.10825719 0.14824434 0.15016648 0.1418142 -0.058104075 -0.04803408 0.091954745

bias_hh_l0_reverse f4 [128]
00000000: 8784 f23c 9a1e 0dbd 2fa1 823d e554 033d
00000010: 79d7 ea3c 694b ddbd 165c d7bc 0517 16bd
00000020: 21ad 153d 46ef b83c 593b 983d 85d4 4bbd
00000030: 22d0 cdbb 2876 1e3e 73d1 183e 85e5 de3c
00000040: 1c9f 0abc 38d9 003e 4b1c fd3d 7618 df3b
00000050: 8b84 123c 95d1 c5bc 022d 85bd 7f33 20bc
00000060: 6934 d43b 6fd5 293e 5384 893d 20ff 843c
00000070: 4ca5 26bc 7270 063c 8f6d f3bd dc71 9c3d
00000080: 1808 b23d 743f 0b3e 5369 e83d 5ace 103e
00000090: d0f0 ab3d ab3f 83bd 48ac 04bd 4208 57bd
000000a0: 14dd de3d 8b30 0b3e 961c 29bc 2779 ed3c
000000b0: c2dd b63d 4400 803d 366a a13d 4007 503d
000000c0: 5c39 bc3d 07ae 0b3e 35c8 a83d 4ac3 80bd
000000d0: 8ecb 1d3d 888b 573c 0473 c9bd b814 7c3d
000000e0: 2319 013e b178 9f3d ead4 f5bc 34c8 a63d
000000f0: 3ee3 243d 4d51 49bd b455 5e3d 165a 013e
00000100: ed61 9dbc cf28 54bd 8dd0 4bbc da00 d83d
00000110: 1059 05be ef28 5abd 3bfc dbbc 5a80 bfbc
00000120: f86c c2bd 73a1 863d 4e43 9f3c 4342 b53c
00000130: 28ec b63d 2baf 18be 803e 063e 20b0 41bd
00000140: 65b0 1a3e ff5c 52bd 70bd 01be f815 85bc
00000150: 326f dbbd 2ad6 39bd c541 95bc 15e2 bb3c
00000160: 7c08 bebd 99df e33d 337d c93d 9611 b0bd
00000170: fb87 c23c b7fe 023d 87c5 41bd 424e 2cbd
00000180: 8216 5cbb 3b96 3d3d f541 2a3e fae0 673d
00000190: 3d7e ac3d 8366 203a 6dcf 1b3c 2ee9 b5bd
000001a0: 2109 83bc e02b 883d 4661 de3d 8b99 7d3c
000001b0: 0959 bb3d 936b 8fbc 0e46 0c3e 714f 9cbd
000001c0: 2dd7 ec3d 1780 023e d231 db3d 42fa 803d
000001d0: 796f 1c3e 9edc b5ba a4d1 e2bc 2845 e83d
000001e0: ff3e d53d df21 ec3d 4b69 133d 78cf 6d3d
000001f0: 8b79 2b3e 33a6 66bd d70e d9bd 74bb dc3c
0.02960421 -0.034453012 0.063783996 0.032063384 0.028667198 -0.10805399 -0.026289027 -0.036643047
0.03654206 0.022575032 0.07433195 -0.04976322 -0.006280915 0.1547476 0.14923649 0.027209053
-0.008460786 0.12582862 0.12358912 0.006808336 0.0089427335 -0.024147788 -0.06502725 -0.009777903
0.0064759743 0.16585325 0.06714692 0.016234934 -0.010171246 0.00820552 -0.11886131 0.076389045
0.0869295 0.13598424 0.11348214 0.14141217 0.08395541 -0.06408628 -0.032390863 -0.05249811
0.10882011 0.13592736 -0.010321757 0.028988434 0.08929016 0.06250051 0.07881586 0.050788164
0.09190628 0.13640605 0.082413115 -0.062872484 0.038524203 0.013155825 -0.098363906 0.061543196
0.12607245 0.07786692 -0.030008752 0.081436545 0.040255778 -0.0491498 0.05428095 0.12632021
-0.019211734 -0.05179673 -0.012439859 0.105470374 -0.13022256 -0.053261694 -0.026853671 -0.023376632
-0.094934404 0.06573763 0.019441273 0.022126323 0.08931762 -0.14910571 0.1310978 -0.047287107
0.15106352 -0.05135822 -0.12669921 -0.016245827 -0.10714568 -0.04537026 -0.018219838 0.022934953
-0.09278962 0.11126632 0.09838333 -0.08597104 0.023746481 0.031981196 -0.047307517 -0.04206682
-0.0033582752 0.04628585 0.16626723 0.05661104 0.084225155 0.0006118791 0.009509903 -0.08882366
-0.015995564 0.066489935 0.10858397 0.015478502 0.091478415 -0.01750735 0.13698599 -0.0763234
0.11564479 0.12744175 0.10702862 0.06297733 0.15276898 -0.0013874953 -0.027687855 0.113413155
0.10412406 0.11529898 0.035989087 0.058059186 0.16745584 -0.056310844 -0.105985336 0.026944853

bin_context_vector f4 [64, 1]
00000000: e478 ab3a 70d9 acbc 9dd1 933d 1c09 c33d
00000010: 09a9 3dbd b1b5 d1bd 1db4 c63d e3e6 213d
00000020: 9db3 3bbd 9796 993d 28a4 10be bf10 9cbd
00000030: 904b f33d 6ae1 c63d 6480 ec3b eef3 85bd
00000040: 81b4 3c3d 5886 103e 1be3 f2bb 3a91 d13c
00000050: e723 e83b dacc 33bd b6e2 173e 0ad9 fbbc
00000060: 3a8a 293d 86a8 b4bc feb6 3abc e8ae a2bd
00000070: 0313 8dbc 9595 9dbd 2868 a4bd 0943 d73b
00000080: 225d c8bd 39fc 093d 6cd6 1e3e 9815 33bd
00000090: ce0f 06be db64 7dbd 3960 423d 0486 883d
000000a0: a202 ba3c 1e5f 21bc e5c5 923d 4e72 43bd
000000b0: 931d 283d 55fe 0ebe dd23 3a3d e025 d43d
000000c0: 1b9b 41bc c9a2 a5bd b97a 15be 8803 043e
000000d0: 3c48 a9bc 6ddf 453d f353 bcbd f298 b93c
000000e0: 182c d5bd 8d88 883d 37ac 233d 77fc c03c
000000f0: 578d 223e 5dbb b23c 7637 28bd bd16 98bd
0.0013082293 -0.021099776 0.07217715 0.09523222 -0.046303783 -0.10239733 0.09702323 0.03952683
-0.04582559 0.07499426 -0.1412512 -0.076203816 0.11879647 0.09710963 0.007217454 -0.065406665
0.04607058 0.14113748 -0.007412327 0.025581945 0.007084358 -0.043896534 0.14832577 -0.03074314
0.04139159 -0.022053014 -0.011396168 -0.07943517 -0.01722098 -0.07694546 -0.08027679 0.0065692705
-0.09783389 0.033687804 0.15511483 -0.043721765 -0.13091967 -0.06186376 0.047455046 0.066661865
0.022706334 -0.009849338 0.07166652 -0.04771643 0.04104383 -0.13964207 0.04544436 0.103587866
-0.011816765 -0.080876894 -0.14597596 0.12891972 -0.020664327 0.04830878 -0.091956995 0.022655938
-0.10408801 0.0666667 0.03995916 0.023557885 0.1587423 0.021817857 -0.041068517 -0.07426212

weight_ih_l0 f4 [128, 1]
00000000: 427c f53a 306d 63bc da8c 953d 55a5 9fbd
00000010: 09ec 763d 04b9 1a3d f94e c83d 4d17 d63d
00000020: e438 9c3d ae97 52bc d759 9d3d 1837 6fbd
00000030: 6eb6 be3d ab04 f83d 2a16 b93d 5e08 723d
00000040: caef 38bc 760e 48bd fad7 523c 0662 4bbd
00000050: 55a1 533b 98da 833c 22b2 67bc 2cc0 82bc
00000060: 5b5b 793c c11a 673d 8bd1 d13d d4ec d83d
00000070: d308 23bd a5ad fd3d ec66 bf3c 7737 dfbd
00000080: ba3f 0f3e a968 293c b4a2 253c d50f 47bd
00000090: a6f2 53bd c03c 8f3c 9a33 013e d24d f5bc
000000a0: 45cf f43d a6d1 173e 2743 783d c871 6abd
000000b0: 616d c53d 8fed d33d 06b2 573c 9f8f 03bd
000000c0: 562f de3d 817a ee3d 3e1a fc3b 610e fc3c
000000d0: 4591 0b3d 024a 52bd daa4 12bc 4bd6 ca3b
000000e0: 0d98 bfbd fb08 e83d 2802 f23d db40 af3d
000000f0: 957a de3d bf50 d83c ae95 a83c 6cb1 91bc
00000100: d9ee 373c 5464 023e 6155 de3b 7bde 653c
00000110: 2e6d 88bc a9a5 7e3d 8334 7bbc 12ed f83d
00000120: 022c e9bd 7c8a be3d d05f 1ebd a4b5 02bd
00000130: 4a4c 5b3d 55eb 713b 0f24 313c 3304 1fbd
00000140: 4ee5 833d 8d4a 103d 6a19 0f3e 6318 0fbd
00000150: bd90 5f3d 94e0 753c 4a7a 893d 42d6 853d
00000160: 8c9a 643c 6f3a d23d 66d9 b5bd 74ce b83d
00000170: 7c98 173e 0eba 91bd 516b bd3d b5f6 d23c
00000180: 3854 9eb7 9217 17bc 49e8 063e 56a0 dd3c
00000190: 2b3c cf3d 6323 dfbc 2301 a1bc 7880 883d
000001a0: c7b0 03bd 5046 163e dadf 953d 5d4a 073d
000001b0: ad40 b53c 7dca e33d dd75 87bb 80e0 093e
000001c0: 1348 a4bc 29c6 703d a5b9 883c fe54 d538
000001d0: 135c 453d e8e1 043c 97bb 7a3d 3ef3 9a3d
000001e0: 93be a7bd 1df4 023e 2c0c f63c 91ad 903b
000001f0: 0957 0b3e c097 c33b b413 713d 50b3 4cbd
0.0018729048 -0.013881013 0.07302256 -0.077952065 0.060283694 0.0377741 0.09780688 0.10453663
0.076280385 -0.012853546 0.07683151 -0.05840215 0.093121395 0.12110265 0.090374306 0.05909001
-0.011287639 -0.048841916 0.012868876 -0.04965403 0.0032292206 0.016095445 -0.014141591 -0.015960775
0.015219535 0.056422 0.10245045 0.105920464 -0.039803337 0.12386636 0.023364507 -0.10899251
0.13989154 0.010339894 0.010109592 -0.048599083 -0.05174508 0.017485023 0.1261734 -0.029944334
0.11953596 0.14826068 0.060610916 -0.057237417 0.09640003 0.10348045 0.013165003 -0.03211939
0.10848872 0.116444595 0.007693558 0.030768575 0.034074087 -0.05134011 -0.0089504365 0.0061900965
-0.09355173 0.11329838 0.118168175 0.08557292 0.108632244 0.02640569 0.020579185 -0.017784797
0.011226379 0.12733585 0.0067850803 0.014030094 -0.016653623 0.062169705 -0.015332344 0.121545926
-0.11385347 0.093037575 -0.038665593 -0.031911507 0.05353955 0.003691395 0.01081182 -0.038822364
0.06440221 0.035227347 0.13974538 -0.034935366 0.054581393 0.015007157 0.06712778 0.06535007
0.0139528625 0.102650516 -0.08879356 0.09023753 0.14804262 -0.07115565 0.092489846 0.025752405
-1.8874285e-05 -0.009221928 0.13174547 0.027053993 0.10118898 -0.027238553 -0.019653862 0.066651285
-0.03215101 0.1467526 0.07318087 0.033029903 0.022125566 0.11122606 -0.0041339234 0.13464546
-0.020053899 0.05878273 0.016690085 0.000101724625 0.048183512 0.008110501 0.061214056 0.07565926
-0.08190646 0.12788434 0.0300351 0.004415222 0.1360742 0.0059690177 0.05885668 -0.049975693

weight_hh_l0 f4 [128, 32]
00000000: f265 e0bd 6689 533d c74e ea3d 2dba 8fbb
00000010: 95e4 3b3d 44d2 c4bc 96c1 bbbc dbee 773d
00000020: ac47 153c 62d1 38bc 14dd b0bd a4f9 51bc
00000030: f22d 513d 3cd9 c93c 8849 9d3b 3bdf 0dbe
00000040: 2103 c73d 1014 073d 9dc8 533d 7d45 2ebd
00000050: ca2d 4b3d ebb0 f0ba bd7d e93c 6c13 d53d
00000060: 6881 a3bd d2c6 4e3c 15c0 ebbc 8ba2 b03d
00000070: 6273 8d3d e6a5 8abc 9e2c a93c 3bcd cebd
00000080: 2f4f 99bd 2a97 b03d 89e3 c5bc bd3a 853d
00000090: 1db8 a03d 6078 083e 4f17 033d c83c 2abc
000000a0: 0f91 bebc 2912 84bc 8313 17be 5346 533d
000000b0: cca9 1a3e 0bb6 42ba 04cf 1d3e a4be c13c
000000c0: 9a02 043e f946 093d 9223 a8bc 85cd 03be
000000d0: 4f0a b43c e596 90bd 353a b83c 9c8e dabb
000000e0: f0cc bbbd e23c 733a a31a 573b cddf 6e3d
000000f0: 237b 22bc 2e22 d43c 84f3 00bd a861 9cbd
00000100: 820e 56bd 9525 2abc 6d9e 133e ced8 b7bb
00000110: d0f7 65bd 4e91 5abd eedf 99ba 8ce8 fc3c
00000120: a908 2b3d 1b9f f8bb 389f 16be 5787 bebd
00000130: f963 6e3c 1a30 e0bd 8d98 b43c 2ff5 c1bd
00000140: a23b 153d 93ea f83d e3c7 663d 3a8e 12be
00000150: 80eb 6fbd 5cfe c63c b8b4 6b3d 813f 063e
00000160: 4cda 5d3d e2ba f53c af66 0abd ff4f a53d
00000170: f666 063e e8e1 9dbd 6367 febb ebd3 3fbd
00000180: 0bed 8e3c 3608 3c3d 0baf 4fbd 25ad 883d
00000190: 5cc4 0f3e 0d57 cebd 8b7e 81bd c151 1d3d
000001a0: ce0c 8abb 58f9 073d 026c 32bd 1f69 9fbd
000001b0: 3000 e3bc c76b cfbd a50c 82bd 97df 6dbd
000001c0: fe36 64bd 74e4 cf3d 9a40 45bd af35 a7bc
000001d0: 3bd4 163e 62f2 febd 9619 15bd d217 99bd
000001e0: 9ee5 093e ef96 06bd 0b2e 153d 9234 88bd
000001f0: f6ef a6bd fffb 603d b95b 19bd b97c 473d
00000200: ed52 f43b d473 d33d feba dc3d b071 d53d
00000210: 7b3a a33d 17d7 8abd 775c de3d c99c c73d
00000220: b021 e5bd 6a29 7a3a 236f 7dbd 8d7e 1dbc
00000230: cd1c fb3d a4b6 64bd 35b7 e0bc 4670 2e3d
00000240: 1b88 a63d e004 143e aaa4 073e 77a4 02be
00000250: 00ff c83d 60f8 fbbd 5360 fb3d 6ee2 143d
00000260: fa6d 1f3d 9ce1 afbc de2b 9cbd 7e65 be3d
00000270: c46f 453c 5eb3 bcbc 6a56 883d 3f34 20be
00000280: 476a c0bc 19a0 0cbe d4bd f1bd 08c5 d93d
00000290: 7c75 653d be4e 4e3c 9e26 0abe 553e d4bd
000002a0: 1568 083e 99fd cebc f4ff 813d 3d0a cbbc
000002b0: fd18 f3bb 1417 173c 4c49 7bbd adae f73c
000002c0: 77ec 413c 17c3 193d 9c02 8abc 63e1 d8bc
000002d0: 3c60 9fbc 8a84 9ebd 2e9f c0bc e797 a0bd
000002e0: 29c7 c1bc 2911 9cbd 29ee 0c3e e211 d8bd
000002f0: abdc 10bb ab6a 503d 0cac 853d feae a1bd
00000300: a54c 0bbe 3dbf 063e ade6 883c c7f8 e63c
00000310: 6c94 893c abbb 243d 225f 1b3b 3f65 ce3c
00000320: 8b1e babd a9e6 83bb b4f4 05be c82e c3bd
00000330: ecca 163d 853f b7bc 1170 edbc 0e41 c93a
00000340: 8ec0 1c3e 8cdb d3bc c95f 1f3d 72d8 0dbe
00000350: 08b3 393d f109 b33d 57fd 563d 9349 d73d
00000360: a496 b53d 6ba3 bd3d 322d 26be 8f99 e83d
00000370: 5c79 e33c 4e3d 85bc 3d3e 233b 6aaa abbc
00000380: 5ce2 9fbd 2121 9b3b 2cc8 e73d a045 6b3d
00000390: 38db ae3d 8950 d0bc baff af3c a303 943c
000003a0: 5694 d43c 5b87 ce3d 7993 95bd f8d6 32bd
000003b0: de01 553d 8dbd e0bc ba9a 6fbc 37bb 9fbd
000003c0: ffaa 653c 16af cc3d 890a 083e a20c 99bc
000003d0: bff6 563d fb13 e0bd e96a 5cbc f608 183e
000003e0: faa3 11bd fd4f d43d fbd3 15be 172f 58bc
000003f0: fa2c b53d b7ee e5bd 62f6 a23d 107d 1a3d
-0.109569445 0.051644705 0.11440807 -0.0043862076 0.04587229 -0.024026044 -0.022919457 0.060530525
0.009111326 -0.0112803895 -0.08635917 -0.012815867 0.051069207 0.024639718 0.0048000254 -0.13854687
0.09717394 0.032978117 0.05170499 -0.042546738 0.049604215 -0.0018363273 0.02850234 0.10404095
-0.07983667 0.012620645 -0.028778115 0.086247526 0.06906773 -0.01692481 0.020651158 -0.10097738
-0.07485806 0.08622582 -0.024156349 0.06505344 0.07847617 0.1332717 0.03200465 -0.010390468
-0.023262529 -0.01612194 -0.14753537 0.05158074 0.15103835 -0.0007427639 0.15411001 0.023650475
0.12891617 0.03351495 -0.020524774 -0.12871368 0.021977572 -0.07060031 0.022488693 -0.0066698324
-0.09169948 0.00092787866 0.0032822273 0.0583189 -0.009917053 0.025895204 -0.031482235 -0.07635814
-0.05225993 -0.010384937 0.14415903 -0.005610562 -0.056144536 -0.05336123 -0.001173971 0.030872606
0.041756306 -0.007587326 -0.14709175 -0.09303158 0.0145502025 -0.10946675 0.022045398 -0.09470593
0.036433823 0.121541165 0.05634297 -0.14312068 -0.0585742 0.02429121 0.057545394 0.13110162
0.054163262 0.02999634 -0.033789333 0.08071899 0.13125214 -0.07709104 -0.0077637895 -0.04683296
0.017447015 0.045906268 -0.050704043 0.0667365 0.14039749 -0.10075197 -0.06322964 0.038408045
-0.004212952 0.033196777 -0.043560036 -0.07783722 -0.02771005 -0.10127979 -0.06350068 -0.05807456
-0.055716507 0.10150996 -0.048157312 -0.02041134 0.14729397 -0.124485746 -0.036401354 -0.074752465
0.13466498 -0.032858785 0.036420863 -0.06650652 -0.08151238 0.054927822 -0.03744099 0.04870293
0.0074561746 0.10324827 0.107778534 0.10422075 0.07970139 -0.067793064 0.1085748 0.09746701
-0.11188066 0.00095429143 -0.061873566 -0.009612692 0.12261353 -0.055838242 -0.02743111 0.04258754
0.08131429 0.14454985 0.13246408 -0.12758051 0.098142624 -0.12303233 0.12274232 0.036348753
0.03892324 -0.021469884 -0.076255545 0.09296702 0.012050573 -0.023034748 0.06657107 -0.1564493
-0.023488177 -0.13732947 -0.11803785 0.10633284 0.056020245 0.012592016 -0.13491294 -0.103634514
0.13320954 -0.02526741 0.06347647 -0.024785155 -0.0074187503 0.009221811 -0.0613492 0.03023466
0.011836163 0.037539568 -0.016846947 -0.02647466 -0.019455068 -0.077401236 -0.023513403 -0.07841473
-0.023654537 -0.076204605 0.13762726 -0.10550286 -0.0022104185 0.050882977 0.06526956 -0.07894705
-0.13603456 0.13158889 0.016711557 0.028194798 0.016794406 0.040218037 0.0023707827 0.025194762
-0.09087857 -0.0040252996 -0.13081628 -0.09530407 0.036814615 -0.022369156 -0.028984101 0.0015354471
0.15307829 -0.025861524 0.038909707 -0.13852099 0.045336753 0.087421305 0.052487697 0.1051208
0.08866623 0.09259685 -0.16228178 0.11357414 0.02776783 -0.016264584 0.0024908923 -0.020955283
-0.078068465 0.004734174 0.11317477 0.057439446 0.085379064 -0.025429027 0.021484245 0.01806814
0.025949638 0.10084411 -0.07303519 -0.04366204 0.052003734 -0.027434135 -0.014624292 -0.0779938
0.014017819 0.099943325 0.13285269 -0.018682782 0.05248141 -0.10941311 -0.013453224 0.14847168
-0.03555677 0.10366819 -0.14631645 -0.013194821 0.08846469 -0.11227172 0.0795715 0.037716925

bias_ih_l0 f4 [128]
00000000: a9b5 b13d 7c3b 913c 6ecc b93d 7284 9fbd
00000010: fc65 2ebc 3b10 01be dd81 aa3d b1bc aebc
00000020: 305c 2bbd 4bbd 943c e8b6 ed3d 4a58 ae3d
00000030: e63a d6bb 8fbb ef3d 56dd b03d 12cb db3d
00000040: a3c9 9f3b 5095 9ebc 6dcb c83d 0b57 31bd
00000050: e535 73bd b9c2 63bd 881f f43c 36ef 5fbc
00000060: 85ad 39bd b2e4 ce3d 1929 843d 571d 143e
00000070: 8522 e43d 6499 b83d 37aa 9dbd 3606 c53c
00000080: 4d6d b33c 0261 cd3d b0b1 b4bc 42df c1bc
00000090: 49e0 8d3d 37ee 4ebc 27a1 983d e4a6 d73d
000000a0: fd81 2b3d 0096 96bc 53fd 783d 2fcd 743d
000000b0: 8a7a 133e ce04 073d c179 273e 28ab c43d
000000c0: 00d9 1c3d dd1f c53d 2a00 10bb 2997 863b
000000d0: e0e9 be3d f569 eb3d fcc6 ae3c 0fc0 3b3d
000000e0: 7736 87bd 5b0d 613d d5cf 963d f501 863c
000000f0: 3869 563d a347 ff3c 6462 253d c6a8 6f3d
00000100: c587 17be c88d d03d 468b e33c 9256 8cbb
00000110: 565a b83d 3058 f03c d405 dd3d a3ad 203e
00000120: 8c82 8e3b efcc 223e a68d ffbd dd6d be3c
00000130: 153b 3d3d 8445 dfbd 9e21 863d 29f4 dcbd
00000140: c935 cf3d 5557 fe3d e305 f53d bf81 f1bd
00000150: 1869 e63d 9107 94bd 3f10 1c3e 23f9 0b3e
00000160: f051 62bd 3641 d33d d45e d4bd f44d 0e3e
00000170: 1272 bf3d 7ce0 0abe d13f 623c 8bb0 183d
00000180: 0bd2 f53d 54b4 9e3d 3aca 39bc 2848 72bd
00000190: a8e9 ac3c 3541 203d dd2b 66b9 9d73 963d
000001a0: aef3 2b3d d8b0 ec3d f54a 8dbc 21d6 393d
000001b0: 7a11 183e 9232 293e d1be 323d 093e 34bc
000001c0: 2d3b f53b 9918 3a3d 8fab 933d 2a0f a93d
000001d0: 7b2d 3dbd 52ba 5cbc 0599 ad3c 0720 a43d
000001e0: 4091 34bc 29f5 9b3b 8ccf f53d fc48 173e
000001f0: c053 853d 4720 7a3d 6e5e 14bc d8ab 223c
0.08677227 0.01772856 0.09072195 -0.07788934 -0.010644432 -0.12603848 0.08325551 -0.02133021
-0.041835964 0.018156668 0.11607152 0.085129336 -0.006537783 0.11705696 0.086359665 0.10732092
0.004876332 -0.019358307 0.098044254 -0.0432959 -0.05937757 -0.055605624 0.029800192 -0.013667872
-0.045331497 0.10102214 0.06453151 0.14464317 0.111393966 0.09013632 -0.076984815 0.024050813
0.021902705 0.100282684 -0.022057384 -0.023666028 0.069275446 -0.012630037 0.07452612 0.10529879
0.041872013 -0.018382072 0.060788464 0.05976599 0.14402214 0.032963566 0.16355039 0.09602958
0.038292885 0.09625218 -0.0021972754 0.004107375 0.09321952 0.11494819 0.021335118 0.04583746
-0.06602185 0.054944377 0.073638596 0.016358355 0.05234644 0.031162089 0.040377036 0.058510564
-0.14797886 0.101832926 0.027776372 -0.004282781 0.09001605 0.029338926 0.10792127 0.15691237
0.0043490585 0.15898488 -0.12478189 0.023245746 0.046198923 -0.10901931 0.06549381 -0.10788757
0.101176806 0.12419001 0.119640134 -0.11792325 0.11250514 -0.07228006 0.15240572 0.13669257
-0.055253923 0.103151724 -0.103696495 0.13896924 0.09347929 -0.13562196 0.01380916 0.03727774
0.12002953 0.077492386 -0.0113397185 -0.059150845 0.02110751 0.039124686 -0.0002195085 0.0734627
0.041980438 0.11557168 -0.017247656 0.045370225 0.14850417 0.16523197 0.043639008 -0.011001118
0.007483861 0.045433614 0.072104566 0.082548454 -0.04618595 -0.013472157 0.02119113 0.08013921
-0.011020958 0.00475945 0.12002477 0.14773935 0.06510115 0.06106594 -0.009055717 0.009928666

bias_hh_l0 f4 [128]
00000000: e121 3d3d 2839 c33d 2aee bc3c 2551 d63d
00000010: 0a43 be3d a9df c4bd 2d20 203e 9259 783d
00000020: 942d 9abb 7081 2d3d de36 f5bc 3f73 9f3d
00000030: 7252 e1bb ce0b 1f3e 7c09 1b3e 4caf f23c
00000040: 4f84 523d 757c bb3d 77eb 653c f655 ca3c
00000050: 0d21 bc3b cdbd a33c ef67 213e 5822 983d
00000060: 72d0 743d df6b a73d 6cc4 4bbc c6e9 1bbd
00000070: 5e39 133e 77ca e7bc 0de9 fe3c f72b f33c
00000080: a61d 273e 0054 72bc 4ebe 093e 3409 ca3d
00000090: 81a7 4e3d 2774 8bbb a8c3 f9bc 65e8 c63d
000000a0: 4e65 0e3e c8bf e33d ed7f a73c ac0a a63d
000000b0: fee4 763d 155f 233e 5d96 9a39 14bd 1b3e
000000c0: dadc 1ebc fb10 d53c 3671 b83d 4ed7 1f3d
000000d0: 1264 043e add0 8dbd 4520 403d 9a1c 013d
000000e0: aa29 abbd 1e09 093e f3c6 3d3c d49f f03d
000000f0: 238b 2f3d bbde 013e 70f5 1b3d 1c5e c4bd
00000100: 7b07 ebbd 34b5 593d 2ee0 c33d f4d4 71bb
00000110: dc8c a5bc 8828 473d 62f3 0a3e 6599 0c3c
00000120: 11f8 12be 07f6 043c ef3b a1bd ba61 cabc
00000130: 362e 8d3d 7e2b 60bd 2afa eb3d c91f a4bb
00000140: f61e 2a3d f3d0 973c fc92 8a3d 1eef b6bd
00000150: 6f13 fabc 205a ac3c de2d 263d faae c03d
00000160: 3986 fb3b 0794 c23d 3fb1 1fbe 778a c13d
00000170: 2119 fc3d 839c 20be 6e0a a13d 2267 62bd
00000180: e370 2c3d 4d08 043e e397 023e 57c9 cb3d
00000190: ce38 963d 8156 71bd 48c3 323c 739e 5e3d
000001a0: 616d e9bc 3e24 213e 625a 213d d69e afbb
000001b0: c90c 9bbb af73 103e ddf8 da3d 4051 68bc
000001c0: 9d6e d13c 48b1 fd3d 37c7 0fbb 1852 0d3e
000001d0: 4edf 6cbd c8f1 7ebd 74ed ad3d cc4c 263c
000001e0: 1494 233d 0ecd b73d 0e08 1d3d 5aba 79bc
000001f0: 2beb 263e 57af e53d 58f1 f53b 2179 e3bd
0.046174888 0.09532386 0.023062784 0.10464696 0.092901304 -0.09612972 0.15637274 0.060632296
-0.0047051404 0.04235977 -0.02993339 0.07785653 -0.0068762833 0.15531847 0.15140337 0.029624604
0.05139571 0.09154598 0.01403319 0.024699192 0.0057412446 0.019987965 0.15762304 0.074284256
0.0597691 0.08174872 -0.012436967 -0.03806474 0.14377353 -0.028294785 0.031116987 0.02968405
0.16319904 -0.014790535 0.13451502 0.098650366 0.050452713 -0.00425579 -0.030488804 0.097122945
0.13905832 0.11120564 0.020446742 0.08107504 0.060276978 0.1595424 0.00029485198 0.15208846
-0.00969621 0.026009073 0.09005968 0.03902369 0.12928799 -0.06924567 0.046905775 0.031521417
-0.08357556 0.13382384 0.011583078 0.11749235 0.0428573 0.12682621 0.038075864 -0.095882624
-0.11476036 0.053151324 0.09564243 -0.0036900612 -0.020208769 0.048622638 0.13569406 0.008581494
-0.14352442 0.008115298 -0.078727596 -0.024704803 0.0689358 -0.054728977 0.115223244 -0.005008672
0.041533433 0.018532252 0.06766316 -0.08932327 -0.030526845 0.021039069 0.040571086 0.09408374
0.0076759127 0.0950089 -0.15594958 0.09450238 0.123094805 -0.15684704 0.078633174 -0.055274136
0.042099845 0.12893791 0.12753253 0.09950512 0.073350534 -0.058920387 0.0109108165 0.054350328
-0.028494539 0.15736482 0.039392836 -0.005359511 -0.0047317487 0.1410663 0.10691998 -0.014179528
0.02556544 0.12387329 -0.002193881 0.13800848 -0.057830147 -0.0622423 0.08492556 0.010150146
0.03993614 0.08974658 0.03833776 -0.015242184 0.16300647 0.11215084 0.007505577 -0.11107088
