Results/gm_k562/gm_k562_aux/gm_k562_aux_R2_model.pt (torch_old, 960937 bytes, 221 tensors)

weight_ih_l0 f4 [128, 1]
0.0036664666 0.011878261 0.011682627 -0.035131942 0.06812814 -0.06885792 -0.08803437 -0.069365785
-0.024747863 0.074976735 0.06498336 0.0967624 0.062196728 -0.094894625 -0.005562114 -0.077484384
0.07350532 -0.09119211 0.033418547 0.04546612 0.08399592 0.08580043 -0.009120401 0.0787988
-0.036761664 -0.043484546 0.03371689 0.08333602 0.0566441 0.089326076 0.01913403 0.04391204
-0.035398006 -0.0014061596 -0.052395944 -0.057562687 -0.012974939 -0.07510657 -0.018141847 0.09274237
0.062111683 -0.07084309 0.0014628333 -0.056488186 -0.07256984 0.045371912 0.018070485 0.012501307
-0.053692453 0.0073796315 0.033882026 0.06005843 0.051052727 0.026625978 -0.09768711 -0.089629985
0.063755654 -0.056523953 0.018814996 0.03786736 0.06727709 -0.07780298 0.07745543 -0.017165305
0.06814109 -0.093932696 0.07931501 -0.042436976 0.08038887 -0.08778987 0.011130303 -0.062934555
-0.09722916 0.099739864 0.0509303 0.034984592 -0.08355077 -0.009443597 -0.039995976 0.06672512
-0.0268545 -0.09365425 -0.044512648 0.09298759 0.051870134 0.07899435 -0.040010117 -0.0458673
0.076404676 0.013315415 -0.013414268 0.033684015 -0.057036724 -0.0249577 0.105125226 -0.024453746
-0.07519911 -0.071069844 -0.06793238 -0.015717395 0.023036923 0.06683094 0.048219 0.044902902
0.030561764 0.070958085 -0.08251368 0.04899348 0.058387194 0.06145034 0.039618935 -0.09786008
-0.0057044174 0.024026217 -0.00878773 -0.095474206 -0.030108161 0.017162278 0.047356766 0.02801383
0.044877723 -0.04228294 0.05353054 -0.07961892 -0.07776099 -0.009658567 0.10463842 0.06791717
00000000: 1a49 703b 0a9d 423c 7d68 3f3c 83e6 0fbd
00000010: c486 8b3d 6205 8dbd 5d4b b4bd a60f 8ebd
00000020: 08bc cabc 678d 993d ff15 853d 5d2b c63d
00000030: ffc1 7e3d 1d58 c2bd 6542 b6bb 22b0 9ebd
00000040: f589 963d eec2 babd e3e1 083d af3a 3a3d
00000050: 0e06 ac3d 23b8 af3d bc6d 15bc 4461 a13d
00000060: 6693 16bd da1c 32bd b91a 0a3d 13ac aa3d
00000070: a503 683d 97f0 b63d f8be 9c3c 1cdd 333d
00000080: 80fd 10bd e34e b8ba 219d 56bd dac6 6bbd
00000090: d794 54bc 79d1 99bd 369e 94bc b6ef bd3d
000000a0: d268 7e3d 2f16 91bd 8abc bf3a 2860 67bd
000000b0: 7f9f 94bd e6d7 393d 8e08 943c 48d2 4c3c
000000c0: 9eec 5bbd d6d0 f13b e1c7 0a3d d4ff 753d
000000d0: aa1c 513d b91e da3c 2e10 c8bd ed8f b7bd
000000e0: 5392 823d a985 67bd e821 9a3c ce1a 1b3d
000000f0: 92c8 893d 2b57 9fbd f4a0 9e3d 419e 8cbc
00000100: 8e8d 8b3d c95f c0bd e86f a23d 65d2 2dbd
00000110: eba2 a43d 2dcb b3bd e05b 363c d5e3 80bd
00000120: 1520 c7bd 6a44 cc3d 4a9c 503d 014c 0f3d
00000130: ab1c abbd 51b9 1abc d2d2 23bd 2ea7 883d
00000140: f8fd dbbc cdcd bfbd e552 36bd 4770 be3d
00000150: c775 543d cac7 a13d a6e1 23bd 5adf 3bbd
00000160: 0e7a 9c3d e628 5a3c 85c7 5bbc 40f8 093d
00000170: 579f 69bd 1774 ccbc e54b d73d 3953 c8bc
00000180: fe01 9abd 118d 91bd 2220 8bbd c4c1 80bc
00000190: eeb7 bc3c a9de 883d 4981 453d 1bec 373d
000001a0: aa5c fa3c 7952 913d effc a8bd 63ad 483d
000001b0: 6927 6f3d 5ab3 7b3d 7747 223d de6a c8bd
000001c0: 1fec babb a1d2 c43c 69fa 0fbc fb87 c3bd
000001d0: 64a5 f6bc e897 8c3c 2bf9 413d 427d e53c
000001e0: b4d1 373d e030 2dbd d742 5b3d 3f0f a3bd
000001f0: 2741 9fbd f73e 1ebc ab4c d63d 2818 8b3d

weight_hh_l0 f4 [128, 32]
0.022973979 0.040904365 -0.047581725 -0.023350662 0.07633201 -0.05635667 -0.06494492 -0.015666312
-0.09235151 0.031465504 -0.042761706 0.073650695 -0.09225771 -0.079722 0.063775875 -0.041907288
0.036363687 0.089790344 -0.060335156 0.05436637 -0.032182913 0.006850016 0.05912378 -0.019457117
0.022913128 -0.09904651 0.07093136 -0.071072794 0.06656191 -0.052264646 -0.071777664 0.044903107
-0.051301803 0.046728186 -0.023087647 0.072734736 0.04796206 -0.0004668343 -0.09465777 -0.071577206
-0.051123474 -0.050709028 0.06885095 -0.043135323 0.0859892 -0.018345026 0.06519175 0.09676988
-0.081380315 -0.040681772 0.065288335 0.019387402 -0.092044204 0.014786786 -0.00027051402 0.03748136
-0.07353768 0.051831767 -0.009811552 -0.022691062 0.0058728373 0.06059687 -0.011609798 -0.050247725
-0.0941637 0.00096828357 0.030148301 -0.09020495 -0.0071876063 0.034764845 0.034300923 -0.0845066
0.023001775 0.07073299 -0.080783114 0.09199465 -0.038967066 -0.029751528 0.05434842 -0.03633806
-0.081172906 -0.026600318 0.07547206 0.032945782 -0.005683375 -0.020537002 0.061520193 0.07289092
-0.061309356 0.015646206 -0.079955 -0.0029557568 -0.02738218 -0.007489944 -0.041237526 0.018682308
-0.017742522 -0.07775206 0.07353625 0.06842585 0.0016211853 0.07297829 0.032205664 -0.0562422
0.058373038 0.01408368 -0.06275913 -0.025387634 0.020584093 -0.0923749 -0.030654304 -0.09591593
-0.07771864 0.077296734 0.018590245 0.0043816054 0.096173674 -0.07280832 0.012473307 0.046742987
-0.057238035 -0.09022141 -0.04577334 -0.08257042 -0.049791913 -0.03286507 -0.045602392 0.09824054
-0.011533848 0.084083475 -0.039967373 -0.096460745 0.01718737 0.067970484 0.018940423 -0.096462145
-0.025128732 -0.09340781 0.011473815 -0.048340328 -0.08523139 -0.026866533 0.035337247 0.05351465
0.025679545 0.05300313 0.086108826 -0.00470491 -0.034114443 -0.052759003 0.011640846 0.088054344
-0.08148355 -0.09008936 0.054426383 -0.012041804 -0.052124824 -0.05830681 0.07131485 0.030383013
0.0005158505 0.0077064545 -0.0007223275 -0.014238427 -0.001785036 0.0044942456 0.0058750897 0.094287276
-0.07611516 0.042173013 -0.036101 0.05022996 -0.010654056 0.054509632 0.04212411 0.010187359
0.035062134 -0.044747222 0.08803105 -0.030982068 -0.092371546 -0.008361703 0.024316115 0.0661012
-0.06736339 -0.073936634 -0.075945094 -0.04538816 -0.02998161 0.004562891 0.05440817 -0.06512185
-0.0623324 -0.010002967 0.02846948 0.020042123 0.0030769198 0.08261823 -0.058831926 0.009294931
-0.048949603 0.057165693 0.055032264 0.00076261256 -0.0015658374 0.08389935 -0.048798583 -0.015773524
-0.054536898 -0.056643788 -0.0204436 0.09643311 0.012725863 -0.053094868 -0.080346085 -0.09708811
-0.064795196 -0.041538585 0.0067681554 -0.0007011042 -0.07298163 -0.09269563 -0.054343667 -0.08297769
0.067371465 -0.0190964 -0.044850383 0.09548784 0.046315666 0.093343325 -0.004344263 -0.09378106
0.043649707 -0.09171628 0.011628391 -0.0845601 0.037397534 -0.053702645 -0.013614028 0.021497281
-0.08722917 0.03380521 -0.072016425 -0.03550101 0.07379182 0.007831277 -0.05830574 -0.06340332
-0.079145476 0.016871033 -0.04934223 0.06617725 0.046050053 0.08894468 -0.092747025 -0.054167796
00000000: ed33 bc3c 568b 273d 0ee5 42bd e349 bfbc
00000010: f553 9c3d 40d6 66bd d801 85bd a356 80bc
00000020: ca22 bdbd f9e1 003d e626 2fbd 2dd6 963d
00000030: 9cf1 bcbd 4a45 a3bd ed9c 823d faa6 2bbd
00000040: 17f2 143d 00e4 b73d ff21 77bd 45af 5e3d
00000050: 3bd2 03bd 1976 e03b c72b 723d 8864 9fbc
00000060: 50b4 bb3c e6d8 cabd 7644 913d 9d8e 91bd
00000070: 9c51 883d 7413 56bd 2b00 93bd 52ec 373d
00000080: d721 52bd 0e66 3f3d 4e22 bdbc f3f5 943d
00000090: dd73 443d 70c1 f4b9 efdb c1bd 1297 92bd
000000a0: d966 51bd 45b4 4fbd ba01 8d3d aaae 30bd
000000b0: 1b1b b03d 4f48 96bc 4183 853d 492f c63d
000000c0: b9aa a6bd eea1 26bd e4b5 853d 54d2 9e3c
000000d0: ac81 bcbd 4744 723c c7d3 8db9 0e86 193d
000000e0: ec9a 96bd 8c4d 543d a2c0 20bc 9be2 b9bc
000000f0: ee70 c03b 6c34 783d 0637 3ebc 8fd0 4dbd
00000100: e6d8 c0bd 69d4 7d3a 92f9 f63c 5fbd b8bd
00000110: 0386 ebbb 9565 0e3d 207f 0c3d cc11 adbd
00000120: 386e bc3c 75dc 903d 9e71 a5bd b167 bc3d
00000130: ee9b 1fbd 7ab9 f3bc 739c 5e3d 38d7 14bd
00000140: fb3d a6bd e9e8 d9bc 1891 9a3d 28f2 063d
00000150: 9b3b babb 373d a8bc 99fc 7b3d d647 953d
00000160: 851f 7bbd 792c 803c 72bf a3bd 5fb5 41bb
00000170: 9850 e0bc 346e f5bb aee8 28bd a40b 993c
00000180: c458 91bc 793c 9fbd 2c9a 963d da22 8c3d
00000190: f47d d43a a475 953d 16ea 033d 395e 66bd
000001a0: 9118 6f3d 3cbf 663c dc87 80bd baf9 cfbc
000001b0: f99f a83c 0d2f bdbd bc1e fbbc 926f c4bd
000001c0: f32a 9fbd c04d 9e3d 924a 983c 9293 8f3b
000001d0: b4f6 c43d 871c 95bd d75c 4c3c 9375 3f3d
000001e0: 6e72 6abd 01c6 b8bd d37c 3bbd ae1a a9bd
000001f0: 9bf2 4bbd 869d 06bd 93c9 3abd 5632 c93d
00000200: 77f8 3cbc f533 ac3d d4b4 23bd 368d c5bd
00000210: 87cc 8c3c 1c34 8b3d f228 9b3c f28d c5bd
00000220: c5da cdbc 984c bfbd abfc 3b3c 8200 46bd
00000230: cc8d aebd 3417 dcbc cabd 103d 2d32 5b3d
00000240: e95d d23c cf19 593d d359 b03d a52b 9abb
00000250: 96bb 0bbd d319 58bd 3fb9 3e3c d655 b43d
00000260: d9e0 a6bd c580 b8bd 33ee 5e3d fd4a 45bc
00000270: d780 55bd 1fd3 6ebd 850d 923d cce5 f83c
00000280: 243a 073a 6d86 fc3b 945a 3dba 4b48 69bc
00000290: def7 e9ba 7744 933b d383 c03b b019 c13d
000002a0: 44e2 9bbd 9cbd 2c3d a4de 13bd eebd 4d3d
000002b0: 5a8e 2ebc 7e45 5f3d 558a 2c3d e1e8 263c
000002c0: 509d 0f3d dd48 37bd a049 b43d 1bce fdbc
000002d0: 4b2d bdbd 86ff 08bc 9732 c73c 1160 873d
000002e0: d1f5 89bd 176c 97bd 1a89 9bbd efe8 39bd
000002f0: fe9b f5bc 4e84 953b 1adb 5e3d 9b5e 85bd
00000300: 4250 7fbd 7ce3 23bc d438 e93c 612f a43c
00000310: 26a6 493b bf33 a93d bff9 70bd c449 183c
00000320: 617f 48bd 9326 6a3d 8369 613d 10ea 473a
00000330: c93c cdba 6cd3 ab3d 06e1 47bd 7a37 81bc
00000340: 1562 5fbd 5103 68bd 5679 a7bc b97e c53d
00000350: 2380 503c 017a 59bd 7d8c a4bd 22d6 c6bd
00000360: 58b3 84bd 5d24 2abd 67c7 dd3b 4eca 37ba
00000370: 6577 95bd 35d7 bdbd 7797 5ebd 35f0 a9bd
00000380: 0dfa 893d 0e70 9cbc 09b5 37bd 218f c33d
00000390: 7fb5 3d3d c92a bf3d 525a 8ebb 4910 c0bd
000003a0: 09ca 323d bfd5 bbbd 0285 3e3c d92d adbd
000003b0: 282e 193d 4ef7 5bbd 5f0d 5fbc 111b b03c
000003c0: 35a5 b2bd 5577 0a3d 597d 93bd 8269 11bd
000003d0: 2a20 973d c24e 003c 00d2 6ebd 9ad9 81bd
000003e0: 0617 a2bd 1f35 8a3c 141b 4abd f087 873d
000003f0: fb9e 3c3d a128 b63d 27f2 bdbd 0ddf 5dbd

bias_ih_l0 f4 [128]
-0.04912948 0.056494698 0.03498917 -0.08270767 -0.026725212 0.03437985 -0.05007951 -0.061385673
-0.014837922 -0.06171285 0.06999722 0.0384702 -0.008799583 0.008662517 -0.060808897 0.053443108
-0.08274725 0.069975436 -0.041092258 -0.023739703 0.07216855 -0.03017452 -0.03731224 -0.06408644
0.029166063 0.054976854 0.01913367 0.020452801 -0.05967688 -0.072691485 0.034948725 0.09352827
-0.101177566 0.074680775 0.04099664 -0.02779514 0.012379642 0.08233517 -0.04512171 -0.0011262693
-0.08532254 0.004620353 -0.042892184 0.10010916 -0.0115978345 0.06854845 -0.027359461 -0.032487106
-0.040718712 0.022858828 0.08804607 0.01831256 0.07415078 -0.010233878 -0.0059031546 0.031984717
-0.038495407 0.09779671 0.03256064 -0.051654894 0.05149511 0.035389498 -0.022318048 0.020293307
-0.021449571 0.0006950498 0.07477912 0.044261318 0.029241512 -0.015280761 0.05362976 0.10366261
-0.04494041 -0.07594346 -0.03514627 0.022739246 -0.01717783 -0.0034950003 0.098049685 -0.064621665
-0.09200669 0.002259633 0.09182378 -0.099543594 -0.019259095 0.07219024 -0.045020755 -0.05044673
-0.10284384 0.057289615 -0.0529383 0.009339064 0.10455353 -0.06350341 0.09740215 0.066483125
-0.07126977 0.06114508 -0.05566719 0.09438586 -0.09772073 -0.073300645 -0.04650882 0.007317477
0.07627873 0.06616375 -0.027160639 0.034058493 0.0278571 0.060259473 0.0867229 -0.0699972
0.007372547 -0.10397377 0.08908672 0.09898192 0.0869561 0.09089666 -0.0852436 0.008783945
-0.09039805 0.008675079 0.068998605 -0.06863813 -0.06901897 0.0073904223 0.06822935 -0.028035516
00000000: fe3b 49bd fc66 673d ce50 0f3d a462 a9bd
00000010: d5ee dabc e3d1 0c3d 2c20 4dbd 8b6f 7bbd
00000020: c11a 73bc 9dc6 7cbd b45a 8f3d ee92 1d3d
00000030: 202c 10bc 3bed 0d3c c012 79bd 29e7 5a3d
00000040: 6477 a9bd 484f 8f3d 5b50 28bd c479 c2bc
00000050: 1bcd 933d 8e30 f7bc b8d4 18bd c03f 83bd
00000060: abed ee3c 692f 613d 37be 9c3c a28c a73c
00000070: be6f 74bd 46df 94bd 6526 0f3d c08b bf3d
00000080: 2f36 cfbd 3cf2 983d 18ec 273d a2b2 e3bc
00000090: fbd3 4a3c 579f a83d 8bd1 38bd 549f 93ba
000000a0: 95bd aebd 5566 973b b7af 2fbd 0806 cd3d
000000b0: d804 3ebc 2163 8c3d f320 e0bc 3311 05bd
000000c0: aac8 26bd 7042 bb3c 7f51 b43d 3904 963c
000000d0: 5ddc 973d ffab 27bc 406f c1bb 6802 033d
000000e0: 5cad 1dbd a449 c83d 4e5e 053d 1594 53bd
000000f0: 89ec 523d 94f4 103d 57d4 b6bc 263e a63c
00000100: 03b7 afbc 0134 363a cc25 993d 5b4b 353d
00000110: e58b ef3c 285c 7abc e1aa 5b3d 104d d43d
00000120: 6f13 38bd 3f88 9bbd 89f5 0fbd a847 ba3c
00000130: 85b8 8cbc 600c 65bb 46ce c83d 5d58 84bd
00000140: 016e bcbd 5a16 143b 1b0e bc3d 83dd cbbd
00000150: 40c5 9dbc 7ad8 933d af67 38bd 3ba1 4ebd
00000160: cb9f d2bd 84a8 6a3d d5d5 58bd e002 193c
00000170: 2920 d63d 130e 82bd c77a c73d 4e28 883d
00000180: e3f5 91bd 4373 7a3d 4803 64bd 604d c13d
00000190: ce21 c8bd a61e 96bd 0880 3ebd 72c7 ef3b
000001a0: 0638 9c3d dc80 873d fd7f debc eb80 0b3d
000001b0: 9334 e43c a3d2 763d c79b b13d b15a 8fbd
000001c0: 6895 f13b 33f0 d4bd 1973 b63d 08b7 ca3d
000001d0: 0a16 b23d 0728 ba3d 3294 aebd 89ea 0f3c
000001e0: 9d22 b9bd eb21 0e3c 244f 8d3d 2692 8cbd
000001f0: d159 8dbd 5b2b f23b d4bb 8b3d bdaa e5bc

bias_hh_l0 f4 [128]
0.01758163 0.04706815 -0.007072621 -0.02576041 0.005777476 -0.10417329 0.011244005 -0.036364947
0.038138065 0.052813124 0.0037671218 -0.06731237 0.008462004 -0.032911148 0.05244803 0.026920825
-0.018597592 -0.09152422 -0.034044843 -0.07141499 0.023790814 -0.002959076 0.08544894 -0.035309542
0.06638487 -0.044814423 -0.015465165 0.044563714 0.0011227138 0.08135941 -0.0886667 0.044281304
0.01544995 -0.03229982 0.03050157 -0.038995232 -0.031013552 -0.053682204 -0.020277299 0.098712616
-0.009956785 0.02609798 0.04991501 -0.042159375 0.024588145 0.02115656 0.0945947 0.055168074
-0.029581737 0.0825996 -0.06859526 -0.052127488 0.03139785 0.029075366 -0.07513277 -0.036645077
-0.07350961 0.044858884 0.09179033 0.0038211173 -0.0013512459 -0.07848528 0.09163854 -0.08483293
-0.018701082 -0.05474166 0.08739366 0.024166182 0.0293111 0.018319571 -0.022023894 -0.032680888
0.013515642 0.079354785 0.051841903 0.050631654 -0.051462613 0.060187787 0.0604202 -0.026690459
-0.02663881 -0.013939167 -0.009233635 -0.03950344 0.049937334 -0.029285269 -0.08927286 0.0490215
-0.0113391 -0.009487829 -0.051499363 0.07428574 0.04216493 -0.02759378 0.020958284 0.049135268
0.002214957 -0.063132435 0.041016325 -0.030452428 -0.084621534 0.06532278 -0.009300069 0.06500902
-0.01820558 -0.017969156 -0.09638056 -0.06670569 -0.068383634 0.04061046 0.015423246 -0.01589318
0.08755459 0.03783959 -0.074433476 -0.0063635604 0.069151595 0.059350144 0.053495493 0.049672622
-0.07217691 -0.08699771 -0.05306062 -0.04878175 0.105438784 -0.047899008 -0.04370239 -0.061794497
00000000: 5a07 903c 88ca 403d 72c1 e7bb 7f07 d3bc
00000010: fb50 bd3b ce58 d5bd c638 383c 69f3 14bd
00000020: a936 1c3d 9352 583d d1e1 763b 11db 89bd
00000030: 38a4 0a3c d7cd 06bd bfd3 563d 1089 dc3c
00000040: fa59 98bc 0d71 bbbd 9b72 0bbd 0642 92bd
00000050: f4e4 c23c 0fed 41bb dbff ae3d bda0 10bd
00000060: caf4 873d 548f 37bd 9a61 7dbc 7188 363d
00000070: 0628 933a c39f a63d e396 b5bd 5060 353d
00000080: c921 7d3c d14c 04bd 6ede f93c 77b9 1fbd
00000090: 2210 febc dfe1 5bbd 941c a6bc d729 ca3d
000000a0: c821 23bc 6ecb d53c ae73 4c3d 4faf 2cbd
000000b0: 146d c93c 8650 ad3c deba c13d ebf7 613d
000000c0: 6655 f2bc fb29 a93d ac7b 8cbd a283 55bd
000000d0: 089b 003d 762f ee3c 36df 99bd 2619 16bd
000000e0: 358c 96bd f3bd 373d 92fc bb3d b66b 7a3b
000000f0: 4a1c b1ba e4bc a0bd fdac bb3d e3bc adbd
00000100: 0333 99bc ca38 60bd 72fb b23d 28f8 c53c
00000110: d51d f03c ed12 963c 746b b4bc 65dc 05bd
00000120: b670 5d3c c384 a23d 2d58 543d 2363 4f3d
00000130: 76ca 52bd 7887 763d 2c7b 773d f3a5 dabc
00000140: a239 dabc 1b61 64bc ac48 17bc 5cce 21bd
00000150: 178b 4c3d a9e7 efbc b0d4 b6bd c5ca 483d
00000160: a2c7 39bc d772 1bbc fff0 52bd 1f23 983d
00000170: 22b5 2c3d 5a0c e2bc b5b0 ab3c 1042 493d
00000180: d028 113b 944b 81bd bc00 283d 5f77 f9bc
00000190: 0e4e adbd f3c7 853d 515f 18bc 7323 853d
000001a0: de23 95bc 0d34 93bc 2c63 c5bd fe9c 88bd
000001b0: b80c 8cbd 2757 263d c8b1 7c3c 6a32 82bc
000001c0: d24f b33d b0fd 1a3d 9470 98bd 6a85 d0bb
000001d0: 5a9f 8d3d 2319 733d 171e 5b3d 8575 4b3d
000001e0: 7dd1 93bd db2b b2bd 1856 59bd 5fcf 47bd
000001f0: 4af0 d73d c031 44bd 4701 33bd 3a1c 7dbd

weight_ih_l0_reverse f4 [128, 1]
-0.01072777 -0.032345336 -0.006776735 -0.02021043 -0.076536536 0.0076540797 -0.033467248 -0.030549966
0.028330415 0.05343136 -0.0062229643 0.092549175 -0.05576042 -0.04415498 0.078865424 0.091813885
0.045660038 0.04601378 -0.06069599 -0.058934253 0.0037029993 -0.101798795 0.061700232 0.009414553
0.036093563 -0.066693 -0.038923413 -0.06956968 -0.07805093 -0.021633357 -0.082887955 -0.01715409
0.08042016 0.08515495 -0.012412498 -0.03447114 0.024553921 -0.013876889 0.09041022 0.018501302
0.05932338 -0.0661708 -0.09467507 -0.019904347 -0.07809002 -0.038244743 -0.035930336 0.017831475
0.0737514 -0.03379469 0.04744323 0.01316371 0.005657579 -0.050415076 -0.030096883 -0.005312881
0.027453424 0.0678742 0.0787575 -0.014170301 -0.026110372 0.023255581 0.04434582 -0.06991404
-0.029931134 0.042881005 -0.03562353 0.02566322 0.074216574 -0.07676475 -0.0010885056 -0.03625332
0.04600822 0.06851742 0.07750346 -0.07086991 0.0932266 0.008134035 0.012398414 0.02679599
-0.09426484 -0.06785878 -0.04810939 -0.03802132 0.060174458 -0.015985213 -0.042266984 -0.045801006
0.015405074 -0.033154167 0.094588734 -0.024373125 -0.058199976 0.068395026 -0.091389015 0.083406046
0.038653225 0.02390029 0.040720195 -0.049291305 -0.038122375 -0.0853219 0.05408674 0.007441455
-0.10441236 0.070446976 -0.002828203 0.065825135 -0.0625068 -0.012488115 -0.06807248 0.002352573
-0.0021868665 0.03471647 0.038218345 0.006327668 0.06053359 0.035994712 0.07056219 0.050188184
-0.03595245 -0.07797231 -0.07360721 0.018794516 0.015630186 -0.05825408 0.094375186 0.08127475
00000000: 87c3 2fbc 8b7c 04bd 600f debb 5890 a5bc
00000010: 30bf 9cbd 13cf fa3b f414 09bd ec43 fabc
00000020: 3015 e83c d7da 5a3d 02ea cbbb 6c8a bd3d
00000030: 0a65 64bd dadb 34bd 3284 a13d eb08 bc3d
00000040: 0506 3b3d f278 3c3d 5c9c 78bd 0b65 71bd
00000050: 05ae 723b e37b d0bd 62b9 7c3d 7f3f 1a3c
00000060: d8d6 133d 5796 88bd 286e 1fbd 8c7a 8ebd
00000070: 2ad9 9fbd 7038 b1bc 29c1 a9bd bc86 8cbc
00000080: 53b3 a43d b865 ae3d ca5d 4bbc 9c31 0dbd
00000090: 4e25 c93c e45b 63bc fe28 b93d 0b90 973c
000000a0: 13fd 723d 8e84 87bd 01e5 c1bd 710e a3bc
000000b0: a9ed 9fbd 85a6 1cbd b02b 13bd 5013 923c
000000c0: f90a 973d 4d6c 0abd d553 423d 9aac 573c
000000d0: 3663 b93b 0a80 4ebd bd8d f6bc ad17 aebb
000000e0: 01e6 e03c a101 8b3d 9d4b a13d 8d2a 68bc
000000f0: 6be5 d5bc 7d82 be3c f6a3 353d 182f 8fbd
00000100: 2332 f5bc fea3 2f3d fbe9 11bd ac3b d23c
00000110: dcfe 973d d636 9dbd 30ac 8eba 5c7e 14bd
00000120: 1e73 3c3d dc52 8c3d 22ba 9e3d 3e24 91bd
00000130: 96ed be3d 9e44 053c b822 4b3c 4483 db3c
00000140: ed0d c1bd 8bf9 8abd 5a0e 45bd 3ebc 1bbd
00000150: 7e79 763d 6cf3 82bc 2520 2dbd d699 3bbd
00000160: 9065 7c3c aacc 07bd bdb7 c13d 26aa c7bc
00000170: 1963 6ebd b112 8c3d 2a2a bbbd cad0 aa3d
00000180: d852 1e3d 8aca c33c 38ca 263d aee5 49bd
00000190: 3526 1cbd 40bd aebd 0f8a 5d3d 73d7 f33b
000001a0: 26d6 d5bd 8146 903d 5f59 39bb 54cf 863d
000001b0: 9103 80bd f39a 4cbc 9669 8bbd a02d 1a3b
000001c0: 8851 0fbb db32 0e3d d78a 1c3d 5458 cf3b
000001d0: 12f2 773d 316f 133d e982 903d 2092 4d3d
000001e0: e042 13bd f2af 9fbd 60bf 96bd f5f6 993c
000001f0: e00a 803c d59b 6ebd c747 c13d 6073 a63d

weight_hh_l0_reverse f4 [128, 32]
0.06549935 0.019872548 -0.0911602 -0.022349317 -0.07779091 -0.07064818 0.07495702 0.08391074
0.035671975 -0.020140223 0.006390354 0.050214674 -0.0929482 -0.015880464 -0.09221262 0.08982235
-0.079646334 -0.039262652 -0.08437765 -0.05914401 -0.0577113 -0.041854307 0.07160764 0.022479054
-0.008127355 -0.089093186 -0.008513444 -0.03924201 0.044608213 0.0053936774 -0.04424163 -0.032067608
0.09243177 -0.051558033 -0.054868575 -0.076678224 -0.035656776 0.065750435 -0.04715993 -0.07807692
-0.007106608 0.06421513 0.09549818 0.013739598 -0.040736783 0.09921439 0.00022508441 0.065668605
0.048431322 -0.068650454 -0.084644504 -0.069833584 0.074074656 0.032860335 -0.042549524 -0.035294186
-0.03704829 0.04288562 -0.017958006 0.041050825 0.04271757 -0.042122226 -0.036725517 -0.050772037
0.06173334 -0.09728871 0.06397573 0.0012623882 0.038383402 0.07477533 -0.06281296 -0.027018683
-0.01618109 -0.0509248 -0.013396037 -0.04450884 -0.054004513 0.014435791 0.09004237 0.0050632274
-0.083594106 0.02312295 0.030224456 0.095892996 0.08222294 0.08934046 0.07446704 0.081676096
0.083890446 -0.07031629 0.069268435 0.033657707 0.05629506 0.07037109 -0.053932663 0.003677308
0.028121585 0.07324644 0.040633786 -0.03267692 0.047305427 -0.06415889 0.09656036 0.058107994
-0.066556185 -0.087430336 0.07771583 -0.05818625 -0.09133453 0.0020359878 0.09455557 -0.08813679
-0.0386167 0.0051003974 -0.079325855 -0.036226016 -0.08786345 -0.030813951 -0.020300891 -0.07302799
0.01168241 0.06516866 -0.050236717 -0.08437425 0.08067547 -0.057382584 0.0693431 0.067848384
0.0051563326 -0.07623819 0.034689955 0.03248176 0.0884462 0.00059976295 0.04115371 0.034405723
-0.06994004 -0.010463154 -0.09963439 0.00092032255 0.07802161 0.025296824 0.092541486 0.0328892
-0.05443013 0.0455128 0.004092059 0.04224485 0.092017226 0.01720983 0.007947989 -0.08014205
0.060898427 -0.094033316 -0.036306784 -0.027235601 -0.032598913 0.067418225 -0.05012059 0.06710909
0.009540718 0.064966634 0.016449176 -0.03164589 -0.03815679 0.024001917 0.060747202 0.08925605
-0.08784773 0.058000226 0.07816963 0.074799776 0.04971783 -0.059259858 -0.015452884 -0.034067005
0.07047505 0.06922477 -0.0824813 -0.023990516 -0.045484904 -0.08765909 -0.03858485 -0.038818542
0.03271208 -0.06261536 0.03370415 -0.058913734 -0.05504925 -0.09967809 0.09797673 0.057826735
0.010204076 -0.093168005 0.060881816 0.040619373 0.020641414 0.050223123 -0.09514869 0.014604353
-0.036194563 -0.046206195 0.022386724 -0.007604097 0.037475917 0.045834053 -0.057708498 -0.022059381
-0.031287223 -0.0061464165 0.05887941 -0.032332413 -0.09807903 0.047519226 0.08930332 0.053611744
-0.018081123 -0.015860273 0.074020684 -0.08528478 0.093941644 -0.014775541 0.060701102 0.0031068726
0.016871799 0.025130352 -0.089292675 -0.09232606 0.04160786 0.020140545 0.044074122 -0.08756439
-0.037257824 -0.014773691 -0.04935265 0.058028232 0.08445938 0.019726837 -0.01925778 0.08269521
0.008944145 0.022688258 -0.09807325 -0.018261375 -0.04006307 -0.05278049 -0.014248557 -0.07067647
-0.06841036 -0.09684724 -0.052137185 0.0746751 -0.0119183 0.004673643 0.04360886 -0.04352816
00000000: 8624 863d c1cb a23c 33b2 babd ea15 b7bc
00000010: d750 9fbd feaf 90bd 1183 993d 65d9 ab3d
00000020: c71c 123d 1cfd a4bc 2d66 d13b e7ad 4d3d
00000030: a05b bebd bf17 82bc f8d9 bcbd c8f4 b73d
00000040: 9e1d a3bd e0d1 20bd 30ce acbd fd40 72bd
00000050: af62 6cbd 6c6f 2bbd 07a7 923d fe25 b83c
00000060: 9928 05bc 7d76 b6bd f97b 0bbc 3bbc 20bd
00000070: 1ab7 363d 72bd b03b b636 35bd 5359 03bd
00000080: de4c bd3d 842e 53bd dfbd 60bd 7909 9dbd
00000090: d70c 12bd 2aa8 863d c52a 41bd cbe6 9fbd
000000a0: 8cde e8bb 3983 833d 8d94 c33d 0d1c 613c
000000b0: 9ddb 26bd ea30 cb3d a304 6c39 437d 863d
000000c0: ec5f 463d 9c98 8cbd 195a adbd e904 8fbd
000000d0: 74b4 973d 8f98 063d 6948 2ebd a390 10bd
000000e0: f3bf 17bd d5a8 2f3d ab1c 93bc e924 283d
000000f0: 9ef8 2e3d 5b88 2cbd 7f6d 16bd 57f6 4fbd
00000100: 19dc 7c3d 4e3f c7bd b505 833d b876 a53a
00000110: ea37 1d3d cf23 993d 15a4 80bd 4956 ddbc
00000120: 358e 84bc 8696 50bd 0d7b 5bbc e74e 36bd
00000130: d633 5dbd 1984 6c3c 2268 b83d 6ee9 a53b
00000140: 6333 abbd 576c bd3c 4799 f73c 8c63 c43d
00000150: 8064 a83d 22f8 b63d 2d82 983d cc45 a73d
00000160: c1ce ab3d fd01 90bd 9cdc 8d3d aadc 093d
00000170: a695 663d b81e 903d 7fe8 5cbd fefe 703b
00000180: 3d5f e63c 3b02 963d 9d6f 263d 3cd8 05bd
00000190: 56c3 413d bc65 83bd 70c1 c53d a602 6e3d
000001a0: 9c4e 88bd ad0e b3bd 7a29 9f3d b554 6ebd
000001b0: 990d bbbd 356e 053b 5aa6 c13d 1081 b4bd
000001c0: 8b2c 1ebd 3c21 a73b 9875 a2bd bb61 14bd
000001d0: c1f1 b3bd 8a6d fcbc 0e4e a6bc b38f 95bd
000001e0: 9467 3f3c 2577 853d 04c5 4dbd 68cc acbd
000001f0: 2e39 a53d 000a 6bbd c103 8e3d 18f4 8a3d
00000200: 74f6 a83b c522 9cbd 0e17 0e3d 980b 053d
00000210: 4823 b53d 6939 1d3a cb90 283d 04ed 0c3d
00000220: b93c 8fbd a66d 2bbc 1d0d ccbd cd41 713a
00000230: cbc9 9f3d 493b cf3c 6486 bd3d d3b6 063d
00000240: 21f2 5ebd a16b 3a3d ae16 863b f008 2d3d
00000250: 8773 bc3d a1fb 8c3c 4838 023c 8421 a4bd
00000260: a170 793d 8a94 c0bd 6cb6 14bd 321d dfbc
00000270: 7086 05bd 9112 8a3d 3f4b 4dbd 7e70 893d
00000280: ac50 1c3c 3a0d 853d 6cc0 863c 1f9f 01bd
00000290: 4b4a 1cbd ab9f c43c 0fd2 783d e0cb b63d
000002a0: 83e9 b3bd a591 6d3d 6617 a03d a030 993d
000002b0: eca4 4b3d 77ba 72bd 182e 7dbc d889 0bbd
000002c0: 3955 903d b7c5 8d3d f5eb a8bd c287 c4bc
000002d0: 614e 3abd 9c86 b3bd 260b 1ebd 3100 1fbd
000002e0: 1afd 053d 7b3c 80bd 5d0d 0a3d 874f 71bd
000002f0: 537b 61bd 0724 ccbd 06a8 c83d badb 6c3d
00000300: ff2e 273c dece bebd 365f 793d 8060 263d
00000310: 2f18 a93c c3b6 4d3d 51dd c2bd 1947 6f3c
00000320: c040 14bd b542 3dbd 5d64 b73c ca2b f9bb
00000330: 5980 193d 7dbc 3b3d bf5f 6cbd e0b5 b4bc
00000340: 0827 00bd e167 c9bb 892b 713d fe6e 04bd
00000350: a9dd c8bd 85a3 423d a9e4 b63d fd97 5b3d
00000360: dd1e 94bc 67ed 81bc 2898 973d c9a9 aebd
00000370: 7a64 c03d 1c15 72bc b8a1 783d ac9c 4b3b
00000380: ba36 8a3c 2bde cd3c 14df b6bd 7215 bdbd
00000390: 016d 2a3d c9fd a43c 1187 343d f554 b3bd
000003a0: a99b 18bd 5a0d 72bc 0126 4abd 03af 6d3d
000003b0: 0af9 ac3d 2d9a a13c 7ec2 9dbc 1b5c a93d
000003c0: 778a 123c badc b93c a1da c8bd e198 95bc
000003d0: 2c19 24bd 5b30 58bd c872 69bc d3be 90bd
000003e0: bb1a 8cbd d957 c6bd cd8d 55bd 42ef 983d
000003f0: f944 43bc 5c25 993b 349f 323d 954a 32bd

bias_ih_l0_reverse f4 [128]
-0.07595798 -0.050551318 -0.0048792404 -0.04729825 -0.009124014 0.031939596 -0.039966438 0.036104787
-0.09790516 0.022260439 0.05547368 0.05180588 0.028156685 0.022199513 0.088348754 -0.051077206
0.027491752 0.035187908 0.023300236 -0.08631456 0.08920707 -0.053479318 -0.00052459934 0.08573227
0.03929897 -0.05691041 -0.0034359961 0.092228696 -0.008089988 0.07651646 0.05184779 0.07158618
-0.013908803 0.08501795 -0.05441526 -0.0399163 0.041224837 0.027169172 -0.03598676 -0.003014949
-0.08702606 0.10311857 0.012971876 -0.017382413 0.08473231 0.041305583 0.03508644 0.026042093
-0.043067757 0.069605224 0.06499375 -0.013082216 0.0008442313 -0.07676451 -0.08602397 0.030530501
0.057941154 0.088654 -0.025411988 0.018245144 -0.037502784 -0.06843189 -0.055156272 0.021585558
0.050398074 0.08233829 -0.047512352 -0.010380389 -0.10346589 0.07817313 -0.012854271 0.03904689
-0.08524055 0.08071571 -0.105491646 0.016139675 -0.020956883 -0.026469374 -0.09686336 -0.09476646
-0.08493297 -0.04957724 0.073417 0.08687649 -0.028895024 -0.028714035 0.06454379 0.083241016
-0.002876942 -0.064061046 -0.07708181 0.005881929 -0.08306277 0.017227702 0.06296602 0.004909615
0.06594645 0.0463635 0.07931255 0.0076247766 0.070884824 -0.030182833 0.08372698 0.03530373
0.09335641 -0.08827978 0.029750405 -0.0030081945 0.0804512 0.079446524 -0.014451108 -0.030112509
0.02505535 -0.08716786 -0.08197705 0.04245059 -0.0031199832 -0.06328425 0.036907453 -0.08083425
-0.06670244 -0.09597329 -0.05772171 -0.052326355 -0.087639995 -0.080514945 -0.072590955 0.039308667
00000000: db8f 9bbd e60e 4fbd 09e2 9fbb cfbb 41bd
00000010: e37c 15bc 18d3 023d d9b3 23bd 9de2 133d
00000020: 8082 c8bd 865b b63c 5f38 633d 6732 543d
00000030: d9a8 e63c c1db b53c 31f0 b43d 5536 51bd
00000040: 6236 e13c 3221 103d 23e0 be3c b0c5 b0bd
00000050: 32b2 b63d 210d 5bbd 4485 09ba 6694 af3d
00000060: f5f7 203d e41a 69bd 732e 61bb 66e2 bc3d
00000070: de8b 04bc a9b4 9c3d 595e 543d c69b 923d
00000080: c0e1 63bc e41d ae3d 89e2 5ebd 467f 23bd
00000090: 60db 283d e291 de3c da66 13bd 7396 45bb
000000a0: b83a b2bd d42f d33d fe87 543c 9065 8ebc
000000b0: 2288 ad3d 0b30 293d cdb6 0f3d 3a56 d53c
000000c0: d167 30bd 2f8d 8e3d 711b 853d ca56 56bc
000000d0: 674f 5d3a b636 9dbd 562d b0bd 1a1b fa3c
000000e0: b453 6d3d 3a90 b53d cd2c d0bc d776 953c
000000f0: 859c 19bd 0526 8cbd 8beb 61bd 32d4 b03c
00000100: 366e 4e3d faa0 a83d 509c 42bd 8212 2abc
00000110: ede5 d3bd 3c19 a03d b89a 52bc a2ef 1f3d
00000120: 9992 aebd 474e a53d 010c d8bd 5a37 843c
00000130: c5ad abbc 4dd6 d8bc 4c60 c6bd eb14 c2bd
00000140: 56f1 adbd 8111 4bbd a75b 963d 4dec b13d
00000150: 42b5 ecbc b239 ebbc 892f 843d 447a aa3d
00000160: 148b 3cbb 7032 83bd 11dd 9dbd 32bd c03b
00000170: d01c aabd 1c21 8d3c 54f4 803d d6e0 a03b
00000180: ef0e 873d a7e7 3d3d 9e6e a23d 43d9 f93b
00000190: 102c 913d fd41 f7bc 0d79 ab3d a59a 103d
000001a0: a531 bf3d 07cc b4bd 1fb7 f33c 2125 45bb
000001b0: 99c3 a43d dcb4 a23d 57c4 6cbc 82ae f6bc
000001c0: e140 cd3c 1085 b2bd 95e3 a7bd abe0 2d3d
000001d0: a278 4cbb 2c9b 81bd 452c 173d 6d8c a5bd
000001e0: 4a9b 88bd a58d c4bd 9a6d 6cbd 2954 56bd
000001f0: 997c b3bd 05e5 a4bd 91aa 94bd 2002 213d

bias_hh_l0_reverse f4 [128]
0.032094542 -0.031622134 0.067871675 0.05335928 -0.06940218 -0.04840196 0.039288905 -0.01750731
-0.03570891 -0.064973004 -0.05701583 0.10412906 0.030053943 -0.095830224 0.0076853437 -0.084727556
0.0019096696 0.042269878 0.02612204 0.09302033 0.005551579 -0.061913293 0.07079724 -0.03947117
0.044218976 -0.022184117 -0.008336169 -0.078103594 0.0068950746 0.036371138 0.04583626 -0.0943483
0.057999037 -0.046135742 -0.026274215 0.043663442 -0.025274457 -0.08520859 0.012975173 0.047941
-0.086567305 -0.055408522 0.03239733 -0.0125588095 0.0345162 0.04917599 -0.048213597 -1.6552629e-05
-0.047128547 -0.014597635 0.0655626 -0.00794326 -0.043293804 0.024578488 0.10101281 -0.065109305
0.09158614 -0.01847019 -0.04009939 -0.061388224 0.042755235 -0.055265896 0.07123549 0.046531927
-0.09376135 -0.07311062 0.088016696 0.08885114 -0.027817313 0.08168866 0.087890685 -0.025537366
-0.077284716 0.09836315 0.08180878 -0.06448022 0.059191443 -0.010260732 -0.010571155 0.018491495
-0.067871474 -0.07637479 0.086763255 0.04594883 0.05079241 0.017049635 0.070815 0.04540487
-0.03920315 0.059744343 -0.016858922 -0.033293143 0.06628241 -0.08560662 0.010258825 0.097207636
-0.0023985778 -0.0028698791 -0.04782522 0.06851898 0.080352545 0.071000904 -0.019025752 -0.09603651
-0.050248478 -0.019207478 -0.047777034 -0.06767688 -0.01165662 -0.090077356 0.028598608 -0.05606217
0.0011906419 0.018892705 -0.077484675 -0.097324245 -0.045545243 0.0554842 0.04316308 -0.06669414
0.0566345 -0.05517791 -0.015381144 0.09905354 -0.012735722 0.07408336 0.023256924 0.09653633
00000000: 9175 033d 3686 01bd 4e00 8b3d 438f 5a3d
00000010: bb22 8ebd 2241 46bd 67ed 203d 7d6b 8fbc
00000020: 8243 12bd 9110 85bd 6e89 69bd 9e41 d53d
00000030: b033 f63c a342 c4bd 56d5 fb3b a485 adbd
00000040: e14d fa3a 2e23 2d3d e3fd d53c 7181 be3d
00000050: 05ea b53b cb98 7dbd 25fe 903d 86ac 21bd
00000060: f51e 353d 77bb b5bc 6d94 08bc c7f4 9fbd
00000070: 14f0 e13b e7f9 143d cdbe 3b3d ae39 c1bd
00000080: 6690 6d3d d5f8 3cbd 063d d7bc 70d8 323d
00000090: 610c cfbc d781 aebd d295 543c c85d 443d
000000a0: 334a b1bd 0cf4 62bd 10b3 043d 77c3 4dbc
000000b0: dc60 0d3d c36c 493d 9f7b 45bd 80da 8ab7
000000c0: dd09 41bd eb2a 6fbc af45 863d 7224 02bc
000000d0: d854 31bd d358 c93c cedf ce3d 0758 85bd
000000e0: 8491 bb3d cc4e 97bc 423f 24bd 3872 7bbd
000000f0: 1d20 2f3d 7e5e 62bd eae3 913d 4398 3e3d
00000100: f305 c0bd 05bb 95bd 1942 b43d 96f7 b53d
00000110: 22e1 e3bc 624c a73d 0800 b43d bd33 d1bc
00000120: 7347 9ebd 9f72 c93d 5d8b a73d 350e 84bd
00000130: ba72 723d a11c 28bc a332 2dbc 7a7b 973c
00000140: 3300 8bbd 636a 9cbd efb0 b13d d734 3c3d
00000150: b40b 503d adab 8b3c 7407 913d 75fa 393d
00000160: 7b93 20bd 7cb6 743d b91b 8abc 645e 08bd
00000170: 12bf 873d 8652 afbd a114 283c cc14 c73d
00000180: 7531 1dbb 9514 3cbb 61e4 43bd ae53 8c3d
00000190: e08f a43d ec68 913d e5db 9bbc caae c4bd
000001a0: 59d1 4dbd 0059 9dbc dab1 43bd 2d9a 8abd
000001b0: 68fb 3ebc 7a7a b8bd a147 ea3c 72a1 65bd
000001c0: 500f 9c3a e0c4 9a3c 49b0 9ebd ef51 c7bd
000001d0: a68d 3abd 6743 633d c5cb 303d f096 88bd
000001e0: 94f9 673d 3b02 62bd 3201 7cbc 95dc ca3d
000001f0: 7da9 50bc 04b9 973d 4e85 be3c d7b4 c53d

bin_context_vector f4 [64, 1]
0.08080154 0.07965 -0.08052871 -0.059151504 -0.073679075 -0.07978814 0.033666786 -0.01849541
-0.01590994 -0.02927926 0.0754194 0.058123745 0.0028518657 0.027788846 -0.01854275 0.067811295
0.067790695 0.06026356 0.05376819 -0.004855053 -0.09887527 -0.07027021 0.06700483 -0.02803003
-0.020223778 0.044015296 -0.019269949 0.07477458 -0.05938337 -0.0682609 0.005842192 -0.08480145
0.0062033623 -0.09691104 -0.08520869 0.037752956 0.015250966 -0.016251419 -0.018239947 -0.039066784
-0.03404783 -0.015548473 -0.080702625 -0.036930736 -0.00683299 0.055095457 0.0016114257 -0.014469008
-0.04088517 0.048257563 -0.018473871 -0.09517113 -0.005838564 0.08113126 0.0032806036 -0.04914461
-0.02806862 -0.056140505 0.031605016 0.08755842 -0.03963781 0.059695367 0.07354326 0.036775082
00000000: 477b a53d 8a1f a33d 3cec a4bd d948 72bd
00000010: 0ee5 96bd f767 a3bd 2fe6 093d b083 97bc
00000020: 9055 82bc 0fdb efbc 7d75 9a3d 2a13 6e3d
00000030: 5ee6 3a3b 6fa5 e33c f7e6 97bc a6e0 8a3d
00000040: d9d5 8a3d ecd6 763d 093c 5c3d 2317 9fbb
00000050: 1e7f cabd d4e9 8fbd d439 893d 3c9f e5bc
00000060: 56ac a5bc 6249 343d 03dc 9dbc 6a23 993d
00000070: fa3b 73bd 5fcc 8bbd dc6f bf3b 62ac adbd
00000080: 9345 cb3b 4c79 c6bd e581 aebd d8a2 1a3d
00000090: 30df 793c b221 85bc f16b 95bc 7e04 20bd
000000a0: bd75 0bbd 06bf 7ebc 6b47 a5bd af44 17bd
000000b0: 46e7 dfbb c6ab 613d 7936 d33a 6b0f 6dbc
000000c0: 3577 27bd b9a9 453d 8456 97bc 15e9 c2bd
000000d0: 6d51 bfbb 2528 a63d 65ff 563b dc4b 49bd
000000e0: 2af0 e5bc 96f3 65bd 4374 013d d451 b33d
000000f0: 425b 22bd 2183 743d d99d 963d 78a1 163d

weight_ih_l0 f4 [128, 1]
-0.028184157 0.028669108 0.05533266 0.08693579 -0.005789719 -0.010512544 0.0353561 -0.037826013
0.0055535105 0.045768745 -0.05171712 -0.09706103 0.08144985 0.065516084 0.06120206 0.08218183
-0.02252398 0.07570266 0.010457827 -0.08447414 0.024642011 -0.0932286 -0.017653186 0.07468244
-0.063463815 -0.065454096 0.08940772 0.0773053 0.049885232 0.052161433 -0.0283927 -0.009495683
-0.027861033 0.065400854 0.09674615 -0.055148996 0.083253324 -0.07555583 0.06343619 0.04649753
-0.05992924 0.094878756 -0.013064412 0.084637 0.015231143 0.0047645746 -0.045569018 -0.022669105
-0.051177695 0.016525585 0.020767568 0.01908982 -0.04893494 0.0270041 -0.004118206 -0.000925287
-0.07173519 -0.09005259 -0.04378738 -0.04607031 -0.096320406 0.07556922 0.037467305 -0.0055011017
0.044329017 0.04315088 -0.037648518 0.0003545825 -0.08172901 0.083419405 0.046566132 -0.08388102
-0.07078829 0.08612317 -0.00779451 0.049411587 -0.036926765 0.05027797 -0.032792624 -0.04123879
-0.018818796 0.07953138 0.05938832 -0.08807747 -0.035366867 -0.08508861 -0.049395 -0.033317327
0.031042855 0.08803033 -0.06348219 0.036849346 0.009937045 -0.011045005 -0.02995016 -0.031581882
0.003917805 -0.050473917 -0.0120132305 -0.06570453 -0.04328577 0.03098413 0.0069298665 0.06449821
-0.011808072 -0.07983366 -0.038091697 -0.09520513 -0.093614206 -0.050170027 -0.07429811 0.011840782
-0.01617829 0.032599848 -0.0036157586 -0.04630627 0.09381961 0.08597991 -0.014691157 -0.037176616
0.09137003 0.071750574 0.007149606 0.03894521 -0.010253936 0.0039109057 0.088451624 -0.040419556
00000000: 76e2 e6bc 7adb ea3c 80a4 623d 640b b23d
00000010: afb7 bdbb ce3c 2cbc 8fd1 103d 73ef 1abd
00000020: 39fa b53b 0278 3b3d 55d5 53bd efc7 c6bd
00000030: 2ecf a63d 4c2d 863d 03af 7a3d f34e a83d
00000040: 3684 b8bc ff09 9b3d 4e57 2b3c c700 adbd
00000050: 0bde c93c a3ee bebd 6a9d 90bc 1bf3 983d
00000060: 51f9 81bd cc0c 86bd 651b b73d 3e52 9e3d
00000070: 7554 4c3d 3aa7 553d cf97 e8bc c893 1bbc
00000080: d23c e4bc e2f0 853d d822 c63d eae3 61bd
00000090: b880 aa3d 04bd 9abd d5ea 813d 3274 3e3d
000000a0: 5d78 75bd cb4f c23d 1e0c 56bc 2a56 ad3d
000000b0: 0b8c 793c 2620 9c3b 94a6 3abd 8fb4 b9bc
000000c0: b49f 51bd aa60 873c bf20 aa3c 4162 9c3c
000000d0: 0170 48bd b437 dd3c 04f2 86bb f68e 72ba
000000e0: e6e9 92bd 7e6d b8bd 655a 33bd 39b4 3cbd
000000f0: a243 c5bd 09c4 9a3d 5177 193d 9642 b4bb
00000100: 5892 353d fabe 303d 5535 1abd 42e7 b939
00000110: 8a61 a7bd cbd7 aa3d 21bc 3e3d d0c9 abbd
00000120: 73f9 90bd 5861 b03d 1769 ffbb ce63 4a3d
00000130: 8540 17bd 46f0 4d3d 8f51 06bd 01ea 28bd
00000140: e029 9abc 59e1 a23d 2b41 733d f661 b4bd
00000150: d9dc 10bd f042 aebd 6952 4abd c077 08bd
00000160: 964d fe3c 3f49 b43d f302 82bd 57ef 163d
00000170: fdce 223c 1cf6 34bc 0a5a f5bc 015c 01bd
00000180: ee60 803b bdbd 4ebd 24d3 44bc 1990 86bd
00000190: 6b4c 31bd 6ed2 fd3c ef13 e33b a317 843d
000001a0: a576 41bc d47f a3bd 0a06 1cbd e8fa c2bd
000001b0: ceb8 bfbd 167f 4dbd 9c29 98bd d7ff 413c
000001c0: 5588 84bc 6b87 053d 5df6 6cbb a5ab 3dbd
000001d0: 7f24 c03d 3c16 b03d 2eb3 70bc 8246 18bd
000001e0: 3620 bb3d f7f1 923d 3e47 ea3b 0385 1f3d
000001f0: 2000 28bc 0e27 803b 2026 b53d fa8e 25bd

weight_hh_l0 f4 [128, 32]
0.06588628 0.06360154 -0.023356998 -0.025588026 0.091631554 0.04071661 -0.04752143 0.02899156
0.0056315623 0.000660616 -0.06341127 0.07991902 -0.09271811 -0.069865815 -0.09070922 -0.01483548
-0.036645982 0.08550426 0.021610517 0.03479424 -0.0147358375 -0.075551406 0.07034895 0.084298134
-0.0929443 -0.02909266 -0.07568051 0.060452227 0.03537801 0.02626 0.00021048234 0.07446639
0.04561669 0.016937634 -0.023416307 0.09059774 0.015691927 0.0017454615 -0.07999986 0.06426506
-0.041992057 0.074718215 0.059322402 0.054818265 0.055282507 0.03841298 0.014663413 0.02599738
0.047962494 0.056463268 -0.06448434 -0.026559444 -0.014386745 0.08752617 0.052283213 -0.09166015
-0.036607187 -0.08458699 0.07289614 0.079323746 0.06393879 -0.049022317 0.045743972 -0.034709685
-0.06376865 -0.035237104 0.016226139 -0.024741095 -0.09162426 0.021604137 -0.048097663 -0.067704596
0.005413468 -0.07582036 0.051463805 -0.00976928 -0.02286547 0.069167085 -0.0696931 0.011523307
-0.0074180136 -0.036940884 0.03177347 -0.028683612 -0.10199281 -0.059392355 0.07339211 0.003262565
-0.03161583 0.04643408 0.06265985 0.10240256 0.019546364 -0.04727316 -0.043693166 -0.04483349
-0.10277613 -0.03941108 0.03542694 0.097257644 -0.030731011 -0.07673426 -0.013544569 -0.0457083
-0.016916556 -0.011719015 -0.046651643 -0.003368378 -0.0385304 0.08635089 0.095316514 -0.06417298
0.00027339417 -0.0020079808 0.012099175 -0.05500948 0.026918858 -0.004444795 -0.031178735 -0.060258508
-0.020602902 -0.0955177 -0.0008415631 -0.025457915 -0.008044198 -0.025276814 -0.023054188 -0.10434893
0.04794018 -0.083792575 0.047985055 0.00091345445 0.014255034 0.06689851 0.0855702 -0.07323705
0.010754535 0.05058925 0.009043815 -0.026006285 -0.05656596 0.029871728 -0.089555494 -0.0059064175
-0.06311126 0.04328213 0.092020154 0.07639144 0.046875983 0.092878394 -0.08410123 -0.052232016
0.088976 0.013728251 0.03692438 0.07195641 0.01154428 -0.003991198 -0.096541606 -0.060611963
-0.054585792 0.0421416 -0.024143433 -0.008217218 0.07729715 0.05518098 0.07541079 -0.022017004
0.028004816 -0.03909147 0.054054487 -0.09138814 0.020822711 0.054109912 -0.077475965 -0.043553274
-0.043607567 -0.011134495 0.060690198 -0.04761207 0.073123164 0.094315894 -0.05215255 -0.042423557
0.022752268 0.072843865 -0.054600634 0.00029423658 0.09681287 0.07389396 -0.076449364 -0.08230173
-0.10107085 0.09776455 -0.100808434 -0.0801249 0.075285874 -0.028253516 0.08028898 -0.084162205
0.09908457 0.06117511 -0.079058155 0.008489456 0.0041260896 -0.03322029 0.06808924 -0.010758914
-0.014104381 0.018461343 -0.098144025 -0.024952414 0.0636176 0.0019425008 -0.095205344 0.04775084
-0.04795644 0.082879774 -0.0068143927 -0.09290215 -0.09336665 0.051286135 -0.04929656 0.07938565
0.04293029 0.014927659 0.021716852 -0.06044799 0.016123686 -0.0012833024 0.08717298 -0.05762461
-0.09989506 0.062343758 -0.0034482938 -0.092597276 0.07947052 0.0073800636 0.014469151 0.07604646
0.039401885 -0.053490892 -0.03988623 0.053835783 -0.0500116 -0.04450457 0.054562714 -0.00830477
-0.08210453 -0.091817096 -0.017613769 -0.08097641 0.011389108 -0.034379333 -0.038774814 -0.09673856
00000000: 63ef 863d 8641 823d 2d57 bfbc fb9d d1bc
00000010: 53a9 bb3d 76c6 263d d5a5 42bd b57f ed3c
00000020: f888 b83b 302d 2d3a c5dd 81bd 95ac a33d
00000030: fee2 bdbd cf15 8fbd c1c5 b9bd 8310 73bc
00000040: 191a 16bd dc1c af3d 8a08 b13c 6884 0e3d
00000050: 956e 71bc b2ba 9abd 1c13 903d 80a4 ac3d
00000060: 9559 bebd bb53 eebc 62fe 9abd c19c 773d
00000070: 88e8 103d 361f d73c ecb4 5c39 d681 983d
00000080: 91d8 3a3d cbc0 8a3c 8ed3 bfbc 4f8b b93d
00000090: 5b8c 803c f8c7 e43a f7d6 a3bd 669d 833d
000000a0: ddff 2bbd dd05 993d 0cfc 723d 1e89 603d
000000b0: e96f 623d ee56 1d3d d03e 703c 75f8 d43c
000000c0: 5274 443d 0746 673d 5e10 84bd 3193 d9bc
000000d0: 62b6 6bbc ec40 b33d ec26 563d 51b8 bbbd
000000e0: 6bf1 15bd f23b adbd 924a 953d 7d74 a23d
000000f0: 57f2 823d a0cb 48bd 085e 3b3d be2b 0ebd
00000100: 2399 82bd c854 10bd aeec 843c d6ad cabc
00000110: 80a5 bbbd 29fb b03c 0e02 45bd b5a8 8abd
00000120: 7663 b13b b447 9bbd b6cb 523d 550f 20bc
00000130: 5e50 bbbc 79a7 8d3d 42bb 8ebd 41cc 3c3c
00000140: cf12 f3bb 534f 17bd e624 023d e5f9 eabc
00000150: 9be1 d0bd 6645 73bd 9a4e 963d c2d0 553b
00000160: 9a7f 01bd a931 3e3d cf53 803d 6fb8 d13d
00000170: b21f a03c 80a1 41bd 9bf7 32bd 52a3 37bd
00000180: 4b7c d2bd 836d 21bd d71b 113d 042f c73d
00000190: 9abf fbbc da26 9dbd 0aea 5dbc a038 3bbd
000001a0: 9794 8abc 1d01 40bc cb15 3fbd 01c0 5cbb
000001b0: 0dd2 1dbd bcd8 b03d 4e35 c33d 206d 83bd
000001c0: 5856 8f39 5498 03bb 9e3b 463c 9f51 61bd
000001d0: f084 dc3c a5a5 91bb 8c6a ffbc a0d1 76bd
000001e0: 6bc7 a8bc c99e c3bd 589c 5cba 1e8d d0bc
000001f0: d0cb 03bc 5211 cfbc 23dc bcbc e4b4 d5bd
00000200: ec5c 443d 719b abbd fa8b 443d e474 6f3a
00000210: f28d 693c 1602 893d 6e3f af3d 4efd 95bd
00000220: ca33 303c ac36 4f3d 822c 143c 220b d5bc
00000230: b5b1 67bd 8eb5 f43c df68 b7bd 9f8a c1bb
00000240: 7a40 81bd 9a48 313d 1075 bc3d 1e73 9c3d
00000250: 0801 403d 0737 be3d 443d acbd 3df1 55bd
00000260: 0d39 b63d 75ec 603c 053e 173d e25d 933d
00000270: 3824 3d3c 98c8 82bb 9bb7 c5bd 4044 78bd
00000280: 5a95 5fbd ac9c 2c3d 73c8 c5bc 83a1 06bc
00000290: f84d 9e3d 7405 623d f970 9a3d 015d b4bc
000002a0: 5b6a e53c 611e 20bd 3d68 5d3d b529 bbbd
000002b0: 6494 aa3c 5ba2 5d3d b8ab 9ebd eb64 32bd
000002c0: d99d 32bd 756d 36bc 4996 783d e004 43bd
000002d0: 99c1 953d b128 c13d ea9d 55bd 53c4 2dbd
000002e0: f762 ba3c 2a2f 953d eaa4 5fbd c443 9a39
000002f0: d345 c63d b755 973d 7c91 9cbd cf8d a8bd
00000300: 3cfe cebd c838 c83d a774 cebd 8618 a4bd
00000310: 7b2f 9a3d eb73 e7bc 8c6e a43d 3c5d acbd
00000320: daec ca3d c192 7a3d 3ee9 a1bd 5c17 0b3c
00000330: 2634 873b 0012 08bd 5f72 8b3d 2846 30bc
00000340: 1016 67bc 3e3c 973c bcff c8bd 0169 ccbc
00000350: f249 823d 839b fe3a 05fb c2bd 6396 433d
00000360: f96d 44bd dfbc a93d 454b dfbb 7b43 bebd
00000370: 0437 bfbd 6911 523d 31eb 49bd f294 a23d
00000380: acd7 2f3d 2493 743c 8ae7 b13c 5098 77bd
00000390: d215 843c 7c34 a8ba bf87 b23d c807 6cbd
000003a0: c895 ccbd 2b5c 7f3d c5fc 61bb a4a3 bdbd
000003b0: 71c1 a23d 76d4 f13b 0510 6d3c 3fbe 9b3d
000003c0: df63 213d 4419 5bbd be5f 23bd e982 5c3d
000003d0: f7d8 4cbd 6d4a 36bd 277d 5f3d bb10 08bc
000003e0: 6b26 a8bd 9a0a bcbd c04a 90bc f6d6 a5bd
000003f0: 6299 3a3c 58d1 0cbd 57d2 1ebd de1e c6bd

bias_ih_l0 f4 [128]
0.02167029 0.009657893 -0.039417785 -0.05253665 0.042286396 0.055804983 -0.014247633 -0.041551623
-0.10221668 0.071499296 0.08515569 -0.104895644 -0.05169262 -0.008630765 -0.08217102 -0.0016048884
0.05758677 -0.0069365506 -0.002770437 -0.080103114 -0.06706103 0.019596616 -0.07174964 -0.01135359
-0.06947799 -0.0016378725 -0.035694268 0.0627932 -0.04283564 -0.06754062 0.083720714 0.09504561
-0.03702106 0.048403822 0.075961806 -0.017858153 0.00055665907 0.011303728 -0.087362826 -0.065764725
-0.04248281 -0.023596607 -0.0168207 -0.035277836 -0.020877726 -0.039281346 0.024080612 0.06936983
0.025208374 0.05519473 -0.10437031 0.017468832 -0.08189911 -0.06539647 -0.038932104 0.017793454
-0.030998895 0.07078959 -0.0029749237 0.076840185 0.07697087 0.0010678086 -0.09373361 0.033349823
-0.07413498 0.04071847 -0.068254635 0.05105609 0.05153759 -0.02559789 0.07570627 -0.06756407
0.034190174 0.0486985 -0.08737445 -0.086107396 0.09061778 -0.05409746 -0.026117863 -0.0764488
0.04740382 0.07298979 -0.007891182 0.0033300535 -0.05446176 -0.047261987 -0.0917852 -0.017568436
0.035086 -0.054835707 0.05811498 -0.06291306 0.089313604 0.015057277 0.025438331 -0.08540878
-0.038438156 -0.05455921 -0.009901265 -0.03658939 -0.050809693 0.02280317 -0.039475664 0.051681034
-0.011944423 -0.09109456 0.04916366 0.050189145 0.05635412 0.090480745 0.08121777 0.01809
-0.023980053 -0.07633407 0.033041432 -0.062362988 -0.03922486 -0.081281684 -0.016249558 0.055948988
-0.10570096 -0.0064987913 -0.019375805 0.024348093 0.06346889 -0.057337817 0.051962096 0.0034029987
00000000: e485 b13c 243c 1e3c 8b74 21bd ac30 57bd
00000010: 8034 2d3d c493 643d e76e 69bc 0932 2abd
00000020: fb56 d1bd 396e 923d 1b66 ae3d 87d3 d6bd
00000030: a4bb 53bd 0d68 0dbc 4849 a8bd 1e5b d2ba
00000040: 1be0 6b3d 014c e3bb 3890 35bb 1a0d a4bd
00000050: 4b57 89bd 1589 a03c 7af1 92bd 6804 3abc
00000060: 7a4a 8ebd e2ad d6ba 2734 12bd b999 803d
00000070: 6d74 2fbd bd52 8abd c475 ab3d 46a7 c23d
00000080: 65a3 17bd 1643 463d dd91 9b3d 434b 92bc
00000090: c2ec 113a 4633 393c 48eb b2bd a8af 86bd
000000a0: 7402 2ebd ac4d c1bc 91cb 89bc 7e7f 10bd
000000b0: c407 abbc 7ae5 20bd b444 c53c c511 8e3d
000000c0: cb81 ce3c df13 623d 1ac0 d5bd cc1a 8f3c
000000d0: b8ba a7bd 96ee 85bd 4577 1fbd 94c3 913c
000000e0: 65f1 fdbc 22fa 903d f0f6 42bb 635e 9d3d
000000f0: e7a2 9d3d b6f5 8b3a 68f7 bfbd d399 083d
00000100: 15d4 97bd 69c8 263d 16c9 8bbd 3120 513d
00000110: 1419 533d abb2 d1bc e40b 9b3d 085f 8abd
00000120: ff0a 0c3d 1478 473d 60f1 b2bd 1359 b0bd
00000130: d195 b93d 4c95 5dbd 21f5 d5bc 3091 9cbd
00000140: 822a 423d ac7b 953d 044a 01bc 073d 5a3b
00000150: 4b13 5fbd c995 41bd e1f9 bbbd aeeb 8fbc
00000160: 56b6 0f3d 689b 60bd f909 6e3d 90d8 80bd
00000170: 0dea b63d ccb2 763c 0c64 d03c ccea aebd
00000180: 5471 1dbd 7a79 5fbd ea38 22bc c2de 15bd
00000190: d31d 50bd b7cd ba3c 3cb1 21bd 7eaf 533d
000001a0: 8bb2 43bc c98f babd d55f 493d 2293 4d3d
000001b0: 94d3 663d f84d b93d 8155 a63d 7b31 943c
000001c0: d171 c4bc 0955 9cbd 7456 073d 5570 7fbd
000001d0: 3faa 20bd 0377 a6bd cb1d 85bc c42a 653d
000001e0: bf79 d8bd d0f3 d4bb 02ba 9ebc a775 c73c
000001f0: fafb 813d 0fdb 6abd 35d6 543d d804 5f3b

bias_hh_l0 f4 [128]
0.010935956 0.058129527 -0.09665572 0.028101563 0.02831979 -0.08545768 -0.07971028 -0.065188564
-0.039603367 0.08040049 -0.015485349 0.07917454 -0.050167326 0.09030296 -0.0063905674 -0.065309376
0.04136769 -0.09318681 -0.07185413 -0.040287573 -0.07079717 0.06752887 0.06752663 0.021453544
0.081345625 -0.032248076 -0.04644788 -0.031817164 -0.05872303 -0.09121246 -0.026371244 0.014999394
0.058838323 0.075504646 -0.06831287 -0.0021385 0.008807313 -0.06584293 -0.021714061 -0.06600989
0.029566078 -0.013439039 0.004193386 0.04098528 0.0888842 0.0075034266 0.037674047 0.034527812
0.081539765 0.080514774 -0.02830862 0.08553735 -4.7734415e-05 -0.058194023 -0.0772301 -0.057046678
-0.06941497 0.049958494 -0.008743229 0.096606724 -0.031415407 -0.09374019 -0.033465005 0.06932169
-0.02984904 0.01764499 -0.014208227 0.015453356 -0.0709817 -0.0687236 0.007131461 -0.05331525
0.022179127 0.025753373 0.07154412 0.0046059573 -0.08013357 0.09885096 -0.10534642 -0.074724644
0.08874858 -0.023734722 -0.016649047 -0.05590796 0.07524053 0.032510955 -0.07330347 0.055949435
0.015310126 -0.03640439 0.032817412 0.014145562 0.0020024222 0.026422722 -0.03004883 -0.1030719
-0.089135475 0.070170045 -0.058794633 0.06772988 -0.05313163 0.07407239 -0.06550399 -0.012410251
0.052960314 0.0667881 0.0676235 0.062056977 0.05981554 -0.021914523 -0.065835826 0.0072909277
0.103589065 0.075645745 -0.013012413 -0.063573465 -0.0622779 0.03802343 -0.10060012 0.031034099
-0.03739798 -0.07013574 0.07572421 0.06601532 0.01036914 0.05484576 -0.010327279 -0.03045834
00000000: b92c 333c 3a19 6e3d 6ff3 c5bd 4035 e63c
00000010: e7fe e73c 7004 afbd 253f a3bd 9581 85bd
00000020: 2437 22bd 03a9 a43d 43b6 7dbc 4326 a23d
00000030: 417c 4dbd c2f0 b83d f767 d1bb ecc0 85bd
00000040: 2b71 293d bad8 bebd 4228 93bd 9504 25bd
00000050: 1bfe 90bd 944c 8a3d 674b 8a3d 58bf af3c
00000060: 8998 a63d 8f16 04bd 2240 3ebd b752 02bd
00000070: 8f87 70bd 99cd babd 8208 d8bc 05c0 753c
00000080: 7400 713d 2ea2 9a3d 9ee7 8bbd 1426 0cbb
00000090: 8c4c 103c a8d8 86bd b0e1 b1bc 3130 87bd
000000a0: 8f34 f23c 6a2f 5cbc ac68 893b 2ee0 273d
000000b0: eb08 b63d 4edf f53b 1a50 1a3d 096d 0d3d
000000c0: 52fe a63d eee4 a43d 7be7 e7bc 352e af3d
000000d0: 7036 48b8 db5c 6ebd d12a 9ebd c7a9 69bd
000000e0: 7029 8ebd 47a1 4c3d c33f 0fbc bfd9 c53d
000000f0: 71ad 00bd dbfa bfbd 9a12 09bd 88f8 8d3d
00000100: f985 f4bc 3a8c 903c a0c9 68bc 1330 7d3c
00000110: db5e 91bd f5be 8cbd 08af e93b 1761 5abd
00000120: 00b1 b53c bdf8 d23c b985 923d 92ed 963b
00000130: 121d a4bd 5f72 ca3d ddbf d7bd 3c09 99bd
00000140: d1c1 b53d 526f c2bc 9563 88bc bfff 64bd
00000150: b517 9a3d 352a 053d 2120 96bd 3c2b 653d
00000160: 53d7 7a3c c51c 15bd 8d6b 063d cac2 673c
00000170: 123b 033b 7774 d83c f728 f6bc 5c17 d3bd
00000180: a98c b6bd 50b5 8f3d a4d2 70bd f7b5 8a3d
00000190: 8da0 59bd 44b3 973d f526 86bd 5e54 4bbc
000001a0: eaec 583d 33c8 883d 317e 8a3d 752f 7e3d
000001b0: 2401 753d 1686 b3bc efd4 86bd bce8 ee3b
000001c0: 8126 d43d 28ec 9a3d 0432 55bc ce32 82bd
000001d0: 1c17 7fbd 75be 1b3d 7007 cebd 393b fe3c
000001e0: a02e 19bd 54a3 8fbd 4b15 9b3d 0a33 873d
000001f0: 53e3 293c f3a5 603d bf33 29bc c583 f9bc
