Results/gm_k562/gm_k562_aux_siamese/gm_k562_aux_siamese_R2_model.pt (torch_old, 517828 bytes, 122 tensors)

weight_ih_l0 f4 [128, 1]
0	0x3e16e1bd	0.1473455
1	0xbd78eb01	-0.060770992
2	0x3dffcfb2	0.124907866
3	0x3d88ea0c	0.06685266
4	0x3de72706	0.1128674
5	0x3deef824	0.11668423
6	0x3d26da1e	0.040735357
7	0xbd49e020	-0.049286008
8	0x3dbbd7a0	0.091719866
9	0xbcec6019	-0.028854417
10	0x3e17b1e2	0.1481395
11	0x3d9d17be	0.07670544
12	0xbce2ac1c	-0.027669959
13	0x3d9cf2e0	0.07663512
14	0x3d8261a6	0.06366281
15	0x3b9fabc6	0.004872772
16	0x3da5630c	0.08075532
17	0x3d8c2eea	0.06844886
18	0xbc7d3e68	-0.015456773
19	0x3dd2724d	0.102757074
20	0x3d3baf71	0.04582161
21	0x3dee1bf4	0.116264254
22	0x3cd5053a	0.026003469
23	0xbd448d17	-0.047986116
24	0x3cbfab22	0.023397032
25	0x3b75feee	0.0037535983
26	0xbcf9ed32	-0.030508611
27	0x3c0ed4fe	0.0087177735
28	0x3d9eb8f0	0.07750118
29	0x3e0f98e3	0.14023165
30	0x3b2a8183	0.0026017136
31	0x3d3bea9e	0.045878045
32	0x3a0714ce	0.00051529414
33	0xba1d1218	-0.0005991771
34	0x3beba842	0.0071916888
35	0xbd1b00a8	-0.037842423
36	0x3d65d3e2	0.05611027
37	0x3e0b86db	0.13625662
38	0x3cad7746	0.021175038
39	0xbc8355f3	-0.016032195
40	0xbc4c8735	-0.012483408
41	0x3b0736a9	0.0020631945
42	0x3e192db6	0.14958844
43	0xbb889e70	-0.004169278
44	0xbd472b9d	-0.048625577
45	0x3da6f38b	0.08151921
46	0xbcb19e4f	-0.021681933
47	0x3c04cfa9	0.008106151
48	0xbd62ac47	-0.055340078
49	0xbbdab5ef	-0.00667452
50	0x3dc47dc7	0.095943026
51	0xbd08d360	-0.033404708
52	0xbd96b948	-0.07359558
53	0x3de901bc	0.11377284
54	0x3d4a20f2	0.049347825
55	0x3cf19eae	0.02949461
56	0x3df70183	0.12060835
57	0x3d27a67f	0.040930267
58	0x3d582d05	0.05277731
59	0xbc6df815	-0.014524479
60	0x3df3ed33	0.119104765
61	0x3d2a9574	0.041646436
62	0x3c814101	0.015778067
63	0x3d3c4a3a	0.045969225
64	0xbda58640	-0.08082247
65	0xbc544992	-0.012956994
66	0x3e0b1363	0.13581614
67	0x3e0b67c5	0.13613804
68	0xbe0a8fe3	-0.13531451
69	0xbd96ecd2	-0.07369389
70	0xbd56eff9	-0.05247495
71	0xbcd622d8	-0.026139662
72	0xbdb3b26f	-0.08774268
73	0xbdf07c8f	-0.11742508
74	0xbdb4f3ba	-0.0883555
75	0x3d99d1c2	0.07510711
76	0x3d8dbd74	0.06920901
77	0x3dcea913	0.10090842
78	0x3ca59a0f	0.020215062
79	0xbd85f731	-0.06541289
80	0x3c076d1a	0.008265758
81	0xbdacfb91	-0.0844642
82	0x3dd02be7	0.10164624
83	0x3e04d06c	0.12970132
84	0xbd02dc0c	-0.031948134
85	0x3df901fc	0.121585816
86	0xbd8cb75a	-0.06870909
87	0xbd137684	-0.036001697
88	0xbd939510	-0.07206166
89	0xbd90a035	-0.07061807
90	0xbde8a8f0	-0.11360347
91	0x3c628c33	0.013827371
92	0xbd87ef5e	-0.066374525
93	0xbc484205	-0.0122227715
94	0xbda4a75d	-0.080397345
95	0x3dc69942	0.096972
96	0x3e214ecf	0.1575272
97	0x3db8f784	0.09031585
98	0x3db25e3f	0.08709382
99	0x3cb9c0bd	0.022674913
100	0xbc9749a5	-0.018467734
101	0xbd0d2d67	-0.034467127
102	0xbc57bae2	-0.013167115
103	0x3cfe2103	0.0310216
104	0x3e11ab6a	0.14225546
105	0x3e27a06d	0.16369791
106	0x3e18bcd1	0.14915778
107	0x3e16bd1a	0.14720574
108	0x3d133600	0.03594017
109	0x3d241191	0.040055815
110	0x3ca314e0	0.019907415
111	0x3d229fb3	0.039703082
112	0xbd7bd57b	-0.061482888
113	0x39ca0560	0.00038532447
114	0x3b4411e7	0.0029917897
115	0x3d517176	0.051133595
116	0x3c9bbf15	0.019012013
117	0xbc9faa83	-0.019490486
118	0xbd03d0a4	-0.032181397
119	0x3d8526e2	0.06501557
120	0xbd314415	-0.04327782
121	0x3da6940e	0.08133708
122	0x3c14249c	0.0090419315
123	0x3c7cd9d7	0.015432796
124	0x3d1308dd	0.035897125
125	0x3e087ed1	0.13329627
126	0x3de3edff	0.111293785
127	0x3d82c5fb	0.06385418

weight_hh_l0 f4 [128, 32]
0	0xbcc3b67d	-0.023890728
1	0xbc04c87d	-0.008104441
2	0x3dad963c	0.084759206
3	0x3c621ca0	0.01380077
4	0x3d22f0a8	0.03978029
5	0x3dd50abb	0.10402437
6	0xbe00a4b7	-0.12562834
7	0x3d8a57dc	0.06755039
8	0xbd05db66	-0.032679938
9	0x3d1810b2	0.037125297
10	0x3ca87be1	0.020566883
11	0xbcd3e0c8	-0.02586402
12	0xbe0535b9	-0.13008775
13	0x3dd5631f	0.104192965
14	0xbd777229	-0.060411606
15	0xbcdce0fa	-0.026962746
16	0x3c7ae8ec	0.015314322
17	0xbdfcb0b0	-0.12338388
18	0x3d4fb2e8	0.050707728
19	0x3d76a697	0.060217466
20	0xbe113ce1	-0.1418338
21	0x3e061a22	0.13095906
22	0x3e107902	0.14108661
23	0x3e01014c	0.12598151
24	0x3c92c175	0.017914513
25	0x3d933b74	0.07189074
26	0xbd412f3d	-0.04716419
27	0x3df1d705	0.1180859
28	0x3de39a0f	0.11113369
29	0x3d3b32c8	0.045702726
30	0x3ceeb291	0.029137881
31	0x3dbe63af	0.09296357
32	0x3d64d1c5	0.055864114
33	0x3e0ad27b	0.13556854
34	0x3db85f47	0.09002548
35	0x3d2bbbba	0.041927077
36	0x3d227c59	0.03966937
37	0x3d88754b	0.06662997
38	0xbd8a15b6	-0.06742422
39	0xbc8a4d18	-0.016882464
40	0xbda846a5	-0.082165994
41	0xbe13745b	-0.14399855
42	0xbe19b488	-0.15010273
43	0x3ca4a721	0.020099225
44	0xbda07be2	-0.07836129
45	0x3db3ce82	0.087796226
46	0xbd0db54a	-0.03459672
47	0x3d67e7fa	0.056617714
48	0xbdc46677	-0.09589856
49	0xbe24d86b	-0.16098182
50	0xbcc3728a	-0.023858327
51	0x3e11698b	0.14200418
52	0xbd0ba8bd	-0.03409647
53	0x3d9cdf82	0.07659818
54	0x3d3065d6	0.04306587
55	0x3db52bd9	0.08846254
56	0xbc8ccef0	-0.01718852
57	0x3aa70622	0.0012742917
58	0xbe060305	-0.1308709
59	0x3d0ea111	0.034821574
60	0x3dad72f4	0.08469191
61	0xbd207531	-0.039174262
62	0xbde0408e	-0.10949813
63	0x3d39309b	0.04521237
64	0xbc7d6a99	-0.015467309
65	0x3deb4fe9	0.11489851
66	0x3d5326e0	0.051550746
67	0x3de7a97a	0.11311622
68	0xbe16761a	-0.1469349
69	0x3bc21ebe	0.005924075
70	0xbd475b1e	-0.04867088
71	0x3d08b0f9	0.0333719
72	0xbdff1ff1	-0.12457264
73	0xbca81492	-0.020517621
74	0xbd8d1b78	-0.06890005
75	0x3dd4778f	0.103743665
76	0xbd48c899	-0.04901943
77	0x3d743ced	0.059628416
78	0xbdab91c1	-0.0837741
79	0x3dbd60a9	0.09246952
80	0xbe04c85d	-0.12967058
81	0x3d0e503c	0.034744486
82	0x3dc3e107	0.09564405
83	0x3e028074	0.12744313
84	0xbda4214b	-0.08014163
85	0x3e227cb0	0.15867877
86	0x3dabb118	0.08383387
87	0x3e0982e0	0.13428831
88	0x3e288f38	0.16460884
89	0x3da70a17	0.08156221
90	0xbd4bdced	-0.049771238
91	0x3d235b90	0.039882243
92	0x3de003af	0.109382026
93	0xbdd1fa8e	-0.10252868
94	0xbdc394ef	-0.09549891
95	0x3e006612	0.12538937
96	0xbd67731e	-0.05650627
97	0x3dd9abe9	0.106284924
98	0x3e1376ac	0.14400738
99	0xbcd1b124	-0.025597163
100	0xbdcbb972	-0.0994748
101	0x3d656ac8	0.056010038
102	0xbdc82a73	-0.097737215
103	0x3bc0db01	0.0058854823
104	0xbe0da03e	-0.13830659
105	0xbd3fa8da	-0.04679189
106	0xbdcf26a5	-0.10114793
107	0x3d40cb05	0.047068615
108	0x3b87b2ad	0.004141173
109	0x3dbd7886	0.09251504
110	0xbdefd057	-0.117096595
111	0x3d85a530	0.06525648
112	0xbc4bcd77	-0.012439123
113	0xbd49de0d	-0.04928403
114	0x3a7ba74f	0.0009599821
115	0xbc90ab36	-0.017659765
116	0xbd562779	-0.052283738
117	0xbc45156f	-0.012029036
118	0x3e10e750	0.14150739
119	0x3e0d7905	0.13815697
120	0x3e223264	0.15839535
121	0x3db99011	0.090606816
122	0xbdccbfe7	-0.0999754
123	0x3dcf1853	0.10112061
124	0x3d9a9c74	0.07549372
125	0xbe1c2e2f	-0.15251993
126	0xbddd6313	-0.108099125
127	0x3d9acc2d	0.07558475
128	0xbdcef5a4	-0.10105446
129	0x3db203a4	0.08692101
130	0x3dda156b	0.106486164
131	0x3d5c1f0f	0.053740557
132	0xbdea597d	-0.1144285
133	0x3d0a78fc	0.033806786
134	0xbe26702f	-0.16253732
135	0x3d6f41a2	0.0584122
136	0xbc6cb7b8	-0.014448099
137	0xbdb148d4	-0.08656469
138	0xbd7cb831	-0.061699096
139	0x3e1a5b5b	0.15073912
140	0xbd2a0252	-0.04150612
141	0xbc09758a	-0.00838984
142	0xbe0b08dc	-0.13577598
143	0x3df663eb	0.120307766
144	0xbdd672a0	-0.10471082
145	0xbc978efd	-0.0185008
146	0x3de851dd	0.11343739
147	0x3d22a48d	0.03970771
148	0x3b72de27	0.0037058683
149	0x3d2a7843	0.041618597
150	0x3e33ae50	0.17546964
151	0x3d5813e7	0.052753355
152	0x3dbb10f0	0.0913409
153	0x3e034ed4	0.1282304
154	0x3cb81a95	0.022473613
155	0x3dd2545c	0.102699965
156	0x3ccd6fdc	0.025077753
157	0xbd697c8d	-0.057003547
158	0xbd9f9414	-0.077919155
159	0xbc81ba7e	-0.015835997
160	0xbe085c3e	-0.13316438
161	0x3c8a05d7	0.016848488
162	0x3d7b2fe6	0.061324976
163	0x3daa4f5b	0.08315917
164	0xbcda12f6	-0.02662037
165	0x3da45304	0.080236465
166	0xbd8002b7	-0.06250518
167	0x3d8d4904	0.06898692
168	0xbe08fd1d	-0.13377805
169	0xbdd1568a	-0.10221584
170	0xbd637526	-0.055531643
171	0x3dc7a262	0.09747769
172	0xbcbd456f	-0.023104398
173	0x3df69c63	0.12041547
174	0xbc6e94a8	-0.01456181
175	0x3d3cbd35	0.04607888
176	0x3b7481f0	0.0037308894
177	0xbccd6844	-0.025074132
178	0x3e13e3fe	0.14442441
179	0x3ce901d9	0.028443264
180	0xbdeed411	-0.11661542
181	0x3e07f782	0.1327801
182	0x3d907e8b	0.07055386
183	0x3d8796ef	0.06620585
184	0xbcf584da	-0.029970575
185	0xbd543509	-0.05180839
186	0x3cb653da	0.02225678
187	0x3dfa4fce	0.12222253
188	0xbb54fa6d	-0.0032497898
189	0xbdf3ad0e	-0.11898242
190	0xbdb32040	-0.087463856
191	0x3dd1f9ca	0.102527216
192	0xba8a95fe	-0.0010573266
193	0x3e19fd19	0.15037955
194	0x3b64241f	0.003481157
195	0x3e25acad	0.16179152
196	0x3bb402c9	0.005493496
197	0x3c6232c3	0.013806048
198	0xbe317774	-0.17330724
199	0xbc786c08	-0.015162475
200	0x3bedfbef	0.007262699
201	0xbceec038	-0.029144391
202	0x3c75c6ba	0.015000993
203	0xbc406bb2	-0.011744427
204	0xbd5cbcef	-0.05389112
205	0x3e0358d9	0.12826861
206	0xbdacc887	-0.08436685
207	0x3ce14af5	0.027501563
208	0xbdb4af4d	-0.088224985
209	0x3c7181b8	0.0147404
210	0x3bb1c303	0.0054248585
211	0x3e12a6c4	0.14321429
212	0x3d579401	0.052631382
213	0xbcb79a49	-0.022412436
214	0x3d6c799b	0.05773316
215	0xbadc4b69	-0.0016807142
216	0xbc9a741a	-0.01885419
217	0x3e16fa38	0.14743888
218	0xbe003c36	-0.12522969
219	0x3d7045b1	0.058660213
220	0x3df317b8	0.11869758
221	0xbdc4559c	-0.09586641
222	0xbd7f9a2c	-0.06240289
223	0x3d4bb015	0.04972847
224	0x3d5d35cd	0.054006387
225	0x3d1fa676	0.03897711
226	0x3dcb8a35	0.0993847
227	0x3dba8fd2	0.09109463
228	0xbde82fb6	-0.11337225
229	0x3d5b6d8e	0.053571276
230	0xbd5fac6d	-0.054607797
231	0x3e09282a	0.13394228
232	0xbc9504bb	-0.018190732
233	0x3d051602	0.03249169
234	0xbd33c811	-0.04389197
235	0x3d6e38d9	0.058159683
236	0xbdf111ce	-0.11770974
237	0x3d7b8504	0.06140615
238	0x3d178d4e	0.036999993
239	0x3cb252c8	0.021767989
240	0xbe0d0c07	-0.1377412
241	0xbde28249	-0.11060006
242	0x3e047966	0.12936935
243	0xbb517683	-0.0031961508
244	0xbd600a56	-0.054697357
245	0x3e029fcf	0.12756275
246	0x3d5e151d	0.054219354
247	0xbd530fc4	-0.051528707
248	0x3dca2be9	0.098716564
249	0x3d9e4866	0.07728653
250	0xbe18763c	-0.14888853
251	0x3d92b4dc	0.071634024
252	0x3db40573	0.08790102
253	0xbd1141db	-0.035463195
254	0xbe089bda	-0.13340703
255	0x3dfdafd7	0.123870544

bias_ih_l0 f4 [128]
0	0xbc0bfb24	-0.008543763
1	0x3d573b99	0.05254707
2	0x3db5b10e	0.08871661
3	0x3e24c10a	0.16089264
4	0x3df1feea	0.11816199
5	0x3db076a7	0.08616381
6	0x3d20f509	0.039296184
7	0xbcbad12f	-0.022804825
8	0x3dcb24c0	0.09919119
9	0x3e2e1224	0.16999108
10	0x3e14896b	0.14505546
11	0x3d906086	0.070496604
12	0x3e084691	0.13308169
13	0x3dfe188c	0.12407026
14	0x3d8e00da	0.06933756
15	0xbbf03176	-0.007330115
16	0x3d828aed	0.06374154
17	0x3e09c4fa	0.13454047
18	0x3d178da7	0.037000325
19	0x3c05cb57	0.008166156
20	0x3d135850	0.035972893
21	0x3db51595	0.08842007
22	0x3dc1b8c9	0.09459073
23	0x3df89624	0.12138012
24	0x3d83a72c	0.0642837
25	0x3e06ac4f	0.13151668
26	0x3d717a04	0.058954254
27	0xbd713bab	-0.058894794
28	0x3dbc2083	0.091858886
29	0xbbc7b56a	-0.0060946243
30	0x3da48059	0.08032293
31	0x3be9b760	0.0071324557
32	0x3da79428	0.081825554
33	0x3e161bbf	0.14659022
34	0xbadb6c3a	-0.0016740628
35	0x3dfb4628	0.122692406
36	0x3d175a98	0.03695163
37	0xbc5cc191	-0.013473884
38	0x3d27c660	0.04096067
39	0xbd429f34	-0.04751511
40	0x3d91750a	0.071024016
41	0x3c1b9bb6	0.009497574
42	0x3e1027ce	0.14077684
43	0x3dff2e4f	0.124600045
44	0x3e2b012d	0.16699667
45	0x3e250514	0.16115218
46	0x3d15e491	0.03659493
47	0x3e24254e	0.16029856
48	0x3d5557a4	0.052085534
49	0x3d8b0449	0.06787927
50	0x3d359143	0.044327985
51	0x3cce4370	0.025178641
52	0x3bd8f93d	0.0066215084
53	0x396e36c3	0.00022717849
54	0x3c236c76	0.00997459
55	0xbcaa582b	-0.020793995
56	0x39b2b513	0.00034085716
57	0x3d38c455	0.04510911
58	0x3e1a19fc	0.15048975
59	0x3d90cac1	0.07069922
60	0x3d86afaf	0.06576478
61	0x3d71e92b	0.059060257
62	0x3e170ec6	0.1475173
63	0x3e298c99	0.1655754
64	0x3d1c5606	0.038167976
65	0x3e0bc305	0.13648613
66	0x3deb32c3	0.114842914
67	0x3c979008	0.018501297
68	0xbe012b74	-0.12614232
69	0xbd04b0b0	-0.032395065
70	0xbdf85f7f	-0.121275894
71	0x3d6ec697	0.05829486
72	0xbcdced69	-0.026968675
73	0xbda4e1bc	-0.08050868
74	0xbe22603c	-0.15857023
75	0x3e08e114	0.1336711
76	0xbe018e2a	-0.12651888
77	0x3e15a528	0.14613783
78	0xbdc23c81	-0.094841965
79	0x3de79d22	0.113092676
80	0xbe070e2d	-0.13189001
81	0xbd63fcd2	-0.05566103
82	0xbc21f927	-0.009886063
83	0x3df07a7d	0.11742113
84	0xbc6d43bc	-0.014481481
85	0x3dedfe5f	0.11620783
86	0x3d817b24	0.06322315
87	0x3e1b9547	0.15193664
88	0x3de3f59b	0.1113083
89	0x3e114851	0.14187743
90	0xbd54755a	-0.051869728
91	0xbd5657f3	-0.05232997
92	0x3d67fbb2	0.05663652
93	0xbe110c31	-0.14164807
94	0x3b4d93ed	0.0031368688
95	0x3dc01077	0.093781404
96	0x3d3c68ae	0.045998268
97	0x3cd8b680	0.02645421
98	0x3d8ef0ed	0.06979547
99	0x3e1d96e1	0.15389587
100	0x3e11ac27	0.14225827
101	0x3beded20	0.0072609335
102	0x3dbaa87c	0.09114167
103	0xbcb495db	-0.022044113
104	0x3c70fde6	0.014708972
105	0x3e30f87f	0.17282294
106	0x3d0bfb88	0.034175426
107	0x3d39c1c2	0.045350797
108	0x3e2aa46e	0.16664287
109	0x3d8e3c0a	0.06945045
110	0x3d916138	0.07098621
111	0x3def873a	0.11695714
112	0x3e031f60	0.12804937
113	0x3c46709d	0.01211181
114	0x3cec7f3d	0.028869266
115	0x3e10046d	0.14064188
116	0xbc332d91	-0.010936157
117	0x3dc80b4a	0.09767778
118	0x3c2b76c5	0.010465329
119	0xb9cc9c9c	-0.00039026595
120	0x3d55dc28	0.05221191
121	0x3e1ad06e	0.15118572
122	0x3c9a0b93	0.018804347
123	0x3cf8af2b	0.030356964
124	0xbcab82a9	-0.020936327
125	0x3b0e8f0a	0.0021752738
126	0x3dc3eba3	0.095664285
127	0xbc09dfc9	-0.008415171

bias_hh_l0 f4 [128]
0	0x3dbf7d96	0.093501255
1	0x3d2349f5	0.039865453
2	0x3e162020	0.14660692
3	0xbcb99b1b	-0.022656968
4	0x3e0c18bd	0.13681312
5	0x3d38ff3b	0.04516528
6	0x3e1146ef	0.14187215
7	0x3de1ef9b	0.11032029
8	0x3e051b7f	0.1299877
9	0x3d1a84dd	0.037724365
10	0x3d136a75	0.035990197
11	0x3e31db11	0.17368723
12	0x3cffd59e	0.03122979
13	0xbcd12135	-0.02552853
14	0xbb8dfa70	-0.004332833
15	0x3ddd69dd	0.108112074
16	0x3e124fff	0.14288329
17	0x3e093554	0.1339925
18	0x3dbf342b	0.09336122
19	0x3d54df9b	0.05197106
20	0x3d644bb8	0.055736274
21	0xbc4ff43f	-0.01269251
22	0x3e12f010	0.14349389
23	0x3db94b13	0.090475224
24	0x3dbe4786	0.09290986
25	0x3d3bf4f2	0.045887895
26	0xbb8f6d3c	-0.0043770354
27	0x3d057469	0.03258172
28	0x3db68761	0.0891254
29	0x3c96b576	0.018397074
30	0x3e08db96	0.13365015
31	0x3d489526	0.048970364
32	0x3d91fc37	0.07128184
33	0xbc265a14	-0.010153312
34	0x3de84d59	0.11342878
35	0x3d93bb89	0.07213504
36	0x3cc80b6b	0.024419507
37	0x3d0a6a85	0.03379299
38	0x3da22e16	0.079189464
39	0x3d042fca	0.032272138
40	0x3a2ce6d7	0.0006595677
41	0x3e2b8d03	0.1675301
42	0x3e1b0009	0.15136732
43	0x3e210f1c	0.1572842
44	0x3e0fa148	0.14026368
45	0x3ddac5a7	0.106822304
46	0x3e2d9382	0.16950801
47	0x3dc43c1b	0.09581777
48	0x3dac1e24	0.08404186
49	0x3dee78af	0.11644112
50	0x3da15232	0.07877006
51	0x3c36fde7	0.0111689335
52	0x3dabff98	0.0839836
53	0x3d04f263	0.03245772
54	0x3ceebcbe	0.029142734
55	0x3ddee0c8	0.10882717
56	0x3d0dce50	0.034620583
57	0x3e2987c3	0.16555695
58	0x3db60142	0.08886959
59	0x3e04d519	0.12971915
60	0x3cc889b3	0.024479723
61	0x3d2bd92c	0.041955158
62	0x3c1d52f0	0.009602293
63	0x3ca7be4e	0.020476487
64	0xbe0a0860	-0.13479757
65	0x3da3d90e	0.08000384
66	0x3ddb47ce	0.10707055
67	0x3df83f2a	0.121214226
68	0xbd8d8f2b	-0.06912073
69	0x3c58f281	0.013241411
70	0xbe18c7ff	-0.14920042
71	0x3ceab5cc	0.02865114
72	0xbdc96fda	-0.09835787
73	0xbdb66dec	-0.08907685
74	0xbe22e492	-0.15907505
75	0x3d88d756	0.06681697
76	0xbbcc0e53	-0.0062272935
77	0x3dfe2fa9	0.12411434
78	0xbdf417e2	-0.11918618
79	0x3d409593	0.047017645
80	0xbcd5883b	-0.026065936
81	0xbd10681d	-0.03525554
82	0x3cb5954e	0.02216592
83	0x3cd3a134	0.025833704
84	0x3ca0df39	0.01963769
85	0x3db2f96f	0.08738982
86	0x3e276cbc	0.16350073
87	0x3e0edd6b	0.13951652
88	0x3e1f349b	0.15547411
89	0x3e2a6526	0.16640148
90	0xbd58ad2b	-0.05289952
91	0x3d959ac4	0.0730491
92	0x3d6c15b4	0.057637885
93	0xbdff79f8	-0.124744356
94	0xbe24fc0c	-0.16111773
95	0x3e142113	0.14465742
96	0xbcc8b194	-0.024498738
97	0x3baee45e	0.005337282
98	0x3e1b2de3	0.15154223
99	0x3c91a4f9	0.01777886
100	0xbc80db42	-0.01572955
101	0xb8b50450	-8.631556e-05
102	0x3dc75a35	0.097340025
103	0x3c7f5b42	0.015585722
104	0x3c12b958	0.008955322
105	0x3d06b785	0.03288986
106	0x3d963179	0.07333655
107	0x3d8f6fb4	0.070037276
108	0x3e113a2f	0.14182352
109	0xbca76ebc	-0.020438544
110	0x3d3bf18d	0.045884658
111	0x3de195c6	0.11014895
112	0x3d03b041	0.03215051
113	0xb9294172	-0.00016141476
114	0xbcd33711	-0.025783094
115	0x3e28f4cf	0.16499637
116	0xbd3e0de2	-0.04639996
117	0x3d24e70f	0.040259417
118	0x3d7738cb	0.060356896
119	0x3e2d669d	0.16933675
120	0x3daed356	0.08536403
121	0xbc11fb3e	-0.008909998
122	0x3cdae34b	0.02671971
123	0x3df2782c	0.11839327
124	0x3cdd5f84	0.027023084
125	0x3e11ba29	0.1423117
126	0x3e1edc0c	0.15513629
127	0x3e185578	0.14876354

weight_ih_l0_reverse f4 [128, 1]
0	0xbbf44de1	-0.007455573
1	0xbd18eccc	-0.037335202
2	0x3e0b0eb8	0.13579834
3	0x3c25bb28	0.010115422
4	0x3e2d4922	0.16922429
5	0x3c70df51	0.01470168
6	0xbc97a07b	-0.01850914
7	0x3d3dd95e	0.046349876
8	0x3e08587f	0.13315009
9	0x3cbd6717	0.023120446
10	0x3e12ba61	0.1432891
11	0x3d1ae881	0.03781939
12	0xbc558061	-0.013031096
13	0x3dd58bca	0.10427053
14	0x3e1335c0	0.14375973
15	0xbd563cfa	-0.052304246
16	0xbcca6ecb	-0.024711033
17	0x3d566efd	0.05235194
18	0x3c96eabd	0.018422479
19	0xbda23807	-0.079208426
20	0x3dd303f0	0.103034854
21	0x3dd44d7f	0.10366344
22	0x3d6d506f	0.057938036
23	0x3da40c87	0.08010202
24	0x3de2f5da	0.11082049
25	0x3e10b7c5	0.14132603
26	0x3db110a5	0.08645753
27	0x3dd08577	0.101817064
28	0x3d5316b6	0.05153533
29	0x3d21ae0a	0.039472617
30	0x3cb70548	0.022341385
31	0x3a8fdde3	0.0010976162
32	0x3dd18e7d	0.102322556
33	0x3ce5315d	0.02797764
34	0xbd04c768	-0.03241673
35	0xbd227f2a	-0.039672054
36	0x3c4f2c70	0.012644872
37	0x3dd94c42	0.10610248
38	0x3d30cc13	0.04316337
39	0xbcec9541	-0.028879764
40	0xbb9a76fa	-0.00471389
41	0xbc8e8a3f	-0.017399905
42	0x3e243a77	0.16037928
43	0xbcc7ce1d	-0.024390275
44	0x3da483a6	0.080329224
45	0x3e0415c6	0.12898931
46	0x3d12d2b2	0.035845466
47	0x3dd930e6	0.1060503
48	0xbc751c42	-0.0149603505
49	0x3d487d06	0.048947357
50	0xbccb7ee0	-0.024840772
51	0x3d816b37	0.06319278
52	0x3d2be559	0.04196677
53	0xbbf901bc	-0.0075990837
54	0x3da8d402	0.08243562
55	0x3decf11a	0.11569424
56	0x3e1790ce	0.14801332
57	0xbc987bf6	-0.018613797
58	0x3ce433f0	0.027856797
59	0x3c0f866e	0.008760078
60	0xbca16f74	-0.019706465
61	0xbc6153f6	-0.013752928
62	0x3c7a80d3	0.015289503
63	0x3e07ea96	0.13273081
64	0x3d408cf8	0.04700944
65	0x3d9466e9	0.07246191
66	0x3e1821c4	0.1485663
67	0xbe0112e0	-0.12604856
68	0xbdb4ec20	-0.088341
69	0xbe0f35fb	-0.13985436
70	0x3d7bc6ca	0.061468877
71	0xbd55f562	-0.05223597
72	0x3d88a2a9	0.0667165
73	0xbe07e58f	-0.13271163
74	0x3e12eab3	0.14347343
75	0xbc65c6f1	-0.014024482
76	0xbe2376f5	-0.15963347
77	0xbd929b6f	-0.07158553
78	0xbcd20166	-0.025635432
79	0xbdd57ad7	-0.104238205
80	0xbc167c12	-0.009184854
81	0xbdd6909d	-0.104768015
82	0x3db43ab2	0.08800258
83	0x3c8b57c7	0.017009629
84	0xbd29ee3e	-0.04148697
85	0xbc397eec	-0.011321764
86	0xbdab14c7	-0.08353572
87	0x3de6ccff	0.11269569
88	0xbe178280	-0.14795876
89	0xbd6e4985	-0.058175582
90	0x3e21cf09	0.15801634
91	0xbd9023fb	-0.07038113
92	0x3c0bec94	0.008540291
93	0x3dad3bd6	0.084586784
94	0xbcf363cf	-0.029710678
95	0xbe153a52	-0.14573029
96	0xbc742653	-0.014901715
97	0xbd00ec4b	-0.031475347
98	0x3e0d34aa	0.13789621
99	0x3e11e072	0.14245775
100	0x3e07fe65	0.13280638
101	0x3d64281b	0.05570231
102	0x3d4b859e	0.049687974
103	0x3dadf418	0.08493823
104	0x3d65c5a9	0.056096707
105	0x3d946273	0.0724534
106	0x3dabb4de	0.08384107
107	0x3d425ab5	0.047449786
108	0x3db35c80	0.08757877
109	0x3b602675	0.003420261
110	0x3cd19189	0.025582092
111	0x3d8e9e55	0.06963793
112	0x3dd3fb9c	0.10350725
113	0xbd828807	-0.063736014
114	0xbbfe99da	-0.0077698054
115	0xbdcb23d3	-0.09918942
116	0x3dbbe982	0.091753975
117	0x3de87836	0.113510534
118	0xbcad9cf4	-0.021193005
119	0x3ccba631	0.02485952
120	0x3c4a0d92	0.012332337
121	0x3cd98753	0.026553785
122	0x3d8db0c0	0.06918478
123	0x3df90441	0.121590145
124	0x3db4dce1	0.08831192
125	0x3cd9dbd5	0.026594082
126	0xbd0161f7	-0.031587567
127	0x3d724487	0.059147384

weight_hh_l0_reverse f4 [128, 32]
0	0xbe104449	-0.14088549
1	0xbe131701	-0.14364244
2	0x3d2d7ba5	0.042354245
3	0xbaebbc32	-0.0017985164
4	0xbdf9b925	-0.12193517
5	0xbddffefa	-0.10937305
6	0xbdc7e424	-0.09760311
7	0x3deeefd9	0.11666841
8	0x3df214c5	0.11820368
9	0xbd019c12	-0.03164298
10	0x3bb2f4ab	0.0054612956
11	0x3bd32085	0.0064430856
12	0x3b8a7cf2	0.0042263204
13	0x3d6547f5	0.055976827
14	0xbe188e52	-0.14898041
15	0xbd845a97	-0.06462591
16	0x3e2b005d	0.16699357
17	0x3cf92067	0.030410958
18	0x3c8cd55a	0.017191578
19	0x3cf390f2	0.029732201
20	0xbe24d626	-0.16097316
21	0x3daea22a	0.08527024
22	0x3d4e6494	0.050388888
23	0xbdf4988d	-0.11943159
24	0xbd873889	-0.0660258
25	0xbc6d4961	-0.014482827
26	0xbbd98ca3	-0.0066390797
27	0xbce3a45f	-0.02778834
28	0xbd8e4df5	-0.06948463
29	0xbc8c8fc1	-0.017158391
30	0x3d5e2eab	0.054243725
31	0xbd3f8a26	-0.046762608
32	0xbe09870d	-0.13430424
33	0xbd1135c5	-0.03545167
34	0x3d925ab8	0.071462095
35	0x3cdf457a	0.027254809
36	0xbe14b911	-0.14523722
37	0xbe2c511d	-0.16827817
38	0xbd21b689	-0.03948072
39	0x3d6bef18	0.057601064
40	0xbc965052	-0.018348847
41	0xbe24d026	-0.16095027
42	0x3da4ec45	0.08052877
43	0x3cc861d0	0.024460703
44	0x3d32f1f1	0.043687765
45	0x3cd40f31	0.02588615
46	0xbdcb6f75	-0.09933368
47	0x3d72d16e	0.05928176
48	0x3e12bc19	0.14329566
49	0xbc8271a0	-0.015923321
50	0x3d0b512a	0.03401295
51	0x3dadeee3	0.0849283
52	0xbc8fb3c7	-0.01754178
53	0x3c630e96	0.013858458
54	0x3d65b4f6	0.05608078
55	0x3c7cca97	0.015429161
56	0xbe0547fe	-0.13015744
57	0x3dd58a40	0.1042676
58	0x3d876ccb	0.066125475
59	0xbd027ff8	-0.03186032
60	0xbe2e96fe	-0.17049786
61	0x3da08e5b	0.07839652
62	0xbd913020	-0.07089257
63	0xbdc62d9d	-0.09676669
64	0xbd871d07	-0.065973334
65	0xbc92cac1	-0.017918946
66	0x3d16edf7	0.036848035
67	0xbd8d5559	-0.069010444
68	0xbe3c836c	-0.18409508
69	0xbc4cbed7	-0.012496672
70	0xbd2befe7	-0.041976836
71	0x3d511340	0.05104375
72	0x3c108c62	0.008822532
73	0xbe2877b7	-0.16451918
74	0xbb812437	-0.0039410847
75	0xbd17f67c	-0.0371003
76	0xbc4e6ecb	-0.012599657
77	0xbdbd540f	-0.092445485
78	0x3c065503	0.008198979
79	0xbca5b715	-0.020228902
80	0x3dd3adb3	0.10335865
81	0x3db04211	0.08606351
82	0xbdb00438	-0.08594555
83	0x3d278cd3	0.040905785
84	0xbe13b28e	-0.14423582
85	0xbd0ed13b	-0.034867506
86	0x3e22cca4	0.15898377
87	0xbdef5e82	-0.11687948
88	0xbb9e3235	-0.0048277625
89	0x3d59b36c	0.053149626
90	0x3e39d44e	0.18147394
91	0xbc9d511b	-0.019203713
92	0xbd916d3a	-0.071009114
93	0x3d9fddf5	0.07806007
94	0xbe09ddb1	-0.13463475
95	0xbcf03871	-0.029323788
96	0xbddf4123	-0.10901096
97	0xbdd6163e	-0.10453461
98	0x3ca28d70	0.019842833
99	0xbdc7066a	-0.0971802
100	0xbdcabb33	-0.09898987
101	0xbd5a2aad	-0.053263355
102	0xbe047b70	-0.12937713
103	0x3e1abd2e	0.15111229
104	0x3db50a07	0.08839803
105	0x3c553353	0.013012725
106	0xbb62d284	-0.003461034
107	0xbd0ab0d6	-0.03386005
108	0xbd2ea659	-0.04263911
109	0x3e1bb8a0	0.15207148
110	0xbdc64faf	-0.09683167
111	0x3cb8678e	0.022510316
112	0xbbfa69ad	-0.007641992
113	0x3e0f8330	0.14014888
114	0xbbfb335e	-0.0076660356
115	0x3d30b3ce	0.043140225
116	0xbd9306c2	-0.07179023
117	0xbca8c8fd	-0.020603651
118	0x3ddc651b	0.10761472
119	0xbe0df8bd	-0.13864417
120	0xbde93f1b	-0.113889895
121	0xbba8892a	-0.0051433044
122	0x3e1131ae	0.14179108
123	0xbda85714	-0.08219734
124	0xbe1ad13d	-0.1511888
125	0x3dff25d2	0.124583855
126	0x3bb25eba	0.005443421
127	0xbd826891	-0.06367601
128	0x3a6c1e06	0.00090071594
129	0xbd8402ec	-0.0644587
130	0x3e27fb4d	0.16404457
131	0x3c2f634e	0.010704828
132	0xbe1737da	-0.147674
133	0xbd5ae131	-0.053437416
134	0x3c581c15	0.013190289
135	0x3da5ccbf	0.08095693
136	0xbce18bb1	-0.02753243
137	0xbd948f65	-0.07253913
138	0xbb5a22ae	-0.003328483
139	0xbd25ac39	-0.040447447
140	0xbe08945a	-0.13337842
141	0x3d077ac4	0.033076063
142	0xbb973861	-0.004614875
143	0xbccc6665	-0.02495117
144	0x3db76a24	0.089557916
145	0xbd371bee	-0.04470437
146	0xbdd453c6	-0.10367541
147	0xbdb49078	-0.08816618
148	0xbd92e27e	-0.07172106
149	0x3cf242e7	0.029572917
150	0x3d674d16	0.05647
151	0x3d93e723	0.0722182
152	0xbd55c2cf	-0.052187737
153	0x3dd215f3	0.10258093
154	0x3c582517	0.013192437
155	0xbe3225c7	-0.17397223
156	0xbd23d392	-0.03999669
157	0xbd05fd72	-0.032712407
158	0xbdbab4a0	-0.09116483
159	0xbd0f1f3f	-0.034941908
160	0x3c79c069	0.015243628
161	0xbe375b94	-0.17906028
162	0x3e111416	0.14167818
163	0x3cacb892	0.021084104
164	0xbda65d89	-0.08123309
165	0xbd9e583f	-0.07731675
166	0xbd64cb23	-0.05585779
167	0x3cf8f001	0.03038788
168	0x3c8fb432	0.017541979
169	0xbe18e76a	-0.14932027
170	0x3d1634a8	0.03667131
171	0x3d082d35	0.033246238
172	0xbe2ad117	-0.16681324
173	0x3d759263	0.05995406
174	0xbdad981c	-0.08476278
175	0xbd86af14	-0.06576362
176	0x3e2bce70	0.16777968
177	0x3d22dfe7	0.03976431
178	0xbd8cbee7	-0.06872349
179	0xbdbd9935	-0.092577375
180	0xbe16b05a	-0.1471571
181	0x3cf1451e	0.029451903
182	0x3ccf1f17	0.02528338
183	0xbd2c2455	-0.042026836
184	0xbe17652d	-0.14784689
185	0x3e2f2952	0.17105606
186	0x3dfec930	0.12440717
187	0xbe369cd6	-0.17833266
188	0xbd858dd9	-0.06521196
189	0xbd6bc8be	-0.05756449
190	0xbd950ba0	-0.07277608
191	0xbd5fde8e	-0.054655604
192	0xbdc2d1b3	-0.09512653
193	0xbe0ccd4e	-0.13750193
194	0x3d959c53	0.07305207
195	0xbdee2598	-0.11628264
196	0xbdc23e3a	-0.09484525
197	0x3c5e3a69	0.013563731
198	0xbd001008	-0.03126529
199	0x3e071685	0.13192184
200	0xbc7bd6eb	-0.015371065
201	0xbdedf2d6	-0.11618583
202	0x3d1609e4	0.036630526
203	0xbd8aadbe	-0.0677142
204	0xbde3847c	-0.11109254
205	0x3dd7d02e	0.10537754
206	0x3ad86c51	0.0016511773
207	0x3d21d241	0.039507154
208	0x3e1e0105	0.15430076
209	0x3c8b6c11	0.017019304
210	0x3ca9f155	0.020744959
211	0xba89a437	-0.001050121
212	0xbe151b65	-0.14561231
213	0xbd32f8cd	-0.043694306
214	0x3cb835ec	0.02248665
215	0xbd15f893	-0.036614012
216	0xbdcb178a	-0.09916599
217	0x3de7f180	0.11325359
218	0x3dd17517	0.10227411
219	0xbd24dced	-0.040249754
220	0xbde164a8	-0.11005527
221	0xbcfa4dfb	-0.030554762
222	0x3d42afa3	0.04753078
223	0xbd9da71d	-0.0769789
224	0x3c9eaf4d	0.0193707
225	0x3b01b9b5	0.0019794528
226	0x3d4ec1ed	0.05047791
227	0xbcfc76b1	-0.030818315
228	0xbe3a89ca	-0.18216625
229	0xbd2062fa	-0.03915689
230	0xbc6bbf98	-0.014388941
231	0x3e178ef0	0.1480062
232	0x3d440303	0.047854435
233	0xbc62e8af	-0.013849421
234	0x3df007c2	0.1172023
235	0xbc1e32ca	-0.009655664
236	0xbd880c05	-0.066429175
237	0xbdbcb3fa	-0.09214015
238	0xbe1fb971	-0.15598084
239	0xbcdd3d0e	-0.027006652
240	0x3e27e01f	0.16394089
241	0xbd363582	-0.044484623
242	0xbd7163b1	-0.058932964
243	0x3d298ac4	0.041392103
244	0xbcb7798f	-0.02239683
245	0xbd3569d9	-0.044290397
246	0x3de830ae	0.1133741
247	0x3d685f1b	0.056731325
248	0xbcfdd8cc	-0.030987166
249	0x3e297f8b	0.1655256
250	0x3e1056bc	0.14095587
251	0xbd54edc4	-0.051984563
252	0xbd81f39c	-0.06345293
253	0x3e0f1b2d	0.1397521
254	0x3d07dd4b	0.033170026
255	0xbdb74cff	-0.08950233

bias_ih_l0_reverse f4 [128]
0	0x3d6470a7	0.055771496
1	0x3dfdd288	0.12393671
2	0x3dbefc9a	0.09325524
3	0x3e1e7f36	0.15478215
4	0x3d4b5654	0.049642876
5	0x3d4f4688	0.050604373
6	0x3bfc35e6	0.007696855
7	0x3e2f6294	0.17127448
8	0x3ca37c1f	0.019956646
9	0x3d674a47	0.05646732
10	0x3e354070	0.17700362
11	0x3c51c3b8	0.012803011
12	0xbb74d230	-0.0037356727
13	0x3aa96b68	0.0012925686
14	0xbbbdc49b	-0.0057912595
15	0x3d773907	0.06035712
16	0x3db2611b	0.08709928
17	0xbcd93ab5	-0.026517252
18	0xbdbe9782	-0.093062416
19	0xbd11b7b3	-0.03557558
20	0x3d89be9a	0.067258075
21	0x3dc762b0	0.0973562
22	0x3d97dd4e	0.074152574
23	0x3de3688b	0.11103924
24	0x3b93de98	0.004512619
25	0x3d872ebe	0.06600712
26	0x3d135184	0.03596641
27	0x3e2e9eb2	0.17052725
28	0x3d2bced8	0.04194531
29	0xbd3f3810	-0.046684325
30	0xbd1a3ea7	-0.037657406
31	0x3e1673b4	0.14692575
32	0x3d4f9b92	0.050685473
33	0x3de46e10	0.11153805
34	0x3e2c185c	0.16806167
35	0x3b275b2b	0.0025536518
36	0x3e092caf	0.13395952
37	0x3dd513df	0.10404181
38	0x3dde79bc	0.10863063
39	0x3e2d74ab	0.16939037
40	0x3e1ff6bd	0.15621467
41	0x3d4910d9	0.049088333
42	0x3e1bd32a	0.15217271
43	0x3d45645d	0.048191417
44	0xbc3b96a2	-0.011449488
45	0xbda2e828	-0.079544365
46	0x3dba765b	0.09104606
47	0xbdadbbd8	-0.08483094
48	0x3d1dd778	0.038535565
49	0x3d126245	0.03573825
50	0x3c9f3c58	0.019437954
51	0x3d2eb382	0.04265166
52	0x3ceb3906	0.028713714
53	0x3d684229	0.05670372
54	0x3de30cfd	0.11086462
55	0xbc8b37c0	-0.016994357
56	0x3e2fda5e	0.17173144
57	0x3da60f61	0.08108402
58	0x3de755fd	0.11295698
59	0x3d547e69	0.051878367
60	0x3cd8939d	0.026437575
61	0x3ba059ef	0.0048935334
62	0xbd5f8f5c	-0.054580078
63	0x3df869a7	0.121295266
64	0xbdbddfe8	-0.09271222
65	0xbe0a5daf	-0.135123
66	0x3e176181	0.14783289
67	0xbdb3cc83	-0.08779242
68	0xbdfc0692	-0.12305941
69	0xbe33f624	-0.17574364
70	0x3d0fcaf2	0.035105653
71	0x3e0ae20e	0.13562796
72	0x3dd34480	0.103158
73	0xbdc8ec74	-0.09810725
74	0x3db6ff70	0.089354396
75	0xbe0e4ea6	-0.1389719
76	0xbd80dc40	-0.06292009
77	0x3ca9beb1	0.020720812
78	0xbdb44533	-0.08802261
79	0xbcfbe851	-0.030750426
80	0x3db15823	0.08659389
81	0xbd02b4b5	-0.031910617
82	0xbd6eb4bf	-0.05827784
83	0xbc423842	-0.011854233
84	0xbe30aba7	-0.1725298
85	0x3d8334a1	0.064065225
86	0x3e0dd203	0.13849644
87	0xbcbeb387	-0.023278965
88	0xbd80a459	-0.06281347
89	0x3dd10f68	0.10208017
90	0x3e02f88c	0.12790126
91	0xbdd7465d	-0.105114676
92	0xbd4c7d51	-0.0499242
93	0x3d2c5cfb	0.04208086
94	0xbc066269	-0.008202174
95	0xbd9c0e08	-0.07619864
96	0x3e2a3afe	0.16624066
97	0x3e37f790	0.17965531
98	0x3da4ac91	0.08040727
99	0x3ccef7e8	0.025264695
100	0x3caeb18d	0.021324897
101	0x3e148198	0.14502561
102	0x3e14b334	0.14521486
103	0x3d096952	0.033547707
104	0x3ca056fe	0.019572731
105	0x3e25cc67	0.16191255
106	0x3e34f808	0.17672741
107	0x3e1ff73d	0.15621658
108	0x3e177ad0	0.14792943
109	0xbd14292b	-0.036172073
110	0x3cd7b71e	0.026332434
111	0x3d862a82	0.065510765
112	0x3e21f07b	0.15814392
113	0xbcffe275	-0.031235913
114	0x3dbd9a3e	0.09257935
115	0x3cb1121a	0.021615077
116	0x3da3c73a	0.07996984
117	0x3debb1fc	0.11508557
118	0x3e2ef584	0.17085844
119	0x3e18c007	0.14917003
120	0x3db94503	0.09046366
121	0x3e00be29	0.1257254
122	0x3e1863e7	0.1488186
123	0x3e385bb1	0.18003727
124	0x3e1c2cd7	0.1525148
125	0xbc92bcbd	-0.017912263
126	0xbd1a9b64	-0.03774585
127	0x3e0b0968	0.13577807

bias_hh_l0_reverse f4 [128]
0	0x3d80ae25	0.062832154
1	0xbc5215c7	-0.012822575
2	0x3da380c3	0.07983544
3	0x3d09ddd0	0.033658803
4	0x3d3cc3f4	0.046085313
5	0x3be115b4	0.0068690423
6	0xbc1dad84	-0.009623889
7	0x3d4f7408	0.050647765
8	0x3d8be21e	0.06830238
9	0x3d846d42	0.06466152
10	0x3e16ea01	0.14737703
11	0xbcd6da82	-0.02622724
12	0xbb797d90	-0.0038069226
13	0x3dcab074	0.09896937
14	0x3e11967f	0.14217566
15	0x3d2dc1cd	0.04242115
16	0x3bebfd4e	0.007201827
17	0x3df8215c	0.12115738
18	0x3d88acf5	0.06673614
19	0x3c69e71f	0.014276295
20	0x3cdcd9cc	0.026959322
21	0x3c92b415	0.017908135
22	0x3d013a8a	0.031549968
23	0x3bc85e05	0.0061147236
24	0x3ceaa02a	0.028640825
25	0x3e3a8945	0.18216427
26	0x3d85e545	0.0653787
27	0x3d339813	0.0438462
28	0x3c37694a	0.011194536
29	0x3d25b2af	0.04045361
30	0xbde16321	-0.110052355
31	0x3dec8f63	0.11550786
32	0x3defa311	0.11701024
33	0x3e1dd21a	0.15412179
34	0x3e00e7c2	0.12588409
35	0x3e101e8c	0.14074153
36	0x3dc8cfe3	0.09805276
37	0x3d3f6924	0.04673113
38	0xbc99b058	-0.018760845
39	0x3d096db3	0.033551883
40	0x3e0ca82b	0.13736026
41	0x3e31d5c3	0.173667
42	0x3d793c41	0.06084848
43	0x3d4952c7	0.04915121
44	0x3db46bb8	0.08809608
45	0x3b8ed18a	0.004358475
46	0x3d8a1bf2	0.067436114
47	0x3d83f7b6	0.064437315
48	0x3dd3c1c8	0.10339695
49	0x3e05d088	0.1306783
50	0x3cdbba40	0.02682221
51	0xbd5775ae	-0.052602462
52	0x3d535d35	0.05160256
53	0x3d661a92	0.056177683
54	0xbc0ff9c8	-0.00878758
55	0x3d971730	0.073774695
56	0x3e146539	0.14491738
57	0x3dbae728	0.09126121
58	0xbd108097	-0.035278883
59	0x3dd95cca	0.10613401
60	0x3d56527b	0.052324753
61	0xbc98972a	-0.018626768
62	0x3d84367a	0.06455703
63	0x3e250a54	0.16117221
64	0xbd0a6b08	-0.03379348
65	0xbd8d4b57	-0.068991356
66	0xbaa4b1ff	-0.0012565254
67	0xbd236a1f	-0.039896127
68	0xbe144840	-0.14480686
69	0xbe1d9bb4	-0.15391427
70	0xbe18ae2c	-0.14910191
71	0x3d166e54	0.03672631
72	0x3cbdb273	0.02315638
73	0xbd3969d5	-0.045266945
74	0x3e1f53c1	0.15559293
75	0x3bb78916	0.0056010587
76	0xbd4d4a8c	-0.05011992
77	0xbc7ace40	-0.015307963
78	0xbc2bc5d5	-0.010484179
79	0xbc3f7c5b	-0.0116873635
80	0x3e284804	0.16433722
81	0x3d3e389b	0.046440702
82	0xbd4f93de	-0.050678127
83	0xbbe213fa	-0.006899354
84	0xbe00db7b	-0.12583725
85	0xbc9ed7d2	-0.01939002
86	0x3de12ea6	0.109952256
87	0xbdc55767	-0.09635811
88	0xbde5e13e	-0.11224602
89	0x3e001cf1	0.1251104
90	0x3daadff0	0.08343494
91	0xbde0350f	-0.1094762
92	0xbdfc7216	-0.12326448
93	0x3d635b00	0.055506706
94	0xbd2a3a3b	-0.04155944
95	0xbd6d0646	-0.05786731
96	0x3d0d5735	0.034506995
97	0x3d8b2162	0.06793477
98	0x3e3b70b4	0.18304712
99	0x3d83a269	0.06427462
100	0x3dcd1846	0.100143954
101	0x3debbff5	0.11511222
102	0x3ceab953	0.028652823
103	0x3bc64d15	0.0060516694
104	0x3ca1891a	0.019718695
105	0x3de3fed1	0.11132587
106	0x3e3abac2	0.18235305
107	0x3d2c4747	0.042060163
108	0x3dc142b6	0.09436552
109	0xbd8a98cd	-0.06767426
110	0x3e06c045	0.13159283
111	0xbd5ca216	-0.053865515
112	0x3e0758ca	0.13217464
113	0x3e0cf012	0.13763455
114	0x3d66f423	0.05638517
115	0x3da2ddd1	0.07952464
116	0x3e2c34f8	0.16817081
117	0x3d4f713f	0.05064511
118	0x3d861c5f	0.0654838
119	0x3e079467	0.13240205
120	0x3e01906a	0.12652746
121	0x3e07f41f	0.13276719
122	0x3d15c36e	0.03656333
123	0x3db4149c	0.087929934
124	0x3e366ea7	0.17815648
125	0xbc840c0c	-0.016119026
126	0xbdc3fcde	-0.09569715
127	0x3d90eee8	0.07076818

bin_context_vector f4 [64, 1]
0	0xbc52810b	-0.012848149
1	0xbccc5be3	-0.024946159
2	0x3da4aad7	0.080403976
3	0x3dd9de45	0.10638098
4	0xbe24bbec	-0.16087312
5	0x3ccf39d7	0.025296135
6	0xbcad5371	-0.021157952
7	0x3d1c7879	0.03820083
8	0xbd785814	-0.060630873
9	0xbd7cc2b0	-0.061709106
10	0xbe1ec378	-0.15504253
11	0x3d8cf4e1	0.068826444
12	0xbb11220b	-0.0022145535
13	0x3de329b5	0.11091939
14	0xbc245cf9	-0.010031932
15	0x3d71e07a	0.05905197
16	0xbd9eca80	-0.077534676
17	0xbb8743d3	-0.0041279583
18	0x3c2375ac	0.009976786
19	0x3de520a9	0.1118787
20	0xbdebcac5	-0.115132846
21	0x3d77228c	0.06033568
22	0x3e143f80	0.14477348
23	0xbcdb0353	-0.026734984
24	0x3d28bb5b	0.0411943
25	0xbc887056	-0.016655128
26	0xbcd0c446	-0.025484215
27	0x3d31ae9f	0.043379422
28	0x3b00cfa7	0.001965502
29	0xbdbbdf13	-0.091734074
30	0xbdc7ca53	-0.09755387
31	0x3cc31ee2	0.023818437
32	0xbd57c123	-0.052674424
33	0x3dd12f91	0.10214151
34	0x3dc4cb0c	0.096090406
35	0xbe008cbe	-0.12553689
36	0xbda34a56	-0.07973163
37	0xbdab0e74	-0.08352366
38	0xbc36deee	-0.011161549
39	0x3d855a38	0.065113485
40	0x3dbc0d58	0.091822326
41	0xbda1cd1b	-0.07900449
42	0x3df77231	0.12082327
43	0x3c9f91f3	0.019478774
44	0xbc80e279	-0.01573299
45	0xbd970f95	-0.07376019
46	0xbb8bd8eb	-0.004267802
47	0x3daf126b	0.08548435
48	0xbdab98fe	-0.0837879
49	0xbcb3e4ae	-0.021959629
50	0xbd977dcc	-0.07397041
51	0x3dc111f3	0.09427252
52	0x3d25f43f	0.040516134
53	0x3c45d69c	0.012075093
54	0xbd173bdc	-0.03692232
55	0xbd241ada	-0.04006467
56	0xbd4d559d	-0.050130475
57	0xba49ea7e	-0.00077024836
58	0x3c83af55	0.016074816
59	0x3d9a42b4	0.07532254
60	0x3de27912	0.110582486
61	0xbc5a9982	-0.013342263
62	0xbd9b8c7e	-0.07595156
63	0xbcd87dd4	-0.026427187

weight_ih_l0 f4 [128, 1]
0	0xbc53fdc6	-0.012938922
1	0xbc2a3d76	-0.01039063
2	0x3db43b72	0.08800401
3	0xbd457915	-0.048211176
4	0x3ded03b1	0.1157297
5	0x3e0273dc	0.1273951
6	0x3dab2ad6	0.0835778
7	0x3ddf9b43	0.10918286
8	0x3dbf1929	0.09330971
9	0xbcbeae66	-0.023276519
10	0x3de0389a	0.10948296
11	0xbc082950	-0.008310631
12	0x3ddd4958	0.10805005
13	0x3d99ab25	0.07503346
14	0x3dd6fda5	0.104975976
15	0x3d9df9b2	0.07713641
16	0xbc16439e	-0.009171395
17	0xbcd67049	-0.026176589
18	0x3c9274d4	0.017877974
19	0xbd8a6cc5	-0.067590274
20	0x3cea4dad	0.028601492
21	0x3d9b0c0c	0.07570657
22	0xbbd0c504	-0.0063711423
23	0xbce8e15b	-0.02842777
24	0x3d1992d4	0.03749354
25	0x3d991f62	0.07476689
26	0x3dd869da	0.105670646
27	0x3df04fd5	0.11733977
28	0xbd29de75	-0.041471917
29	0x3e056950	0.13028455
30	0x3d8e7cdd	0.069574095
31	0xbc9d9d11	-0.019239934
32	0x3deee42e	0.116646156
33	0x3c2a0725	0.01037768
34	0xbc90a0d8	-0.017654821
35	0xbcd9d33e	-0.026589986
36	0xbcc776f7	-0.024348719
37	0x3dd37890	0.1032573
38	0x3d8d8fca	0.06912191
39	0xbcf77939	-0.03020917
40	0x3e09b8fc	0.13449472
41	0x3e12e566	0.14345321
42	0x3db0e722	0.08637835
43	0xbc916059	-0.017746137
44	0x3dd0f662	0.10203244
45	0x3d3ae396	0.0456272
46	0xbbc7a3ba	-0.006092516
47	0xbd0ee473	-0.034885835
48	0x3db9c80d	0.0907136
49	0x3df2f559	0.118632026
50	0x3bec7484	0.007216038
51	0xb96804ab	-0.00022126983
52	0x3d6b0a27	0.05738273
53	0xbc856ecc	-0.016288184
54	0xbbe1d6f1	-0.006892078
55	0xbc33bc8f	-0.010970249
56	0xbd8ad05b	-0.06778022
57	0x3e00cc95	0.12578042
58	0x3dec86cd	0.11549149
59	0x3dbb8616	0.09156434
60	0x3dd2576e	0.10270582
61	0x3cd2f7bd	0.025752896
62	0x3d73a016	0.05947884
63	0x3d6a3b47	0.057185438
64	0x3d0d6a4a	0.034525193
65	0x3e0180bf	0.12646769
66	0xbca479d3	-0.020077622
67	0xbd770e0d	-0.060316134
68	0xbe01de05	-0.1268235
69	0x3e14460c	0.14479846
70	0xbde55b14	-0.111990124
71	0x3dfb1539	0.12259907
72	0xbdfdd1a9	-0.12393505
73	0x3d094975	0.03351732
74	0xbd8c0892	-0.06837572
75	0x3d8da846	0.06916861
76	0xbd8bec08	-0.06832129
77	0x3d8fb602	0.07017137
78	0xbdd13caa	-0.10216649
79	0x3db2e2e6	0.08734684
80	0x3d89b6f8	0.06724352
81	0xbda34af1	-0.07973278
82	0x3e119a7b	0.14219086
83	0x3d7ad785	0.06124069
84	0xbd73febc	-0.059569106
85	0x3e04935f	0.12946843
86	0x3d96eef6	0.07369797
87	0x3d3e4353	0.046450924
88	0x3c9386af	0.018008558
89	0x3defda04	0.11711505
90	0xbdba2ac4	-0.09090188
91	0x3dc930a1	0.09823728
92	0x3e13a412	0.14418057
93	0xbd9999d8	-0.075000465
94	0x3e0abf8d	0.13549633
95	0x3dea021a	0.11426182
96	0xbc8c2c5c	-0.017110996
97	0xbbc9e00d	-0.006160742
98	0x3dfe8f31	0.12429655
99	0x3d714ca8	0.058910996
100	0x3e16cd54	0.14726764
101	0x3d847448	0.064674914
102	0xbd564515	-0.052311976
103	0x3d9371f8	0.07199472
104	0xbc3da1e9	-0.011574247
105	0x3e104cbb	0.1409177
106	0x3dd64ad4	0.10463491
107	0x3d92b2c8	0.07163006
108	0x3d10654c	0.035252854
109	0x3d5a3685	0.05327465
110	0xbb70c478	-0.0036738198
111	0x3e152c18	0.14567602
112	0xbcf36e8b	-0.029715797
113	0x3d9bc2d4	0.0760552
114	0x3cab278e	0.020892885
115	0xbcc26994	-0.023731984
116	0x3d999ba4	0.07500389
117	0x3d809d4a	0.062800005
118	0x3d89e2ce	0.06732713
119	0x3d8000a1	0.0625012
120	0xbd66ec35	-0.05637761
121	0x3e13ec6c	0.14445657
122	0x3d069610	0.032857955
123	0x3c73380e	0.014844907
124	0x3e09bb08	0.13450253
125	0x3c34a412	0.011025446
126	0x3dce3e27	0.10070448
127	0x3d1de3f2	0.038547464

weight_hh_l0 f4 [128, 32]
0	0xbde9f32f	-0.11423337
1	0x3d5449bd	0.051828135
2	0x3dfa0dfd	0.12209699
3	0x3b8ebdff	0.0043561454
4	0xbd6352b0	-0.05549878
5	0xbb9a2492	-0.0047040666
6	0xbddc983b	-0.10771223
7	0x3d84352b	0.064554535
8	0x3ba4c5d2	0.005028465
9	0xbdec531a	-0.11539288
10	0xbdb5e603	-0.08881762
11	0x3d8289a4	0.06373909
12	0xbdaadab7	-0.08342498
13	0x3dbb804c	0.0915533
14	0xbdf46528	-0.119333565
15	0xbb856baa	-0.0040716724
16	0x3dcdb382	0.10044004
17	0xbdb06951	-0.086138375
18	0x3d63cc2f	0.055614647
19	0x3d344f20	0.044020772
20	0xbd56c7f3	-0.05243678
21	0x3d9d074f	0.0766741
22	0x3d047e44	0.03234698
23	0x3dddaf54	0.10824457
24	0xbd778afa	-0.060435273
25	0x3c76111e	0.0150187295
26	0xbd02ae4b	-0.0319045
27	0x3db74103	0.08947947
28	0x3d94657a	0.072459176
29	0xbcaa31c2	-0.02077568
30	0x3cc03f7b	0.02346777
31	0x3b96e4fe	0.0046049347
32	0xbd94cfc2	-0.07266189
33	0x3db3c2db	0.087774
34	0xbcc199e4	-0.023632951
35	0x3dbeb390	0.093115926
36	0xbcbc77d8	-0.023006365
37	0x3e183d19	0.14867057
38	0xbd95f95f	-0.073229544
39	0xbbf0a8b1	-0.0073443283
40	0xbce09898	-0.027416512
41	0xbe0785b6	-0.132346
42	0xbe145e86	-0.14489183
43	0x3dfcee4d	0.1235014
44	0x3ca44065	0.020050237
45	0x3dbd91a4	0.09256294
46	0x3c9dccc6	0.019262683
47	0x3e247186	0.16058931
48	0x3e012a77	0.12613855
49	0xbdaeec61	-0.085411794
50	0xbc92c5de	-0.017916616
51	0xbcbcaef7	-0.023032648
52	0xbd9da3e9	-0.07697279
53	0x3bd4c978	0.0064937435
54	0x3cb0c4b1	0.021578165
55	0xbbf3d9fc	-0.0074417572
56	0xbd5fd296	-0.05464419
57	0xb9f1ff39	-0.00046157258
58	0x3bb635c7	0.00556061
59	0x3d681ca5	0.056667943
60	0xbc1f4d11	-0.009722964
61	0x3ce4005e	0.027832206
62	0xbd066e21	-0.03281987
63	0x3ceffc7c	0.029295199
64	0xbd8eed63	-0.06978872
65	0x3b71bc3d	0.003688588
66	0x3e25a3e3	0.16175799
67	0xbc78edbd	-0.0151934
68	0xbe1d78bc	-0.15378088
69	0xbc8ffb2f	-0.017575828
70	0xbd839868	-0.064255536
71	0x3d4a66ef	0.04941457
72	0x3cb66222	0.02226359
73	0xbdb2a072	-0.08722009
74	0xbe2b52e1	-0.16730835
75	0xbc0b55c5	-0.008504336
76	0xbdce52ae	-0.10074364
77	0xbd860a3f	-0.06544923
78	0xbd99da7d	-0.075123765
79	0x3c36cc9e	0.011157183
80	0x3d5340f9	0.051575635
81	0x3c2cf470	0.010556325
82	0x3d996856	0.074906036
83	0xbda4e1ea	-0.08050902
84	0xbe1da918	-0.15396535
85	0x3de0bab8	0.10973114
86	0x3d99f282	0.07516958
87	0x3e18bd46	0.14915952
88	0x3d51f381	0.051257614
89	0x3d4f5f1c	0.050627813
90	0xbd518d49	-0.05116013
91	0x3dca3abf	0.09874486
92	0x3e1895d3	0.14900903
93	0xbdc2039a	-0.09473343
94	0x3c7c1173	0.01538502
95	0x3d4f124c	0.05055456
96	0xbbaa98d2	-0.005206206
97	0x3da57e02	0.08080675
98	0xbcf60683	-0.030032402
99	0x3dc4045f	0.09571146
100	0x3d2dc2e5	0.042422194
101	0xbd07e0b3	-0.033173274
102	0xbe324520	-0.17409182
103	0x3d81c566	0.06336479
104	0xbcf1a4e4	-0.029497571
105	0xbd9447c4	-0.07240251
106	0xbd890960	-0.06691241
107	0x3cf6855c	0.030092888
108	0xbdc60647	-0.09669166
109	0xbbe57074	-0.007001931
110	0xbe152fa7	-0.14568959
111	0x3c54e1d3	0.012993294
112	0xbcf224fd	-0.029558653
113	0x3cbd384e	0.023098137
114	0xbcc064d2	-0.023485575
115	0x3db8c28d	0.090214826
116	0x3d4904f7	0.049077
117	0xbc76e038	-0.015068106
118	0xbc59896c	-0.013277393
119	0xbd53b332	-0.051684566
120	0x3e25f47c	0.16206545
121	0xbc2773bf	-0.010220467
122	0x3c3f3dd6	0.011672458
123	0xbd2fa477	-0.042881455
124	0xbd6b94b7	-0.057514872
125	0x3cffb858	0.031215832
126	0xbc3ab82f	-0.011396452
127	0x3e111aab	0.1417033
128	0xbd1300c3	-0.0358894
129	0x3e13f216	0.14447817
130	0x3e1664cc	0.14686888
131	0x3d61822b	0.05505578
132	0xbd6b0565	-0.05737819
133	0xbaf87bbf	-0.0018957778
134	0x3d8b67d1	0.06806911
135	0x3e0f036a	0.13966146
136	0xbe1d8dfb	-0.15386193
137	0xbd6dbc04	-0.058040634
138	0xbdd7c984	-0.10536483
139	0x3df14f69	0.117827244
140	0x3c48419f	0.012222677
141	0xbd009380	-0.031390667
142	0xbddf3737	-0.10899203
143	0x3e0b412a	0.13599077
144	0x3df85feb	0.1212767
145	0x3c643e2e	0.01393084
146	0x3e333155	0.17499287
147	0xbdb0341c	-0.08603689
148	0xbd1efad0	-0.038813412
149	0x3bbf9c93	0.0058475225
150	0x3e28fefa	0.16503516
151	0x3da090e7	0.07840138
152	0x39abb2c2	0.00032748847
153	0x3caeae9c	0.021323495
154	0xbdf42491	-0.11921037
155	0x3e0b4758	0.13601434
156	0x3d6188b5	0.055062015
157	0xbd8849b4	-0.06654683
158	0x3de3ecf6	0.11129181
159	0xbc98f90b	-0.01867344
160	0xbe13bfbf	-0.14428614
161	0xbc6187d4	-0.013765294
162	0x3b85384e	0.00406555
163	0x3dbebc6c	0.09313282
164	0xbc85e907	-0.016346468
165	0x3dffad64	0.124842435
166	0xbddc2404	-0.10749057
167	0x3cae7405	0.021295557
168	0x3c18defe	0.009330509
169	0xbc37e632	-0.011224316
170	0xbd598b2d	-0.053111244
171	0x3d9d9f75	0.0769643
172	0xbd1696f1	-0.036765043
173	0xbd119037	-0.035537925
174	0xbd90b5a3	-0.070658945
175	0x3d40d162	0.047074683
176	0x3e096bec	0.13420075
177	0xbc4565d6	-0.012048205
178	0x3ddbffd6	0.10742156
179	0xbd540790	-0.051765025
180	0xbdc67927	-0.09691077
181	0x3cbe2042	0.023208741
182	0x3dc9b9eb	0.09849914
183	0x3d335ef2	0.04379172
184	0xbd32fe05	-0.043699283
185	0x3d2b7d36	0.041867457
186	0x3c9138b6	0.017727237
187	0x3c7760dc	0.015098777
188	0x3df633d6	0.12021606
189	0xbd8e4846	-0.06947379
190	0x3e362819	0.17788734
191	0xbabe1299	-0.0014501392
192	0xbdc9d32a	-0.098547295
193	0x3dcf7d28	0.101312935
194	0xbcaca3fe	-0.021074291
195	0x3de40099	0.111329265
196	0xbd220d9f	-0.03956377
197	0x3c7eb858	0.015546881
198	0xbe1448db	-0.14480917
199	0xbc59c34c	-0.013291191
200	0xbd581f5d	-0.052764285
201	0xbe1c758e	-0.15279219
202	0xbdbcf7cb	-0.0922695
203	0xbd8447b2	-0.06458987
204	0xbd663dcf	-0.05621129
205	0x3de171bf	0.110080235
206	0xbe2361a9	-0.15955223
207	0x3df2e38b	0.118598066
208	0x3dfe9de8	0.12432462
209	0xbdcd358e	-0.1001998
210	0x395ea957	0.00021234654
211	0x3c11dae0	0.0089022815
212	0xbc0b9c5e	-0.008521168
213	0x3df6b155	0.12045542
214	0x3c655476	0.013997188
215	0x3d87a89f	0.06623959
216	0x3e375abc	0.17905706
217	0x3d568834	0.052375987
218	0xbe00333b	-0.12519543
219	0x3d9a094b	0.07521304
220	0xbc33ab32	-0.010966109
221	0x3cad4b7f	0.021154163
222	0xbd1e589e	-0.03865873
223	0x3d1b4575	0.037908036
224	0xbdbfd890	-0.09367478
225	0x3ca619d5	0.02027599
226	0x3e02a56e	0.12758419
227	0x3d618d20	0.055066228
228	0xbce3a49c	-0.027788453
229	0x3be3af4f	0.0069483886
230	0xbd59cbf6	-0.053173028
231	0x3d0b3316	0.033984266
232	0x3c22d16f	0.009937628
233	0x3c17cb91	0.009264843
234	0xbdb4058a	-0.08790119
235	0x3d380b64	0.044932738
236	0xbdae4e62	-0.08511044
237	0x3cf8ea14	0.030385055
238	0xbe0319ee	-0.1280286
239	0x3d403dc0	0.04693389
240	0x3cf108e9	0.029423194
241	0xbcecf676	-0.028926115
242	0x3e185c86	0.14879045
243	0x3d68c546	0.05682876
244	0xbd6f7c67	-0.05846825
245	0xbc9abe79	-0.018889653
246	0x3abfe8c9	0.0014641519
247	0x3e27682e	0.16348335
248	0xbce6a8e2	-0.028156701
249	0x3df2bbdf	0.1185224
250	0xbe253e42	-0.1613703
251	0x3b060969	0.0020452386
252	0x3dd4e051	0.103943475
253	0xbe02f281	-0.1278782
254	0x3dc383ed	0.09546647
255	0x3e1cc712	0.15310314

bias_ih_l0 f4 [128]
0	0x3db955f3	0.09049597
1	0x3c631be9	0.013861635
2	0x3de064d2	0.1095673
3	0xbd6d494f	-0.05793124
4	0x3d0cce79	0.034376595
5	0xbc52f471	-0.012875662
6	0x3d133551	0.03593952
7	0xbbd46006	-0.0064811734
8	0xbc55c294	-0.013046879
9	0x3be6731d	0.0070327655
10	0x3e1acd87	0.15117465
11	0x3e05df07	0.1307336
12	0x3b1f286a	0.0024285563
13	0x3d9e3b61	0.077261694
14	0x3d915910	0.070970654
15	0x3dd342da	0.10315485
16	0xbc34dac6	-0.011038488
17	0x3bcee05f	0.006313368
18	0x3de53d36	0.11193316
19	0xbd85d8fb	-0.06535526
20	0xbc895b7f	-0.016767262
21	0x3ab95814	0.0014140629
22	0x3d2d6596	0.042333208
23	0x393dc65d	0.0001809834
24	0xbcfe81f7	-0.031067831
25	0x3e0a0cd3	0.13481455
26	0x3d848152	0.064699784
27	0x3e262b45	0.16227444
28	0x3e00eb06	0.12589654
29	0x3dbb9fed	0.09161363
30	0xbcb8e5cb	-0.022570511
31	0x3def67ca	0.11689718
32	0x3cbf2d3e	0.023337003
33	0x3dc06faf	0.09396302
34	0xbbcde97e	-0.006283938
35	0x39a059f1	0.0003058459
36	0x3de39e61	0.11114193
37	0x3dcaf19d	0.09909365
38	0x3cf14d4b	0.029455801
39	0x3df05bf9	0.117362924
40	0x3d8dc07a	0.069214776
41	0xbcfaeb21	-0.030629696
42	0x3dc08c1d	0.094017245
43	0x3dcc2575	0.09968082
44	0x3e19fdc2	0.15038207
45	0xbbabe8c9	-0.005246256
46	0x3e157c9e	0.14598319
47	0x3db741b4	0.08948079
48	0x3bf8d2ad	0.007593474
49	0x3df3ec23	0.11910274
50	0x3c11cbd4	0.008898694
51	0xbc8bb49b	-0.017053893
52	0x3e08d371	0.13361908
53	0x3e2e08bd	0.16995521
54	0x3d023834	0.03179188
55	0x3d6e47cd	0.058173943
56	0xbd404ede	-0.046950214
57	0x3dafd2a0	0.085850954
58	0x3d928ea0	0.0715611
59	0x3d03a8bd	0.032143343
60	0x3d84e96f	0.064898364
61	0x3cf8ff75	0.030395249
62	0x3daff76a	0.08592112
63	0x3e1a5a50	0.15073514
64	0xbe1ac5fe	-0.1511459
65	0x3dc0dcad	0.094170906
66	0x3d48a691	0.048986975
67	0xbd02057c	-0.03174351
68	0xbd1e82f6	-0.038699113
69	0x3e0a1348	0.13483918
70	0xbbc381c7	-0.0059663984
71	0x3e2f3f93	0.17114095
72	0xbcaad27e	-0.020852324
73	0x3d076388	0.033053905
74	0xbe222f13	-0.1583827
75	0x3e00dfee	0.12585422
76	0xbdb58a87	-0.088643126
77	0xbd040cfa	-0.032238938
78	0xbd86e8de	-0.06587385
79	0x3cc43047	0.023948802
80	0x3dc87cbf	0.097894184
81	0xbc12c16a	-0.008957246
82	0x3e093c1e	0.13401839
83	0xbc36e334	-0.011162568
84	0xbca6cef9	-0.020362364
85	0x3d7b3ed2	0.061339207
86	0x3e289226	0.16462001
87	0x3e184946	0.14871702
88	0xbd29c6c8	-0.04144934
89	0x3e0aadb3	0.13542823
90	0xbdd53ee9	-0.1041239
91	0x3e1f137d	0.15534778
92	0x3de08629	0.10963089
93	0xbe0c2779	-0.13686933
94	0x3d801fb9	0.062560506
95	0x3e0f9434	0.14021379
96	0x3e00c5a6	0.12575397
97	0x3d99cc6b	0.07509693
98	0x3bd8a237	0.0066111344
99	0xbd05a82f	-0.032631095
100	0x3d8b40c5	0.06799463
101	0x3e1f60eb	0.15564315
102	0xbd1783d2	-0.036990948
103	0x3dba3c76	0.09093563
104	0x3d9c49fb	0.07631298
105	0x3ddc721a	0.10763951
106	0x3ca85c98	0.020551965
107	0x3da1790d	0.07884417
108	0x3e24038e	0.16016981
109	0x3e0175c5	0.12642582
110	0x3d1d1f6b	0.03836004
111	0xbc445139	-0.011982256
112	0xbcb2b914	-0.021816768
113	0x3d98292d	0.07429729
114	0x3db2dddb	0.08733722
115	0x3d803994	0.06260982
116	0xbaba57a0	-0.0014216788
117	0x3d4223ff	0.04739761
118	0x3d0ef5da	0.03490243
119	0x3dc329c9	0.09529454
120	0x3c81425a	0.01577871
121	0x3d1f6ff2	0.03892512
122	0x3dfb5489	0.12271983
123	0x3e29aadb	0.16569082
124	0x3da6aac4	0.0813804
125	0x3d8596e6	0.06522922
126	0x3d17265f	0.036901828
127	0x3de01bc6	0.10942797
