Results/gm_k562/gm_k562_aux_siamese/gm_k562_aux_siamese_R2_model.pt (torch_old, 539485 bytes, 122 tensors)

weight_ih_l0 f4 [128, 1]
0.056238744 -0.04671392 -0.093479216 0.029948007 0.041330665 0.07209743 -0.017784165 0.06939805
-0.047908764 -0.041559752 0.026123876 -0.02138742 -0.043477573 -0.07059492 0.018004691 -0.045386143
-0.011470316 0.0028431898 -0.01136727 -0.041650932 -0.08408889 0.09452284 -0.016896823 -0.09881985
-0.043726183 -0.051986907 0.02237617 -0.08181348 -0.0031761029 -0.077704266 -0.083236195 0.012443754
-0.05602004 -0.021798594 -0.06277878 0.06302528 -0.07385898 -0.042160746 -0.048947413 0.0270277
-0.072533704 0.0437293 -0.071696095 -0.0032137337 0.092100166 0.049776778 0.048899744 -0.053416386
-0.07274965 0.09759114 0.059369076 -0.044367187 0.059630893 0.04532985 -0.07792073 -0.02538044
-0.05529119 -0.07953554 0.014119105 -0.060803942 0.049390096 -0.032277755 7.170701e-05 -0.0068125715
-0.010232529 0.047625624 -0.023041211 -0.09488088 -0.017942555 -0.044502057 -0.04093279 0.10397098
-0.101769045 -0.028231591 0.019138707 -0.026423128 -0.054782864 -0.058050793 -0.042025913 -0.097556815
0.056402355 0.062381525 -0.06754617 0.027834589 -0.09047669 -0.047592685 0.06225725 -0.019271497
0.022917561 0.0071929763 0.06613869 0.032936286 0.023655294 0.029879471 -0.10083707 0.07356428
0.08189954 0.08944777 0.056007594 -0.104719535 0.009945504 -0.028408887 0.026099902 -0.06350552
-0.05515555 -0.08194798 -0.070168294 0.015048207 -0.07591293 0.030490667 0.0123168295 -0.056394693
-0.024269294 0.002021496 0.10117041 0.051285714 0.019153602 0.051796444 0.050418876 0.031199362
-0.034465 -0.011631833 0.033388756 -0.074592724 -0.019153537 0.040875778 0.0570951 -0.06109202
00000000: 995a 663d 1857 3fbd 0872 bfbd 8655 f53c
00000010: 584a 293d d1a7 933d 19b0 91bc 9120 8e3d
00000020: fb3b 44bd 8f3a 2abd bd01 d63c ac34 afbc
00000030: 8a15 32bd 1294 90bd 937e 933c d2e6 39bd
00000040: feed 3bbc cf54 3a3b c93d 3abc 2b9a 2abd
00000050: cc36 acbd 3195 c13d 356b 8abc 1062 cabd
00000060: 3a1a 33bd 39f0 54bd 3b4e b73c d38d a7bd
00000070: 2a26 50bb 6a23 9fbd bd77 aabd e3e0 4b3c
00000080: 4575 65bd f792 b2bc 2992 80bd 6613 813d
00000090: 6043 97bd bfb0 2cbd 157d 48bd 3269 dd3c
000000a0: 8d8c 94bd 7f1d 333d 67d5 92bd 819d 52bb
000000b0: 039f bc3d bce2 4b3d 194b 483d 24cb 5abd
000000c0: c5fd 94bd dddd c73d fd2c 733d 5eba 35bd
000000d0: 863f 743d cbab 393d e794 9fbd a4ea cfbc
000000e0: 0479 62bd 87e3 a2bd d253 673c 8e0d 79bd
000000f0: 454d 4a3d ae35 04bd 6861 9638 fe3b dfbb
00000100: 56a6 27bc 1613 433d ecc0 bcbc e850 c2bd
00000110: 44fc 92bc ca47 36bd 24a9 27bd bdee d43d
00000120: 4a6c d0bd f045 e7bc c7c8 9c3c 5175 d8bc
00000130: ff63 60bd abc6 6dbd 5d23 2cbd decb c7bd
00000140: 2806 673d c583 7f3d a555 8abd 5d05 e43c
00000150: d84b b9bd 8cf0 42bd 7501 7f3d 42df 9dbc
00000160: 9cbd bb3c 0fb3 eb3b b973 873d 33e8 063d
00000170: bfc8 c13c cbc5 f43c aa83 cebd dfa8 963d
00000180: f2ba a73d 6430 b73d 3868 653d 3277 d6bd
00000190: 78f2 223c c1b9 e8bc 76cf d53c 2f0f 82bd
000001a0: c9ea 61bd 58d4 a7bd 65b4 8fbd c18c 763c
000001b0: 3d78 9bbd 90c7 f93c 87cc 493c 1ffe 66bd
000001c0: 66d0 c6bc 137b 043b 6f32 cf3d f810 523d
000001d0: 04e8 9c3c 8228 543d 0684 4e3d ce95 ff3c
000001e0: 2c2b 0dbd 7293 3ebc a6c2 083d 12c4 98bd
000001f0: e1e7 9cbc 5c6d 273d 8ddc 693d a03b 7abd

weight_hh_l0 f4 [128, 32]
0.088353 0.08467961 -0.06351327 0.098220535 0.022936812 0.085496224 -0.052151486 -0.075953
-0.004370796 0.029750388 -0.056289952 -0.079284415 0.07732201 0.086238354 -0.06789031 0.067997746
-0.09264075 -0.09173574 -0.09548745 -0.030850666 0.011085035 -0.034513522 0.06870914 -0.039242428
-0.036262866 0.05558724 0.0013919458 -0.07709598 0.09481288 0.04358281 -0.06024923 0.00793457
-0.08605269 -0.03393714 -0.0942851 0.02010978 -0.024450194 0.03349413 -0.0017637288 -0.029247709
0.042913944 -0.033829715 0.03843804 -0.03199391 -0.09614572 0.05718 0.08641719 -0.06984457
0.006163139 -0.06532254 0.081219435 0.037175417 -0.007305786 -0.028687367 0.05448084 -0.011812827
0.05235035 -0.08283707 0.070293784 0.009985565 -0.0037060005 0.045627046 -0.094295874 -0.04277054
-0.08988078 -0.06622348 -0.09764998 -0.04414905 -0.081827424 -0.080389254 0.024089776 0.056049675
-0.012273504 -0.059413996 0.043554515 -0.09011011 -0.076395944 -0.019982073 0.09128476 -0.014614311
0.03117524 0.036362864 -0.07997377 0.066932164 -0.0038766519 0.0676726 0.09648125 -0.00029183022
0.08552305 -0.06963398 0.009182953 0.03490529 0.058434393 -0.015722008 0.09605116 0.061072335
-0.091154955 0.08837209 0.047119617 -0.052048158 0.036788188 0.04730622 0.09488449 0.024212545
0.0006604532 -0.0013178939 -0.09221471 0.022302464 -0.07719621 -0.07251992 7.8781624e-05 -0.0155308265
0.076220654 -0.090347804 0.014374326 -0.082830876 0.0883486 -0.012193515 -0.030001063 -0.019288106
-0.0062228614 0.09046707 0.03494425 -0.0057971124 -0.009443054 -0.013978321 -0.082715884 -0.033338707
-0.028101316 -0.0028249728 0.09671242 0.059309565 -0.016667122 0.068633586 0.06155969 0.027234858
0.03888074 -0.01668479 -0.051104993 0.019486248 0.01841063 -0.07746139 -0.09156658 -0.0050964244
0.0065872394 0.019796059 -0.0632901 -0.021245819 -0.043621678 0.06938979 -0.020861585 0.03380277
0.080920555 -0.08415535 0.040135697 0.023370776 0.004635317 0.060123857 0.07354065 -0.047676392
-0.082078435 -0.0702289 -0.09675546 -0.076045305 0.04750591 -0.0619039 0.039871782 0.078601256
0.0002934151 -0.009300484 -0.087927945 -0.03690511 0.06018149 0.065292485 0.043814063 -0.088391826
0.059357017 -0.026494272 -0.057554524 0.036992572 0.06449519 -0.012019348 -0.04230208 0.0963151
0.063383676 0.029559193 0.04630243 0.09088448 -0.012160229 0.033446405 0.05149508 0.05214213
0.009683667 -0.017451216 0.07005046 -0.036119375 0.046740245 -0.062491488 -0.052007705 -0.028525045
0.05358475 0.06327759 -0.00044914003 0.058584087 -0.049917944 -0.06392133 -0.072223395 0.09174278
-0.03804008 -0.058864933 0.018834118 0.001896545 0.0011619037 -0.029129665 0.027641445 0.06847767
-0.056615505 -0.029754274 0.067448966 -0.0039250404 -0.04970382 0.09018947 0.07406362 -0.018675357
0.079887494 -0.08368606 -0.02629543 -0.007619258 0.07550491 1.3329845e-05 -0.09257322 0.002784724
0.008020778 -0.011156665 -0.094211824 0.010319831 0.07166929 -0.044672973 0.051155865 0.03194331
0.014826615 -0.02706289 0.036348216 0.08280469 0.063914746 -0.076202504 -0.0114630805 -0.013917583
0.0633881 0.02927357 0.06509391 0.02147511 0.05043387 0.016213976 -0.012123113 0.054149874
00000000: 6bf2 b43d 816c ad3d 3f13 82bd d927 c93d
00000010: fbe5 bb3c a518 af3d cc9c 55bd 3f8d 9bbd
00000020: e538 8fbb 16b7 f33c 4b90 66bd de5f a2bd
00000030: 015b 9e3d bc9d b03d 130a 8bbd 6742 8b3d
00000040: 6fba bdbd f3df bbbd ed8e c3bd 89ba fcbc
00000050: 029e 353c 0d5e 0dbd 61b7 8c3d abbc 20bd
00000060: 5f88 14bd 72af 633d f371 b63a 7fe4 9dbd
00000070: 412d c23d e383 323d e6c7 76bd 0000 023c
00000080: 653c b0bd ac01 0bbd 8c18 c1bd 44bd a43c
00000090: c64b c8bc 2431 093d eb2c e7ba e498 efbc
000000a0: 88c6 2f3d 0791 0abd 3571 1d3d 0c0c 03bd
000000b0: 0ce8 c4bd 9335 6a3d 7ffb b03d ab0a 8fbd
000000c0: 28f4 c93b d3c7 85bd 6056 a63d 4045 183d
000000d0: 6065 efbb c501 ebbc 4d27 5f3d 968a 41bc
000000e0: 526d 563d 7ba6 a9bd 30f6 8f3d 7f9a 233c
000000f0: 5fe0 72bb 6de3 3a3d 321e c1bd 2930 2fbd
00000100: 6a13 b8bd 2da0 87bd b6fc c7bd a2d5 34bd
00000110: 2395 a7bd 1fa3 a4bd ec57 c53c 5894 653d
00000120: cf16 49bc 175c 73bd 3866 323d a68b b8bd
00000130: 7a75 9cbd 72b1 a3bc 81f3 ba3d dd70 6fbc
00000140: 3863 ff3c 3af1 143d 4ac9 a3bd bb13 893d
00000150: 6d0f 7ebb ef97 8a3d f697 c53d ca00 99b9
00000160: b526 af3d 439c 8ebd 1974 163c d9f8 0e3d
00000170: e758 6f3d 71cb 80bc 78b6 c43d fc26 7a3d
00000180: 73af babd 6dfc b43d 8000 413d 7330 55bd
00000190: 36af 163d 2bc4 413d cd52 c23d 6359 c63c
000001a0: 4422 2d3a 2ebd acba 11db bcbd a8b3 b63c
000001b0: 0c19 9ebd 5385 94bd 9037 a538 0275 7ebc
000001c0: 9319 9c3d 4508 b9bd 4b82 6b3c 3ca3 a9bd
000001d0: 1cf0 b43d 4fc7 47bc cac4 f5bc 1702 9ebc
000001e0: 25e9 cbbb cd46 b93d b421 0f3d b4f5 bdbb
000001f0: 0ab7 1abc 5405 65bc f266 a9bd 2b8e 08bd
00000200: bb34 e6bc 2e23 39bb 2911 c63d 96ee 723d
00000210: 7d89 88bc c48f 8c3d 0326 7c3d a31b df3c
00000220: 6941 1f3d 8aae 88bc 7853 51bd a0a1 9f3c
00000230: e4d1 963c 14a4 9ebd 4287 bbbd e8ff a6bb
00000240: c5d9 d73b 582b a23c 3d9e 81bd b60b aebc
00000250: a5ac 32bd 3c1c 8e3d eae5 aabc c674 0a3d
00000260: adb9 a53d a459 acbd 5465 243d 1274 bf3c
00000270: dbe3 973b 6f44 763d 7b9c 963d 5248 43bd
00000280: bd18 a8bd 2bd4 8fbd ba27 c6bd a4bd 9bbd
00000290: 8f95 423d f28e 7dbd 9850 233d b2f9 a03d
000002a0: 82d5 9939 0f61 18bc 9113 b4bd d029 17bd
000002b0: de80 763d 11b8 853d 6076 333d c606 b5bd
000002c0: 5820 733d 840a d9bc 4bbe 6bbd 8685 173d
000002d0: 0e16 843d cdec 44bc f244 2dbd da40 c53d
000002e0: 4dcf 813d 1f26 f23c 9ea7 3d3d a421 ba3d
000002f0: b23b 47bc 19ff 083d 81ec 523d fc92 553d
00000300: 3ea8 1e3c daf5 8ebc 9e76 8f3d e9f1 13bd
00000310: b372 3f3d 13f7 7fbd 0806 55bd 5bad e9bc
00000320: af7b 5b3d ae97 813d 8e7a ebb9 def5 6f3d
00000330: c276 4cbd 30e9 82bd dce9 93bd a3e3 bb3d
00000340: eacf 1bbd 5b1c 71bd 024a 9a3c 7e95 f83a
00000350: 054b 983a 56a1 eebc 5070 e23c 053e 8c3d
00000360: a9e5 67bd 3cbf f3bc af22 8a3d a09d 80bb
00000370: 3c96 4bbd 42b5 b83d abae 973d 10fd 98bc
00000380: 0e9c a33d 9963 abbd 8369 d7bc f8aa f9bb
00000390: 51a2 9a3d 40a3 5f37 0797 bdbd eb7f 363b
000003a0: 9569 033c 72ca 36bc 21f2 c0bd 8214 293c
000003b0: 59c7 923d 02fb 36bd d088 513d fdd6 023d
000003c0: 55eb 723c feb2 ddbc dee1 143d 8195 a93d
000003d0: bce5 823d 0f10 9cbd a5cf 3bbc 9306 64bc
000003e0: 9fd1 813d 20cf ef3c f54f 853d 92ec af3c
000003f0: bf93 4e3d 2cd3 843c 05a0 46bc 42cc 5d3d

bias_ih_l0 f4 [128]
-0.021730788 0.039653353 0.03643249 -0.0093616815 -0.0723081 0.07534537 0.08104415 0.0535035
0.0020585812 -0.016255818 0.042073138 0.06593306 -0.040047906 -0.06900816 0.011365064 -0.05098352
0.03672788 -0.06468508 -0.08696248 -0.073721826 0.053028353 -0.00664333 -0.058370993 0.07189217
0.054741763 0.03131538 -0.066048555 0.10084833 -0.03533565 0.08365093 -0.019234765 -0.025911631
0.04955866 -0.042093772 -0.010384083 -0.097845815 -0.077549994 -0.062696025 0.08951293 0.04830887
0.08615138 0.10214462 -0.03753644 -0.036258224 -0.06912956 0.05290956 0.027483579 -0.10231736
0.03661836 0.025641605 -0.025310477 -0.012056778 -0.03942105 -0.018798681 0.0641672 0.05126787
-0.096071035 0.042691108 -0.011845853 0.0131528 0.040691458 0.048848394 0.044204615 0.028435256
0.06994606 -0.01564875 0.0867292 0.07888657 -0.07246397 0.061371922 -0.060736563 0.07257547
-0.06782735 -0.07755334 -0.04580501 -0.091072276 -0.09158631 -0.0053965193 0.010811971 0.090844914
-0.00012775691 0.0011831248 0.07642079 -0.026076455 0.085851945 -0.07944292 -0.0035226445 0.06843204
0.031415366 0.08957462 0.03544579 -0.09987021 -0.09438784 -0.06609793 -0.07482754 -0.0054532755
0.046993766 -0.07093166 0.033704173 -0.009268127 -0.049831204 -0.016949162 -0.08385631 0.032176536
0.08089874 -0.08504086 -0.071856454 0.07431116 0.011264214 0.020358795 -0.019589448 0.054880757
0.071423106 0.028674232 -0.03499301 0.06438339 0.09962469 0.0027033715 0.033022005 -0.059474744
-0.015865294 -0.036476113 0.06333487 0.0034975922 0.035539493 -0.08487845 0.06498742 0.0224459
00000000: c404 b2bc 8e6b 223d 3c3a 153d bd61 19bc
00000010: 4516 94bd ac4e 9a3d 7afa a53d 7c26 5b3d
00000020: 43e9 063b ec2a 85bc e254 2c3d ea07 873d
00000030: 4609 24bd 2654 8dbd 8934 3a3c 18d4 50bd
00000040: f96f 163d 9c79 84bd 6219 b2bd 78fb 96bd
00000050: 4234 593d 4bb0 d9bb 6c16 6fbd 343c 933d
00000060: e638 603d 8e44 003d 7744 87bd 9289 ce3d
00000070: 1dbc 10bd 2e51 ab3d 3a92 9dbc a144 d4bc
00000080: 05fe 4a3d 856a 2cbd 0022 2abc 6363 c8bd
00000090: 88d2 9ebd c666 80bd 8e52 b73d 86df 453d
000000a0: 2270 b03d 3331 d13d cfbf 19bd 8183 14bd
000000b0: cc93 8dbd b2b7 583d 3e25 e13c c48b d1bd
000000c0: 22fd 153d 580e d23c eb57 cfbc cb89 45bc
000000d0: f877 21bd b1ff 99bc 186a 833d 42fe 513d
000000e0: e4c0 c4bd dfdc 2e3d 1c15 42bc d77e 573c
000000f0: 16ac 263d 4115 483d e60f 353d 0ef1 e83c
00000100: e13f 8f3d cf31 80bc 149f b13d 488f a13d
00000110: fd67 94bd 2061 7b3d e7c6 78bd 73a2 943d
00000120: 11e9 8abd 49d4 9ebd 099e 3bbd 1a84 babd
00000130: 9a91 bbbd 49d5 b0bb b124 313c e60c ba3d
00000140: 7cf6 05b9 1513 9b3a 8182 9c3d 4a9e d5bc
00000150: 25d3 af3d f8b2 a2bd 2bdc 66bb 1926 8c3d
00000160: 66ad 003d e672 b73d 9b2f 113d c188 ccbd
00000170: 694e c1bd 5a5e 87bd 2e3f 99bd 64b1 b2bb
00000180: 897c 403d 9e44 91bd 630d 0a3d 58d9 17bc
00000190: ce1b 4cbd f8d8 8abc dbbc abbd 8bcb 033d
000001a0: 3dae a53d e729 aebd 7a29 93bd 7330 983d
000001b0: 8a8d 383c 7dc7 a63c 0d7a a0bc a5ca 603d
000001c0: 4746 923d 39e6 ea3c d554 0fbd 70db 833d
000001d0: 0808 cc3d 0c2b 313b 1542 073d ca9b 73bd
000001e0: eff7 81bc fa67 15bd b6b5 813d dc37 653b
000001f0: dc91 113d c1d4 adbd 2018 853d 77e0 b73c

bias_hh_l0 f4 [128]
0.02404064 -0.04423428 0.05585617 -0.060678165 -0.05364813 -0.09306614 0.06455276 0.01611748
-0.023597285 0.030116715 -0.019782748 0.0012453176 0.017363872 0.020504734 0.04720101 0.091016576
-0.020999435 -0.00741725 0.07415597 -0.048697438 0.10232635 0.097441085 0.00034973334 -0.09096519
0.050213285 -0.054474093 0.07806434 -0.038776293 0.041361675 0.083140865 -0.01231675 0.05675188
0.010167236 -0.052285884 -0.09275277 -0.078012384 -0.079090394 0.08950093 -0.055428524 0.00045717158
-0.09668858 0.053119145 0.02874066 -0.05294131 0.018975357 -0.07388916 0.009730519 -0.06972192
0.047565006 0.04301639 0.0577581 -0.0098146815 0.09484604 0.044726964 -0.02174522 -0.055062022
0.030683164 -0.0524852 -0.013163652 -0.05927323 0.0588037 0.053098906 0.020119997 -0.06968679
-0.10002432 0.032332134 0.04717889 0.05976355 -0.04938342 -0.07543963 -0.08812128 0.06168349
0.0137893325 0.026971364 0.10455406 -0.05673998 0.061554547 0.013137626 0.036130335 -0.036246
0.07722385 -0.0067697144 -0.09471159 0.005147477 0.0704123 0.10295132 -0.0030524454 -0.02195756
-0.05790169 -0.028732872 0.039548513 -0.07688433 -0.098961286 0.0796274 0.00064660417 0.04373141
0.06682826 0.09624549 0.051805448 -0.024668258 0.05209494 0.047992665 0.07278221 0.07808938
0.046194628 0.034051508 0.08617516 -0.050103538 -0.04247333 0.08236633 0.08729193 0.01710589
-0.009472962 0.08020257 0.023709223 -0.017660152 -0.029096862 -0.06074182 -0.079503715 0.029110707
-0.021630991 0.07153004 -0.0012836582 0.051756307 -0.07083572 0.08039353 -0.029103838 -0.029431047
00000000: e0f0 c43c 012f 35bd 70c9 643d ab89 78bd
00000010: 24be 5bbd 7699 bebd 3d34 843d ce08 843c
00000020: 184f c1bc 54b7 f63c 6e0f a2bc ed39 a33a
00000030: ae3e 8e3c 8bf9 a73c d955 413d e666 ba3d
00000040: 0207 acbc 670c f3bb 16df 973d f776 47bd
00000050: 7a90 d13d 318f c73d 6a5c b739 f54b babd
00000060: 72ac 4d3d 3a20 5fbd 32e0 9f3d e4d3 1ebd
00000070: dc6a 293d c245 aa3d 32cc 49bc a974 683d
00000080: 7b94 263c b929 56bd 2af5 bdbd f5c4 9fbd
00000090: 25fa a1bd 434c b73d 0509 63bd 88b0 ef39
000000a0: aa04 c6bd 7693 593d 8871 eb3c fdd8 58bd
000000b0: 3572 9b3c 3353 97bd c16c 1f3c 5eca 8ebd
000000c0: 86d3 423d f431 303d c293 6c3d c2cd 20bc
000000d0: a43e c23d 9f33 373d 0823 b2bc b788 61bd
000000e0: 425b fb3c b9fa 56bd 5cac 57bc 7dc8 72bd
000000f0: 26dc 703d 3d7e 593d b1d2 a43c f3b7 8ebd
00000100: 8dd9 ccbd b36e 043d a73e 413d a0ca 743d
00000110: 4546 4abd 1880 9abd ee78 b4bd d4a7 7c3d
00000120: a7ec 613c 0df3 dc3c 7020 d63d 2e68 68bd
00000130: 9f20 7c3d 333f 573c 67fd 133d b076 14bd
00000140: 8a27 9e3d 7bd4 ddbb 26f8 c1bd 2bac a83b
00000150: 5334 903d 24d8 d23d 890b 48bb 57e0 b3bc
00000160: 532a 6dbd 3361 ebbc 9ffd 213d 8875 9dbd
00000170: 37ac cabd b113 a33d df80 293a b51f 333d
00000180: 41dd 883d 5b1c c53d f331 543d 1615 cabc
00000190: 8161 553d f593 443d d70e 953d 53ed 9f3d
000001a0: 9436 3d3d 9879 0b3d 9a7c b03d 5e39 4dbd
000001b0: 84f8 2dbd aeaf a83d 1dc6 b23d a721 8c3c
000001c0: 7b34 1bbc 3f41 a43d d839 c23c 06ac 90bc
000001d0: 8b5c eebc 6acc 78bd d8d2 a2bd 9479 ee3c
000001e0: 7a33 b1bc 577e 923d 6c40 a8ba 6cfe 533d
000001f0: 5112 91bd 5da5 a43d 2c6b eebc 6119 f1bc

weight_ih_l0_reverse f4 [128, 1]
-0.040636066 -0.028193248 -0.05204887 0.05820166 0.09100845 0.0675966 -0.005942052 0.08653522
0.06255619 0.03589023 0.0013938104 -0.06298363 0.067811064 -0.05804993 0.0143123865 -0.08418185
0.0606135 0.096159354 0.055511884 0.085610114 -0.069366194 -0.096893184 -0.04993781 0.022110146
-0.013429042 -0.06088954 0.060997333 -0.083740644 0.013881947 -0.09149512 0.087450765 0.06711485
0.07127976 -0.042230196 0.061089456 0.04434302 -0.014840519 0.0065957694 -0.01101516 0.05676465
0.08180576 -0.06094198 0.035891205 0.05890816 -0.029027194 -0.07068589 0.021711146 -0.026261454
-0.048219178 0.051677275 0.041946173 -0.051165562 -0.03558805 0.059307527 -0.091857806 -0.048289765
-0.09941647 -0.009300563 -0.035998564 0.044256143 -0.071486674 -0.0020517798 -0.073965065 -0.08763806
-0.07063828 0.06609076 -0.089903995 -0.098117724 -0.051323205 0.07079616 -0.104133226 -0.041626316
0.04016934 -0.08795685 -0.09829377 0.06674595 -0.08827746 -0.09343068 -0.038225748 -0.09968389
-0.006175236 -0.0387764 0.03652894 0.038397737 0.07004925 0.0011157093 -0.023760308 -0.07334005
-0.066266365 0.08329538 -0.060430996 -0.012720831 0.051571768 -0.09947806 -0.038172264 0.010167297
-0.024172481 0.017723337 -0.07573414 -0.079317845 0.1019922 0.0311502 -0.07671669 -0.017418077
-0.06499569 -0.014099966 0.042049684 -0.09086784 -0.09383764 -0.05234159 -0.048520364 -0.019911401
-0.08377876 0.057350416 0.054188292 -0.039776627 -0.02576395 -0.029844895 0.009473891 0.06676389
0.099738985 0.025645234 -0.08582348 0.002756248 -0.0032420587 0.024384936 -0.03196588 -0.07378704
00000000: 0172 26bd 87f5 e6bc 3231 55bd dd64 6e3d
00000010: a362 ba3d 1670 8a3d 8cb5 c2bb 6139 b13d
00000020: 761d 803d a201 133d 84b0 b63a 90fd 80bd
00000030: 87e0 8a3d c3c5 6dbd 807e 6a3c 8967 acbd
00000040: dd45 783d 32ef c43d 6e60 633d 5b54 af3d
00000050: dd0f 8ebd ef6f c6bd 978b 4cbd 5620 b53c
00000060: 7c05 5cbc 4f67 79bd 57d8 793d 3780 abbd
00000070: 1b71 633c cb61 bbbd 6319 b33d 8373 893d
00000080: 1ffb 913d 92f9 2cbd f038 7a3d 07a1 353d
00000090: a625 73bc 5321 d83b ee78 34bc 0d82 683d
000000a0: c789 a73d 4c9e 79bd a802 133d af49 713d
000000b0: 70ca edbc c4c3 90bd 93db b13c 4322 d7bc
000000c0: 7981 45bd 8dab 533d c0cf 2b3d fb92 51bd
000000d0: c6c4 11bd 73ec 723d f21f bcbd 7dcb 45bd
000000e0: dd9a cbbd 6361 18bc 3b73 13bd ee45 353d
000000f0: 9b67 92bd 2777 06bb ff7a 97bd 957b b3bd
00000100: cdaa 90bd 985a 873d 961f b8bd f2f1 c8bd
00000110: 4838 52bd 94fd 903d cd43 d5bd 5b80 2abd
00000120: 9b88 243d b922 b4bd 3e4e c9bd 1ab2 883d
00000130: d0ca b4bd 9658 bfbd 9a92 1cbd 1127 ccbd
00000140: a259 cabb 01d4 1ebd 5f9f 153d f246 1d3d
00000150: fb75 8f3d fe3c 923a faa4 c2bc 4f33 96bd
00000160: a9b6 87bd c596 aa3d 7e86 77bd 086b 50bc
00000170: eb3c 533d 27bb cbbd 855a 1cbd bc94 263c
00000180: 5e05 c6bc 8830 913c 801a 9bbd 6571 a2bd
00000190: 49e1 d03d b42e ff3c a41d 9dbd 5bb0 8ebc
000001a0: 761c 85bd 8b03 67bc 4a3c 2c3d eb18 babd
000001b0: f32d c0bd 2364 56bd 4abd 46bd 3c1d a3bc
000001c0: 3394 abbd 45e8 6a3d 8bf4 5d3d d1ec 22bd
000001d0: eb0e d3bc 487d f4bc 6138 1b3c 82bb 883d
000001e0: f443 cc3d f415 d23c 38c4 afbd 2ba2 343b
000001f0: b878 54bb ebc2 c73c a8ee 02bd a91d 97bd

weight_hh_l0_reverse f4 [128, 32]
-0.053223617 -0.02518489 0.06876086 -0.014867787 0.06756388 -0.022109563 -0.08735382 0.056112338
0.06904753 0.07267171 -0.07552308 -0.025493635 -0.086676165 -0.0638244 -0.025053337 -0.061675698
-0.0012204158 -0.08548308 -0.035666965 0.08513823 0.060079716 -0.001959763 0.025214177 -0.0921996
-0.02338636 0.08361506 -0.028239833 0.06268684 -0.011166391 -0.009625148 -0.068451 -0.06520638
-0.0279683 0.089399874 -0.0158965 -0.033270724 0.025496952 -0.0061063794 -0.07551348 -0.0742089
0.03515424 0.035778347 0.060951162 -0.047362193 0.020512028 -0.024496129 0.08250961 -0.0042100935
0.059867125 0.06852636 -0.052632987 0.07213363 0.035856094 0.050026897 -0.025535984 -0.00514838
0.09460961 -0.014144396 -0.055559482 -0.073592626 -0.06516738 0.080372296 0.05949866 0.07084825
0.05510358 0.037422024 -0.016634516 -0.019453539 -0.084588274 -0.0069968067 0.09951 0.05865728
-0.0055251876 0.027496276 -0.08387194 0.004242841 -0.03654531 -0.068710834 -0.026766675 -0.06897466
-0.03155972 0.0034807513 -0.016430693 0.07206385 -0.030891716 -0.017982954 -0.004654839 0.09842696
-0.045615703 -0.032322027 -0.047044076 0.026615227 0.09825699 -0.04799784 0.06867387 0.0011071312
0.021021694 0.005115529 0.02048387 0.054262586 -0.07380355 0.024749631 -0.06447048 -0.024754059
0.06818366 0.081842914 0.049407125 0.01426464 -0.08420216 0.052766196 -0.0054504415 0.033407163
-0.06630548 0.06969639 0.026919806 -0.04148736 0.091489024 0.055863284 -0.09366664 -0.07094682
0.10187391 0.050092425 0.0018224154 0.079713374 -0.071650915 -0.09844448 0.044973526 -0.03480575
-0.0976121 0.023282107 0.049435865 0.05964476 0.039252743 -0.0052609504 -0.03142692 -0.059163902
-0.040946607 -0.022571325 -0.058730993 -0.015357245 0.08988488 -0.014083859 0.015218046 0.013434455
-0.02297999 0.049735256 -0.022121541 0.03634871 -0.07661763 0.10255015 0.032372825 0.036696102
-0.054394394 -0.07821391 -0.031968117 0.0775051 0.07102053 -0.07038212 0.039670642 0.027463196
0.06097235 0.014323701 0.060482226 -0.01604995 -0.067692585 -0.0780884 -0.019492049 -0.030879112
0.017709982 0.023784352 0.07490132 -0.043786645 0.061063055 -0.09610221 -0.049926654 -0.09229363
-0.036838964 0.017976917 -0.0688346 0.044700615 0.030938752 -0.07239069 0.028290367 0.034445785
0.086758934 0.08782829 0.057244815 -0.017853865 -0.09489622 -0.06835281 0.017954376 0.049555115
-0.033329908 -0.0062836176 0.040899396 0.003558146 0.022716857 -0.059328888 -0.084698334 0.060009316
0.0001575228 0.0425496 -0.09839585 -0.078502774 -0.097500704 0.06284162 0.046870813 3.9857085e-05
-0.06418283 -0.026691988 -0.093799785 0.03307695 0.04239006 0.082901366 -0.086573966 0.051173966
0.029754091 0.025738595 -0.09273309 0.020593071 0.020933857 -0.0875108 -0.08247661 0.074440606
0.07658838 0.02629296 -0.06519264 0.043023504 -0.07208616 -0.054465156 0.0947544 -0.08392871
-0.062334213 -0.071651705 -0.09829668 0.04897121 0.01122552 0.053855464 0.06621263 -0.08484133
0.06162926 -0.06486275 -0.07169635 0.07837294 -0.04891916 -0.038997613 -0.048636947 0.04930696
0.056478746 0.016433116 0.08735059 -0.0013161917 0.09127325 -0.06073873 0.06293087 -0.082765765
00000000: 0201 5abd 8b50 cebc 7ed2 8c3d 0598 73bc
00000010: ee5e 8a3d 1d1f b5bc 8fe6 b2bd 0dd6 653d
00000020: cb68 8d3d e8d4 943d d8ab 9abd 07d8 d0bc
00000030: 4683 b1bd 5eb6 82bd a83c cdbc a89f 7cbd
00000040: 5cf6 9fba c111 afbd 8617 12bd f45c ae3d
00000050: 2616 763d 5e6f 00bb f68d ce3c 25d3 bcbd
00000060: c094 bfbc 5f3e ab3d 3957 e7bc f561 803d
00000070: 3df3 36bc ccb2 1dbc 0a30 8cbd ec8a 85bd
00000080: c71d e5bc 4817 b73d 6039 82bc e246 08bd
00000090: fcde d03c 0618 c8bb d0a6 9abd d6fa 97bd
000000a0: e4fd 0f3d 518c 123d eda7 793d dcfe 41bd
000000b0: d708 a83c 1bac c8bc ccfa a83d d3f4 89bb
000000c0: 3b37 753d 8c57 8c3d b095 57bd ccba 933d
000000d0: d7dd 123d 01e9 4c3d d730 d1bc beb3 a8bb
000000e0: afc2 c13d e6bd 67bc 5792 63bd bbb7 96bd
000000f0: 7a76 85bd 3b9a a43d deb4 733d e318 913d
00000100: 4bb4 613d d647 193d 1c45 88bc 075d 9fbc
00000110: 9e3c adbd 7845 e5bb e6cb cb3d 9e42 703d
00000120: a20c b5bb df3f e13c 0dc5 abbd 8807 8b3b
00000130: 89b0 15bd 44b8 8cbd c945 dbbc 9642 8dbd
00000140: c444 01bd 511d 643b a999 86bc 3696 933d
00000150: a010 fdbc fd50 93bc 9f87 98bb 1394 c93d
00000160: 88d7 3abd 1a64 04bd 4ab1 40bd 2d08 da3c
00000170: f63a c93d 6299 44bd e3a4 8c3d 291d 913a
00000180: b035 ac3c 2ba0 a73b cacd a73c 7242 5e3d
00000190: 5126 97bd bdbf ca3c 1909 84bd 06c9 cabc
000001a0: e0a3 8b3d 429d a73d 205f 4a3d 3db6 693c
000001b0: 2f72 acbd 5e21 583d 9e99 b2bb f3d5 083d
000001c0: 2bcb 87bd fbbc 8e3d ed86 dc3c a6ee 29bd
000001d0: 995e bb3d e6d0 643d 4cd4 bfbd 914c 91bd
000001e0: 45a3 d03d b72d 4d3d 1dde ee3a c440 a33d
000001f0: b7bd 92bd 429d c9bd 2936 383d 7990 0ebd
00000200: dae8 c7bd 1eba be3c 437d 4a3d 104e 743d
00000210: 7cc7 203d 0d64 acbb 84b9 00bd d955 72bd
00000220: a1b7 27bd 80e7 b8bc e98f 70bd f49c 7bbc
00000230: 9015 b83d fcbf 66bc 1c55 793c 301c 5c3c
00000240: 8840 bcbc 32b7 4b3d 3c38 b5bc 63e2 143d
00000250: b4e9 9cbd d005 d23d 5e99 043d a74e 163d
00000260: a8cc 5ebd 9d2e a0bd 00f1 02bd feba 9e3d
00000270: 3673 913d 8024 90bd af7d 223d 7ffa e03c
00000280: 25be 793d f5ad 6a3c 36bc 773d 2f7b 83bc
00000290: 69a2 8abd d0ec 9fbd caad 9fbc 31f6 fcbc
000002a0: 8614 913c 67d7 c23c dd65 993d a059 33bd
000002b0: 411d 7a3d 3cd1 c4bd e47f 4cbd 7104 bdbd
000002c0: 74e4 16bd 5444 933c 28f9 8cbd fe17 373d
000002d0: 4473 fd3c 9241 94bd 33c1 e73c 0617 0d3d
000002e0: abae b13d 52df b33d 8a79 6a3d 4542 92bc
000002f0: f358 c2bd 8ffc 8bbd 0e15 933c 4efa 4a3d
00000300: f184 08bd cee6 cdbb 2086 273d c92f 693b
00000310: b418 ba3c d902 73bd 5276 adbd 54cc 753d
00000320: b42c 2539 7d48 2e3d c383 c9bd 10c6 a0bd
00000330: 73ae c7bd 1bb3 803d 9cfb 3f3d 382c 2738
00000340: 4a72 83bd 28a9 dabc 1a1a c0bd b27b 073d
00000350: 33a1 2d3d 31c8 a93d b14d b1bd cb9b 513d
00000360: dabe f33c bfd9 d23c d9ea bdbd cdb2 a83c
00000370: 7b7d ab3c dd38 b3bd 7fe9 a8bd 5174 983d
00000380: 5eda 9c3d 5564 d73c b883 85bd 6a39 303d
00000390: e9a1 93bd db16 5fbd 980e c23d d1e2 abbd
000003a0: 2952 7fbd 21be 92bd c54f c9bd 0996 483d
000003b0: 3eeb 373c 8c97 5c3d 7d9a 873d 4bc1 adbd
000003c0: f76e 7c3d c3d6 84bd 89d5 92bd fe81 a03d
000003d0: 755f 48bd f6bb 1fbd 8937 47bd 18f6 493d
000003e0: 4256 673d be9e 863c dee4 b23d 1184 acba
000003f0: 78ed ba3d 2dc9 78bd e6e1 803d 1981 a9bd

bias_ih_l0_reverse f4 [128]
0.0890241 0.07306189 -0.07489457 0.007133837 -0.023689983 -0.0023682371 0.08777919 0.050744284
-0.0846126 0.021539036 -0.08415914 0.06020012 0.1021329 -0.060707837 -0.03044315 0.085952215
0.0086637195 -0.023653537 -0.09642203 -0.08890903 0.104452476 0.023758477 -0.057369098 -0.09155694
0.008120595 0.024689062 -0.028015839 -0.060204923 -0.008189184 0.09991772 -0.040620722 0.09674294
-0.061360467 -0.029675817 0.0006371755 -0.0727481 0.0059488816 -0.076974854 0.008422625 -0.045457315
0.002094239 -0.03949441 0.095540635 0.033364315 -0.08022377 0.10250572 -0.036938887 0.039528266
-0.08302431 -0.010407942 -0.025801294 -0.09327821 0.0120694665 -0.050340544 -0.035079792 0.0064331675
0.0038808077 -0.088557124 -0.068830684 -0.002898951 -0.05072522 0.03923758 -0.025429457 0.054456055
-0.023228187 -0.009135705 -0.038992926 0.06132238 -0.06818603 0.08591532 -0.09441629 0.07534381
0.058406573 0.008257055 -0.0005818115 -0.08260267 0.052142244 0.01601306 -0.06712472 0.09666099
-0.021444665 -0.021843145 0.080787964 -0.020355582 -0.10125296 0.03785746 0.08020414 -0.08198239
-0.04505261 -0.009061014 0.02898801 0.036969673 -0.041549407 -0.07556836 -0.011021831 0.05849702
-0.0077245543 0.06496075 -0.1002256 0.057729274 -0.027854528 -0.08068491 -0.016643038 0.06271615
-0.021973694 0.0835225 0.034986164 0.01277116 0.0021982796 0.01118402 0.009044569 0.030220017
0.050570242 0.019585876 -0.07162625 -0.088768035 0.0064222002 0.091292575 0.08911696 -0.09604315
0.013303596 -0.09048055 0.011898017 0.009408276 0.039251342 -0.0436183 0.03665514 0.010844987
00000000: 4452 b63d 79a1 953d 5362 99bd f6c2 e93b
00000010: 7f11 c2bc 6d34 1bbb 93c5 b33d 3dd9 4f3d
00000020: 5f49 adbd a272 b03c a15b acbd 6794 763d
00000030: 0e2b d13d c8a8 78bd ea63 f9bc b707 b03d
00000040: 46f2 0d3c 10c5 c1bc ea78 c5bd f015 b6bd
00000050: 2eeb d53d 23a1 c23c dcfb 6abd 3482 bbbd
00000060: 3e0c 053c b740 ca3c 7981 e5bc 7099 76bd
00000070: ed2b 06bc a9a1 cc3d ea61 26bd 2a21 c63d
00000080: 1d55 7bbd b31a f3bc 2008 273a f5fc 94bd
00000090: d6ee c23b fea4 9dbd 0dff 093c 7331 3abd
000000a0: 803f 093b e4c4 21bd cfaa c33d 05a9 083d
000000b0: 5c4c a4bd 85ee d13d 3b4d 17bd 64e8 213d
000000c0: a608 aabd 1386 2abc 3c5d d3bc a508 bfbd
000000d0: 03bf 453c e331 4ebd d4af 0fbd 52cd d23b
000000e0: 2655 7e3b 705d b5bd 1af7 8cbd 54fc 3dbb
000000f0: 40c5 4fbd 96b7 203d 7051 d0bc 500d 5f3d
00000100: 0a49 bebc edad 15bc 0cb7 1fbd 2d2d 7b3d
00000110: 1ea5 8bbd 5ff4 af3d 545d c1bd db4d 9a3d
00000120: bb3b 6f3d 9948 073c b584 18ba 972b a9bd
00000130: 1b93 553d d22d 833c af78 89bd 32f6 c53d
00000140: b9ac afbc 65f0 b2bc 2974 a53d c0c0 a6bc
00000150: b65d cfbd 6d10 1b3d 1142 a43d 62e6 a7bd
00000160: 1689 38bd a674 14bc 4378 ed3c 836d 173d
00000170: b62f 2abd 96c3 9abd e994 34bc 929a 6f3d
00000180: 421e fdbb 240a 853d 1443 cdbd 8875 6c3d
00000190: 2e2f e4bc 213e a5bd fb56 88bc 5371 803d
000001a0: 2d02 b4bc d80d ab3d a74d 0f3d 213e 513c
000001b0: 0311 103b 2e3d 373c ac2f 143c f88f f73c
000001c0: be22 4f3d 8f72 a03c c9b0 92bd 04cc b5bd
000001d0: 5271 d23b 9af7 ba3d f482 b63d 45b2 c4bd
000001e0: 53f7 593c de4d b9bd e6ef 423c 2b25 1a3c
000001f0: 04c6 203d 1aa9 32bd b323 163d 2caf 313c

bias_hh_l0_reverse f4 [128]
0.06966655 0.01921477 -0.018935937 0.03482987 0.057986397 0.04878375 0.057318628 -0.07914234
0.03838076 -0.024553273 -0.018973196 0.08461669 -0.07321886 -0.012094153 -0.028697785 0.054992933
-0.09570561 0.04740303 -0.06001639 -0.052204568 0.00096776616 -0.07357635 -0.10489079 -0.101581514
0.012606358 -0.085071415 0.061452873 -0.026033882 0.0010949252 0.02396187 0.019902626 0.06435836
-0.0665535 0.05589161 -0.050486796 0.04276967 -0.0081601115 0.029730469 0.092607826 0.06757391
-0.06180324 0.019360088 0.0038873423 0.093465105 -0.065082155 -0.078397445 -0.03387064 -0.051930867
-0.06033014 0.024840532 -0.07480111 -0.059778553 -0.050036535 0.05936966 -0.006777819 0.006556169
-0.09041536 0.09280158 0.10370311 -0.025758272 -0.0044502877 -0.012234128 -0.07264577 0.028495979
-0.10213259 0.04027417 -0.056415483 0.04619028 -0.0560598 -0.08099974 -0.04326205 -0.10585751
0.021880202 -0.051896367 -0.091017984 -0.061946884 -0.10600293 -0.0938817 -0.05923151 0.10234821
0.08407943 0.073384985 0.051171903 -0.08310407 -0.0026118804 -0.029452927 -0.027670193 0.017221542
0.080397666 -0.03981179 0.06970481 -0.0208813 -0.038578186 -0.0014384345 -0.057368238 -0.07486565
0.05019746 -0.07178179 -0.04721258 0.033084393 -0.09116591 -0.031634364 -0.0018089559 0.10097741
0.068627015 -0.04520267 -0.033770658 0.066239156 0.048150055 -0.017495595 -0.060520202 -0.015197501
0.033994563 0.048756097 -0.058042854 0.03708318 -0.03401622 -0.00082327955 -0.08922977 0.009635917
0.060858037 0.03767056 0.09188996 0.06972177 -0.018835345 0.07276078 0.0971681 -0.038318068
00000000: 56ad 8e3d 4b68 9d3c 8a1f 9bbc c4a9 0e3d
00000010: 2583 6d3d 78d1 473d f0c6 6a3d 6115 a2bd
00000020: 2535 1d3d f223 c9bc ad6d 9bbc 844b ad3d
00000030: c5f3 95bd 8e26 46bc 9e17 ebbc 4540 613d
00000040: 4e01 c4bd ae29 423d bfd3 75bd 75d4 55bd
00000050: b0b1 7d3a 33af 96bd fcd0 d6bd f809 d0bd
00000060: e68a 4e3c ec39 aebd 02b6 7b3d 0245 d5bc
00000070: 9883 8f3a af4b c43c d50a a33c 51ce 833d
00000080: 344d 88bd 9aee 643d 3ecb 4ebd 402f 2f3d
00000090: fdb1 05bc 508d f33c 2ca9 bd3d 3164 8a3d
000000a0: 6525 7dbd 0c99 9e3c c8c2 7e3b a26a bf3d
000000b0: cb49 85bd d78e a0bd f1bb 0abd 76b5 54bd
000000c0: bd1c 77bd 5f7e cb3c 5331 99bd 5bda 74bd
000000d0: 1cf3 4cbd 9a2d 733d 7718 debb 22d5 d63b
000000e0: b02b b9bd c10e be3d 4c62 d43d 0303 d3bc
000000f0: b8d3 91bb a771 48bc 4ec7 94bd 6670 e93c
00000100: e42a d1bd 87f6 243d ec13 67bd 0532 3d3d
00000110: f69e 65bd 31e3 a5bd 8c33 31bd d2cb d8bd
00000120: 1c3e b33c 4991 54bd a367 babd 04bc 7dbd
00000130: 1018 d9bd 0c45 c0bd bd9c 72bd f09b d13d
00000140: d631 ac3d de4a 963d a199 513d 7732 aabd
00000150: 152c 2bbb 4447 f1bc 9aac e2bc 3114 8d3c
00000160: 88a7 a43d b011 23bd 65c1 8e3d 430f abbc
00000170: 2904 1ebd da89 bcba f5fa 6abd 2953 99bd
00000180: da9b 4d3d 5502 93bd fa61 41bd 8083 073d
00000190: 31b5 babd 0993 01bd 7d1a edba 3fcd ce3d
000001a0: 528c 8c3d 6f26 39bd 1a53 0abd 65a8 873d
000001b0: fe38 453d ec52 8fbc 08e4 77bd f0fe 78bc
000001c0: e23d 0b3d 79b4 473d 58be 6dbd 88e4 173d
000001d0: 9854 0bbd 5bd1 57ba 19be b6bd f7df 1d3c
000001e0: 4746 793d 724c 1a3d ce30 bc3d 4aca 8e3d
000001f0: 954c 9abc 9b03 953d 1200 c73d 68f3 1cbd

bin_context_vector f4 [64, 1]
0.09734633 0.09256541 0.03185215 0.034444295 0.09588478 0.06211842 -0.030972498 -0.03522326
0.047009043 0.006876073 -0.03442697 0.09166819 -0.051530592 -0.0044658505 -0.026654636 0.06610272
0.041167084 -0.0010949492 0.022457609 -0.082865596 -0.083206646 0.07652212 0.0839817 -0.0984338
0.057776336 -0.050694935 -0.086781085 -0.0816988 -0.07015099 -0.059323404 0.06932148 -0.0314349
-0.0027637198 0.09225028 -0.0058878157 0.017661022 -0.08484982 0.093478955 -0.061603602 -0.10274998
0.06125609 0.073894605 0.077807195 -0.045674957 -0.045137 0.01183393 -0.013745889 0.00028437033
0.027999936 -0.05361956 -0.022183686 -0.038026787 -0.01074321 0.018051801 0.0041931653 -0.018423222
0.038745727 -0.09117847 0.06972223 0.074525155 -0.0049614203 -0.0531999 0.0025402547 0.09913399
00000000: 835d c73d ef92 bd3d 6677 023d 7615 0d3d
00000010: 3d5f c43d e26f 7e3d 09ba fdbc 4446 10bd
00000020: 8e8c 403d ae50 e13b 4b03 0dbd 88bc bb3d
00000030: be11 53bd 4556 92bb d35a dabc dd60 873d
00000040: d19e 283d 6684 8fba 05f9 b73c 70b5 a9bd
00000050: 3f68 aabd a1b7 9c3d 99fe ab3d a997 c9bd
00000060: e1a6 6c3d 7ea5 4fbd 48ba b1bd b351 a7bd
00000070: 52ab 8fbd 19fd 72bd 6cf8 8d3d e2c1 00bd
00000080: 861f 35bb b7ed bc3d 94ee c0bb d9ad 903c
00000090: bec5 adbd e571 bf3d 0f54 7cbd 956e d2bd
000000a0: aae7 7a3d 0e56 973d 6159 9f3d aa15 3bbd
000000b0: 93e1 38bd 1ae3 413c 7036 61bc 8a17 9539
000000c0: 1f60 e53c 2fa0 5bbd 90ba b5bc fac1 1bbd
000000d0: 4a04 30bc 5fe1 933c d266 893b 4cec 96bc
000000e0: d7b3 1e3d c7bb babd 87ca 8e3d a5a0 983d
000000f0: 6993 a2bb 23e8 59bd 677a 263b c306 cb3d

weight_ih_l0 f4 [128, 1]
0.097013585 -0.040546063 -0.088646926 0.07687626 -0.028457077 -0.020831443 -0.06413339 0.018143961
-0.08750029 -0.01963343 -0.046939384 -0.036741614 -0.054925166 -0.041176878 -0.05342576 0.005270038
-0.09860449 0.08842449 0.055661645 -0.08079018 0.014148375 0.10088081 0.04234911 0.0028580767
-0.021820333 0.093061045 0.046773326 0.02384034 0.063183896 0.08950034 -0.08989948 0.062364735
-0.02762229 -0.07470515 -0.016771656 -0.0038319835 0.017619038 0.076998375 0.047715608 -0.08454607
-0.08057682 -0.10214691 0.08241365 0.061317217 -0.023374569 -0.058206324 -0.08165756 0.062989764
0.0022631774 0.002253444 0.04622885 -0.09590538 0.023102809 -0.099140495 0.0062286835 0.06131634
-0.04602669 0.035263866 -0.062558115 -0.065412395 0.09327058 0.103083365 0.086295225 0.05557384
0.038343906 0.09676207 0.08253501 -0.069949865 -0.047793478 0.09981431 -0.06495431 0.06514936
-0.02160462 -0.0989157 0.049022064 0.05818105 0.010725067 0.04217792 -0.058528434 0.0031055612
0.05963116 -0.0926668 0.03782437 -0.014149252 -0.0032540348 -0.09795924 -0.0642567 -0.013309121
0.014540399 0.06087834 -0.048348457 0.051749825 0.016279751 -0.087409794 -0.004880884 -0.023976613
-0.029121831 -0.06622084 -0.08585661 -0.051471144 -0.0033747754 -0.009787934 0.09527002 -0.061630394
-0.095315844 0.083496094 -0.022732234 -0.07890376 -0.07155948 0.005153888 0.075057186 0.06556475
-0.023239572 -0.032731026 -0.093224 0.017245043 0.01866433 -0.037189487 0.09371299 -0.045883983
-0.031000383 -0.0059891264 0.03610176 0.043927256 0.009430986 -0.004091084 0.08273525 -0.052507617
00000000: 0faf c63d a113 26bd 858c b5bd 4d71 9d3d
00000010: d11e e9bc b4a6 aabc 5e58 83bd a5a2 943c
00000020: 5a33 b3bd 49d6 a0bc 8343 40bd 607e 16bd
00000030: 36f9 60bd 16a9 28bd f8d4 5abd 48b0 ac3b
00000040: 27f1 c9bd e617 b53d 77fd 633d 5275 a5bd
00000050: 96ce 673c 999a ce3d 4376 2d3d 924e 3b3b
00000060: 8ec0 b2bc ca96 be3d 6395 3f3d d14c c33c
00000070: 8f66 813d f44b b73d 381d b8bd 2a72 7f3d
00000080: 2448 e2bc 04ff 98bd b664 89bc 0422 7bbb
00000090: cd55 903c 53b1 9d3d 7171 433d 7d26 adbd
000000a0: 7605 a5bd 6632 d1bd 7dc8 a83d c327 7b3d
000000b0: 067c bfbc c169 6ebd 143c a7bd c700 813d
000000c0: d151 143b 84ae 133b 765a 3d3d 0a6a c4bd
000000d0: 1a42 bd3c 2c0a cbbd fc19 cc3b d826 7b3d
000000e0: 7c86 3cbd d870 103d 781e 80bd eff6 85bd
000000f0: a504 bf3d 5f1d d33d 8dbb b03d 65a1 633d
00000100: 800e 1d3d 312b c63d 1e08 a93d e041 8fbd
00000110: 18c3 43bd 726b cc3d c406 85bd 076d 853d
00000120: 2cfc b0bc 5194 cabd 5ccb 483d 414f 6e3d
00000130: 31b8 2f3c c1c2 2c3d 83bb 6fbd ac86 4b3b
00000140: ce3f 743d 17c8 bdbd baed 1a3d 44d2 67bc
00000150: a541 55bb db9e c8bd 0499 83bd 800e 5abc
00000160: db3a 6e3c 915b 793d 0809 46bd a0f7 533d
00000170: 1d5d 853c e803 b3bd d3ef 9fbb 9a6a c4bc
00000180: e890 eebc cb9e 87bd 97d5 afbd 68d3 52bd
00000190: 562b 5dbb 925d 20bc ee1c c33d 2770 7cbd
000001a0: f434 c3bd 0000 ab3d f338 babc 4b98 a1bd
000001b0: c78d 92bd f2e1 a83b 95b7 993d d046 863d
000001c0: ea60 bebc f810 06bd 39ec bebd 7a45 8d3c
000001d0: f0e5 983c 0154 18bd 99ec bf3d d8f0 3bbd
000001e0: 84f4 fdbc 6f40 c4bb 70df 133d 11ed 333d
000001f0: 6c84 1a3c 800e 86bb 1971 a93d 3a12 57bd

weight_hh_l0 f4 [128, 32]
0.044437394 -0.03302673 0.08936879 0.0591253 0.030994363 -0.0047750836 -0.04307063 0.009793559
0.09028108 0.025741512 -0.006518482 -0.066010475 0.057595648 0.0020070828 0.038638867 -0.08087126
0.09073906 -0.009970687 -0.077398874 -0.07222709 0.046240516 0.08287209 0.058558833 -0.05985116
-0.07429955 0.08828281 -0.08631629 -0.029071145 0.08111184 0.0756679 -0.061616756 0.046331108
0.019240128 -0.017983433 -0.063841775 0.077361606 0.06446405 0.07358909 -0.07158305 -0.07525569
-0.06839665 -0.0630801 -0.00502065 -0.049020912 0.035105027 0.054743 0.046947684 -0.031981897
0.023582535 0.099873066 0.08341415 0.092008576 -0.011274934 -0.058630142 0.070677854 -0.08130525
-0.06262554 -0.071513 0.067952745 0.06214335 -0.09142631 -0.008264557 0.09019474 -0.0076828413
0.010984594 -0.034733083 -0.04315874 -0.004629974 0.012856002 0.010435721 -0.07235501 -0.04860209
0.050879 -0.022455327 0.09441729 -0.008478497 -0.08706445 0.03859984 -0.0043380144 -0.011210467
0.07870375 -0.07156298 0.093898885 0.054675363 -0.03473588 0.025896795 0.066001825 0.03228074
-0.06040333 -0.035535157 0.09971274 0.014629508 0.02446706 0.054741167 0.079782516 -0.055419017
0.08754977 0.049970932 -0.0109771835 -0.07944443 0.0670999 -0.07037893 0.089011334 -0.04604725
0.016734688 -0.053026445 -0.024592806 -0.010619374 -0.038813274 -0.04767695 0.022110792 -0.020959042
-0.049241453 0.007694369 -0.09247189 -0.09737283 0.04617044 -0.05197321 0.024108937 -0.04139877
-0.00576016 -0.06414578 -0.015357575 0.011671598 -0.0065208217 -0.014215291 -0.07958392 -0.08382297
0.09305826 -0.07293416 0.09738002 -0.08970438 -0.0976406 0.049114622 -0.05234726 -0.081247136
-0.03209936 0.040640626 -0.021800859 -0.092340134 -0.026075948 -0.0833356 -0.034649663 -0.01196449
0.05966285 0.021717323 0.08297869 -0.010443753 0.07417101 0.08290541 -0.06664521 0.060701244
-0.020038785 -0.07208205 -0.02016816 0.083977334 0.036701802 0.0037630133 -0.011568031 -0.033823006
0.017339228 0.07033254 0.013478381 0.06682856 -0.042948917 0.042527556 0.0155690415 0.080001615
0.09305157 -0.07827239 0.09728431 0.07968327 -0.07421994 0.03696372 -0.08077952 0.024221608
-0.054886293 0.028302144 0.056532767 0.065479524 0.095111094 0.0136020025 0.025579643 0.031723604
0.07929394 -0.071269095 0.03717326 0.034050453 0.073003635 0.078253254 0.031293646 0.09372475
0.009733261 0.038541283 0.0081678815 -0.057619587 -0.042985238 0.002729889 0.054605465 -0.082796216
0.082408495 -0.012359976 -0.043296404 -0.02304802 0.08172367 0.025246195 -0.07220267 0.029212974
-0.03413894 -0.07305069 -0.014573232 -0.051888496 0.05945559 0.07743778 -0.07173532 0.042679377
-0.0011335401 -0.06412341 0.0058225347 -0.085173585 -0.029031979 0.029023856 0.0044626715 -0.060841165
0.025989225 -0.084365 0.033611044 0.0030031204 0.009290182 0.02769986 0.040211305 -0.07275843
-0.073093444 -0.034777842 0.036884733 0.06419616 -0.06565941 0.069349445 0.035331834 -0.00062255154
-0.019172763 0.09539605 0.08214109 0.06403948 -0.049190674 0.060948778 -0.02918758 -0.021975726
0.03977031 0.02519556 -0.006982125 -0.02606826 0.012498391 0.06908324 -0.0974017 -0.067501985
00000000: fc03 363d 0947 07bd fc06 b73d 5f2d 723d
00000010: e4e7 fd3c 4e78 9cbb d46a 30bd 2a75 203c
00000020: 49e5 b83d dddf d23c fe98 d5bb 8030 87bd
00000030: 6ae9 6b3d 4389 033b ca43 1e3d d59f a5bd
00000040: 66d5 b93d 185c 23bc 4d83 9ebd cceb 93bd
00000050: b266 3d3d d8b8 a93d 63db 6f3d 7d26 75bd
00000060: 5d2a 98bd 9ecd b43d 98c6 b0bd 9c26 eebc
00000070: f71d a63d c6f7 9a3d da61 7cbd b0c5 3d3d
00000080: 799d 9d3c fe51 93bc 7abf 82bd c36f 9e3d
00000090: ba05 843d e0b5 963d 229a 92bd a81f 9abd
000000a0: 8b13 8cbd 2430 81bd 4484 a4bb 27ca 48bd
000000b0: 4aca 0f3d 323a 603d 374c 403d 73ff 02bd
000000c0: 2930 c13c 408a cc3d 0ad5 aa3d fe6e bc3d
000000d0: 80ba 38bc 2926 70bd 8dbf 903d 5e83 a6bd
000000e0: d241 80bd 6875 92bd cf2a 8b3d 068a 7e3d
000000f0: b83d bbbd 1168 07bc 05b8 b83d 58c0 fbbb
00000100: baf8 333c 4744 0ebd 38c7 30bd 09b7 97bb
00000110: fba1 523c 96fa 2a3c dd2e 94bd fc12 47bd
00000120: 8066 503d 3cf4 b7bc da5d c13d 65e9 0abc
00000130: d94e b2bd de1a 1e3d e725 8ebb 1bac 37bc
00000140: 6f2f a13d 9d8f 92bd 0f4e c03d 46f3 5f3d
00000150: 3647 0ebd 8425 d43c f72b 873d cf38 043d
00000160: 7b69 77bd 508d 11bd 3136 cc3d 9bb0 6f3c
00000170: 256f c83c 4638 603d 0465 a33d 0dff 62bd
00000180: 4b4d b33d 52ae 4c3d a5d9 33bc c3b3 a2bd
00000190: ac6b 893d d422 90bd 934b b63d 0b9c 3cbd
000001a0: 2f17 893c 4232 59bd da76 c9bc e2fc 2dbc
000001b0: abfa 1ebd e848 43bd b121 b53c 4cb2 abbc
000001c0: 68b1 49bd 0c21 fc3b e761 bdbd 686b c7bd
000001d0: 371d 3d3d dce1 54bd 1b80 c53c c291 29bd
000001e0: b9bf bcbb dd5e 83bd 579e 7bbc 3b3a 3f3c
000001f0: 9eac d5bb 40e7 68bc e5fc a2bd 61ab abbd
00000200: 5495 be3d 815e 95bd 2d6f c73d eeb6 b7bd
00000210: cbf7 c7bd 6a2c 493d 156a 56bd e664 a6bd
00000220: 9e7a 03bd c976 263d b797 b2bc d31c bdbd
00000230: 3a9d d5bc dbab aabd ceec 0dbd b506 44bc
00000240: 0861 743d 87e8 b13c bbf0 a93d 461c 2bbc
00000250: f8e6 973d 50ca a93d 497d 88bd dea1 783d
00000260: 6128 a4bc c19f 93bd b237 a5bc 4ffc ab3d
00000270: a154 163d e39c 763b d787 3dbc fe89 0abd
00000280: ff0a 8e3c 820a 903d 6dd4 5c3c 69dd 883d
00000290: 34eb 2fbd 6031 2e3d 4b15 7f3c e3d7 a33d
000002a0: d291 be3d 464d a0bd ff3c c73d fb30 a33d
000002b0: a000 98bd 4567 173d bc6f a5bd 656c c63c
000002c0: 73d0 60bd e6d9 e73c e78e 673d 211a 863d
000002d0: 9bc9 c23d efda 5e3c 668c d13c 9cf0 013d
000002e0: dc64 a23d 88f5 91bd fd42 183d 7d78 0b3d
000002f0: ee82 953d 3e43 a03d c42d 003d c3f2 bf3d
00000300: 4178 1f3c 77dd 1d3d 94d2 053c 8402 6cbd
00000310: 4a11 30bd f0e7 323b fba9 5f3d 1091 a9bd
00000320: c9c5 a83d 7f81 4abc 9257 31bd 34cf bcbc
00000330: bd5e a73d 1cd1 ce3c fede 93bd 0c50 ef3c
00000340: 46d5 0bbd 9a9b 95bd 91c4 6ebc 0889 54bd
00000350: b487 733d b397 9e3d f8e9 92bd 92d0 2e3d
00000360: 4b93 94ba 2253 83bd f6ca be3b 7d6f aebd
00000370: 79d4 edbc 70c3 ed3c 9a3b 923b 9634 79bd
00000380: 5be7 d43c 8fc7 acbd bcab 093d 00d0 443b
00000390: d935 183c d1ea e23c 9cb4 243d 5f02 95bd
000003a0: 04b2 95bd 3673 0ebd 7214 173d 4779 833d
000003b0: 7178 86bd 1507 8e3d 1db8 103d ba32 23ba
000003c0: 3310 9dbc 015f c33d 9639 a83d 2227 833d
000003d0: 297c 49bd 6da5 793d cb1a efbc 7006 b4bc
000003e0: 31e6 223d eb66 ce3c 4fca e4bb 1b8d d5bc
000003f0: 0dc6 4c3c 847b 8d3d 8b7a c7bd 7b3e 8abd

bias_ih_l0 f4 [128]
-0.06594974 -0.020759618 -0.02796965 0.022617606 0.018920695 0.041487113 0.090118244 -0.03752896
-0.0421172 -0.008332564 0.046348292 -0.09885958 0.08749381 -0.0050568185 -0.03075263 0.104898445
0.03186665 -0.0037303544 0.05827855 -0.04007829 0.08592426 0.06080854 0.05384724 -0.02589174
0.060397442 -0.06917606 -0.07596259 -0.07029709 0.07806946 -0.07747752 0.06132109 0.0657951
-0.0542126 0.07429595 -0.05030171 0.097731486 0.08076828 -0.024844624 -0.06069599 0.08114304
-0.06981775 -0.025317939 -0.06511963 -0.00526837 0.07960657 -0.031177206 0.006842507 -0.079618536
-0.06733773 0.037940856 -0.09417345 0.008880287 -0.062131945 0.08578215 -0.09067523 0.083404996
-0.10121248 0.0012180909 0.08250002 -0.103705294 -0.079576604 -0.026043387 -0.025401711 0.035391137
0.037214704 -0.036837995 -0.04370685 -0.043261956 -0.004868786 0.082198374 -0.022872414 0.028500153
0.01476786 0.025428344 -0.043098453 -0.030073317 0.04055621 -0.048780557 0.042108342 0.056995332
0.03364083 0.05215007 0.07943359 -0.072838336 -0.00359697 0.055104185 -0.06878537 0.030008571
0.006431783 -0.092113055 0.08686216 0.03489014 -0.09941196 0.065624885 0.09169805 0.015450982
-0.022247951 -0.022423564 -0.014529122 -0.09255487 0.08733748 -0.01619044 -0.04992475 -0.07076123
0.048104636 -0.081061214 -0.010863782 0.02541121 -0.08771894 -0.09015438 -0.054266404 -0.08052183
0.05386111 0.05046764 -0.06240686 -0.021539941 0.025251597 0.057533536 -0.0084761325 -0.008953482
0.031137818 0.05386519 -0.020961989 -0.08442557 -0.014403079 -0.08129463 0.032777753 0.056615327
00000000: a810 87bd 1310 aabc 9c20 e5bc 8f48 b93c
00000010: 93ff 9a3c 64ee 293d ea8f b83d f7b7 19bd
00000020: 1683 2cbd 4e85 08bc b5d7 3d3d e476 cabd
00000030: f42f b33d abb3 a5bb f1ec fbbc ffd4 d63d
00000040: 9b86 023d f678 74bb 7db5 6e3d 2229 24bd
00000050: 0ff9 af3d 6012 793d ec8e 5c3d ea1a d4bc
00000060: 4f63 773d 2eac 8dbd 4692 9bbd ecf7 8fbd
00000070: e2e2 9f3d 89ac 9ebd d32b 7b3d 95bf 863d
00000080: 080e 5ebd 7a28 983d 2a09 4ebd 7227 c83d
00000090: d769 a53d f486 cbbc 5c9c 78bd 522e a63d
000000a0: 9cfc 8ebd 9167 cfbc 715d 85bd 4aa2 acbb
000000b0: c508 a33d 5767 ffbc 1c37 e03b 0b0f a3bd
000000c0: 5de8 89bd df67 1b3d 02de c0bd a07e 113c
000000d0: 117e 7ebd 8dae af3d efb3 b9bd 3dd0 aa3d
000000e0: 7d48 cfbd 59a8 9f3a c5f5 a83d 7163 d4bd
000000f0: 0ff9 a2bd f158 d5bc 4017 d0bc 4cf6 103d
00000100: 726e 183d 70e3 16bd f405 33bd 7333 31bd
00000110: 568a 9fbb 9f57 a83d ee5e bbbc 2779 e93c
00000120: e5f4 713c 1a4f d03c 0188 30bd 515c f6bc
00000130: 451e 263d 1fce 47bd cc79 2c3d f073 693d
00000140: f8ca 093d 509b 553d 14ae a23d 442c 95bd
00000150: 25bb 6bbb edb4 613d 58df 8cbd 89d4 f53c
00000160: b5c1 d23b c5a5 bcbd cae4 b13d f7e8 0e3d
00000170: 7f98 cbbd 5766 863d 30cc bb3d 1e26 7d3c
00000180: 5641 b6bc 9fb1 b7bc 8e0b 6ebc 688d bdbd
00000190: fedd b23d d0a1 84bc e57d 4cbd 44eb 90bd
000001a0: 5e09 453d 6c03 a6bd 01fe 31bc 2b2b d03c
000001b0: fda5 b3bd dca2 b8bd 7346 5ebd a1e8 a4bd
000001c0: 789d 5c3d 28b7 4e3d 569e 7fbd 8874 b0bc
000001d0: 70dc ce3c 49a8 6b3d 7adf 0abc a0b1 12bc
000001e0: bd14 ff3c bfa1 5c3d 7ab8 abbc 50e7 acbd
000001f0: e4fa 6bbc cd7d a6bd f741 063d 79e5 673d

bias_hh_l0 f4 [128]
-0.025779648 0.030742677 -0.012829014 -0.08347738 0.06692165 0.094093874 -0.0975942 -0.020026946
0.052859806 -0.058181446 -0.08310591 0.085215844 -0.052226815 -0.059642717 0.03084486 -0.037991308
-0.07305522 -0.059856422 -0.0051691267 0.07407525 0.0550941 -0.06114785 -0.033411518 -0.018720906
0.0036077062 0.09359342 -0.06387687 0.08623219 0.07475342 0.07842146 -0.087374635 0.027868897
0.095759824 0.04869183 0.09763784 0.008363341 0.098753564 -0.019226804 -0.10350521 -0.10292235
-0.04140562 0.05337011 -0.015254387 -0.06788985 -0.02587101 0.02499167 0.03351424 0.0745919
-0.03425796 0.047189217 0.030378724 -0.090565845 0.03231731 0.045298364 -0.053087767 0.053112336
-0.04524827 -0.10487716 -0.06644949 -0.036844824 -0.012443974 0.1046167 0.036739152 -0.08804849
0.057398193 -0.028283278 0.006192754 -0.046134643 -0.05924497 0.032415777 0.05806266 -0.081031986
-0.08230728 0.07857472 0.09714107 0.019668648 -0.077805765 -0.015874 0.08955494 -0.07813208
-0.06378816 -0.06870847 -0.04114878 -0.041485764 0.08068401 0.08181794 -0.08307718 -0.024395464
0.037203576 -0.049522538 0.062937036 0.016909203 0.05456384 0.09495572 0.063798174 -0.07869885
-0.059892293 -0.01739313 -0.032390848 0.029464489 0.0702316 -0.06900285 -0.073431894 0.08852347
0.078911595 0.0002476105 -0.09326485 -0.069015935 0.05180579 -0.012270143 -0.007076528 -0.05567091
-0.05945973 0.099811986 0.013509231 0.0877873 -0.044044208 0.09758787 0.010666242 0.0538119
-0.0051141204 -0.022786703 0.07729516 -0.054163925 -0.02137408 0.08066665 -0.0064982786 -0.07182531
00000000: d72f d3bc 11d8 fb3c c930 52bc 30f6 aabd
00000010: 380e 893d 4ab4 c03d 78df c7bd 8d0f a4bc
00000020: 8683 583d ab4f 6ebd 6e33 aabd a585 ae3d
00000030: c9eb 55bd ec4b 74bd 5cae fc3c c69c 1bbd
00000040: fa9d 95bd 022c 75bd c761 a9bb c4b4 973d
00000050: 5aaa 613d 2b76 7abd 84da 08bd 965c 99bc
00000060: 446f 6c3b e8ad bf3d e0d1 82bd 819a b03d
00000070: 5218 993d 6e9b a03d 79f1 b2bd 504d e43c
00000080: ba1d c43d 1671 473d 59f6 c73d 6506 093c
00000090: 4f3f ca3d 8881 9dbc 8afa d3bd f4c8 d2bd
000000a0: f098 29bd 9e9a 5a3d 89ed 79bc d509 8bbd
000000b0: 71ef d3bc 55bb cc3c 3a46 093d a3c3 983d
000000c0: 1352 0cbd 7b49 413d cddc f83c 967a b9bd
000000d0: 285f 043d c78a 393d 8f72 59bd 528c 593d
000000e0: 4056 39bd d6c9 d6bd ac16 88bd 99ea 16bd
000000f0: cfe1 4bbc 4841 d63d cb7b 163d c452 b4bd
00000100: 5e1a 6b3d 55b2 e7bc 96ec ca3b aef7 3cbd
00000110: dbaa 72bd 68c6 043d 1dd3 6d3d 19f4 a5bd
00000120: b890 a8bd c8eb a03d e6f1 c63d 2520 a13c
00000130: a158 9fbd 310a 82bc 9568 b73d b603 a0bd
00000140: 5ea3 82bd 07b7 8cbd a08b 28bd faec 29bd
00000150: a93d a53d 2a90 a73d 5e24 aabd ffd8 c7bc
00000160: c762 183d 25d8 4abd 22e5 803d 2b85 8a3c
00000170: 557e 5f3d 2578 c23d 9ea8 823d dd2c a1bd
00000180: 9f51 75bd 0a7c 8ebc 44ac 04bd 835f f13c
00000190: 96d5 8f3d 5e51 8dbd 7663 96bd cb4b b53d
000001a0: 679c a13d b8d1 8139 a401 bfbd 3a58 8dbd
000001b0: 4f32 543d b608 49bc 38e2 e7bb 2e07 64bd
000001c0: 0c8c 73bd 3a6a cc3d d255 5d3c d4c9 b33d
000001d0: b367 34bd 26dc c73d 76c1 2e3c de69 5c3d
000001e0: 5a94 a7bb 2eab babc ed4c 9e3d feda 5dbd
000001f0: b218 afbc 8e34 a53d 83ef d4bb 2619 93bd
