Results/gm_full_k562_full/gm_full_k562_full_raw_d/gm_full_k562_full_raw_d_R2_model.pt (torch_old, 482944 bytes, 109 tensors)

weight_ih_l0 f4 [128, 1]
000000 d9 8b 21 3e fd 8a 70 be 37 e5 9b 3d ae eb 6a 3e
       0.15776004 -0.2349052 0.07612079 0.22941467
000010 76 1c 0b 3e 8a fb 13 bd 84 bf ed bd 53 37 1a 3e
       0.13585076 -0.03612856 -0.11608794 0.15060167
000020 9b 76 14 3e 14 78 36 3e 4d 35 10 3e 3f 1d 32 be
       0.1449837 0.17819244 0.14082833 -0.17393969
000030 09 35 19 3e e4 4f b2 3d b0 3f af 3d ff 7b 55 3e
       0.14961638 0.08706644 0.08557069 0.20848082
000040 fe ea 08 3e d5 0a 1a bd 73 88 28 3e c8 81 5b 3e
       0.13370892 -0.037607986 0.16458301 0.21436226
000050 5d a6 a5 3d 1d 65 12 3e 27 f0 91 3e e2 86 19 be
       0.08088372 0.14296384 0.28503534 -0.1499286
000060 dc c5 f4 3d 66 e8 cd 3d e4 be d0 3d 19 25 69 3e
       0.11951801 0.10054092 0.101926595 0.22768058
000070 17 a1 23 3e 8f 6f 40 3d c4 d4 42 3e e6 b9 e8 3d
       0.1597942 0.04698139 0.19026476 0.11363582
000080 23 d9 43 bd 8c fd c6 bc 14 9c d6 3c c3 bc 99 bd
       -0.0478145 -0.024290822 0.02619747 -0.075067066
000090 e6 f5 8b bd d4 ca 14 bd 31 86 b9 3d 4a 39 bb bd
       -0.06834011 -0.036326244 0.09058798 -0.091417864
0000a0 00 54 7c b9 db 18 a2 bd ff 73 c4 bd fd bc a5 bd
       -0.00024063885 -0.07914897 -0.09592437 -0.08092687
0000b0 92 1e 62 3d 4d 3c 30 bd 30 61 dc bb 9d a5 a1 bd
       0.055204935 -0.043026257 -0.006725453 -0.07892916
0000c0 64 d8 eb 3c 72 3f 31 3d 00 21 df 3b 15 a2 a9 bd
       0.028789707 0.043273397 0.006809354 -0.08282868
0000d0 d3 96 bc bd ed 11 4a bd 6c 7c dd bc 56 bc 47 3d
       -0.09208455 -0.0493335 -0.027036868 0.048763596
0000e0 ea 7d 72 bd 52 bd ab bd 98 24 1c 3c fd 1b 9b 3d
       -0.059202112 -0.08385719 0.009530209 0.07573698
0000f0 b8 fb e9 bc 2e 7a 85 bd 16 2e 08 bd 4d c4 68 bd
       -0.028562412 -0.065174446 -0.033247076 -0.056827832
000100 29 22 56 be 2f 0c 1e be 94 96 bd bd 58 07 8a be
       -0.20911469 -0.15434335 -0.09257236 -0.26958728
000110 31 10 40 3e 02 6c 17 3e 3b c1 f3 bd 61 f4 3b be
       0.18756177 0.14787295 -0.1190209 -0.18354942
000120 99 18 82 3e 6a a4 53 be 59 3f 88 be 91 ec 3f be
       0.25409392 -0.20668188 -0.2661083 -0.18742587
000130 ee cc 6d be 4d 79 3f 3e f7 f0 0a 3e 29 3b 64 3e
       -0.23222706 0.18698616 0.13568483 0.22288193
000140 cb 1b 91 3e 99 93 54 3e e4 5e 3c be 0a 02 7c be
       0.28341517 0.20759429 -0.18395573 -0.24610153
000150 c4 b2 7e 3e 67 18 61 3e 3d 0f 8d 3e 76 ad ff 3d
       0.24872881 0.21981965 0.27550688 0.12484257
000160 f5 70 59 3e 15 66 2f be 2a 34 34 3e c4 e5 54 be
       0.21234496 -0.17128785 0.17598024 -0.20790774
000170 7a 15 1b be b1 84 54 be fd a5 4f 3e e2 58 63 be
       -0.15144911 -0.20753743 0.20278163 -0.22201875
000180 35 3a 47 3e c6 5e 36 be 17 87 d2 3c 5e 8b 0d 3e
       0.19455798 -0.1780959 0.025699181 0.13822696
000190 51 7f d3 3d 8d d6 01 bc 99 d4 b7 bd b4 6c 3f 3e
       0.10327018 -0.007924688 -0.08976097 0.1869381
0001a0 e3 be 73 3e 74 f2 7e 3e 67 2a e4 3d f5 29 4d be
       0.23803286 0.24897176 0.111409 -0.20035537
0001b0 ba 3d 1a 3e 8f 95 22 3b 37 cb 86 bc 8c b1 7b 3e
       0.1506261 0.0024808382 -0.016454322 0.24579448
0001c0 9f 93 4c 3e 9f 7e 81 3d 10 f6 fe 3d ff d9 d6 3d
       0.19978188 0.06322979 0.124492764 0.10490798
0001d0 8a e1 f4 3d ba 06 43 3e fb 08 72 3e 35 62 af bd
       0.11957081 0.19045535 0.23636238 -0.085636534
0001e0 89 22 2b 3e 6e 76 17 3e af 1d 95 3d e0 61 79 3e
       0.16712393 0.14791271 0.07281052 0.24353743
0001f0 1e c2 2f 3e c4 bd 15 bc 9b 69 7e 3e 9d 99 c1 3d
       0.17163894 -0.009139482 0.24844973 0.094531275

weight_hh_l0 f4 [128, 32]
000000 13 85 5d bd 58 e1 08 3c 8a de 7b bd ed 9b 87 bd
       -0.054081988 0.008354507 -0.061491527 -0.06621537
000010 d4 a7 fa 3c 32 d8 77 3d 0a 61 a6 bd 70 36 88 bd
       0.030597605 0.060508914 -0.081239775 -0.06651008
000020 48 2a a1 bd 66 1a 10 3d 1e dc 52 3d 30 fa 89 bd
       -0.07869393 0.035181426 0.05147945 -0.067371726
000030 96 38 4b 3d 1a d4 8a bd 82 0a 74 3d 23 c8 8f 3d
       0.04961451 -0.067787364 0.059580334 0.07020595
000040 c1 b0 c3 3d 2e 7f 68 3d 32 06 62 3d 54 b4 0c bd
       0.095551975 0.056761913 0.05518169 -0.03435166
000050 60 45 58 bb 20 18 a9 bb a0 b7 76 3b 4a 10 33 3d
       -0.0033000335 -0.0051603466 0.003764607 0.043716706
000060 d4 80 9d bc c8 51 c2 3c 8c 53 f9 bc 14 86 c1 3c
       -0.01922647 0.023720637 -0.030435346 0.023623504
000070 ed 90 44 bd f6 45 00 3d 2c a5 bd 3c e4 1c 07 bd
       -0.047989774 0.03131672 0.02315005 -0.032986537
000080 c0 90 08 bb ad b0 a2 bd 61 95 9f 3d 62 a3 3a 3d
       -0.002083823 -0.079438545 0.07792164 0.04556597
000090 38 1d a6 bc c0 a4 7c 3c 92 8b 5a 3d 43 07 20 bd
       -0.020277604 0.015420139 0.05335576 -0.039069425
0000a0 28 3e 6e bc 3c 92 8a bd b1 59 c3 3d c0 49 61 3b
       -0.014541186 -0.06766173 0.09538592 0.0034376234
0000b0 89 6b a2 3d c0 96 79 3c c0 a8 4a bb da b0 5f 3d
       0.07930667 0.0152336955 -0.0030923337 0.05461202
0000c0 00 e4 01 b9 b4 6c 82 bd 22 ad 70 3d e7 db c8 bd
       -0.00012387335 -0.0636839 0.058758862 -0.09807568
0000d0 18 2e 2a 3c 75 0b 81 3d 60 26 ea bc 12 74 4f 3d
       0.010386966 0.063010134 -0.028582752 0.050647803
0000e0 40 d5 80 ba a2 46 15 3d 3b 91 c8 3d ea a2 58 3d
       -0.0009829178 0.036444314 0.097933255 0.052889742
0000f0 5a 9e 0d bd 33 34 57 bd 60 81 be bc 7e c9 31 3d
       -0.034574844 -0.052540015 -0.02325505 0.04340505
000100 2d 38 62 bd 80 e3 be 3c 4e a6 16 3d 7a 56 3e 3d
       -0.055229355 0.02330184 0.036779694 0.04646919
000110 22 91 45 3d 13 05 c9 bd cb 72 c1 3d 47 aa 68 bd
       0.048234113 -0.09815421 0.09445723 -0.056803014
000120 a0 29 ec bc 31 27 b5 3d c8 10 a3 bd 1d a2 a4 3d
       -0.028828442 0.08845366 -0.07962185 0.08038733
000130 12 f1 1d 3d 30 1e 1f 3c 83 62 50 bd d8 58 20 bc
       0.03855998 0.009711787 -0.050875198 -0.009786807
000140 45 92 98 bd d0 46 28 bd cc aa e8 bc f1 c0 a5 3d
       -0.07449774 -0.041083157 -0.028401755 0.08093441
000150 bd ea 83 3d f7 de b0 3d 98 5c f4 bc 60 bc ba bb
       0.06441257 0.08636277 -0.029829308 -0.0056987256
000160 00 18 1d b8 50 6a 25 3c 9a 31 1e 3d ed 43 b5 bd
       -3.745407e-05 0.010096148 0.038621522 -0.088508464
000170 40 cd 8d 3c 88 ed a2 bc 30 9f 74 bd 75 b7 89 bd
       0.017309785 -0.019888654 -0.059722126 -0.06724445
000180 8d a0 8d bd 58 d1 94 3c 5a 0e 73 3d 90 04 66 bc
       -0.06915388 0.01816623 0.05933986 -0.014039174
000190 05 9c a3 3d fb 62 ba 3d 27 62 69 bd 28 48 05 bc
       0.07988743 0.0910091 -0.05697837 -0.008134879
0001a0 7c 09 89 bd 2b 8b 82 3d 62 a7 27 3d 6b ed c7 bd
       -0.06691262 0.063742004 0.040931113 -0.09762081
0001b0 0c 25 d0 bc 6c 61 99 bc 78 ba 8b 3c 3b a9 b2 3d
       -0.02540829 -0.018723212 0.017056689 0.087236844
0001c0 fa 48 74 3d 67 9f 81 3d 8d 77 9f bd 03 94 2d bd
       0.05963991 0.06329232 -0.077864744 -0.042377483
0001d0 a6 f5 11 bd 00 26 0b bc 0c 96 87 3c 3e 06 41 3d
       -0.03563466 -0.008492947 0.01655104 0.047125094
0001e0 76 5a 40 3d d4 ab c9 bc 93 b0 6f bd 60 7d 6b bb
       0.04696127 -0.024618067 -0.058518004 -0.0035932884
0001f0 4a f6 61 bd 1b 69 bb 3d e0 10 e2 3b 55 de 99 3d
       -0.05516652 0.09150907 0.0068989843 0.075131096
000200 a0 52 32 bd 54 d3 11 bd 70 70 b3 bd 4a d7 ca bd
       -0.04353583 -0.03560193 -0.0876168 -0.099043444
000210 fd a2 4f bd f8 22 be bd a0 27 e8 3b 2e 4a 4a 3d
       -0.050692547 -0.092840135 0.007084802 0.04938715
000220 ac 98 9b 3c cc d4 06 bd 00 0f 4b ba 8a 70 a0 bd
       0.018993698 -0.032917783 -0.00077460706 -0.07833965
000230 c7 20 1a bd 5a 40 57 3d 45 53 a3 3d 53 43 63 bd
       -0.037628915 0.052551605 0.07974867 -0.055484127
000240 1c a7 12 bd b3 9b cc 3d cd 7d a2 3d b8 63 b0 3c
       -0.0358039 0.09990635 0.07934151 0.021531925
000250 d0 91 f0 3b d6 08 7b 3d eb 5e 81 3d 60 0f 70 bb
       0.007341601 0.061287723 0.06316932 -0.0036630258
000260 a0 51 c8 3b 90 3d c2 bd 53 37 82 3d 78 48 d9 bc
       0.006113246 -0.09484398 0.063582085 -0.026523814
000270 36 b6 aa bd 73 1b 29 bd c0 72 2a 3b 58 b3 c5 3c
       -0.08335535 -0.041285943 0.0026008338 0.02413337
000280 20 87 cb bd 1b 4a b6 3d a0 70 60 bb 38 be c2 bd
       -0.099378824 0.08900853 -0.0034246817 -0.095089376
000290 4d 42 c6 3d a2 50 83 bd cd 85 20 bd c0 b1 14 bd
       0.096806146 -0.06411864 -0.039190102 -0.036302328
0002a0 74 1a db 3c 11 c8 b2 3d 92 c7 74 3d 42 e7 78 3d
       0.026746012 0.08729566 0.059760638 0.06076742
0002b0 ad d2 8a bd 00 74 4d 3b 1b 16 b0 3d 43 ef 39 bd
       -0.067784645 0.003134966 0.08597966 -0.045394193
0002c0 ea 06 7c bd 67 fc 59 bd a7 81 8e 3d 17 34 b4 bd
       -0.06153003 -0.053219225 0.06958323 -0.08798998
0002d0 fe bd 94 bd 23 4c ba 3d de e5 52 3d 60 79 1f 3b
       -0.07262801 0.09096553 0.05148875 0.002433382
0002e0 3a b2 95 bd 3e 50 6d 3d 12 5e 08 3d 98 10 42 3c
       -0.07309385 0.057937853 0.033292837 0.011844777
0002f0 54 fe bf bc 06 08 02 3d 77 0a 47 bd 2d 60 c2 3d
       -0.023436703 0.031745933 -0.048593964 0.09491
000300 74 47 e7 3c b8 9e 86 bd 3c 9d e1 3c e8 a2 17 bc
       0.028232314 -0.06573242 0.027540796 -0.0092551485
000310 92 1b 90 bd 5b 4c 95 3d 4a 0a 61 3d 61 0d 89 3d
       -0.070365086 0.07289954 0.054941453 0.06692005
000320 e6 36 ac bd aa 02 b3 bd 50 52 60 bc 3f 12 bc 3d
       -0.084089085 -0.087407425 -0.0136915 0.09183168
000330 c0 af 11 bd af 9f 8f 3d d9 8f bd 3d 2a 06 3b 3d
       -0.035568 0.07012879 0.092559524 0.045660175
000340 0b 66 c7 bd 00 83 e5 bb 96 b0 61 3d a0 af f3 bc
       -0.0973626 -0.007004142 0.055100046 -0.02974683
000350 e4 4b fc 3c dc 83 82 bd a8 e2 48 3c dd 40 b7 bd
       0.030797906 -0.063728064 0.01226107 -0.089479186
000360 c0 e7 4c bd 47 63 5c bd 90 e0 45 bc d4 53 82 bc
       -0.0500257 -0.053805616 -0.012077466 -0.015909113
000370 b2 f3 3b 3d 27 6e 52 bd fa 54 a1 bd 16 a9 99 bd
       0.045886703 -0.05137458 -0.07877536 -0.07502954
000380 b7 66 b8 3d 49 25 b0 3d 40 48 bd bd 29 97 90 3d
       0.09003966 0.086008616 -0.09242296 0.070600815
000390 d3 9a 46 bd 58 2b 77 3c 3d a1 31 bd e2 99 24 3d
       -0.048487496 0.015086018 -0.04336666 0.040185817
0003a0 34 05 d8 3c 80 d5 1b ba e7 41 63 bd ef 59 8b 3d
       0.026369669 -0.0005944595 -0.05548277 0.06804263
0003b0 47 3f b3 bd 3e 71 5c 3d fc ae e0 3c 7f b1 c8 3d
       -0.087523036 0.053818934 0.027427189 0.0979948
0003c0 4d 25 9e bd 88 26 c8 3c 12 0f 9c bd e3 91 bb bd
       -0.07721958 0.024432436 -0.07620062 -0.09158685
0003d0 f8 00 97 bd a2 21 54 3d a0 a4 b5 bd 30 a7 6a bc
       -0.07373232 0.051789887 -0.0886929 -0.014322087
0003e0 63 96 8d 3d de 3c 5c 3d ab 40 9f bd 6a d3 c9 bd
       0.069134496 0.053768985 -0.07776006 -0.09854777
0003f0 15 84 97 3d c2 73 5b 3d e2 92 2f 3d 17 06 65 bd
       0.073982395 0.053577192 0.042864688 -0.05591401

bias_ih_l0 f4 [128]
000000 22 b8 a1 bc e3 da fe 3d c0 1a 8e be 12 26 8f 3d
       -0.019741122 0.12444093 -0.27754784 0.06989683
000010 a5 dd fc bd 82 f3 41 bc fa fc bd bd 6d af ad 3c
       -0.12346963 -0.011837842 -0.09276767 0.021201814
000020 1f 74 47 3e ee 82 fc 3c 77 02 d3 3d 01 c5 ac bc
       0.1947789 0.03082415 0.103032045 -0.021090033
000030 7d 0c 20 3e 61 fb b8 3d 25 63 85 bd 7b 81 99 bb
       0.15629764 0.09032322 -0.06513051 -0.0046846247
000040 15 3e 56 3e 77 4d 1a 3e 69 4a 25 bd cb fb dc 3d
       0.2092212 0.15068613 -0.040354166 0.10790213
000050 fc 55 06 3e 87 90 96 3d 68 e1 8b bb f0 05 c8 bd
       0.13118738 0.07351785 -0.004268814 -0.097667575
000060 67 0b 9d 3d 64 af 1b 3d 1e be 12 3e 65 70 d7 bb
       0.076681904 0.038009062 0.14330336 -0.006574678
000070 98 9f 80 3c 05 94 aa 3d 0e 6f aa 3d 85 24 9f 3d
       0.0157011 0.08329014 0.08321963 0.077706374
000080 ba e5 18 3d a0 ed 10 3b 3a 2b 17 bd 1a 04 55 bd
       0.03732846 0.0022114292 -0.03690646 -0.052005865
000090 0c 3a f3 3c 4e cb 26 3d 40 36 8d 3c c0 2b fe bc
       0.029690765 0.04072123 0.017237782 -0.031026721
0000a0 3a 35 5a bd 43 fb 7e bd 9e 40 ac bd 7d 4d af 3d
       -0.053273417 -0.06225134 -0.08410762 0.085597016
0000b0 20 d2 80 bc 19 cd 82 3d c4 3b f3 3c 18 1a 47 3c
       -0.015725195 0.063867755 0.029691584 0.012152217
0000c0 50 59 46 bc 8b 67 8d 3d 60 e6 c4 3b 00 3b 62 bd
       -0.012106255 0.06904515 0.006008908 -0.055232048
0000d0 22 8c 72 3d d9 87 82 3d 07 81 2a bd ad 6c 72 bd
       0.059215672 0.06373567 -0.041626956 -0.059185673
0000e0 db 91 aa bd f8 da 89 3c 55 35 c3 3d d3 22 a8 bd
       -0.08328601 0.016828045 0.09531657 -0.08209767
0000f0 00 d2 d4 3b e2 ef 51 3d 47 3e ad 3d 42 46 43 3d
       0.0064947605 0.05125416 0.08459144 0.047674425
000100 c7 19 f0 bb 46 76 1a 3e 84 4c 79 3d 32 a0 27 3c
       -0.0073272916 0.1508418 0.060863987 0.010231065
000110 a9 47 53 bd 6d 74 58 bd 4c 91 0d 3e 72 8b 56 3d
       -0.051582012 -0.052845407 0.13824958 0.05237908
000120 45 44 1b bd 43 05 28 3d 37 30 eb 3d 2c f5 1a 3e
       -0.037906904 0.041020643 0.114838056 0.15132588
000130 ac 79 3c 3d f6 3a 24 bd 97 0d f9 bd 13 5c 4c bc
       0.046014473 -0.040095292 -0.12160795 -0.012473124
000140 dc 77 99 bd 5b 53 8b bb d9 69 f9 3d 83 07 d4 3c
       -0.074935645 -0.00425188 0.12178392 0.025882488
000150 05 a5 ec bd 18 e4 e7 bd 80 0d e5 bc 90 5e 11 be
       -0.115549125 -0.11322802 -0.027960539 -0.14196229
000160 a9 37 77 bc 9b ef 7c 3d 6f 6c b9 bd 7d 07 99 bb
       -0.015088954 0.061751943 -0.09053885 -0.004670082
000170 6d 55 55 3d d1 a8 2a 3e f7 8f 3a 3c 3b 84 24 3e
       0.05208342 0.16665961 0.011386863 0.16066067
000180 d7 f9 b3 bd e5 fa 93 3d de aa 65 be 15 a1 3d 3e
       -0.087878875 0.07225589 -0.22428462 0.18518479
000190 28 08 42 bd 73 0b 82 bd db 00 82 3d 97 4d 72 3d
       -0.04737106 -0.0634984 0.063478194 0.059156027
0001a0 73 23 a3 3d fa 88 9c 3d 4e 02 0a 3e 2d e4 29 3c
       0.07965746 0.07643314 0.13477442 0.010369343
0001b0 ec 6c 5c 3e 87 59 4c bd f5 b8 77 bd 13 a2 fe 3c
       0.21525925 -0.049890067 -0.060479123 0.031083142
0001c0 1e 51 1c 3e de 7b 06 3e 92 8d 0f 3e c9 c0 fb 3d
       0.15265319 0.13133189 0.14018849 0.1229263
0001d0 00 3f 15 3e 4d 11 f5 3d 9a 27 e5 3c d1 6a 64 3d
       0.14574814 0.119661905 0.027972985 0.05576593
0001e0 b6 5a 2d 3e 89 de 4c 3c f7 76 0c 3d 49 3e 5e bd
       0.16929135 0.012504228 0.03429314 -0.05425862
0001f0 7e 7f 9a bd c1 38 53 3e 01 25 1b bd 1a ed 37 3e
       -0.075438485 0.20627119 -0.037877087 0.17961541

bias_hh_l0 f4 [128]
000000 54 e4 8c bd 3e e7 88 3d 96 5b 86 be bc 6a 4e 3e
       -0.06879488 0.06684731 -0.2624175 0.20157903
000010 5e d6 ff 3c 4b 6e cf bd e7 bd 87 bd e1 ad a2 3c
       0.031230148 -0.101284586 -0.06628018 0.019858303
000020 49 de 8d 3d 8e 11 bd bc d4 48 62 3e fa 46 bd bc
       0.06927163 -0.02307966 0.22098094 -0.023105133
000030 5c f2 84 3d 05 0a 03 bc b6 a4 67 bc 95 92 a8 3d
       0.06491539 -0.007997994 -0.014138391 0.08231083
000040 47 22 34 3d 16 f9 09 3e f9 0f b1 3b 42 3d 16 3e
       0.043978002 0.13473925 0.0054035154 0.14671806
000050 a0 31 ac 3d 5b 19 ac 3d e0 2e f2 3d 5f 29 2a 3b
       0.08407903 0.08403274 0.11825347 0.00259646
000060 30 64 e9 3d 17 12 83 3d a9 8f e3 3d 7d 3f f0 3d
       0.113960624 0.06399935 0.111113854 0.117308594
000070 67 fe 1c 3d 78 43 6d 3d de 49 5a 3b df b4 09 3e
       0.038328554 0.05792567 0.0033308188 0.13447903
000080 ae 88 8f bd 07 34 a1 3d 98 9e 45 3c 47 a4 48 bd
       -0.070084915 0.078712516 0.0120617375 -0.048984792
000090 2a 61 1a 3d 98 45 3b bc cf 48 83 3d 34 58 8f 3c
       0.03769032 -0.011430167 0.064103715 0.017498113
0000a0 d2 39 34 3d 42 06 3a 3d 0a 68 8b bd ba 5c 09 bd
       0.044000454 0.045416124 -0.06806953 -0.033535697
0000b0 7b cb c8 3d 1a a7 6c 3d e9 80 bd 3d c0 ea 8d bd
       0.09804436 0.057776548 0.09253103 -0.06929541
0000c0 28 40 c4 3c 63 ac 40 bd 00 96 f1 3a 02 e5 7e 3d
       0.023956373 -0.0470394 0.0018431544 0.062230118
0000d0 ad 39 53 bd b9 b5 97 3d fb d3 9f 3d 65 60 b2 3d
       -0.051568676 0.07407708 0.07804104 0.08709792
0000e0 09 1f c7 3d a8 45 c3 bd bd 49 bf bd 74 67 e9 bc
       0.09722716 -0.0953477 -0.09340236 -0.028491713
0000f0 77 a8 39 bd 97 da c8 bd 80 ed d6 bc d0 0e 7d bd
       -0.045326676 -0.09807318 -0.026236296 -0.061781704
000100 7d c1 26 bc be 87 c3 3d 7f 9d d3 3c bc ff ef 3d
       -0.010177967 0.09547375 0.025831936 0.11718699
000110 59 22 0a 3d 31 09 87 bd ca 83 f9 3d 43 6e ec ba
       0.033724163 -0.0659355 0.1218334 -0.0018038232
000120 85 ee 72 bd 3f 19 88 3c 1c 6b 9a 3d c1 36 ea 3d
       -0.0593095 0.0166136 0.07539961 0.11436225
000130 b8 12 83 3d 64 82 87 bd f6 24 54 3c 89 9e 08 bd
       0.06400055 -0.06616667 0.012948265 -0.033354316
000140 21 2e a1 3c 95 70 1d be f4 10 66 bd e3 c3 80 3d
       0.019675316 -0.15374978 -0.05616851 0.062873624
000150 e2 5e bd bc 91 70 6b 3c 88 92 a7 3c b0 6b 98 bd
       -0.023116533 0.0143701 0.020455614 -0.07442415
000160 83 ae ea bd 09 e5 0c bd 64 d3 55 bd 93 47 60 3c
       -0.11459067 -0.034398112 -0.05220355 0.01368894
000170 f3 0c 65 3d 05 c2 4b 3d db 68 c9 3c c4 ea ea bc
       0.055920552 0.04974558 0.024586132 -0.028676398
000180 24 23 5d bd fe 56 9c bb 36 fa 31 be 86 99 04 3e
       -0.05398859 -0.0047711125 -0.17380604 0.1294919
000190 ae f9 b5 bc 67 86 ec bc 89 4c 5b 3c b6 b3 8e 3d
       -0.022213783 -0.028872682 0.013384947 0.06967871
0001a0 47 e3 ce 3d cc a4 f5 3d f0 40 63 3e bb df 78 3d
       0.101019435 0.11994323 0.2219274 0.06076024
0001b0 df 92 02 3e 98 dd 8e 3d d2 fb c2 bd 32 e8 9f 3d
       0.1275134 0.069758594 -0.09520687 0.078079596
0001c0 62 ed d0 3d a4 31 9d 3d d1 77 82 3c ef 76 16 3e
       0.10201527 0.07675484 0.015926274 0.14693807
0001d0 ca b4 ad 3d 1d 97 2f 3e 62 0a 88 3d d5 87 39 bd
       0.084817484 0.17147489 0.06642605 -0.045295555
0001e0 2a f4 ae 3d 66 65 4f bd d7 34 0b 3e bd 42 62 bd
       0.08542664 -0.05063381 0.13594376 -0.055239428
0001f0 11 76 1c bc b8 b1 83 3d 0d fd 4b 3c 6b 53 0a 3e
       -0.009549634 0.064303815 0.012450469 0.13508384

weight_ih_l0_reverse f4 [128, 1]
000000 2e 0e 98 be aa 2a 08 be 27 17 03 3e 05 c0 cb bb
       -0.29698318 -0.13297525 0.128018 -0.006217959
000010 0c 4c 6e 3e 8a 0d 4f bd 4a a8 80 be 57 15 00 be
       0.23271197 -0.05055002 -0.25128394 -0.1250814
000020 02 54 61 3d 0b 60 09 be 9a 15 1f be 4d 97 35 bd
       0.055011757 -0.13415544 -0.15535584 -0.044333745
000030 92 0c 03 3d 31 d3 83 3e dc a7 6c 3e 34 a4 1e 3e
       0.03199441 0.25747064 0.23110908 0.15492326
000040 3f 1e 4f bd 5d 7e c2 bd e4 52 18 3e 11 34 95 bd
       -0.050565954 -0.09496758 0.1487537 -0.072853215
000050 f4 7b 03 3e 1b 60 fc 3d 41 7b 98 be fc 3f cc 3d
       0.12840253 0.12323018 -0.29781535 0.099731416
000060 46 13 44 3e 5c 93 2d be ef f9 75 bd 7d 2a 88 3e
       0.19147977 -0.16950744 -0.06005281 0.26594916
000070 ae c9 d1 3d 57 cd ad 3d 6f 21 67 bd 3e 19 4f 3e
       0.102435455 0.08486431 -0.05642837 0.20224473
000080 52 f4 55 3d b2 1e 5f 3d a0 a3 ab bb 59 ca be 3d
       0.052234955 0.054472633 -0.0052380115 0.093159385
000090 82 12 3b 3d e8 71 55 bc 30 14 54 bc 6c 95 91 bc
       0.045671947 -0.013027646 -0.012944266 -0.017771445
0000a0 51 ed c1 3d 3e b4 47 3d 7a 25 c1 bd 59 81 ba 3d
       0.09469093 0.048755877 -0.09430976 0.09106702
0000b0 50 9f 23 bd 40 fc 9a bd cb a9 a9 bd 06 81 96 bd
       -0.039946854 -0.07567644 -0.082843386 -0.07348828
0000c0 2a f7 92 bd 3a ef 8c bd 68 85 8f bc 00 53 28 bb
       -0.07176049 -0.06881566 -0.017519668 -0.0025684237
0000d0 f2 60 12 3d c0 fc 7f bc 2c 20 a3 bc fd a7 70 bd
       0.035736986 -0.015624225 -0.019912802 -0.058753956
0000e0 ca b5 17 bd ec 0f af 3c a6 88 71 3d d2 eb 19 3d
       -0.037038602 0.021369897 0.05896821 0.03757841
0000f0 92 49 01 3d c2 fc 4e 3d 5e 13 95 bd 10 87 c5 bd
       0.031564303 0.050534017 -0.072790846 -0.09644902
000100 41 f8 1b 3e 98 32 48 be 4e 5d 54 3e ea 20 3b 3e
       0.1523142 -0.1955055 0.20738718 0.18274274
000110 39 46 8b 3e 6e 47 91 be 36 4b 2b 3d 17 cb a8 bd
       0.27202013 -0.2837481 0.041819774 -0.08241861
000120 be 49 2d 3e c1 62 34 3e 7e b1 7f 3c 10 10 61 3e
       0.16922662 0.17615797 0.015606282 0.21978784
000130 c4 b6 7a be bb d2 32 be 55 49 29 3e fa af 90 3e
       -0.24483782 -0.174632 0.1653188 0.2825926
000140 da f9 ee 3d 75 f3 d5 bd 5e ec 4e be 9b 59 3d bd
       0.11668749 -0.10446826 -0.20207354 -0.046228033
000150 5e ae 8a be 15 55 80 3e 2d d8 f4 3d 1f fc 26 be
       -0.27086157 0.25064912 0.11955295 -0.16307114
000160 d2 8d 90 be ba 18 06 3e 12 5e 6f 3e d6 e8 90 3e
       -0.282332 0.1309537 0.23375729 0.2830264
000170 d4 2d 2a 3e 26 25 00 3e f3 26 de 3d 89 6f 77 3e
       0.16619045 0.12514171 0.10847273 0.24163641
000180 8b b1 68 be a1 fb 37 be 6c 81 80 3e 61 14 b0 bb
       -0.22723977 -0.17967083 0.2509874 -0.005373523
000190 c7 c4 82 3e 2e 0d cc 3c 46 41 98 be 55 3e 7c be
       0.25540754 0.024908628 -0.297373 -0.24633153
0001a0 13 e0 3f 3d 7a 22 02 be 3c 32 8c be dc 7f e6 bb
       0.046844553 -0.12708464 -0.27382076 -0.007034285
0001b0 c5 1c c1 3d 0a 1f 12 3e fb 41 7c 3e 4c f3 f1 3d
       0.094293155 0.14269653 0.24634545 0.11813983
0001c0 da 67 87 bd 46 e8 2f be b4 78 60 3e 0a bb 29 bd
       -0.06611605 -0.17178449 0.21921045 -0.04143814
0001d0 92 85 57 3d 35 79 5d 3e 29 4a 52 be 66 ad 80 3d
       0.052617617 0.21628268 -0.20536102 0.06283073
0001e0 e8 a0 34 3e 59 51 5a be 4a 57 7e 3d a8 43 2c 3e
       0.17639506 -0.21320094 0.062094964 0.16822684
0001f0 d1 55 fb 3d 59 91 05 3e 89 d1 1c be e1 8e 89 3e
       0.122722276 0.13043727 -0.15314306 0.2686682

weight_hh_l0_reverse f4 [128, 32]
000000 23 67 3e bd 2f 2f b3 bd 91 5c ae 3d 61 52 81 3d
       -0.046485078 -0.08749234 0.085137494 0.06314541
000010 c8 65 8a bd 98 49 69 3c de a0 50 3d b2 19 c1 bd
       -0.067576945 0.0142387375 0.050934665 -0.09428729
000020 93 4d c9 bd 6c 01 cb bc 8e 3e 54 3d d2 3a 26 3d
       -0.09829249 -0.024780951 0.05181747 0.04058344
000030 17 09 21 bd f9 f5 91 3d 22 13 73 3d 13 93 66 bd
       -0.03931531 0.07126994 0.05934442 -0.056292605
000040 95 82 99 3d aa 60 74 3d b3 22 ca bd cd 51 c4 bd
       0.0749561 0.0596625 -0.098698996 -0.09585915
000050 c3 31 ae 3d 90 cc b8 bd 5f ca b6 3d e0 75 d9 bc
       0.08505585 -0.09023392 0.08925318 -0.026545465
000060 00 4b 9d b9 6a 28 26 bd 30 5e d2 3b bd 4f 1b bd
       -0.00030001253 -0.040565886 0.0064199194 -0.03791784
000070 66 e6 32 3d e3 d9 b6 bd b3 23 5d bd 74 36 aa 3c
       0.043676756 -0.08928277 -0.053989124 0.020777918
000080 e3 90 3f bd 83 87 9b 3d e0 c5 cb 3b 9a 88 03 bd
       -0.046769034 0.07594206 0.006218657 -0.032112695
000090 a7 7f c5 3d d3 f2 4e bd e0 25 f3 3b 4c 43 87 3c
       0.096434884 -0.050524544 0.0074202865 0.016511582
0000a0 02 15 5d 3d 58 02 a7 bc 70 8f 5d bd a2 72 10 3d
       0.053975113 -0.02038686 -0.05409187 0.035265572
0000b0 39 ae a6 3d c2 52 94 bd 40 7f bc bc 4c 61 06 bd
       0.08138699 -0.07242347 -0.023009896 -0.032807633
0000c0 08 40 a7 bc 09 91 9e 3d 43 d9 9c bd ce b7 3f 3d
       -0.020416275 0.07742507 -0.07658627 0.04680615
0000d0 80 a0 f7 3b 68 4a 6a 3c 1e 74 a2 bd a0 8e 07 bb
       0.007556975 0.014299966 -0.07932304 -0.0020684376
0000e0 fb e8 b6 3d b7 ec 6a bd ae 90 7f 3d 79 98 b5 3d
       0.08931156 -0.057354655 0.062393837 0.088669725
0000f0 bf 80 c3 3d 94 2c ca 3c 80 ea 9e bc 00 23 f9 39
       0.09546041 0.02467946 -0.019398928 0.00047519058
000100 2c 13 d7 3c 55 7b 84 bd c9 09 a6 3d a7 da 96 3d
       0.026254259 -0.06468836 0.08107335 0.073659234
000110 f0 e2 62 3c 4c 54 17 bd d0 36 a0 bb 22 41 41 3d
       0.013848051 -0.036945626 -0.0048893467 0.047181256
000120 8c d5 fd bc 12 71 55 3d 4e 31 74 3d be 4a 8f bd
       -0.030985616 0.052109785 0.059617333 -0.06996678
000130 b0 1c b0 bd 06 87 0a 3d d1 f8 cb 3d a7 f9 92 3d
       -0.08599222 0.033820175 0.09959567 0.07176524
000140 c8 17 8b bd 83 f3 a3 bd 02 84 08 3d 0d 28 bd 3d
       -0.06791645 -0.080054305 0.033329017 0.09236155
000150 00 7e 1d 3b 20 24 88 bd 80 9d 74 bd 1c 54 ef 3c
       0.00240314 -0.06647515 -0.059720516 0.029214911
000160 b0 67 9a bd 3d 49 a0 bd d0 3c 9d bb 8e 19 59 3d
       -0.07539308 -0.07826469 -0.004798509 0.053002886
000170 21 00 b3 3d 0d 5b ba 3d 38 39 e8 bc 28 05 71 bc
       0.08740259 0.09099398 -0.028347597 -0.014710702
000180 db 3c b8 bd f6 59 36 3d a7 57 56 bd 1a 6b 58 bd
       -0.08995982 0.044519387 -0.052329686 -0.052836515
000190 30 b8 5a bc 6a d4 42 3d 08 56 87 3c d0 d1 7c bc
       -0.013349578 0.047565855 0.016520515 -0.015430883
0001a0 c3 7a 4b bd e4 d4 e7 3c 80 97 b7 bd bc 18 e3 3c
       -0.04967762 0.028299756 -0.08964443 0.027721755
0001b0 30 e3 c2 bd a9 5c aa 3d 14 6b 97 bc 48 12 9f bd
       -0.09515989 0.08318455 -0.018483676 -0.07767159
0001c0 82 42 90 bd 3a 18 0c bd 57 2f 91 3d a2 14 9f bd
       -0.07043935 -0.03420279 0.070891075 -0.07767607
0001d0 00 1e e0 b9 8f 52 b7 bd b7 3e be bd 5b 04 c7 3d
       -0.0004274696 -0.08951294 -0.09289306 0.097176276
0001e0 91 3b b9 3d 03 5e 93 3d 98 06 45 bc c9 be b8 3d
       0.090445645 0.07195666 -0.012025498 0.090207644
0001f0 4c b9 cd 3c c0 1b 2d bc 5e 00 61 3d 2c 5e f4 3c
       0.02511277 -0.010565698 0.05493199 0.02983006
000200 26 3c 18 bd eb ba 95 3d 36 4e 8b bd d0 67 da 3b
       -0.037166737 0.073110424 -0.06802027 0.0066652074
000210 e5 da c1 3d 8c 04 8b 3c 5e e6 2b 3d 80 97 ab bc
       0.09465579 0.016969942 0.041967742 -0.020946264
000220 b0 79 93 3b da 0c a5 bd 99 94 b6 3d 76 1c 30 3d
       0.0045005903 -0.08059092 0.089150615 0.042995892
000230 c6 1b 61 3d 42 32 11 3d 9e f3 41 3d f2 ef a1 bd
       0.054958127 0.03544832 0.047351472 -0.07907094
000240 b7 db ad 3d 34 38 15 bd 98 d3 43 bc 80 f7 a0 3b
       0.08489173 -0.036430553 -0.011952303 0.004912317
000250 33 6c a3 bd e2 2b 77 3d c0 3b 2a bc 62 a0 74 3d
       -0.07979622 0.060344584 -0.010390222 0.059723265
000260 eb d3 91 bd b6 09 56 3d e5 b5 ad bd 06 af 75 3d
       -0.07120498 0.052255355 -0.08481959 0.05998137
000270 2d 7b 70 bd a2 0d 4e 3d 3d ff 97 bd 40 c1 08 3b
       -0.05871122 0.05030597 -0.0742173 0.002086714
000280 c0 a4 1e bc 23 3c 3e bd 00 3a 76 bd 80 c0 9f ba
       -0.009682834 -0.04644407 -0.060113907 -0.0012188107
000290 b8 40 f2 bc 4d 36 28 bd a1 32 86 3d cc 19 9b bc
       -0.029571876 -0.04106741 0.065526254 -0.0189332
0002a0 98 ad ac bc 40 1a ef bc 80 9c 82 bb 8c 5e c6 3c
       -0.02107887 -0.029187322 -0.0039859414 0.024215005
0002b0 80 1b 41 3c 1a 73 41 3d fe 14 2d 3d 00 00 ad b8
       0.011786342 0.04722891 0.042256348 -8.249283e-05
0002c0 fd ca 43 bd 6e 67 60 3d 9b b7 93 bd 42 fe ae bd
       -0.047801007 0.05478614 -0.07212754 -0.085445896
0002d0 30 e0 67 bd f7 4e a3 3d 72 c1 bc bd 4c c7 95 bc
       -0.056610286 0.07974046 -0.09216584 -0.018283509
0002e0 f2 2c c4 bd f2 5a 94 bd 7f fe a1 3d 3a 87 69 bd
       -0.09578885 -0.07243909 0.079098694 -0.057013728
0002f0 a0 30 f3 3b 00 04 10 ba 90 12 2d bd 1d 51 43 bd
       0.007421568 -0.000549376 -0.04225403 -0.047684778
000300 dd 11 a8 3d 37 e4 70 bd 4d 7e 8b bd 6e c6 75 3d
       0.08206532 -0.058811393 -0.06811199 0.06000369
000310 9d b6 8e 3d 21 11 92 3d 82 fc 60 3d 00 c7 86 3c
       0.069684245 0.07132173 0.05492831 0.016452312
000320 75 e1 b6 bd 7f b6 cb 3d a9 14 b6 3d 30 f1 90 bd
       -0.08929721 0.09946918 0.08890659 -0.07077253
000330 4d 66 c4 bd b0 3b 2b 3c 18 fd 26 3c f6 73 03 3d
       -0.09589825 0.010451242 0.010192178 0.03209301
000340 80 b0 84 bd 3a 08 ca bd 50 44 a5 bd 97 59 49 bd
       -0.06478977 -0.0986485 -0.0806967 -0.049157705
000350 1a 9c 86 bd dd a0 c3 bd 80 97 a1 bd a0 1c 9b bc
       -0.06572743 -0.095521666 -0.078902245 -0.018934548
000360 73 c3 a8 3d c4 cd 89 bd 50 12 7f 3c 80 b0 78 3c
       0.08240404 -0.067287 0.015568331 0.0151788
000370 80 db 10 bd 2b 77 86 3d 02 9f 22 3d 00 ea 12 3c
       -0.03536558 0.06565698 0.039702423 0.008966923
000380 f8 fb 9a bc 81 2c c1 3d b0 40 d3 3b 2a e1 07 bd
       -0.018918976 0.094323166 0.0064469203 -0.033173718
000390 a7 74 91 3d 10 ff 1c bc 2c a0 9e 3c 80 04 84 bd
       0.07102328 -0.009582296 0.019363485 -0.06446171
0003a0 07 41 5c bd 0c 9b 87 bc 5c f5 87 bd b3 b5 bd bd
       -0.053772952 -0.016553424 -0.066385955 -0.09263172
0003b0 fa e0 07 3d f8 4c c4 bc fa cd 3a 3d 57 52 ca 3d
       0.03317354 -0.023962483 0.04560659 0.09878986
0003c0 a8 86 89 3c a3 6a b9 3d d4 e5 88 bc 00 c0 41 ba
       0.016787842 0.090535425 -0.016711153 -0.0007390976
0003d0 d9 e3 89 3d d7 fd c6 3d 14 79 fb 3c 43 08 97 3d
       0.067329116 0.09716385 0.030697383 0.07374623
0003e0 f5 90 b8 3d 18 09 1c bc 18 c9 91 bd 80 72 7a 3a
       0.09012023 -0.0095236525 -0.07118434 0.0009553805
0003f0 48 06 ba bc a0 15 b9 bc aa d4 40 3d 40 57 c4 bd
       -0.022708073 -0.02259332 0.047077812 -0.09586954

bias_ih_l0_reverse f4 [128]
000000 d4 8c 0e 3d 82 9b ae 3d 39 d9 51 bc 86 96 9b 39
       0.034802273 0.085257545 -0.012808138 0.00029676053
000010 5d 8e c9 3d 07 16 5f 3e fe 33 c4 be dc 23 ec bd
       0.09841607 0.21785747 -0.38320917 -0.11530277
000020 27 2b e7 3d 9c 11 d9 bd 4a 0f 7e be 90 3d 3d 3e
       0.112875275 -0.10599062 -0.2481052 0.18480515
000030 3b cf 36 3e 3c a8 2e 3d 1a d7 fe bd dc 4e 86 3e
       0.1785249 0.04264091 -0.12443371 0.2623204
000040 20 f4 3b be c7 2d aa bb f3 fe 0b 3e 01 34 16 be
       -0.18354845 -0.0051934454 0.13671474 -0.14668275
000050 93 68 39 3e f1 a1 da 3d 9e 9e e4 bd 28 15 6b bd
       0.18106298 0.10675419 -0.11163066 -0.057393223
000060 01 4f 46 3e 9c c6 ba bc 92 38 17 3d ff a2 d7 3d
       0.19366075 -0.022799782 0.036919184 0.10529136
000070 20 3d 2a bd a7 5a ca bd 80 39 43 3b 20 e4 5c 3e
       -0.0415622 -0.09880572 0.0029788911 0.21571398
000080 d0 65 c4 3b 7a 05 cb bd c4 07 e3 3c 18 a2 8d bd
       0.0059935823 -0.09913154 0.027713664 -0.069156826
000090 f8 86 a8 bc 07 ff 9e 3d d2 5c 19 3d 49 3d a6 3d
       -0.02057217 0.07763486 0.037442036 0.08117158
0000a0 29 38 a2 3d f7 d9 ae bd 73 ca 22 bd fc 39 14 bd
       0.07920868 -0.08537667 -0.039743852 -0.03618811
0000b0 e7 5a a0 3d 41 46 8c 3d 6c 20 a7 3c 10 35 8e bd
       0.07829838 0.06849337 0.020401202 -0.069437146
0000c0 f0 4f 0a bc a1 d4 83 3d 80 65 e9 3a bc 22 f5 3c
       -0.00844191 0.0643704 0.0017806739 0.02992379
0000d0 a6 26 11 3d 1e 7b a8 bd 56 92 6a 3d e8 eb d9 bc
       0.03543725 -0.08226608 0.057268463 -0.026601747
0000e0 bb 4c 8e 3d 50 25 f1 bb fa 5e cb bd d2 e6 26 3d
       0.06948229 -0.0073591843 -0.09930225 0.04074747
0000f0 0a 4c 2b 3d 38 74 f5 bc 3d 96 af 3d 4c 9b a0 bc
       0.041820563 -0.029962644 0.085735776 -0.019605301
000100 3b 4b 0d be f8 d5 e1 3d 28 73 71 bc 95 fe 29 3d
       -0.1379823 0.110271394 -0.014736928 0.041502554
000110 ca 0e 07 be 02 f3 d0 3d fb b0 98 bc d7 3e 76 3d
       -0.13189235 0.102026 -0.018639078 0.060118522
000120 39 a5 75 bb 00 d3 f4 bd bd 89 f2 bc 6c 63 c7 bd
       -0.0037482514 -0.119543076 -0.029606694 -0.0973576
000130 8a ad 0f 3e fa 07 6c bc 8c d8 43 3d 60 3f 6b bd
       0.14031044 -0.014406199 0.047813937 -0.057433486
000140 07 17 e9 bd 3f 0f 86 3d 8c 1e 75 3d 84 ed a2 3c
       -0.11381345 0.06545877 0.059843585 0.019888647
000150 90 a6 0f 3e ae 34 18 be 30 7e 7c 3c 37 00 24 3d
       0.14028382 -0.14863846 0.015410945 0.040039267
000160 3c 86 e9 3d d5 74 59 bd 59 f8 02 be 86 9d 8c 3c
       0.11402556 -0.053089935 -0.1279005 0.017164957
000170 c7 31 78 3c b0 ed 90 bd ef a1 1f be 7b f4 9a 3c
       0.015148587 -0.07076585 -0.15589117 0.018915405
000180 0d 27 e8 bc 69 ed 47 bb ca c3 22 3c 3b 94 cf 3b
       -0.028338933 -0.0030506498 0.009934375 0.006334809
000190 d9 52 29 3e c5 db 32 3e 55 36 b1 be 34 9f 43 bc
       0.1653551 0.17466648 -0.34611765 -0.011939812
0001a0 a3 cd 5f bd 31 51 96 3c 7b 33 d8 be 26 16 d0 3d
       -0.05463947 0.018349262 -0.42226776 0.101604745
0001b0 23 6a 16 3e 7b 6e c7 3d fe 8c 18 3a 4d ad 39 3e
       0.14688925 0.09737869 0.00058193493 0.18132515
0001c0 76 a3 21 be 6d de 98 bd 26 17 cf 3c b9 96 5c be
       -0.15785012 -0.07464299 0.025279593 -0.21541871
0001d0 35 c9 8f 3e 77 91 3a 3e 56 38 40 be 98 7c 29 3d
       0.28083196 0.18219553 -0.1877149 0.041378587
0001e0 d7 05 5a 3e b5 69 76 bd 32 e4 e1 3d b0 c0 45 3d
       0.2129129 -0.060159404 0.11029853 0.048279464
0001f0 21 31 8c bd 78 eb 6d bd 1c 59 05 bd e3 64 37 3e
       -0.06845308 -0.05808589 -0.032555684 0.17909579

bias_hh_l0_reverse f4 [128]
000000 72 30 5e bd 50 a4 15 3d f3 09 ae 3d 59 c7 a2 3d
       -0.05424542 0.036533654 0.084979914 0.07948179
000010 a8 70 79 3e a5 ea e6 3d da 7f a0 be 1f 79 88 bd
       0.24359381 0.11275224 -0.31347543 -0.06663727
000020 e1 a3 a2 bc 9b b1 1d bc ea c9 91 be 3c 7f e3 3d
       -0.019853534 -0.009624864 -0.2847436 0.111082524
000030 a5 31 84 3e f8 fe 03 3d 8c 3f 61 3c d9 18 f2 3d
       0.25819126 0.03222558 0.013748061 0.118211456
000040 9d 84 ca bd 39 bb 5a bd f9 8c c2 ba 91 69 4b be
       -0.09888575 -0.053401206 -0.0014843039 -0.19864489
000050 e5 c7 32 3e 91 a3 fd 3d 4f 05 6a be d8 ec f7 bc
       0.17459066 0.123847134 -0.22853588 -0.030264303
000060 10 46 82 3e c2 9c e1 bd 37 d2 8a 3d 57 75 ab 3d
       0.25444078 -0.11016227 0.067783765 0.0837199
000070 1e 2a 1d 3d a1 bd 04 be eb 5d 0f bd b7 95 31 3e
       0.038370244 -0.12962963 -0.035001677 0.17342268
000080 30 0f a3 bb 08 14 a1 bc 9c 6f ee 3c 1a 0b 7e 3d
       -0.0049761757 -0.019662872 0.029105954 0.062022306
000090 78 ee 80 bd 00 10 ab 3c 10 d0 4b 3c 0c 52 84 3c
       -0.06295484 0.020881653 0.012439743 0.016152404
0000a0 5c 41 ea 3c d5 3f 95 bd 2a 98 ae bd 70 b7 09 bc
       0.028595619 -0.072875656 -0.08525117 -0.008405551
0000b0 eb 9a c7 3d da 64 4d bd 00 64 79 bb 6d 0d c8 3d
       0.09746345 -0.050145008 -0.003805399 0.09768186
0000c0 a8 80 21 bc f0 ef 3d 3c c6 5b 22 3d 73 8d 91 bd
       -0.009857334 0.01159285 0.039638303 -0.071070574
0000d0 e1 15 a9 3d f2 e0 0c 3d b8 5c 8c 3c e7 66 6c bd
       0.08256126 0.034394212 0.017134055 -0.057715323
0000e0 80 1a 13 3c d0 38 2b bc 48 3c b4 bc b1 91 a4 3d
       0.008978486 -0.010450557 -0.0220014 0.08035601
0000f0 5d 9d 3c bd 3c c9 11 bd 3b 16 97 3d 30 3d 52 bc
       -0.04604851 -0.035592303 0.07377287 -0.012831971
000100 d6 8a a2 bd 9d 85 14 3e 1a 64 3c bd 80 97 e6 bd
       -0.07936637 0.14504094 -0.0459939 -0.11259365
000110 ce 42 73 bc 1c 67 16 3e bc a6 16 3d d0 54 5c 3d
       -0.01484747 0.1468777 0.036780104 0.05379182
000120 04 48 0c be 8a 7f 91 3a ba a3 82 bc 01 d2 14 be
       -0.13699347 0.0011100632 -0.015947212 -0.14533235
000130 1a ca ab 3c 83 1a 8e 3d 91 ee 5e 3b 20 ef a9 bd
       0.020970393 0.069386505 0.0034016708 -0.082975626
000140 d4 87 16 bc d3 0e b8 3d 79 4a c0 ba 7f b9 ed 3d
       -0.009187657 0.089872025 -0.0014670632 0.11607646
000150 20 09 a1 3a c8 b5 db 3c 1f 40 80 bc 90 29 25 3d
       0.0012286045 0.026820078 -0.015655575 0.04032284
000160 ba 09 65 bb ae 97 07 be f1 a3 da bd df 7d 3c bd
       -0.0034948424 -0.13241455 -0.106758006 -0.046018478
000170 d3 fd 4b bd b3 0b 5f 3c 81 b3 2a bd 03 e6 8a bd
       -0.049802613 0.013613629 -0.041675095 -0.067821525
000180 f3 53 6d bb 51 3f 63 3d 84 71 c7 ba 71 14 11 bd
       -0.0036213368 0.055480305 -0.0015216325 -0.035419885
000190 d8 45 0c 3e 8f a9 48 3e db 88 93 be 7e c7 e9 bc
       0.13698518 0.19595931 -0.2881535 -0.028537508
0001a0 35 02 9a 3d 81 50 b5 bd ad 31 7b be c7 b4 19 3e
       0.07519952 -0.088532455 -0.24530669 0.15010367
0001b0 84 dd 81 3e 6c df 0b bd 20 01 d0 bd 37 a1 42 3e
       0.25364316 -0.03414862 -0.101564646 0.19006811
0001c0 55 ea 99 bd cb 2f c5 bd 48 dc 2f 3d 92 5d 02 be
       -0.075153984 -0.096282564 0.042934686 -0.12731007
0001d0 a5 78 15 3e 4b da f6 3d d2 db 58 be 4e b0 07 bb
       0.14596803 0.12053355 -0.21177605 -0.002070445
0001e0 67 7c 1d 3e e8 fb 6e 3c 02 e2 c7 3d d4 f2 97 3d
       0.15379487 0.014586426 0.097599044 0.07419363
0001f0 7c 33 9e bc 72 3d 46 be b9 27 c2 ba 39 b9 40 3e
       -0.019311659 -0.19359377 -0.0014812864 0.18820657

bin_context_vector f4 [64, 1]
000000 60 68 ca bd 3b 57 c2 bd da 65 63 3d 51 28 c1 3d
       -0.09883189 -0.09489294 0.055517055 0.09431518
000010 c6 a4 6f 3d 07 63 3e bd 58 47 b5 3c 74 9d a5 bc
       0.05850675 -0.04648116 0.022128746 -0.020216681
000020 33 a4 95 bd 3d ab 97 bd 38 cd 98 3c 3b 0b a3 bd
       -0.07306709 -0.07405708 0.018652543 -0.079611264
000030 65 1a 92 3d c8 e3 c4 bc cd 51 35 bd 1a 94 2c bd
       0.071339406 -0.024034396 -0.044267464 -0.04213343
000040 92 13 87 bd 80 56 14 3a 85 82 98 3d 70 d1 c5 bd
       -0.065955296 0.00056586415 0.074467696 -0.09659088
000050 c9 a5 ac 3d 00 6a 97 bd 46 ff 7a 3d 98 d5 fe bc
       0.084300585 -0.07393265 0.061278604 -0.031107709
000060 37 88 61 bd 4b c4 a1 bd 0c 4b ee 3c 1a 70 49 bd
       -0.055061545 -0.07898768 0.02908852 -0.049179174
000070 a0 74 c0 bc ad 74 25 bd d6 5f 61 3d 58 ad 67 3c
       -0.023493111 -0.040394474 0.055023037 0.014140449
000080 ad d3 8e bd 55 51 c6 3d a0 a7 8d bd 2c 0f cf 3c
       -0.06973968 0.096834816 -0.069167376 0.02527579
000090 65 6c c9 3d 1b 9e 9c bd 4b 20 97 bd aa 68 72 3d
       0.09835128 -0.07647344 -0.07379206 0.059181847
0000a0 11 22 87 3d 68 2d 71 bc cd e0 af 3d 8a b3 7f bd
       0.065982945 -0.014720298 0.08587799 -0.06242708
0000b0 da 6b 21 3d bd cd c9 3d 3c 91 05 bd 1f 68 c3 bd
       0.039409496 0.098536946 -0.03260921 -0.09541344
0000c0 96 5f 2a 3d 91 27 95 3d 00 ef a6 bd 00 2e b9 3c
       0.041595064 0.07282937 -0.081510544 0.022604942
0000d0 5b e3 b6 3d c3 22 91 3d 94 8d bb 3c e4 02 ec 3c
       0.08930083 0.070867084 0.022894658 0.028809972
0000e0 46 56 25 3d 15 f8 b2 3d f0 ac 4d 3c 62 f9 a1 bd
       0.04036548 0.08738724 0.012553439 -0.07908894
0000f0 42 66 69 3d 45 eb 80 3d aa 91 74 3d 20 14 de 3b
       0.056982286 0.06294874 0.05970923 0.0067773014

weight_ih_l0 f4 [128, 1]
000000 54 47 90 be 6a c2 e8 bc 24 19 20 bd 16 fe fc 3d
       -0.2817942 -0.028413016 -0.039086476 0.123531505
000010 f0 33 67 bd 46 3c 99 bd d8 8f 94 be dc 52 a5 3e
       -0.056446016 -0.07482199 -0.29015994 0.3228978
000020 42 3f e4 3d e0 0a 33 3d 82 5f 10 3e 76 d2 13 3e
       0.11144878 0.043711543 0.14098933 0.14435753
000030 ec 65 31 bd 19 ce 62 bd 9a 4a 08 3c 5e ef 79 bd
       -0.04331009 -0.05537233 0.008318568 -0.061019294
000040 dd 9b c2 3d 23 64 22 be c8 ea a3 bd 22 39 89 be
       0.09502385 -0.15858512 -0.08003765 -0.268014
000050 ef 84 f9 bd 08 ce 89 be 87 ea 1a be 23 e0 30 be
       -0.12183558 -0.26915002 -0.15128528 -0.17273001
000060 54 18 69 bd cb 42 31 bd 44 ff e8 bd 69 0d 0a be
       -0.056907967 -0.04327659 -0.11376813 -0.13481678
000070 89 bf e6 3d 5e ca 08 be 81 cf 19 bd 47 29 19 be
       0.11267001 -0.13358447 -0.037551407 -0.14957152
000080 50 d9 96 bb 0d ff 9b bd 6f 5f 89 3d dd 84 51 bd
       -0.0046035424 -0.076170065 0.06707656 -0.0511521
000090 5e 7d 5c 3d c4 a1 e5 3c a5 8e b3 bd 0a aa 1d 3d
       0.053830497 0.028031237 -0.08767442 0.03849224
0000a0 f2 7f 5b 3d ad 87 3e bd d0 5b 13 bc 0d c5 ab bd
       0.053588815 -0.04651611 -0.008994058 -0.08387194
0000b0 ed b5 c5 bd 9d 18 99 3d d6 cb 0f bd 1d 59 2d bd
       -0.0965384 0.07475398 -0.035106502 -0.042321313
0000c0 14 84 b7 3c 60 f9 66 bb fc ef da 3c ca f3 65 3d
       0.022401847 -0.0035243854 0.026725762 0.0561407
0000d0 30 9b 05 3c 91 7b b2 3d 8c 35 84 bc 8c 55 a9 bc
       0.008154675 0.08714975 -0.016138814 -0.020670675
0000e0 d3 40 c2 bd 62 80 09 3d fa f5 3f bd f9 5c bd 3d
       -0.094850205 0.0335697 -0.04686544 0.09246249
0000f0 60 9b 8c 3b 20 f5 d4 bb bc 48 84 bd 1b 93 c4 bd
       0.004290983 -0.0064989477 -0.064591855 -0.09598371
000100 49 30 cf be cf 82 c0 be a7 db e4 3c 10 0a c5 be
       -0.40466526 -0.375998 0.02793677 -0.3848424
000110 f5 b3 d6 3e cf 01 b1 3e bf bc c9 be 42 d9 94 be
       0.4193417 0.34571692 -0.39401814 -0.29072005
000120 35 3e ce 3e 20 e2 a2 be f6 16 5e be 72 64 b3 be
       0.40281835 -0.31813145 -0.21688446 -0.3503757
000130 ca d5 9a be a8 9a bc 3e 5a 20 4a 3e ff 50 6b 3e
       -0.30241233 0.36836743 0.19738904 0.22980116
000140 c0 a2 c8 3e 7f 8b e9 3e f0 26 5a be 20 8e 5e be
       0.39186668 0.4561424 -0.21303916 -0.21733904
000150 5a d0 53 3e 30 01 8c 3e 3e 87 0d 3e b2 92 b7 3e
       0.20684949 0.27344656 0.13821122 0.35854107
000160 ca 47 6d 3e 38 b9 b5 be 1e 9e bc bc 1b a5 cc be
       0.23171917 -0.35492873 -0.023024615 -0.39969715
000170 b6 59 03 3e bf c5 22 be dc 64 b7 3e e7 41 30 be
       0.12827191 -0.15895747 0.35819137 -0.1721264
000180 c6 87 96 be 10 c0 61 be f4 cd 24 bd 65 c2 c2 39
       -0.29400462 -0.22045922 -0.040235475 0.000371474
000190 67 79 02 3e e6 75 06 bc 06 8b 3f be 2d 22 94 bd
       0.12741624 -0.00820682 -0.18705377 -0.07233081
0001a0 59 a3 05 be 81 8f 29 be 5e 5d c6 bd 4f 88 22 be
       -0.13050593 -0.16558649 -0.09685777 -0.1587231
0001b0 c4 ef 1b be ff 08 8d 3b 33 10 f1 bc cc 70 0c be
       -0.15228182 0.004304051 -0.02942667 -0.13714904
0001c0 c7 dd 8d bc e3 36 f1 bd ed 43 ee bd 1f ac 17 be
       -0.017317666 -0.11778047 -0.116340496 -0.14811753
0001d0 87 5e 0a be da 5c 72 bd c5 d8 00 bd a2 55 a8 be
       -0.13512622 -0.05917058 -0.031456728 -0.32877833
0001e0 ca a9 a3 3e d9 30 ba bd 1b d6 56 3d 60 70 3f 3e
       0.31965476 -0.09091348 0.05245028 0.18695211
0001f0 18 b5 3c 3d 46 b5 fb bd ac 3b ac 3e c5 1f ae bd
       0.046071142 -0.122904345 0.33639276 -0.08502153

weight_hh_l0 f4 [128, 32]
000000 13 1c a2 3d a8 71 53 bc d7 84 a2 3d 29 8c a2 3d
       0.07915511 -0.012905516 0.079354934 0.0793689
000010 45 ff 85 3d 2f 85 90 3d 50 00 dd bb 5e 27 69 3d
       0.065428294 0.07056653 -0.006744422 0.05692231
000020 4a e7 6e bd c0 63 16 bd 29 21 b8 3d aa 18 62 bd
       -0.058326043 -0.036716223 0.089907 -0.055199303
000030 f5 00 bf bd ac 69 fa bc a0 6f cc bd 00 0e 4d 3b
       -0.093263544 -0.030567966 -0.09982228 0.0031288862
000040 7f fc 90 3d 86 ea 7c 3d 0d 5a aa 3d 80 40 23 3c
       0.0707941 0.061747096 0.08317957 0.0099641085
000050 be ef 95 bd e6 0b 68 3d 18 af ff bc b4 7d fa bc
       -0.07321118 0.056651972 -0.03121142 -0.030577518
000060 1a cf 42 bd 60 75 24 bd f0 d5 b0 bd 75 88 b0 bd
       -0.04756079 -0.040151 -0.08634555 -0.08619777
000070 cd b6 49 bd dc 3a 8b bd d5 3b cc bd 00 4f d0 3b
       -0.049246598 -0.06798336 -0.099723496 0.006357074
000080 0c bf 9a bc 86 be 01 bd 20 91 d0 bb 62 97 50 3d
       -0.018889926 -0.031675838 -0.0063649565 0.05092562
000090 e2 fa 3a 3d 97 58 21 bd 1a e1 43 3d f0 cd 2e bd
       0.045649417 -0.039391126 0.047822095 -0.042676866
0000a0 c8 7d d2 bc bd 6f 41 bd 34 43 89 bc 9d ff c6 bd
       -0.025694743 -0.047225703 -0.016755678 -0.09716723
0000b0 c2 50 6b 3d 58 65 95 bc 9d 69 2a bd 34 49 ff bc
       0.057450064 -0.018236801 -0.041604627 -0.031162836
0000c0 b8 53 87 bd 34 a9 e1 3c 00 b3 01 bc c0 56 d6 3a
       -0.06607765 0.027546503 -0.007916212 0.0016352758
0000d0 1b 2a 99 3d 3e 97 41 3d d0 6e 44 bc 70 eb 77 bd
       0.07478734 0.047263376 -0.01198931 -0.060527265
0000e0 b3 6f a3 3d ca f9 58 bd b0 64 fd bb 90 62 2d bd
       0.07980289 -0.052972592 -0.00773295 -0.042330325
0000f0 8a 20 77 bd 4a f6 59 bd 63 35 c0 3d a7 be 30 bd
       -0.060333766 -0.053213395 0.09385183 -0.04315057
000100 6a 1a 6d bd c0 12 1a bc 25 a4 be bd e8 90 e3 bc
       -0.05788652 -0.009403884 -0.09308652 -0.027779058
000110 0d e6 6e bd 03 16 ad 3d 4a fe 28 bd 8e 34 04 3d
       -0.058324862 0.08451464 -0.041258134 0.032276683
000120 a0 2f 00 bb b8 4f de bc d2 7d 93 bd 98 03 63 3c
       -0.0019559637 -0.027137622 -0.07201733 0.013855837
000130 5e d1 3d 3d 8a 57 af bd a0 26 c3 bd 64 b0 ec 3c
       0.046342246 -0.085616186 -0.095288515 0.028892703
000140 40 b2 05 bc 7f 71 99 3d d6 5e 68 3d b3 b4 98 bd
       -0.008160174 0.07492351 0.056731068 -0.07456341
000150 cc 60 0b bd 84 b1 09 bd 86 8a 10 bd db 7f 99 bd
       -0.03402786 -0.033616558 -0.035288356 -0.074950896
000160 2d 9e b4 bd 50 61 e8 bb b4 c5 b5 bc 84 3b da 3c
       -0.08819232 -0.0070916787 -0.022188999 0.026639707
000170 66 23 19 bd b2 a0 b4 bd 70 f7 22 3c 6c e4 ac 3c
       -0.037387274 -0.08819713 0.009946689 0.021105014
000180 91 47 95 3d be 7e 18 3d 58 fb 08 3c 40 5d 01 bc
       0.07289041 0.037230246 0.008360706 -0.007895768
000190 40 5f 4d bb e0 31 b2 bb f4 33 a0 3c 80 fd a0 ba
       -0.003133729 -0.0054380745 0.019556023 -0.001228258
0001a0 7a 2e 74 3d 6e b2 4c 3d 00 a2 08 bb 8f 18 cc 3d
       0.059614636 0.04997485 -0.0020848513 0.09965622
0001b0 d9 37 c1 3d 82 61 a9 bd 61 66 86 3d 9a 8b 2c 3d
       0.0943448 -0.08270551 0.06562496 0.042125322
0001c0 91 f0 a6 3d c2 f2 6b 3d e0 49 30 bd 40 43 20 bb
       0.08151353 0.05760456 -0.043039203 -0.0024454147
0001d0 d2 bd 64 3d 26 85 84 bd c5 6e 8f bd c3 0c 7a bd
       0.05584509 -0.064707085 -0.070035495 -0.061047327
0001e0 b4 bb ec bc 4a 22 bb bd a8 3c 99 3c 3f 19 8e 3d
       -0.028898098 -0.091373995 0.018705681 0.06938409
0001f0 91 3a 8e 3d ea 67 5e 3d 70 ec 8e bd 03 5a 44 bd
       0.069447644 0.05429832 -0.069786906 -0.047937404
000200 c5 2a c4 3d 50 b7 25 bc 04 ed f5 3c fd a1 6d bd
       0.0957847 -0.010114506 0.030020244 -0.058015812
000210 9d b6 30 bd 30 ec 2a bc e5 17 88 bd 38 b8 dc bc
       -0.043142904 -0.010432288 -0.066451825 -0.026943311
000220 10 ae 52 3c 4a 7f 1e 3d 6c 9f 00 bd 27 a6 28 bd
       0.012858883 0.03869561 -0.031402037 -0.04117408
000230 70 64 3c bd e8 28 b1 bd 54 4f 98 bc 20 1e de bc
       -0.045994222 -0.086503804 -0.018592514 -0.027113974
000240 94 49 a5 bc ee 69 61 3d 00 60 d7 37 42 6b ab bd
       -0.020176686 0.055032663 2.56747e-05 -0.08370067
000250 5f 49 82 3d 98 dc ab 3c 75 67 c5 bd 4a 15 15 bd
       0.06361651 0.02097921 -0.096388735 -0.036397256
000260 60 d7 2b bd 07 01 4e bd d1 2f c3 3d 80 c5 b9 bd
       -0.041953444 -0.05029395 0.09530605 -0.09070873
000270 80 cf 66 bd 9d 58 8e 3d a2 e6 7b 3d d0 7e 14 3c
       -0.05635023 0.069504954 0.061499245 0.009063438
000280 ba 5b bc bd 7e 07 92 bd d3 05 b5 3d 50 11 9f bd
       -0.09197183 -0.07130335 0.088390015 -0.07766974
000290 12 72 1d 3d f2 65 2a 3d 23 a6 a0 bd 58 34 35 3c
       0.038438864 0.04160113 -0.07844188 0.011059843
0002a0 13 86 a3 bd 7c 56 d1 3c a0 84 44 3b 22 3e 56 3d
       -0.07984557 0.025553934 0.0029986277 0.05230535
0002b0 d3 22 c9 bd 17 df ab 3d 5a 45 57 3d b0 86 e8 bb
       -0.09821095 0.083921604 0.052556373 -0.007096134
0002c0 b0 8f 1a bd 4d fd 80 bd fd 16 ae bd 88 ab 94 bd
       -0.037734687 -0.06298313 -0.085004784 -0.072592795
0002d0 a8 e4 1e 3c 0a 9e a8 bd 9c c5 e3 3c e8 3d 3c bc
       0.009698071 -0.082332686 0.027804188 -0.011489369
0002e0 94 44 c5 3c 5c de d1 3c e6 9d 90 bd 20 e2 47 bd
       0.024080552 0.025618725 -0.07061367 -0.048799634
0002f0 a0 62 df bc a2 cf 47 3d 2d 46 2d bd c0 cd 2f bb
       -0.027268708 0.048782 -0.042303253 -0.0026825517
000300 3a fe 1a bd e1 35 c8 3d 5e 1b 05 3d 98 a9 3d 3c
       -0.037840106 0.097759016 0.032496803 0.011576079
000310 67 7d 77 bd 00 9f a3 3b b0 0f c6 bb fa 56 87 bd
       -0.060422327 0.0049933195 -0.0060443506 -0.06608386
000320 e7 76 b4 3d 60 9d 59 3b 1a e9 8e bd d8 84 a2 bc
       0.08811741 0.0033205375 -0.06978054 -0.019838735
000330 25 9c 90 bd 36 1d 07 3d 27 68 2e bd af 31 84 3d
       -0.07061032 0.032986842 -0.042579796 0.06454789
000340 c0 cd 21 bc 6d 59 58 bd c3 6c c0 bd 00 e2 4f 3c
       -0.009875715 -0.052819658 -0.09395745 0.01268816
000350 f9 f2 83 3d 28 1f 9a 3c d3 06 4e bd 14 56 15 bd
       0.06442828 0.018813685 -0.050299477 -0.036459044
000360 e3 8f 60 bd 72 75 62 3d 70 a8 9b bd 32 09 31 3d
       -0.05482472 0.055287786 -0.07600486 0.04322166
000370 c7 91 c8 bd 8e 02 09 3d 7d e2 7d bd b2 68 60 3d
       -0.0979343 0.033449702 -0.061983574 0.054787345
000380 74 ce aa bc 7a f1 71 3d 37 ce 38 bd b6 3a 7c 3d
       -0.020850398 0.05906818 -0.045118537 0.06157943
000390 08 8c f4 bc ec 62 b7 3c b2 01 bf bd 83 c9 45 bd
       -0.029851928 0.022386037 -0.09326495 -0.04828788
0003a0 37 06 59 bd 40 ea 36 bb e6 88 52 3d da 47 57 bd
       -0.052984443 -0.002791062 0.051400088 -0.052558757
0003b0 a0 cd fe bc 4c bf 93 3c fc a7 e2 3c 61 bf bc 3d
       -0.031103909 0.018035553 0.027667992 0.0921619
0003c0 40 ea 2e bb d0 a7 a9 bd 22 cc 44 3d 6e fe 36 3d
       -0.0026689917 -0.08283961 0.04804624 0.044676237
0003d0 00 cc 01 3a d6 2f 21 3d ba 8d 70 3d c4 1e f9 3c
       0.0004951358 0.03935226 0.05872891 0.030410178
0003e0 d8 6f 26 bc 9a ba 78 bd ed 75 9d bd 0c 01 c4 bc
       -0.010158502 -0.060724832 -0.07688508 -0.02392628
0003f0 99 2c ba 3d 0c b3 dc bc 1d 3a 85 3d 92 c3 13 3d
       0.090905376 -0.026940845 0.06505225 0.036075182
