Results/gm_k562/gm_k562_raw_c/gm_k562_raw_c_R2_model.pt (torch_old, 881974 bytes, 208 tensors)

weight_ih_l0 f4 [128, 1]
0.074047044 -0.08947679 0.08272052 0.009691599 0.041445192 0.08175189 -0.02645283 -0.0942577
0.029688938 -0.09554577 0.0878895 0.009789518 -0.06614882 0.013283796 0.039430924 -0.050491955
0.04560066 -0.002510839 -0.06295554 0.040978953 0.033885308 0.046911098 -0.035062365 -0.07705488
0.009810914 -0.03211687 -0.10064172 -0.043093815 0.0475802 0.09576918 -0.06718263 -0.02871298
-0.03799081 -0.029730454 -0.038674377 -0.10160967 -0.017436177 0.08412734 -0.04453467 -0.07496618
-0.07607625 -0.06846558 0.09035813 -0.07194855 -0.08733539 0.016982393 -0.048216607 -0.027148176
-0.084424615 -0.052881088 0.083584964 -0.098272815 -0.08155952 0.042015415 0.0068115857 -0.0001049471
0.097318634 0.013840112 -0.01754671 -0.06796661 0.06508207 -0.0041217036 -0.052398585 -0.0313816
-0.021184273 -0.035928875 0.09470724 0.09260664 -0.06241243 -0.060397126 0.010693575 -0.050377566
-0.03781052 -0.049825348 -0.034994777 0.01094886 0.06830367 0.04205178 0.04335914 -0.08518331
0.026372261 -0.03162985 0.05100035 0.07617755 0.012324519 0.06075256 -0.10014048 -0.06219785
-0.09126229 -0.089852884 -0.054969955 -0.0071683843 -0.052642953 0.031960223 -0.020976895 0.02630082
0.078792885 0.054273404 0.042817045 -0.042138655 -0.09309847 -0.09041315 -0.0849941 -0.030665783
0.07564777 0.09177512 0.08678787 0.07874295 -0.024307068 -0.031234704 -0.011093888 -0.02377763
-0.09870023 -0.06566009 -0.040037505 -0.015231254 0.016167197 -0.093773 -0.08876941 0.031362113
-0.06622028 0.044314872 -0.069331706 -0.044135045 -0.024455834 0.08434145 0.03801413 -0.015882773
00000000: faa5 973d 9b3f b7bd 6069 a93d 83c9 1e3c
00000010: 6fc2 293d 896d a73d 9bb3 d8bc 2e0a c1bd
00000020: 3736 f33c 80ad c3bd 69ff b33d 3764 203c
00000030: 0879 87bd 47a4 593c 5282 213d a7d0 4ebd
00000040: c2c7 3a3d e38c 24bb d6ee 80bd 8cd9 273d
00000050: 52cb 0a3d da25 403d 8e9d 0fbd f3ce 9dbd
00000060: f5bd 203c fb8c 03bd 3f1d cebd 2483 30bd
00000070: 75e3 423d a222 c43d 0c97 89bd 7c37 ebbc
00000080: 409c 1bbd 488d f3bc 0669 1ebd bb18 d0bd
00000090: 50d6 8ebc f44a ac3d fc69 36bd de87 99bd
000000a0: ddcd 9bbd af37 8cbd af0d b93d c359 93bd
000000b0: e6dc b2bd a91e 8b3c c77e 45bd da65 debc
000000c0: d0e6 acbd d799 58bd 982e ab3d 4243 c9bd
000000d0: ad08 a7bd 5b18 2c3d b933 df3b 0c17 dcb8
000000e0: fe4e c73d a3c1 623c 1ebe 8fbc 1432 8bbd
000000f0: c049 853d 5b0f 87bb e69f 56bd fe89 00bd
00000100: a48a adbc 282a 13bd dff5 c13d 8da8 bd3d
00000110: 2da4 7fbd fa62 77bd 1b34 2f3c b558 4ebd
00000120: 34df 1abd aa15 4cbd af56 0fbd d962 333c
00000130: cbe2 8b3d 7d3e 2c3d 5b99 313d 9674 aebd
00000140: a40a d83c 4d8e 01bd bee5 503d fa02 9c3d
00000150: c8ec 493c add7 783d 7416 cdbd 2cc3 7ebd
00000160: b9e7 babd ca04 b8bd 2d28 61bd c4e4 eabb
00000170: 23a0 57bd b9e8 023d bdd7 abbc d174 d73c
00000180: 2a5e a13d ca4d 5e3d ed60 2f3d 9599 2cbd
00000190: 69aa bebd 882a b9bd 6311 aebd cf36 fbbc
000001a0: 38ed 9a3d 98f4 bb3d d7bd b13d fc43 a13d
000001b0: 9e1f c7bc ecdf ffbc 24c3 35bc 4ec9 c2bc
000001c0: 5923 cabd cc78 86bd 5efe 23bd 828c 79bc
000001d0: 1271 843c 0f0c c0bd bdcc b5bd 8f75 003d
000001e0: 809e 87bd 8383 353d c8fd 8dbd f3c6 34bd
000001f0: 9a57 c8bc 36bb ac3d b4b4 1b3d 971c 82bc

weight_hh_l0 f4 [128, 32]
0.03708155 -0.06022161 0.036768686 -0.033768367 0.08656533 0.035145883 -0.076291 0.006043794
0.01636278 0.08361747 0.0705336 -0.073178455 -0.072994225 0.05537447 -0.011803107 -0.076267816
0.06470327 -0.06415465 -0.013389206 0.009114083 -0.07542416 0.083838925 0.09093403 0.076212816
-0.032166835 0.021324655 0.0032603205 0.04815825 0.04542857 0.09485251 0.07693595 0.044555224
0.09067019 0.069954224 0.026823431 -0.019533373 0.10328877 0.022301491 -0.0019496693 -0.07839205
-0.018530598 -0.08149111 -0.08511332 -0.04420231 -0.00970048 0.024333604 0.030896727 -0.0105655985
-0.03010608 -0.10233672 -0.06555795 0.083629295 -0.00431326 0.01220683 -0.02330593 0.023282155
-0.08322315 -0.06315718 -0.07374712 -0.0030727512 0.028228087 0.025787234 -0.044288184 -0.019672578
0.037424583 0.052104384 -0.011467063 0.05149414 -0.08345766 -0.01755344 0.015236119 -0.0041042357
-0.06158691 0.043606974 -0.0053729373 0.038037904 -0.008825426 -0.0029208336 -0.019773565 0.03483032
-0.06468168 0.08197012 0.05948494 0.060621735 -0.06012949 0.09555192 0.01882679 0.070427194
0.1004153 0.017613495 0.010263387 0.015840912 0.07967998 -0.038829047 -0.03236349 0.060895782
-0.016661305 0.031920698 0.07013257 -0.09556736 -0.026684606 0.0351476 -0.023604846 -0.034567684
-0.06684616 0.02532783 -0.026169034 -0.02542178 0.05526666 0.019566724 -0.04445756 -0.0054713665
0.059951406 -0.0050678006 -0.024623854 -0.0861327 -0.04224897 -0.0844001 0.06775314 0.064352125
0.084478654 0.01672819 -0.031957407 0.081235774 0.04526036 -0.07895484 -0.036598697 0.0015476051
-0.061225515 0.00957761 0.029750526 -0.021229502 -0.03712345 0.019721659 -0.08591766 0.022310022
0.061738197 -0.010073373 0.015611528 0.07459395 0.008911215 -0.08451977 -0.05984783 0.0453364
-0.028876988 0.019953063 0.09472684 -0.03342788 0.0076150647 -0.034904376 0.09912441 -0.023376007
0.015160837 0.052491706 0.097462505 0.09040068 0.0001630004 0.01928674 -0.0014131538 -0.092786014
-0.07265348 -0.03318351 0.0066956505 0.013709294 0.028444145 0.014089316 -0.013575483 0.00546137
-0.071986444 -0.043262105 -0.006890394 0.046384685 0.029358722 0.065621786 0.03730879 -0.0031816347
0.0546576 0.045152485 0.0767401 -0.040214658 -0.04966341 0.076300606 0.02385431 0.017430734
-0.077893555 -0.10003717 0.08969776 0.054042764 -0.061009947 -0.068632886 -0.029799897 0.052209772
0.04565311 0.06410998 -0.08131179 0.077806346 0.09038215 0.0047933133 -0.087527804 -0.04636013
0.09329692 0.054645833 0.10089216 -0.09605364 -0.0065960786 0.04385187 0.0009780498 -0.0563177
-0.0035434938 0.046986148 -0.006863668 0.069391474 0.05194627 -0.10787529 -0.027230753 -0.08677895
-0.10438658 0.06333962 -0.042472128 0.052789237 0.09760905 -0.010597057 0.02420784 -0.035446927
0.091824 -0.0006914276 0.059180804 0.044380695 -0.07246839 -0.027266188 -0.015745703 0.053372063
0.025206968 0.07681099 -0.004036384 0.015295286 -0.04335749 0.022793792 0.07545069 -0.019277753
-0.09722064 -0.029786514 0.050737757 -0.062422067 0.014724465 0.08772617 0.0139350705 -0.089635454
0.06021938 0.039072823 -0.1055968 -0.0076706014 0.007983717 0.0030583206 -0.092669755 0.08283376
00000000: d3e2 173d efaa 76bd c39a 163d b350 0abd
00000010: 2a49 b13d 21f5 0f3d 753e 9cbd 050b c63b
00000020: 3d0b 863c a33f ab3d ec73 903d 96de 95bd
00000030: ff7d 95bd 57d0 623d d261 41bc 4d32 9cbd
00000040: 2683 843d 8363 83bd 665e 5bbc 3c53 153c
00000050: fb77 9abd beb3 ab3d 9f3b ba3d 7715 9c3d
00000060: 5fc1 03bd 0bb1 ae3c 1aab 553b 9641 453d
00000070: 4f13 3a3d 0842 c23d 9890 9d3d 8a7f 363d
00000080: 4bb1 b93d 2944 8f3d d0bc db3c 7404 a0bc
00000090: 1089 d33d 9eb1 b63c 0c8c ffba 038c a0bd
000000a0: 7bcd 97bc d0e4 a6bd e44f aebd 7b0d 35bd
000000b0: c3ee 1ebc 4457 c73c 221b fd3c 551b 2dbc
000000c0: 07a1 f6bc ea95 d1bd 3f43 86bd d645 ab3d
000000d0: 3f56 8dbb 28ff 473c 14ec bebc 38ba be3c
000000e0: e670 aabd 8d58 81bd bb08 97bd 3660 49bb
000000f0: 973e e73c c03f d33c 8767 35bd 6328 a1bc
00000100: 854a 193d 686b 553d 59e0 3bbc 85eb 523d
00000110: daeb aabd 3bcc 8fbc eaa0 793c d37c 86bb
00000120: 8e42 7cbd 3a9d 323d 770f b0bb a2cd 1b3d
00000130: 8598 10bc 756b 3fbb 2cfc a1bc 3daa 0e3d
00000140: d477 84bd f3df a73d 7ba6 733d 7f4e 783d
00000150: 574a 76bd bab0 c33d a43a 9a3c 223c 903d
00000160: 89a6 cd3d 2d4a 903c c427 283c cdc4 813c
00000170: 422f a33d 350b 1fbd 948f 04bd db6d 793d
00000180: 4a7d 88bc 47bf 023d aaa1 8f3d d2b8 c3bd
00000190: ad99 dabc eef6 0f3d f35e c1bc d896 0dbd
000001a0: a4e6 88bd 4f7c cf3c 7160 d6bc 5641 d0bc
000001b0: 4b5f 623d 654a a03c 2119 36bd 2649 b3bb
000001c0: 9b8f 753d cb0f a6bb f7b7 c9bc 5766 b0bd
000001d0: 420d 2dbd f6d9 acbd 29c2 8a3d 0ccb 833d
000001e0: 2503 ad3d 8f09 893c c5e5 02bd f15e a63d
000001f0: ed62 393d 13b3 a1bd 84e8 15bd 03d9 ca3a
00000200: 9bc7 7abd 68eb 1c3c 60b7 f33c 7ee9 adbc
00000210: c20e 18bd 518f a13c 99f5 afbd 82c3 b63c
00000220: 31e1 7c3d ca0a 25bc 7fc7 7f3c b6c4 983d
00000230: 5800 123c b418 adbd 0023 75bd a9b2 393d
00000240: 6f8f ecbc 9b74 a33c 2500 c23d aceb 08bd
00000250: cb87 f93b e4f7 0ebd bd01 cb3d 0a7f bfbc
00000260: 2965 783c 8b01 573d 6c9a c73d fe23 b93d
00000270: 16eb 2a39 3aff 9d3c 9339 b9ba 9806 bebd
00000280: 59cb 94bd 6feb 07bd 3067 db3b f29c 603c
00000290: b203 e93c e0d6 663c b46b 5ebc 4bf5 b23b
000002a0: a16d 93bd 9b33 31bd d0c8 e1bb defd 3d3d
000002b0: b481 f03c b764 863d 1ad1 183d f982 50bb
000002c0: a6e0 5f3d d0f1 383d ea29 9d3d 20b8 24bd
000002d0: dc6b 4bbd 7e43 9c3d 1d6a c33c e6ca 8e3c
000002e0: a886 9fbd 4ae0 ccbd 76b3 b73d f25b 5d3d
000002f0: 91e5 79bd 668f 8cbd ea1e f4bc ead9 553d
00000300: c1fe 3a3d 184c 833d cc86 a6bd ef58 9f3d
00000310: 471a b93d 3a11 9d3b c741 b3bd 1fe4 3dbd
00000320: 7512 bf3d 4fd4 5f3d 8ca0 ce3d c5b7 c4bd
00000330: eb23 d8bb 059e 333d e831 803a 63ad 66bd
00000340: f639 68bb 8c74 403d 9fe8 e0bb 1e1d 8e3d
00000350: 9dc5 543d b8ed dcbd 0713 dfbc 2ab9 b1bd
00000360: a2c8 d5bd 34b8 813d 41f7 2dbd 8739 583d
00000370: 41e7 c73d 479f 2dbc 854f c63c cc30 11bd
00000380: 390e bc3d ec40 35ba 9267 723d 88c8 353d
00000390: 4f6a 94bd 575d dfbc 22fd 80bc aa9c 5a3d
000003a0: d87e ce3c 154f 9d3d a543 84bb 1499 7a3c
000003b0: a097 31bd 0cba ba3c e485 9a3d 61ec 9dbc
000003c0: 9d1b c7bd d902 f4bc 65d2 4f3d 48ae 7fbd
000003d0: e23e 713c c7a9 b33d ec4f 643c cb92 b7bd
000003e0: 99a8 763d d30a 203d 2343 d8bd ab59 fbbb
000003f0: 23ce 023c 1b6e 483b a4c9 bdbd bfa4 a93d

bias_ih_l0 f4 [128]
-0.06072513 -0.0107795065 0.024553096 0.08612915 0.042839862 0.043942165 -0.044039015 -0.057835672
0.033042647 0.09941095 0.06939515 0.0014850575 0.06588133 0.044144806 -0.014343693 -0.076645084
0.002890182 0.09426021 -9.764395e-05 -0.076134555 0.02745161 0.0035790948 0.025155429 0.03835676
-0.01830448 0.06439429 -0.009800742 -0.09787507 0.038938157 -0.089218795 0.0040600756 -0.06399122
0.029168883 0.08385815 -0.06342492 0.04963276 -0.037897594 -0.06749201 -0.04156999 -0.08292888
0.0046450943 -0.060655233 0.06576801 0.058156922 0.10227198 0.08341499 -0.044846438 0.09237116
-0.007204546 0.0270017 0.005395414 -0.058086764 -0.0040145223 -0.084231935 -0.058965772 -0.102353245
-0.08161689 -0.019896898 0.08232869 0.026453983 0.0132028805 -0.022894036 0.07207964 0.09450992
0.095806 0.077674136 0.05396002 -0.050814737 -0.055801913 -0.06517011 -0.042391736 -0.0239991
0.027085774 -0.015054571 -0.086628936 0.069006525 -0.044215646 0.069885895 -0.013978102 0.046274237
-0.07566525 0.022995826 -0.063381754 0.046440028 0.04140651 0.035124674 -0.0023541518 0.07124164
0.03308918 0.076786116 0.009023169 -0.088019714 -0.02851698 -0.060882244 0.07493255 0.027901912
-0.02137477 -0.04348217 0.003325004 0.07154581 0.062796384 -0.050185 0.0028844182 -0.07004477
-0.05743497 0.09920209 -0.046655275 -0.024919454 0.090066254 -0.018689776 -0.018155146 0.042686272
0.0615402 -0.03434776 -0.024944887 0.050249755 -0.026306506 0.008774555 -0.0654334 -0.08687103
-0.034414135 0.07958724 -0.056913387 -0.02250292 -0.09092634 -0.085301206 0.01296677 -0.08317564
00000000: eaba 78bd 879c 30bc 9323 c93c 7b64 b03d
00000010: da78 2f3d b3fc 333d 4162 34bd 19e5 6cbd
00000020: ba57 073d f897 cb3d 0b1f 8e3d 43a6 c23a
00000030: caec 863d 2fd1 343d cf01 6bbc 19f8 9cbd
00000040: 3569 3d3b 7f0b c13d 32c6 ccb8 6fec 9bbd
00000050: 33e2 e03c 3f8f 6a3b c212 ce3c fa1b 1d3d
00000060: 47f3 95bc 27e1 833d 4b93 20bc ba72 c8bd
00000070: 9e7d 1f3d 58b8 b6bd 620a 853b d40d 83bd
00000080: 95f3 ee3c d2bd ab3d ede4 81bd b94b 4b3d
00000090: 823a 1bbd 4039 8abd 4b45 2abd 9ed6 a9bd
000000a0: e035 983b 9f71 78bd 61b1 863d f435 6e3d
000000b0: f973 d13d 7ad5 aa3d e6b0 37bd 172d bd3d
000000c0: 1d14 ecbb ab32 dd3c 03cc b03b 63ec 6dbd
000000d0: 418c 83bb cb81 acbd 1886 71bd 949e d1bd
000000e0: c226 a7bd d2fe a2bc f29b a83d 06b6 d83c
000000f0: e550 583c 468c bbbc 7e9e 933d 6b8e c13d
00000100: f035 c43d 9e13 9f3d 2f05 5d3d 1d23 50bd
00000110: 8c90 64bd e877 85bd f5a2 2dbd c399 c4bc
00000120: fce2 dd3c 73a7 76bc 836a b1bd 4b53 8d3d
00000130: 771b 35bd 5620 8f3d 6904 65bc 0e8a 3d3d
00000140: 62f6 9abd be61 bc3c 4bce 81bd e637 3e3d
00000150: df99 293d e4de 0f3d 1d48 1abb 23e7 913d
00000160: 8588 073d 0a42 9d3d ead5 133c ae43 b4bd
00000170: 719c e9bc a95f 79bd 3d76 993d 8d92 e43c
00000180: 241a afbc 5c1a 32bd 4fe8 593b 9c86 923d
00000190: 649b 803d c98e 4dbd 8208 3d3b a273 8fbd
000001a0: ee40 6bbd 772a cb3d 9a19 3fbd e223 ccbc
000001b0: a874 b83d 4d1b 99bc 1aba 94bc cdd7 2e3d
000001c0: 9411 7c3d 3db0 0cbd 3859 ccbc b0d2 4d3d
000001d0: be80 d7bc 27c3 0f3c f201 86bd 70e9 b1bd
000001e0: d6f5 0cbd a3fe a23d 031e 69bd 0b58 b8bc
000001f0: 9737 babd 66b2 aebd 9372 543c fd57 aabd

bias_hh_l0 f4 [128]
0.04131988 -0.023461126 0.08244344 -0.09742047 0.061491024 0.0029436399 0.058536965 0.07528946
0.06383914 -0.032855794 -0.03967011 0.10467563 -0.035970572 -0.105454 -0.088014096 0.03879718
0.08203196 0.09371224 0.05626327 -0.03232966 0.047214992 -0.09753351 0.07405853 0.0074518905
0.01032168 -0.021234486 -0.07313202 -0.006398551 0.036204662 -0.064727105 0.057387277 -0.022153327
0.01862516 -0.0728854 0.051677912 -0.0009246048 -0.05042972 -0.020225136 -0.0033412115 -0.0031416595
-0.06571935 0.09737729 0.076358505 0.09084111 0.07553896 0.029085185 0.088066615 0.027890341
0.024751768 0.07556356 0.03983749 -0.07209646 0.07334759 -0.052001394 -0.039797638 0.027267965
-0.04733719 0.100550905 0.02070858 0.0854739 -0.028082166 -0.03999914 -0.0658354 -0.05058903
-0.07715957 0.021191852 0.046187647 0.05189818 0.0012196205 -0.019533617 -0.070316255 -0.053642824
-0.044303443 -0.023622733 -0.08713376 0.0021524003 0.07607598 0.04786241 -0.038322296 -0.01980076
0.03015886 0.043401327 -0.03132977 -0.045147408 0.07552569 0.0063066394 0.097923376 0.05882154
0.07725493 0.10131013 0.007993378 0.037359376 -0.027515614 -0.04397856 -0.08932205 0.07877792
-0.09187179 -0.06459908 0.08507177 -0.06457118 -0.09519142 -0.05753224 0.009082778 -0.032414936
-0.063188605 -0.040730964 -0.007494147 -0.00023295844 0.06524688 -0.108578786 -0.043256685 0.03587809
-0.034358665 -0.04662098 -0.07959723 0.07460424 -0.061770312 -0.04864381 -0.0155418515 0.082855985
-0.0012620005 -0.08050847 -0.04899803 0.065533385 -0.042966895 0.05483526 0.072438866 0.07400306
00000000: 093f 293d 8c31 c0bc 1bd8 a83d 6284 c7bd
00000010: 03de 7b3d 15ea 403b 75c4 6f3d 5c31 9a3d
00000020: 18be 823d cc93 06bd 207d 22bd 2d60 d63d
00000030: e155 13bd 44f8 d7bd bc40 b4bd cbe9 1e3d
00000040: 5f00 a83d 34ec bf3d 5174 663d 1b6c 04bd
00000050: 8264 413d a6bf c7bd 00ac 973d fd2e f43b
00000060: 441c 293c f2f3 adbc 3ec6 95bd f0aa d1bb
00000070: 574b 143d a58f 84bd ec0e 6b3d e57a b5bc
00000080: cb93 983c f144 95bd 38ac 533d 2e61 72ba
00000090: 658f 4ebd 2faf a5bc 3af8 5abb 4de4 4dbb
000000a0: de97 86bd bf6d c73d d961 9c3d e70a ba3d
000000b0: 2cb4 9a3d 0e44 ee3c 455c b43d 497a e43c
000000c0: 38c4 ca3c 11c1 9a3d a32c 233d 4fa7 93bd
000000d0: 4337 963d 6aff 54bd d902 23bd 1161 df3c
000000e0: a4e4 41bd a2ed cd3d 0aa5 a93c f10c af3d
000000f0: 920c e6bc 23d6 23bd b6d4 86bd 7136 4fbd
00000100: d605 9ebd 899a ad3c 422f 3d3d 3093 543d
00000110: acdb 9f3a f704 a0bc f801 90bd 94b8 5bbd
00000120: 8777 35bd 7684 c1bc 2f73 b2bd 490f 0d3b
00000130: b9cd 9b3d 600b 443d d7f7 1cbd 3435 a2bc
00000140: b70f f73c 97c5 313d a553 00bd 7dec 38bd
00000150: 37ad 9a3d eda7 ce3b 0d8c c83d dbee 703d
00000160: d537 9e3d af7b cf3d a8f6 023c 2506 193d
00000170: 6d68 e1bc dd22 34bd 7bee b6bd 5156 a13d
00000180: 4727 bcbd 864c 84bd 1c3a ae3d e53d 84bd
00000190: b8f3 c2bd eda6 6bbd efcf 143c 86c5 04bd
000001a0: 0769 81bd 83d5 26bd 7691 f5bb 4e46 74b9
000001b0: 28a0 853d 8e5e debd ec2d 31bd e7f4 123d
000001c0: acbb 0cbd a4f5 3ebd df03 a3bd 1cca 983d
000001d0: de02 7dbd bb3e 47bd 40a3 7ebc 66b0 a93d
000001e0: b669 a5ba a0e1 a4bd 29b2 48bd 5e36 863d
000001f0: 0efe 2fbd f09a 603d d45a 943d eb8e 973d

weight_ih_l0_reverse f4 [128, 1]
-0.050481495 -0.09661958 0.06924714 -0.041887872 0.080366485 -0.039772037 -0.051107366 -0.005641213
0.065059684 -0.034850102 0.076297596 -0.035540663 -0.09846674 0.09773471 0.07064826 -0.07035052
-0.08267538 0.031727526 0.024333138 -0.03997832 0.04458164 0.08277992 0.014426551 0.059001297
0.03688226 0.06987398 0.012343666 -0.00015555338 0.009453303 -0.011372097 0.039077766 -0.081794865
0.042265452 -0.001760669 -0.09502136 -0.057473976 -0.06981523 0.053460848 -0.03410562 -0.03936412
-0.05886686 -0.08381852 0.09142009 -0.09508391 0.010692038 0.09839455 -0.041273642 0.084885
-0.058772415 0.013240748 -0.008109838 0.10092329 -0.010136647 -0.048420597 0.072806254 0.055303175
0.05632873 -0.06412513 -0.04798307 -0.08268291 -0.043250095 -0.050437924 0.028325986 0.07971861
0.06852503 0.09270212 0.083834976 -0.0672144 -0.0058332835 -0.0829033 0.082355715 -0.07107437
-0.007944718 -0.085203916 0.07754965 0.0148632405 -0.09822823 -0.083567046 0.030465733 -0.079991676
-0.04736215 -0.08390544 0.061882135 -0.03159657 0.008266379 -0.027506772 -0.08690095 0.10533788
-0.09139439 -0.09374387 0.08128715 0.023633532 0.0147464285 -0.00017096773 -0.044701796 -0.090252504
-0.07962695 -0.08043766 0.06986227 0.098606005 0.043140404 0.001436139 -0.014493746 0.0324714
-0.008017698 0.0097357975 0.016687488 -0.03099671 -0.01576539 -0.014750935 -0.054478306 0.046810344
0.04832273 -0.09544495 0.0010404335 -0.06512486 0.035597 0.07833408 -0.045761924 -0.008296206
-0.06977344 -0.04087218 -0.0074236365 0.020724576 0.057242222 -0.02526634 -0.020022104 -0.03610009
00000000: afc5 4ebd 7de0 c5bd 72d1 8d3d 9e92 2bbd
00000010: 2f97 a43d 01e8 22bd f555 51bd edd9 b8bb
00000020: 033e 853d fbbe 0ebd ea41 9c3d 1693 11bd
00000030: eea8 c9bd 2329 c83d 09b0 903d ef13 90bd
00000040: b651 a9bd b9f4 013d 4a56 c73c 4fc0 23bd
00000050: 3d9b 363d 8588 a93d 575d 6c3c 58ab 713d
00000060: da11 173d 171a 8f3d 163d 4a3c 0b1c 23b9
00000070: 07e2 1a3c 0852 3abc 0210 203d 1184 a7bd
00000080: 8a1e 2d3d 40c6 e6ba 8f9a c2bd d569 6bbd
00000090: 4afb 8ebd c3f9 5a3d 56b2 0bbd 463c 21bd
000000a0: 601e 71bd 0ba9 abbd 753a bb3d 5abb c2bd
000000b0: a82d 2f3c 1583 c93d 8d0e 29bd 30d8 ad3d
000000c0: 58bb 70bd b9ef 583c 20df 04bc dfb0 ce3d
000000d0: 2e14 26bc ad54 46bd 721b 953d 9585 623d
000000e0: f4b8 663d 0954 83bd e589 44bd a855 a9bd
000000f0: 0327 31bd ff97 4ebd e60b e83c 8343 a33d
00000100: da56 8c3d 9cda bd3d acb1 ab3d b4a7 89bd
00000110: 2125 bfbb 35c9 a9bd 1daa a83d 708f 91bd
00000120: 902a 02bc 647f aebd 5ad2 9e3d f384 733c
00000130: e22b c9bd 3325 abbd 4693 f93c add2 a3bd
00000140: d0fe 41bd 9ed6 abbd 1f78 7d3d 686b 01bd
00000150: b56f 073c e255 e1bc 20f9 b1bd 63bb d73d
00000160: fb2c bbbd c9fc bfbd e179 a63d 1c9b c13c
00000170: 019b 713c cd45 33b9 3b19 37bd 4ed6 b8bd
00000180: 7413 a3bd 80bc a4bd f313 8f3d f2f1 c93d
00000190: feb3 303d d43c bc3a 2d77 6dbc bb00 053d
000001a0: aa5c 03bc e582 1f3c 33b4 883c d0ec fdbc
000001b0: 6b26 81bc e8ad 71bc a524 5fbd 34bc 3f3d
000001c0: 0eee 453d a478 c3bd 285f 883a 2f60 85bd
000001d0: 29ce 113d 9e6d a03d db70 3bbd cfec 07bc
000001e0: 61e5 8ebd 9669 27bd fa41 f3bb 96c6 a93c
000001f0: d276 6a3d 5bfb cebc 6505 a4bc b0dd 13bd

weight_hh_l0_reverse f4 [128, 32]
-0.06582594 -0.07610539 -0.039109558 0.077025466 -0.052814245 -0.038129076 -0.035484493 0.05113082
0.037438564 0.0428211 -0.07019758 0.08445391 0.091388695 0.018768387 -0.06704798 -0.08961814
0.100502975 -0.008165093 -0.0062897527 0.004846313 -0.09293481 0.03637213 -0.017177906 -0.07205357
0.014220643 -0.08011416 -0.085952275 0.042871144 0.0018689902 -0.09413745 0.04790554 0.03976401
-0.054574184 0.04618729 0.010099527 0.078141175 -0.0644543 -0.086729035 0.03703585 -0.017835174
-0.079384856 -0.09972355 -0.0005032252 0.10444052 0.10462861 0.006764552 -0.021384094 0.053027097
0.062573016 -0.03878467 0.03883237 0.08447248 0.06326092 -0.01801585 -0.025632309 0.07969992
-0.06745591 0.02375354 -0.011834534 0.050679814 -0.083833225 0.025639568 -0.050516505 -0.041471906
-0.008220967 0.06886863 -0.049285706 -0.016191585 -0.09964148 0.07228902 0.0013049109 -0.032220334
-0.06716067 -0.07616835 -0.09054032 0.03151224 0.060965378 -0.10196282 0.07683938 -0.015773954
0.018368622 0.07292163 -0.06959175 0.051849823 -0.060010605 -0.05654748 0.072414376 -0.085101694
0.07985818 -0.032402683 0.08862893 0.06775152 0.012337436 0.029990662 -0.101684466 0.03752811
-0.025435993 -0.021062873 -0.04773669 -0.032531925 -0.01929998 0.025711117 -0.04255659 0.06298521
0.021162793 0.08401293 -0.08172355 0.05009013 0.023931142 0.10010542 -0.018479351 -0.021615049
-0.09008193 0.08455581 -0.04111973 0.0030775745 0.008380345 -0.08341388 0.023865242 -0.062156655
-0.047942873 -0.089216165 0.062281 -0.0011734074 -0.06858593 0.053966437 -0.019976825 0.0024265312
0.0451226 0.03650671 0.06598424 0.045251254 -0.048805546 0.045688678 0.0584891 -0.015516556
-0.08730173 0.031549796 -0.10435894 0.01675981 -0.07436435 0.040813185 0.04768661 -0.0011235293
-0.009739716 -0.041212622 -0.067638844 -0.057200268 0.026848394 0.023589484 -0.044066723 0.093497425
0.0393972 0.0030385144 -0.09456075 -0.07388628 0.04060503 -0.06468638 -0.039871916 0.013312983
0.061586525 -0.09859701 0.059362076 0.084539145 -0.0014153756 0.0028597275 -0.030733993 -0.034388945
-0.061995797 -0.07179531 -0.044958163 0.093952894 -0.08730597 0.060355913 -0.021422222 -0.04710965
0.087247625 0.036111705 -0.032450616 -0.07175773 -0.06701579 0.014973185 -0.05521781 -0.022306804
-0.06472228 0.09096674 0.0405436 -0.096240535 0.012597072 -0.10179078 -0.032995798 0.018628666
-0.0360873 -0.058709137 -0.009277042 -0.04111192 -0.014275603 0.09521606 0.028885715 0.06285197
-0.092535734 -0.033347353 -0.047392067 -0.0056153582 -0.03675863 0.062996544 0.06521255 0.0069686933
0.07540155 -0.026976086 -0.006123561 -0.031853203 -0.06583729 -0.09466587 -0.056878105 0.017263032
-0.017013397 0.035657592 0.01369762 0.0408186 -0.03762119 -0.09598219 0.030800572 -0.0022882635
0.07646518 0.10241003 -0.033618454 0.00034059462 -0.083324 0.060772184 0.049459666 0.05469623
-0.007908856 0.081411965 0.017610505 0.05509972 -0.015580009 -0.087020546 -0.09643562 -0.008689285
0.064799614 -0.04504322 -0.028233293 0.06592688 0.07687345 -0.051326018 0.012856349 0.097874336
0.047415577 0.06619123 0.03677173 0.04597853 0.01795646 0.106977314 0.07917832 -0.04938151
00000000: c0cf 86bd 25dd 9bbd 5831 20bd 87bf 9d3d
00000010: c053 58bd 3c2d 1cbd 3058 11bd 8d6e 513d
00000020: 2e59 193d 2e65 2f3d c0c3 8fbd 2cf6 ac3d
00000030: ff29 bb3d 29c0 993c 7450 89bd b789 b7bd
00000040: 81d4 cd3d e2c6 05bc 451a cebb d2cd 9e3b
00000050: 9b54 bebd f1fa 143d aeb8 8cbc d290 93bd
00000060: b3fd 683c e512 a4bd bf07 b0bd a799 2f3d
00000070: e8f8 f43a 23cb c0bd 9938 443d 96df 223d
00000080: 2e89 5fbd e22e 3d3d 7d78 253c 7b08 a03d
00000090: 9e00 84bd fe9e b1bd e7b2 173d 121b 92bc
000000a0: 8794 a2bd dc3b ccbd dfea 03ba e9e4 d53d
000000b0: 8647 d63d 2da9 dd3b b22d afbc f132 593d
000000c0: 4826 803d addc 1ebd b10e 1f3d e8ff ac3d
000000d0: f18e 813d fa95 93bc d9fa d1bc b639 a33d
000000e0: 5326 8abd c996 c23c a2e5 41bc a395 4f3d
000000f0: c1b0 abbd 120a d23c 65ea 4ebd 72de 29bd
00000100: 3cb1 06bc ff0a 8d3d cfdf 49bd 37a4 84bc
00000110: d510 ccbd 440c 943d 8b09 ab3a 78f9 03bd
00000120: 898b 89bd 27fe 9bbd 346d b9bd fb12 013d
00000130: d5b6 793d e2d1 d0bd f75d 9d3d 6138 81bc
00000140: cb79 963c f057 953d 1f86 8ebd 7b60 543d
00000150: aecd 75bd 559e 67bd fd4d 943d cc49 aebd
00000160: af8c a33d adb8 04bd 1683 b53d 4fc1 8a3d
00000170: f522 4a3c faae f53c f23f d0bd 13b7 193d
00000180: 255f d0bc 0c8c acbc 8c87 43bd 3240 05bd
00000190: fe1a 9ebc 1fa0 d23c d24f 2ebd 64fe 803d
000001a0: 985d ad3c f90e ac3d ad5e a7bd 4f2b 4d3d
000001b0: 3e0b c43c 1204 cd3d 0262 97bc 0b12 b1bc
000001c0: e07c b8bd 992b ad3d 296d 28bd 22b1 493b
000001d0: b74d 093c e5d4 aabd 0a81 c33c fa97 7ebd
000001e0: bf5f 44bd f7b6 b6bd 5d1a 7f3d 05cd 99ba
000001f0: c876 8cbd e90b 5d3d 70a6 a3bc 7006 1f3b
00000200: 7ad2 383d 0f88 153d bf22 873d 6159 393d
00000210: 53e8 47bd 0d24 3b3d 4492 6f3d 2739 7ebc
00000220: 40cb b2bd 5c3a 013d 24ba d5bd de4b 893c
00000230: 564c 98bd ba2b 273d 0953 433d 6343 93ba
00000240: 5493 1fbc 91ce 28bd 3c86 8abd d44a 6abd
00000250: 2af1 db3c bc3e c13c 4f7f 34bd 947b bf3d
00000260: f55e 213d d021 473b 11a9 c1bd b151 97bd
00000270: 7651 263d 4b7a 84bd bc50 23bd b31e 5a3c
00000280: 2742 7c3d 3bed c9bd a625 733d dc22 ad3d
00000290: 2084 b9ba 446a 3b3b dbc5 fbbc 6cdb 0cbd
000002a0: 4eef 7dbd 6b09 93bd 0d26 38bd 606a c03d
000002b0: 79cd b2bd c337 773d a87d afbc 0cf6 40bd
000002c0: e2ae b23d dee9 133d f0ea 04bd b7f5 92bd
000002d0: 933f 89bd 1752 753c 122c 62bd c2bc b6bc
000002e0: 1d8d 84bd c54c ba3d 0c11 263d c219 c5bd
000002f0: f363 4e3c af77 d0bd 9a26 07bd 259b 983c
00000300: 47d0 13bd fe78 70bd bcfe 17bc f964 28bd
00000310: 38e4 69bc a300 c33d bca1 ec3c 89b8 803d
00000320: 6083 bdbd 3c97 08bd 2f1e 42bd 0a01 b8bb
00000330: 3890 16bd 5504 813d 288e 853d a359 e43b
00000340: 216c 9a3d f4fc dcbc 27a8 c8bb 8178 02bd
00000350: b3d5 86bd 2ee0 c1bd 04f9 68bd 346b 8d3c
00000360: ae5f 8bbc b20d 123d fb6b 603c 6831 273d
00000370: ad18 1abd 4f92 c4bd 7b51 fc3c b1f6 15bb
00000380: c799 9c3d 5abc d13d 81b3 09bd d691 b239
00000390: c6a5 aabd 41ec 783d 3896 4a3d 2709 603d
000003a0: 2594 01bc 51bb a63d e843 903c 3eb0 613d
000003b0: 4b43 7fbc d437 b2bd 0a80 c5bd 815d 0ebc
000003c0: a9b5 843d 3d7f 38bd 8249 e7bc ac04 873d
000003d0: d46f 9d3d 3b3b 52bd 70a3 523c 5772 c83d
000003e0: d636 423d 458f 873d f49d 163d fc53 3c3d
000003f0: 6d19 933c ec16 db3d 3e28 a23d 4444 4abd

bias_ih_l0_reverse f4 [128]
-0.006742612 0.045560416 0.0134478705 0.07551947 -0.043990735 -0.028804077 -0.0699843 0.07281152
-0.05810861 -0.034140646 0.09796062 -0.057463974 -0.06577404 -0.01801792 -0.0784313 0.08181469
0.011183237 -0.07916075 -0.07267048 -0.016376216 -0.009992451 0.082849726 -0.0016790642 0.023051267
-0.088328086 -0.01118246 -0.026033847 0.08464792 -0.044824455 -0.103165075 -0.012586473 0.083969966
-0.009843176 0.036123883 0.09080771 -0.07545309 0.042313494 0.028570652 0.0331127 0.07344566
0.08072042 -0.03814758 0.07429143 -0.020061348 -0.070844434 -0.09848194 0.02201643 -0.062370464
-0.035027083 -0.015612283 0.037408963 0.060243953 -0.04503493 0.042826466 0.04202194 -0.10224167
0.08176461 0.0058001094 0.053509444 -0.03215679 -0.052403208 -0.050272893 -0.03151393 0.061588295
-0.008618323 -0.06439362 0.08014811 -0.013995717 -0.03606927 -0.10147881 0.08837554 0.050961766
0.025580416 -0.043127194 0.018074913 -0.06159793 0.021420203 -0.041696806 -0.016162563 -0.082402594
0.017453253 -0.073393695 -0.101200886 -0.05832152 -0.100169495 -0.011338883 0.06809835 0.024147738
0.024686443 0.031405363 0.082731366 -0.02735326 0.041959587 -0.030760933 -0.04079672 0.01187956
0.09631394 0.09737268 -0.003857264 -0.06270619 -0.075740084 0.06599283 0.06159147 -0.071749546
-0.06603382 0.064495124 0.09549771 0.08151596 0.08277693 -0.065466635 -0.052112408 0.07968307
0.077496916 -0.09873121 0.10386459 0.031049978 0.0020122398 0.090025224 0.09815123 0.05493022
-0.0075919647 0.044043195 0.08138558 0.089907914 0.073064655 -0.08284514 -0.014207688 0.06616422
00000000: 21f1 dcbb 8f9d 3a3d 7554 5c3c f4a9 9a3d
00000010: a12f 34bd 87f6 ebbc ee53 8fbd 351e 953d
00000020: 4b03 6ebd 10d7 0bbd 949f c83d 585f 6bbd
00000030: 8ab4 86bd 519a 93bc 97a0 a0bd 768e a73d
00000040: e539 373c 081f a2bd 43d4 94bd 6a27 86bc
00000050: 61b7 23bc 1ead a93d 0c14 dcba 03d6 bc3c
00000060: 5be5 b4bd a336 37bc ef44 d5bc e45b ad3d
00000070: d999 37bd 3648 d3bd 7e37 4ebc 72f8 ab3d
00000080: 4645 21bc a3f6 133d 65f9 b93d 2687 9abd
00000090: ea50 2d3d 000d ea3c 2fa1 073d ae6a 963d
000000a0: bf50 a53d a340 1cbd 1b26 983d b257 a4bc
000000b0: e316 91bd e6b0 c9bd cd5b b43c 2c78 7fbd
000000c0: 8f78 0fbd a9ca 7fbc 243a 193d 5dc2 763d
000000d0: 8c76 38bd ce6a 2f3d 331f 2c3d 1564 d1bd
000000e0: 3474 a73d d80e be3b b82c 5b3d d7b6 03bd
000000f0: bfa4 56bd f3ea 4dbd c014 01bd 0244 7c3d
00000100: de33 0dbc cde0 83bd b124 a43d 4b4e 65bc
00000110: 5fbd 13bd 1fd4 cfbd 3cfe b43d 49bd 503d
00000120: 058e d13c 24a6 30bd d711 943c 1c4e 7cbd
00000130: 6c79 af3c 45ca 2abd 5a67 84bc b1c2 a8bd
00000140: 20fa 8e3c 6f4f 96bd 6942 cfbd 8ce2 6ebd
00000150: aa25 cdbd b9c6 39bc 2677 8b3d 7ad1 c53c
00000160: 393b ca3c e9a2 003d 106f a93d f213 e0bc
00000170: d1dd 2b3d 5afe fbbc 761a 27bd 7ca2 423c
00000180: 3e40 c53d 546b c73d 27ca 7cbb 1a6c 80bd
00000190: 9e1d 9bbd 4027 873d 5647 7c3d 6df1 92bd
000001a0: bd3c 87bd 0516 843d 4e94 c33d d7f1 a63d
000001b0: f386 a93d 5f13 86bd d273 55bd e130 a33d
000001c0: b4b6 9e3d 9733 cabd f5b6 d43d 865c fe3c
000001d0: c8df 033b 255f b83d 8303 c93d 83fe 603d
000001e0: 04c6 f8bb a366 343d 7cad a63d a421 b83d
000001f0: eca2 953d b6aa a9bd 5dc7 68bc 1b81 873d

bias_hh_l0_reverse f4 [128]
0.0003180473 -0.091198884 2.8049779e-05 -0.04560384 -0.047548298 -0.07253942 -0.08730505 -0.047815196
-0.009762887 -0.025946472 0.06833403 -0.09649421 -0.06584529 0.07965891 0.06953559 0.063878715
-0.06871421 0.06851386 0.087128066 0.033475645 -0.050291207 0.0034016692 -0.04428167 -0.08187326
-0.06419987 0.10497475 0.003378449 -0.042033177 -0.07557522 -0.016027123 -0.08498143 0.052552115
0.056481585 0.07870762 0.048630096 0.062734805 0.006406687 -0.028740013 -0.09427882 -0.062392853
0.061866004 0.08643119 -0.017032811 -0.019101558 0.028701106 -0.01457906 -0.0015935204 0.086897805
0.029834278 0.07932777 0.04479323 -0.035010166 -0.022146098 0.04230043 -0.07763025 -0.011472572
0.05495055 0.015977293 -0.0947264 0.022098837 -0.026516039 -0.073793225 0.08762317 0.1014653
0.050300427 0.001738001 -0.0689413 0.03390058 -0.057816695 -0.079649456 -0.09583203 -0.047939807
-0.054421227 0.009713125 0.08431352 0.08297497 0.034220386 -0.077725634 0.06137586 -0.06333955
0.095196635 0.004957643 -0.09360117 -0.05336664 -0.053476997 -0.09479407 0.039554175 -0.04893142
-0.024746116 0.05443561 0.03826499 -0.03171478 -0.0313807 -0.017335095 -0.07415399 0.030210864
-0.035419744 -0.014347911 0.09878259 -0.023696257 0.0030789485 0.036079485 -0.05497049 -0.09924556
-0.06588785 0.013908481 0.10112335 -0.03264044 0.029213112 -0.09696882 0.053147953 -0.0396932
0.0515276 0.07013927 0.06767041 0.08895954 0.090213254 0.025584748 -0.007223357 0.038162243
0.028471835 0.05108498 -0.0308697 -0.0021994305 0.09870631 -0.0810519 -0.072158925 0.0011543358
00000000: 96bf a639 7bc6 babd 714c eb37 18cb 3abd
00000010: 01c2 42bd 8c8f 94bd fdcc b2bd ded9 43bd
00000020: 84f4 1fbc b28d d4bc b6f2 8b3d c29e c5bd
00000030: e5d9 86bd 3624 a33d ad68 8e3d d8d2 823d
00000040: 09ba 8cbd ff50 8c3d 3370 b23d c21d 093d
00000050: 27fe 4dbd 8aee 5e3b b260 35bd 2bad a7bd
00000060: 397b 83bd 00fd d63d f868 5d3b fb2a 2cbd
00000070: 2ec7 9abd 504b 83bc be0a aebd e340 573d
00000080: 3c59 673d 7631 a13d 5a30 473d 1b7b 803d
00000090: 30ef d13b 2d70 ebbc 4115 c1bd a68f 7fbd
000000a0: 3567 7d3d d602 b13d 6588 8bbc df7a 9cbc
000000b0: 951e eb3c 02dd 6ebc acdd d0ba 7af7 b13d
000000c0: 0467 f43c 9976 a23d 1b79 373d d266 0fbd
000000d0: bc6b b5bc 3743 2d3d 9cfc 9ebd 74f7 3bbc
000000e0: d413 613d d0e2 823c eaff c1bd 9f08 b53c
000000f0: 2a38 d9bc e720 97bd c773 b33d 0acd cf3d
00000100: d207 4e3d a3cd e33a 1931 8dbd 56db 0a3d
00000110: 33d1 6cbd 411f a3bd 9543 c4bd 885c 44bd
00000120: cbe8 5ebd cd23 1f3c 91ac ac3d c8ee a93d
00000130: ad2a 0c3d 9e2e 9fbd 4165 7b3d 2ab8 81bd
00000140: 74f6 c23d b973 a23b f8b1 bfbd fa96 5abd
00000150: b20a 5bbd 6523 c2bd 8f03 223d 506c 48bd
00000160: 5eb8 cabc e0f7 5e3d c0bb 1c3d 5be7 01bd
00000170: 0d89 00bd 5402 8ebc 0cde 97bd c67c f73c
00000180: 4b14 11bd 8013 6bbc 874e ca3d a71e c2bc
00000190: 2fc8 493b 15c8 133d bd28 61bd 4241 cbbd
000001a0: 36f0 86bd 66e0 633c c219 cf3d fbb1 05bd
000001b0: 5650 ef3c 9797 c6bd abb1 593d 5695 22bd
000001c0: 9b0e 533d 2da5 8f3d c996 8a3d 6b30 b63d
000001d0: bac1 b83d 1b97 d13c e9b1 ecbb 0350 1c3d
000001e0: c43d e93c 7c3e 513d 74e2 fcbc 5224 10bb
000001f0: 8926 ca3d 8afe a5bd 0fc8 93bd 154d 973a

bin_context_vector f4 [64, 1]
0.068732336 -0.09631728 0.005006804 0.034920137 -0.08190303 -0.037632305 0.06616819 -0.017172724
0.0164044 0.011167979 -0.06917743 -0.008119104 0.05690373 0.027391376 0.068567716 -0.014800007
0.0073885904 0.07086632 -0.06394456 0.03999041 -0.07113115 -0.021390967 0.07576192 -0.10768822
-0.03496691 -0.10190274 0.055237006 -0.012219314 -0.049762048 -0.0019153197 -0.012773885 -0.067097366
-0.06419075 0.08539573 0.08789321 -0.094614916 -0.07337256 -0.068120405 -0.021231515 0.07873995
0.07885028 -0.063136935 0.10228944 0.0068053156 -0.005032153 -0.0748355 -0.022666637 0.094257765
-0.06549702 -0.015238977 -0.09611111 0.09407907 0.036290538 0.015850108 -0.023586605 -0.041901086
-0.036822293 0.01657799 -0.026863324 0.075172216 0.09358937 -0.04158923 -0.075866856 -0.004580584
00000000: 8ac3 8c3d fe41 c5bd 1e10 a43b 6b08 0f3d
00000010: c7bc a7bd 5524 1abd 3083 873d d0ad 8cbc
00000020: 8562 863c e6f9 363c e5ac 8dbd fe05 05bc
00000030: e313 693d e163 e03c 3b6d 8c3d bb7b 72bc
00000040: fd1b f23b 5c22 913d 5ef5 82bd fccc 233d
00000050: 35ad 91bd 1c3c afbc 1129 9b3d a48b dcbd
00000060: 7639 0fbd 62b2 d0bd 3340 623d 8533 48bc
00000070: 4ad3 4bbd 770b fbba 8f49 51bc 586a 89bd
00000080: 7176 83bd f5e3 ae3d 5b01 b43d 77c5 c1bd
00000090: 5a44 96bd b682 8bbd b7ed adbc 6942 a13d
000000a0: 417c a13d f04d 81bd 207d d13d 20ff de3b
000000b0: c2e4 a4bb 5b43 99bd 62af b9bc 370a c13d
000000c0: 4d23 86bd e7ac 79bc e7d5 c4bd 87ac c03d
000000d0: 63a5 143d 16d8 813c b238 c1bc 79a0 2bbd
000000e0: f9d2 16bd 91ce 873c 7910 dcbc e4f3 993d
000000f0: c9ab bf3d 7859 2abd 1560 9bbd b918 96bb

weight_ih_l0 f4 [128, 1]
-0.06719123 -0.07429924 0.04952637 -0.087974094 0.05243623 0.0715851 0.029720826 0.042115163
0.031518564 -0.0739442 0.04925947 -0.06232396 0.037674516 0.07362167 0.025237357 0.0077914996
-0.06284018 -0.09149832 -0.04668832 -0.094787195 -0.02745558 0.012827353 -0.07548916 -0.072795935
0.030577747 0.017168287 0.044321354 0.054006226 -0.098274864 0.06734968 0.02836498 -0.085852996
0.0804867 -0.049675003 -0.03583373 -0.06373436 -0.08540938 0.052917026 0.06709261 -0.09514486
0.07671569 0.08504237 0.028880797 -0.06316248 0.04031782 0.045513604 -0.046016272 -0.085531384
0.059526894 0.06793976 -0.051536202 -0.013039355 0.0060961316 -0.07668856 -0.06943061 -0.053769477
-0.07506272 0.07371236 0.057696637 0.03541665 0.04667389 -0.03238235 0.027211197 -0.002845262
0.072642356 0.07476023 -0.04005204 -0.036359437 -0.07519528 0.09148056 -0.075045645 0.06680381
-0.07166897 0.037101552 -0.013581689 0.01912275 -0.008020084 0.06107699 -0.048562046 0.009742552
0.009766656 -0.028170193 0.079714045 0.006408323 -0.012649616 0.077019736 0.007306354 0.008796373
-0.023911556 0.06166061 -0.035269506 0.037480783 0.097327396 -0.015988573 0.09277009 0.050336406
-0.06617822 -0.07110913 0.09766491 0.012161856 0.08099705 0.005574386 -0.086492196 0.00222579
-0.074708976 0.08518446 0.04322426 0.021772845 -0.03796191 0.05408467 -0.070651166 0.07735315
-0.07389591 0.012058268 -0.048142206 -0.04661004 0.016147904 -0.0020692244 -0.0045653842 0.015326313
-0.06805145 0.08377787 -0.031159965 -0.051787794 0.07677774 -0.053531356 0.061703876 -0.032665588
00000000: 8e9b 89bd 332a 98bd 2adc 4a3d c32b b4bd
00000010: 5fc7 563d 359b 923d 1779 f33c f380 2c3d
00000020: 9c19 013d 0f70 97bd 4cc4 493d 6947 7fbd
00000030: 9850 1a3d f5c6 963d 93be ce3c d64f ff3b
00000040: 5ab2 80bd 7963 bbbd 403c 3fbd ca1f c2bd
00000050: 86ea e0bc d129 523c 109a 9abd 0916 95bd
00000060: 2f7e fa3c 82a4 8c3c 4f8a 353d a235 5d3d
00000070: 5544 c9bd a1ee 893d ad5d e83c b2d3 afbd
00000080: 36d6 a43d 0478 4bbd 64c6 12bd 2987 82bd
00000090: 1deb aebd 86bf 583d da67 893d 4fdb c2bd
000000a0: 1e1d 9d3d b22a ae3d 6c97 ec3c 555b 81bd
000000b0: 4c24 253d 796c 3a3d 8f7b 3cbd 142b afbd
000000c0: 79d2 733d 0024 8b3d a017 53bd 05a3 55bc
000000d0: 0fc2 c73b e40e 9dbd a331 8ebd 623d 5cbd
000000e0: 7cba 99bd 81f6 963d 4f53 6c3d 0d11 113d
000000f0: 1f2d 3f3d 5ba3 04bd 04ea de3c 9377 3abb
00000100: 84c5 943d e41b 993d 9c0d 24bd a2ed 14bd
00000110: fcff 99bd 295a bb3d 88b1 99bd 70d0 883d
00000120: 2ec7 92bd ccf7 173d bc85 5ebc 50a7 9c3c
00000130: ac66 03bc de2b 7a3d ffe8 46bd 3a9f 1f3c
00000140: 5304 203c 2dc5 e6bc 1e41 a33d e9fc d13b
00000150: 5640 4fbc 86bc 9d3d 246a ef3b aa1e 103c
00000160: 2be2 c3bc d68f 7c3d c276 10bd 7385 193d
00000170: 9653 c73d 78fa 82bc 3ffe bd3d 8c2d 4e3d
00000180: 7288 87bd aaa1 91bd 8a04 c83d 8542 473c
00000190: c8e1 a53d 57a9 b63b d222 b1bd 8fde 113b
000001a0: 0501 99bd 3175 ae3d ec0b 313d f75c b23c
000001b0: f37d 1bbd e387 5d3d 8fb1 90bd 546b 9e3d
000001c0: bd56 97bd 0b90 453c c330 45bd 2bea 3ebd
000001d0: 9c48 843c d39b 07bb 3899 95bb 371b 7b3c
000001e0: 8f5e 8bbd bb93 ab3d 2f43 ffbc 701f 54bd
000001f0: a63d 9d3d b243 5bbd 34bd 7c3d 5acc 05bd

weight_hh_l0 f4 [128, 32]
-0.041774645 -0.014368598 0.049401004 -0.008963484 0.013761658 -0.0756513 -0.09058046 -0.0057773376
0.07570423 -0.07700455 -0.017608177 -0.0077977967 -0.013006122 0.09164645 -0.062487166 -0.073008575
0.02999273 -0.02004945 -0.015715992 0.025820168 0.018767742 0.00666775 -0.039020345 0.036367483
-0.072189294 -0.056627482 0.038774896 0.018427469 0.0021367047 0.050562676 -0.048490334 -0.065987825
-0.002742421 0.016610827 -0.09153918 0.06379212 0.0498353 0.07712278 -0.039878707 -0.08057122
0.046523176 -0.086384326 -0.07390783 0.052657396 0.08830764 0.07047832 0.08383495 0.09168846
0.05974775 -0.01428792 -0.09086763 -0.056233216 -0.0062742266 -0.06558254 -0.04881544 -0.078735575
-0.08050698 -0.07237558 0.07577702 -0.013893233 -0.08178136 0.09843979 -0.10575836 -0.042592306
-0.0017631315 -0.061735537 0.09276773 -0.021181246 -0.08435797 -0.085887216 -0.05164603 -0.020577833
0.09203057 -0.05911786 -0.09895587 -0.07682163 -0.033761803 -0.058488242 -0.028915267 -0.043933872
-0.012380268 0.07934364 0.005485719 -0.09430276 -0.08497611 0.040677927 0.006822732 0.080104336
0.044733435 -0.018079532 0.016704123 0.030808408 0.08012617 -0.02662043 -0.05412323 -0.018392166
0.039695263 0.022578113 -0.07336853 0.00497248 0.09093124 -0.078619026 -0.085222885 0.015588485
0.017666917 0.0106599135 -0.021319585 -0.01574247 -0.053003307 -0.07935967 -0.08600969 -0.035162542
-0.07976598 0.07142301 -0.07079844 0.002468199 0.09494958 -0.063042425 -0.058898367 -0.09722862
0.07404559 -0.055484053 0.058289602 -0.08855043 -0.10356074 0.07675995 -0.055252977 0.0939747
0.048519228 0.061278727 0.066603355 0.061047435 0.026263546 -0.08601423 0.06766653 0.05524939
-0.07032172 -0.041679505 -0.020450508 0.033502087 0.08223329 -0.014903896 -0.068478756 0.08340013
0.039507672 0.09434325 0.09145132 -0.08627032 0.04339652 -0.078140736 0.081823654 -0.0062478874
0.0075283735 -0.063018546 -0.03478278 0.051994603 -0.029764349 0.018405095 0.026178548 -0.09993779
-0.07101047 -0.08508751 -0.06796933 0.0777133 0.056391742 0.05108606 -0.087045625 -0.05199216
0.08512433 0.027612308 0.01983238 0.0029821082 0.040638994 -0.04006873 -0.012348553 -0.019930538
0.06146187 0.056043375 0.03185503 -0.0723832 -0.022540232 -0.049369007 0.024774523 -0.029335462
-0.057114042 -0.03275082 0.0901126 -0.058267277 0.047512215 0.0032896334 0.10258715 -0.07672824
-0.07911381 0.07630801 -0.03995204 0.016566982 -0.022014575 -0.0029032878 -0.054884695 -0.03032909
-0.033332136 -0.058660127 -0.07353272 -0.08327394 -0.021350019 0.034631588 -0.086687505 0.05856143
0.09537649 -0.08610953 -0.018904617 -0.08089451 0.009907453 0.10286166 -0.0048647453 0.048717912
0.08941898 0.034282036 -0.105710015 0.05628291 -0.02826379 0.040191066 -0.055023093 0.018147655
-0.0034883225 -0.06925258 0.040766183 0.05924659 0.061737787 -0.082878105 -0.052953962 -0.056395076
0.09993184 0.026066452 0.002626854 -0.044978287 -0.01565026 0.04669183 -0.088376135 -0.0054198336
-0.059028264 0.05746186 0.059115477 0.056050394 0.03002786 -0.10859682 -0.08755431 0.07312995
-0.021967793 0.0284253 -0.071368374 -0.08765067 0.013641553 -0.037317332 0.0045772055 0.065540105
00000000: e41b 2bbd 456a 6bbc b558 4a3d 94db 12bc
00000010: 9478 613c 12ef 9abd 4082 b9bd d24f bdbb
00000020: d20a 9b3d 90b4 9dbd 063f 90bc a984 ffbb
00000030: a117 55bc 22b1 bb3d 8bf2 7fbd 8585 95bd
00000040: 50b3 f53c bf3e a4bc d3be 80bc d184 d33c
00000050: cfbe 993c 247d da3b ccd3 1fbd 12f6 143d
00000060: fbd7 93bd 38f2 67bd 6dd2 1e3d 34f5 963c
00000070: f507 0c3b cf1a 4f3d cd9d 46bd a024 87bd
00000080: 31ba 33bb 6e13 883c e578 bbbd 71a5 823d
00000090: 1920 4c3d 8cf2 9d3d db57 23bd 8602 a5bd
000000a0: 168f 3e3d 44ea b0bd fd5c 97bd 48af 573d
000000b0: a3da b43d f056 903d a9b1 ab3d 29c7 bb3d
000000c0: 0fba 743d e117 6abc cf18 babd cd54 66bd
000000d0: 0798 cdbb 2450 86bd b3f2 47bd 1e40 a1bd
000000e0: d8e0 a4bd a639 94bd fb30 9b3d 71a0 63bc
000000f0: fc7c a7bd cd9a c93d d797 d8bd 4575 2ebd
00000100: e018 e7ba 67de 7cbd 02fd bd3d 4b84 adbc
00000110: dfc3 acbd a3e5 afbd ca8a 53bd d892 a8bc
00000120: 867a bc3d 9225 72bd 60a9 cabd a954 9dbd
00000130: d149 0abd 5e91 6fbd b6df ecbc 01f4 33bd
00000140: 9cd6 4abc eb7e a23d 8cc1 b33b ce21 c1bd
00000150: f407 aebd e69d 263d 3991 df3b be0d a43d
00000160: 683a 373d 871b 94bc 16d7 883c ea61 fc3c
00000170: 3019 a43d 1713 dabc 52b0 5dbd 2bab 96bc
00000180: 8097 223d bcf5 b83c 3d42 96bd 2ff0 a23b
00000190: 283a ba3d 0303 a1bd 5689 aebd d866 7f3c
000001a0: 36ba 903c eba6 2e3c 69a6 aebc 5af6 80bc
000001b0: ff19 59bd 5387 a2bd d925 b0bd 9906 10bd
000001c0: 595c a3bd 3a46 923d c6fe 90bd 82c1 213b
000001d0: ed74 c23d 631c 81bd 6a3f 71bd cc1f c7bd
000001e0: 37a5 973d 3f43 63bd 14c1 6e3d ee59 b5bd
000001f0: a717 d4bd 5234 9d3d f250 62bd cf75 c03d
00000200: 19bc 463d 67ff 7a3d 5767 883d e00c 7a3d
00000210: a626 d73c 3b28 b0bd c094 8a3d 2f4d 623d
00000220: d504 90bd 21b8 2abd d387 a7bc 7c39 093d
00000230: ed69 a83d 782f 74bc 973e 8cbd b0cd aa3d
00000240: ccd2 213d 0937 c13d d44a bb3d 7eae b0bd
00000250: 8dc0 313d 4008 a0bd 2993 a73d 14bb ccbb
00000260: 93b0 f63b de0f 81bd 6378 0ebd 4bf8 543d
00000270: 5dd4 f3bc 48c6 963c 6574 d63c 2fac ccbd
00000280: f06d 91bd 5c42 aebd 8133 8bbd 2728 9f3d
00000290: 07fb 663d 9e3f 513d fa44 b2bd bbf5 54bd
000002a0: aa55 ae3d 3533 e23c 8477 a23c 796f 433b
000002b0: 1375 263d 1c1f 24bd 9651 4abc 5e45 a3bc
000002c0: 71bf 7b3d bd8d 653d 6c7a 023d a53d 94bd
000002d0: 4ba6 b8bc 2837 4abd f1f3 ca3c ec50 f0bc
000002e0: 6af0 69bd b925 06bd f48c b83d aba9 6ebd
000002f0: 2b9c 423d e496 573b 3619 d23d b223 9dbd
00000300: 6c06 a2bd 6047 9c3d c0a4 23bd 7bb7 873c
00000310: e957 b4bc 1645 3ebb c6ce 60bd b674 f8bc
00000320: 4787 08bd 9a45 70bd 5398 96bd 878b aabd
00000330: 3ce6 aebc dad9 0d3d 3889 b1bd 1cde 6f3d
00000340: c054 c33d 315a b0bd dbdd 9abc 05ac a5bd
00000350: df52 223c 22a9 d23d 7168 9fbb 6f8c 473d
00000360: 4c21 b73d 526b 0c3d 7e7e d8bd e988 663d
00000370: 7789 e7bc 639f 243d e55f 61bd 64aa 943c
00000380: 579c 64bb 4cd4 8dbd 71fa 263d 8dac 723d
00000390: c3e0 7c3d ffbb a9bd 41e6 58bd 86fe 66bd
000003a0: 11a9 cc3d 5089 d53c 4c27 2c3b 273b 38bd
000003b0: f934 80bc ef3f 3f3d 8cfe b4bd dc98 b1bb
000003c0: 9fc7 71bd 215d 6b3d 1223 723d 1995 653d
000003d0: fdfc f53c 0268 debd ad4f b3bd 28c5 953d
000003e0: cdf5 b3bc 2ddc e83c 9529 92bd 3282 b3bd
000003f0: d280 5f3c 0fda 18bd 62fc 953b e439 863d

bias_ih_l0 f4 [128]
0.02106983 -0.05435587 0.040928274 -0.09655864 -0.04858254 -0.08283934 0.028457679 -0.094543576
-0.086904876 -0.056392763 0.075752094 0.08655568 -0.06542728 0.062325023 0.030168021 0.05135078
-0.046068657 -0.08218614 0.0406003 -0.08297789 -0.08707772 -0.08401246 -0.028451232 -0.08691911
-0.022363445 0.062960215 -0.006048673 0.09675455 0.04217473 0.019099697 -0.065514326 0.044154115
-0.044821963 0.027289243 -0.07162813 -0.042916525 0.029255027 0.030035734 0.018553803 0.03083289
-0.0029982638 -0.09389375 0.019142719 0.059410654 0.0840404 -0.022434406 0.1066142 0.039158884
-0.013053586 0.03133818 -0.0611961 -0.036996193 0.064393535 0.08567367 -0.038528085 -0.02875261
-0.040209536 0.015476153 0.0016546824 -0.032300413 -0.018258855 -0.040953804 0.05285091 0.079786286
-0.08623195 0.03462712 -0.014491076 -0.05684166 0.038317464 0.06944412 0.056652352 0.08969843
0.045814548 0.09002742 -0.08731872 0.08387694 -0.0073688617 -0.057748474 0.014639617 -0.05951227
0.052776355 0.07014448 0.06899018 -0.08216175 0.044105273 -0.018588504 0.09975176 0.066457905
-0.10523049 0.067855336 -0.03777199 0.09370893 0.029787797 -0.067580014 0.023807613 0.07501563
0.05101443 0.001678947 -0.060360722 -0.07890951 -0.021966288 0.082134746 -0.05904823 -0.0036794674
-0.0021474778 0.03770355 -0.06022711 0.039777435 0.08608248 0.10679848 -0.015888415 -0.072641805
-0.045198772 -0.020787805 0.010637613 0.040873036 -0.076795645 -0.042769834 -0.041316714 0.0031692062
0.011201185 -0.036582287 0.04528155 0.09563948 -0.007177534 -0.01353835 0.0029462292 0.030610625
00000000: a39a ac3c 43a4 5ebd 68a4 273d 89c0 c5bd
00000010: 7cfe 46bd aca7 a9bd 1420 e93c 10a0 c1bd
00000020: 2ffb b1bd 19fc 66bd ea23 9b3d 1b44 b13d
00000030: bdfe 85bd 8648 7f3d ed22 f73c 3255 523d
00000040: 7db2 3cbd 3551 a8bd 804c 263d 50f0 a9bd
00000050: ce55 b2bd ba0e acbd 8f12 e9bc a502 b2bd
00000060: 8b33 b7bc 49f1 803d f233 c6bb 4027 c63d
00000070: 69bf 2c3d f876 9c3c 602c 86bd f2da 343d
00000080: 3c97 37bd b18d df3c c5b1 92bd 3dc9 2fbd
00000090: 3da8 ef3c 800d f63c 25fe 973c 4295 fc3c
000000a0: 857e 44bb 5e4b c0bd 31d1 9c3c 9658 733d
000000b0: 601d ac3d 5cc8 b7bc 8c58 da3d 1165 203d
000000c0: b5de 55bc 775c 003d c3a8 7abd 5289 17bd
000000d0: c2e0 833d ad75 af3d a0cf 1dbd 988a ebbc
000000e0: c1b2 24bd b18f 7d3c eee1 d83a 704d 04bd
000000f0: 9893 95bc 2dbf 27bd 327a 583d fe66 a33d
00000100: 609a b0bd 2bd5 0d3d fa6b 6dbc cdd2 68bd
00000110: c6f2 1c3d b838 8e3d 4c0c 683d cfb3 b73d
00000120: 09a8 3b3d 4c60 b83d 28d4 b2bd acc7 ab3d
00000130: 7e76 f1bb aa89 6cbd 01db 6f3c 23c3 73bd
00000140: 052c 583d e9a7 8f3d b94a 8d3d 6b44 a8bd
00000150: bba7 343d eb46 98bc a74a cc3d 151b 883d
00000160: 1583 d7bd bdf7 8a3d cdb6 1abd 78ea bf3d
00000170: 8a05 f43c 6467 8abd 2f08 c33c cba1 993d
00000180: 82f4 503d 1d10 dc3a ce3c 77bd 4f9b a1bd
00000190: a5f2 b3bc 4336 a83d 8fdc 71bd 3823 71bb
000001a0: b3bc 0cbb 0a6f 1a3d b4b0 76bd aaed 223d
000001b0: 034c b03d 29b9 da3d 6c28 82bc 3ac5 94bd
000001c0: 5922 39bd 304b aabc 6249 2e3c 7c6a 273d
000001d0: 0947 9dbd 6c2f 2fbd b73b 29bd 75b2 4f3b
000001e0: 2d85 373c 4fd7 15bd 2679 393d a2de c33d
000001f0: 8531 ebbb f5cf 5dbc 8615 413b 22c3 fa3c

bias_hh_l0 f4 [128]
-0.01952756 0.023239449 -0.026730891 0.08597766 0.0549632 -0.052930582 0.101574965 -0.012581051
-0.04977404 -0.03218964 -0.07025283 0.0792829 -0.06576578 0.10058651 0.095211715 -0.026345517
0.00045073635 0.028718092 -0.043410763 -0.014982775 -0.0219589 -0.008418882 0.09937162 0.0010330091
0.082737155 0.04368678 -0.08301712 -0.08595336 0.07455429 -0.09933139 0.042587467 0.04978734
0.09647435 -0.087784015 0.08494431 0.07939983 0.01043229 0.038409986 -0.08646113 0.022657048
0.094188064 0.03569399 -0.021199005 0.08071969 0.00029526593 0.10414443 -0.05664133 0.09521775
-0.0610427 -0.03890493 0.031060876 -0.0020798924 0.100462034 -0.0985202 -0.012957434 -0.043068647
-0.057763252 0.09435561 -0.060400818 0.06883359 -0.027747992 0.054710317 0.05054974 -0.07460687
-0.053013496 -0.014054539 0.053375 -0.05624894 -0.07190739 0.08872783 0.08442513 -0.058632515
-0.10205894 -0.060842156 -0.041264422 0.035926435 0.015368019 -0.003458136 0.06436909 0.043366626
-0.006867044 -0.03551327 0.017013239 -0.05356174 -0.098926745 0.07473066 -0.012082898 0.023849078
-0.042300656 0.059712484 -0.09002507 0.049242057 0.059403304 -0.08880508 0.08863157 -0.017536234
-0.02691528 0.05312449 0.07851152 0.07974646 0.030276729 -0.015910331 -0.047917895 -0.02279186
-0.07262246 0.079496644 -0.0035865894 -0.010952308 -0.06715343 0.082632795 0.047392555 -0.07582021
-0.027117185 0.057651874 -0.06366082 0.09633305 -0.088439845 -0.091540016 0.022417732 -0.06681985
0.062158294 0.048404843 -0.03640543 -0.06734204 0.09072782 0.037546575 0.01950752 -0.09038891
00000000: 43f8 9fbc a860 be3c befa dabc 0e15 b03d
00000010: 1821 613d bdcd 58bd 8906 d03d c120 4ebc
00000020: dddf 4bbd 49d9 03bd b7e0 8fbd 135f a23d
00000030: 36b0 86bd 4d00 ce3d 5cfe c23d 8ed2 d7bc
00000040: cf50 ec39 3442 eb3c 7ccf 31bd 507a 75bc
00000050: 27e3 b3bc 5aef 09bc 5983 cb3d 0966 873a
00000060: 1972 a93d e9f0 323d e104 aabd 5108 b0bd
00000070: ebaf 983d 416e cbbd 3270 2e3d cfed 4b3d
00000080: 5894 c53d 1bc8 b3bd 48f7 ad3d 619c a23d
00000090: 32ec 2a3c ca53 1d3d 8812 b1bd 469b b93c
000000a0: ace5 c03d dc33 123d 89a9 adbc 5d50 a53d
000000b0: eccd 9a39 ad49 d53d bd00 68bd 8601 c33d
000000c0: e907 7abd c75a 1fbd 6173 fe3c ce4e 08bb
000000d0: 0abf cd3d f5c4 c9bd 6b4b 54bc c068 30bd
000000e0: 2999 6cbd 843d c13d d966 77bd a0f8 8c3d
000000f0: c24f e3bc ed17 603d 3f0d 4f3d 7dcb 98bd
00000100: ae24 59bd 0245 66bc be9f 5a3d 4a65 66bd
00000110: 2f44 93bd f0b6 b53d 15e7 ac3d a628 70bd
00000120: 4704 d1bd a035 79bd e204 29bd 9927 133d
00000130: 25ca 7b3c e5a1 62bb f1d3 833d 34a1 313d
00000140: f104 e1bb 5d76 11bd 595f 8b3c 8e63 5bbd
00000150: 1b9a cabd 630c 993d 59f7 45bc 245f c33c
00000160: 7443 2dbd 1495 743d 105f b8bd 0ab2 493d
00000170: e150 733d 70df b5bd 7884 b53d 26a8 8fbc
00000180: 6f7d dcbc 1199 593d a6ca a03d 1d52 a33d
00000190: e706 f83c 6256 82bc 8e45 44bd ffb5 babc
000001a0: 16bb 94bd 23cf a23d fc0c 6bbb 4f71 33bc
000001b0: bd87 89bd 623b a93d b21e 423d a047 9bbd
000001c0: dc24 debc 5f24 6c3d 9b60 82bd 434a c53d
000001d0: f31f b5bd 5579 bbbd 64a5 b73c d8d8 88bd
000001e0: b299 7e3d 2844 463d dc1d 15bd a0ea 89bd
000001f0: 82cf b93d 70ca 193d 3cce 9f3c d21d b9bd
